Lofty2024/results/MoveToPlayer2/MoveToPoint/MoveToPoint-353749.onnx (onnx, 82283 bytes, 6 tensors)

network_body._body_endoder.seq_layers.0.weight f4 [128, 12]
00000000: d654 96be d3e0 03be d154 0fbe bac4 153e
00000010: 85b8 ddbd 48b5 0c3c ab29 263e e2bf 073f
00000020: 2a8d 11bf b851 1bbe 4de9 333e cef5 cb3d
00000030: d81c 583f e232 953e e29a 86be c2bf 1b3e
00000040: 2e00 3abf 6b03 6dbe 13b6 b23d 1291 2a3e
00000050: 7fe8 87be 75b0 a33e ba58 093e 6da7 aebd
00000060: 20b2 f63d d092 ddbe 43a3 00be 055d 963d
00000070: 3d71 213f 8107 64bd eb91 23be 82d6 b3be
00000080: 899f b8ba 6854 933e ff80 c9be 2a91 953e
00000090: f423 0dbb 2061 e5bd 6cd8 62be 09b6 85bd
000000a0: 8795 d73d 1822 303e b7b9 e0bc 42cd 85ba
000000b0: 2ca3 92bb 51b6 0f3f 8acd 663e e910 803e
000000c0: 69ea a33e e379 aa3e b89d a23e 9020 1dbf
000000d0: c98a f83c 7f1e 97be b548 33be db01 e13d
000000e0: f3bb 6cbd af4f 863e 7b0f c4bd 34c5 963d
000000f0: 3768 80be b810 52bd ed4a a4be f73d a13e
00000100: f059 2a3f 744f 123e 9f80 b8be 0085 c9be
00000110: 1258 c3be 724e e1be aa1c dcbc 500e 183e
00000120: bc49 fcbc 49d3 fabc 8c03 f1be e559 5ebe
00000130: b79a a13d 790e da3e cf75 023e f7ac a3be
00000140: 0ef0 cb3d 314b 053e 1917 5abe 305f 99bd
00000150: 8c93 d73e 87e7 d83e 8754 8ebe eafb dfbe
00000160: 722e fbbd 59b7 57be 827b cabe 4a4a b9bc
00000170: bc4e 4cbe ed66 a5bd b937 b03e c16e debe
00000180: 6234 83bd 37c0 40be 756e 47be 13fd b23d
00000190: b54c eebd 341d d33d f302 54bd 834f afbd
000001a0: acb0 d73d 3fa8 743e 8a97 febe cbd6 0a3e
000001b0: 0cf1 443e 9ceb 6dbe e31f 5ebe ca29 103e
000001c0: 5aba 0dbf 85ba 9bbd 509e 873e 252f a1be
000001d0: 8254 af3e 00e2 0b3f 2b21 9c3e c9fd 84bd
000001e0: b4b7 d2be ef99 f4bd 9c70 31be ee4a 093f
000001f0: 7702 153d 4aa2 053e 3610 f63d b9cb a4be
00000200: b132 f13d 2c56 44bd 36d4 103e cc4d fcbc
00000210: b6da cc3e eb8f 25be 5e5f 05bd 6842 fb3d
00000220: bfeb dbbd 4d30 48be 1980 17be ea33 a73e
00000230: 8753 503d 3016 1c3f a592 b9bd 8d06 9cbe
00000240: dcfd 553e a495 dabc e151 15be e7b0 b13b
00000250: 13fb 3dbe e2a4 40be 3107 74be ac6f ce3b
00000260: 05fd ecbe f515 fe3e a1bd 8ebe cd5a b7be
00000270: 87c5 c13e 740d 04be 1711 dbbe b611 1ebc
00000280: b083 5c3e a316 55be 96c8 f63e 8f8d a63e
00000290: 0c1f e33e c670 183c 0a24 febe cb2c 43be
000002a0: 0cf9 913d eb08 0a3f c806 213d 63fc dfbd
000002b0: cb44 373f 1572 6abd 671f c8be 67cd a73d
000002c0: 7091 b63e 41ad e33e cb84 2b3e f4a7 d3be
000002d0: b65f 18be 50c1 1f3d 46d7 80be cb89 b5be
000002e0: c1e4 c93d bf5b 833e 35ac 253e b7f3 083e
000002f0: 6cd5 353e 406d 273f 027e 15bd e388 f8bd
00000300: db8c 0c3f a9cf b13e f9ca 91bd 188b 6f3c
00000310: 6e2f 203e fe52 26bd 5407 16bf 2550 7f3e
00000320: 56d8 21be b329 5b3d 10b9 733d 910b e53d
00000330: e8a7 1bbe 1d1b 76be d922 87be 76ee 71be
00000340: 4845 483e 806e cc3e 0846 893e b248 5e3e
00000350: 978b cb3e f8e5 9ebe 0f17 bdbd 7830 e1be
00000360: 2273 edbe d5e1 f4bd 8c8b 2ebe 640a 93bd
00000370: 6998 e03e b88e 773d 1f8f 6abe b435 193d
00000380: b5f5 9fbe 934e 1ebd 8f58 963e d191 d5bb
00000390: 2691 043e c906 033f 669a 06be 391f 943e
000003a0: 9b92 153f 4c24 063d 88b0 a1b9 0dfb 5f3d
000003b0: 6714 983d b5f1 c33e 6305 ccbd 9e8e c73d
000003c0: 86b2 4abe 97b0 e3be 5c28 713c 62d3 053f
000003d0: b41f 623e f77e 9f3d 45c1 d63e 2932 11bf
000003e0: 7bf0 3b3d 41ef f13d 382a 62bd 27f3 06be
000003f0: 9d9d 6bbe e308 d8be 7a29 cd3c c19c 303d
-0.293616 -0.12878732 -0.13997199 0.14625826 -0.1082621 0.008588143 0.16226833 0.53027165
-0.56856024 -0.15167892 0.17569466 0.09958993 0.8441901 0.29140383 -0.2629004 0.15209869
-0.72656524 -0.23145835 0.08726134 0.16656902 -0.26544568 0.31970564 0.13412753 -0.08528028
0.120456934 -0.43276072 -0.1256228 0.07341961 0.6306341 -0.05567122 -0.15973632 -0.35124594
-0.0014085631 0.28775334 -0.3935623 0.29212314 -0.0021536322 -0.11200166 -0.22152871 -0.06528861
0.10526567 0.17200506 -0.027432306 -0.0010208266 -0.004475018 0.5613757 0.22539344 0.250129
0.32014778 0.33296117 0.31760955 -0.6137781 0.030339615 -0.29515454 -0.17508204 0.10986682
-0.05779643 0.2623267 -0.09573265 0.07361832 -0.2507951 -0.051285475 -0.32088414 0.31492588
0.66543484 0.14288121 -0.3603563 -0.39359283 -0.3815313 -0.44005162 -0.026869137 0.1484921
-0.030796878 -0.030618327 -0.4707302 -0.2171398 0.07890838 0.42589167 0.12740253 -0.319679
0.09957896 0.13016964 -0.21297874 -0.07488859 0.42104757 0.4236414 -0.27798864 -0.43746883
-0.12264718 -0.21066035 -0.39547354 -0.022618432 -0.1995191 -0.08076272 0.34417513 -0.43443874
-0.064064756 -0.18823324 -0.1947573 0.08739676 -0.116357245 0.103083044 -0.051760625 -0.085600875
0.10531744 0.23892306 -0.4972499 0.135585 0.19232577 -0.23234409 -0.21691851 0.14078441
-0.55362475 -0.07603935 0.2648797 -0.3148128 0.34244162 0.54641724 0.30494055 -0.06493718
-0.4115578 -0.11943423 -0.17328113 0.5362996 0.036379304 0.1305019 0.12014811 -0.32186678
0.11777247 -0.047933742 0.14143452 -0.030798815 0.40010613 -0.16168182 -0.032561652 0.12268525
-0.107383244 -0.19549675 -0.14794959 0.32656795 0.050860908 0.60971355 -0.09061173 -0.30473748
0.20897621 -0.026682682 -0.14582016 0.0054226997 -0.18552808 -0.18812898 -0.23830868 0.0062999334
-0.4628679 0.49626127 -0.2787905 -0.35811463 0.37846014 -0.12895757 -0.42786476 -0.009647777
0.2153461 -0.20809416 0.4819991 0.32529876 0.44359624 0.009304231 -0.4963687 -0.19060056
0.0712758 0.5391986 0.039313108 -0.10936811 0.71589345 -0.057237703 -0.39086458 0.08193474
0.35657835 0.4446812 0.16749875 -0.41339076 -0.14880261 0.039002717 -0.2516424 -0.3545669
0.098580845 0.25655934 0.16178973 0.1337422 0.17757195 0.6540108 -0.036497124 -0.12135484
0.5490243 0.34728745 -0.07118792 0.014620565 0.15643093 -0.04060649 -0.5860493 0.24932916
-0.15805182 0.053506564 0.05950266 0.11183847 -0.1520077 -0.2403378 -0.26393774 -0.23626122
0.19557679 0.39928055 0.26811242 0.21707419 0.39754936 -0.31034827 -0.09232914 -0.4398229
-0.46376902 -0.119571365 -0.1704542 -0.07179716 0.4386628 0.06043884 -0.22906159 0.03740473
-0.31242147 -0.038649153 0.2936444 -0.006517627 0.12945995 0.5118223 -0.13144836 0.2893007
0.5842683 0.03274946 -0.0003083984 0.05468278 0.074257664 0.38270345 -0.09961965 0.09743999
-0.19794664 -0.44470665 0.014719095 0.5227567 0.22082406 0.077878885 0.41944328 -0.56717163
0.045883637 0.11813212 -0.055216044 -0.13178693 -0.23009343 -0.4219428 0.025044192 0.043118242

network_body._body_endoder.seq_layers.0.bias f4 [128]
00000000: 4a50 1d3d 0d8c 00bd a395 53bd 002e 42bd
00000010: 1df9 1e3d 5241 233d 8b6c bf3b 4975 253d
00000020: 5f7b c03c 4400 dabb 8b9b 0b3c a838 1d3b
00000030: c82c 623d c02b 8e3c e939 b73c 3f89 4dbd
00000040: 4caf 7eba 8c0a 3b3d 2af2 843d 8865 eabc
00000050: 579e b9bb 0d68 f73c e57f 993c 059a 953d
00000060: ba7a 323d e077 613b 1463 393d c463 1f3d
00000070: acea f6bc 852f b3bc 591a 7c3d 0dfe 7d3d
00000080: 6087 f5bb 657f 843d fd6b c2bc 665e 613d
00000090: 9f53 793c 3957 b7bb ecda 543d fe20 513c
000000a0: d859 593d b15a 673b 71b0 37bc df1b c73c
000000b0: 9ede 493d 2996 833c ecd9 243d 57ec 173c
000000c0: b35c 0e3c 0785 893c 7301 8d3a eb64 063d
000000d0: b82f e0bb 195f 9d3b 692d 873d b965 423c
000000e0: ab7b 5a3d ddd2 a03d 1c09 0c3c 8088 353c
000000f0: 3c99 c93c 1c8c 3e3d 8c26 323c b3c0 4e3d
00000100: 398e d6bb b330 31bd 5b3b 6a3d 021b 873d
00000110: 1e85 863c bf76 643d a3e2 b3bc 21d3 903d
00000120: c527 243c 30a9 613d d04d 11bd 6836 233c
00000130: 8e65 d93c 9c88 2c3c f68d 0b3d 89c1 31bc
00000140: 0b31 6b3d 02b5 b03d e5d9 35bc 0448 693d
00000150: 17d3 813d 3f49 66bb bfc9 2e3c acfa 4abd
00000160: 4d6a f0bc b264 e5bc 225d 963d 06b5 abbc
00000170: 81eb 473d 8cb9 14bd 6c03 20bd 8bb5 043d
00000180: 8554 173d 1806 323c 5bb6 d23d 1dbf 243d
00000190: ebed 2c3d 1af9 29bd 5f63 853d 0fb2 3ebc
000001a0: ce2d 30bd 3eb3 863d 3768 33bc 5426 08bc
000001b0: 5e0b 4e3d 6442 603d 0d0d d83b 33dc 633d
000001c0: a129 803d e630 07bd 7b50 a93d f71b b73c
000001d0: 80ac 2a3d c1c3 963d d176 9b3d 2bc7 48bb
000001e0: 30be 3b3c 2627 3e3d 12bd 2a3d 4274 2e3d
000001f0: 063c e93c a84c 2ebd 7bdd 093d 3ca9 d63c
0.038406648 -0.031383563 -0.051656377 -0.04740715 0.03881179 0.039857216 0.0058417968 0.040395055
0.023496328 -0.0066528637 0.008520971 0.0023990069 0.055218488 0.017354846 0.02236648 -0.050179716
-0.00097154523 0.045664355 0.06491502 -0.028612867 -0.0056646275 0.030200982 0.018737743 0.073047675
0.043574072 0.0034403726 0.045260504 0.038913503 -0.030141197 -0.021873245 0.061548565 0.06200986
-0.0074929446 0.06469611 -0.023733133 0.055021666 0.015217691 -0.0055951145 0.051966593 0.012764214
0.053064197 0.003530186 -0.0112115005 0.024305282 0.04928457 0.016062813 0.04024689 0.009272656
0.008689093 0.016787065 0.0010757878 0.032811087 -0.006841626 0.0048025963 0.06600458 0.011865073
0.053340595 0.07852719 0.008547094 0.011079907 0.0246092 0.046520337 0.010873448 0.05047674
-0.006547716 -0.043259334 0.057185512 0.06596948 0.016420897 0.055777308 -0.021958655 0.0707152
0.010019247 0.05509299 -0.0354746 0.009961702 0.026537683 0.010530617 0.03407093 -0.010849365
0.057419818 0.086282745 -0.011099313 0.056953445 0.0633909 -0.0035138873 0.010668217 -0.049555466
-0.029347563 -0.028002117 0.073419824 -0.020960342 0.04880858 -0.036309764 -0.039065763 0.032399695
0.03694584 0.010865711 0.10288688 0.040221322 0.042219084 -0.041497327 0.06513094 -0.011639132
-0.043012433 0.065771565 -0.01095014 -0.008309919 0.05030381 0.054750815 0.0065933526 0.05562992
0.0625794 -0.033005618 0.082673036 0.022352202 0.041668415 0.07361556 0.07591022 -0.0030636291
0.011458918 0.046424054 0.041684218 0.04259134 0.028471004 -0.042553574 0.033658486 0.026203744

network_body._body_endoder.seq_layers.2.weight f4 [128, 128]
00000000: 3ffb 97bd cb9d eebc de07 27bd 8b1d 42bc
00000010: 0794 e83c 23d7 a2bc 1010 e3bd ca6d 393d
00000020: c4d6 e9bd 180c a9bc 8176 813d eaf5 16be
00000030: 3590 66bd a308 fdbd 8eaf 2fbe 65cb c03d
00000040: 9554 09bd 707e bcbd 5fdd 943d 4d13 0a3c
00000050: 716f 0a3e 8991 1cbe 49cb 01be c0c9 fabc
00000060: e1fe a73d 9678 0bbe e5a3 ba3c c17a 9cbd
00000070: 2623 29be fce4 c0bd 3892 ae3d cb72 72bc
00000080: 7f98 14be 4ea7 97be 926c c63c 9e09 56be
00000090: 14c6 66bd cf8a 203b cf68 4a3d 844b 40be
000000a0: 42eb 4abd 6d6b 80bd 1dd1 24be 1c47 c1bd
000000b0: 19fc 24bd 124b 06bd 7bef eb3c a7df 87bd
000000c0: bca5 a03c be76 15be 6827 fd3d 01b7 a2bc
000000d0: 3a29 63be 226b 063c fb7a 003b 79dc 8cbe
000000e0: e866 b1bc ea16 36be 1d1e e43b 3494 a6bd
000000f0: 04be d2bd dd90 c63b 514e 743d 865a 0bbd
00000100: a5b7 9e3c de38 e5bd 779b 563e 4f09 0dbe
00000110: 256f 06bd 1daf 213d c75a 7d3c 35c3 d0bc
00000120: 52db a53c 81a7 d43c 8996 a7bd 4d93 c4bd
00000130: 4549 a03d d3a5 0bbc 58e0 063c 95a1 34bd
00000140: 746e 6dbd 56b6 393c 3bdb 81bc 49bc 663c
00000150: fa00 6c3d f47c b0bd d30f 0a3e 5a40 07be
00000160: 4889 563d f97e 853c 5099 383e 675b 57be
00000170: 4c42 a5bd 434e c9bd d192 b43c 66e4 16bd
00000180: b682 5ebc a195 0a3e 3423 a43d 1b4c 83bd
00000190: 46dc 063d d636 913d ad9e bc3d b6df 9ebd
000001a0: 5915 3f3d ff5d d63c 6056 3ebc c066 0fbe
000001b0: 755e d5bc f628 e9bd 8c37 0abe 9cf3 f93d
000001c0: c73a f53d 1dbe 983c 8882 853e 83cd f0bd
000001d0: 9ac4 213d de64 943c 1e4a 943e 52c2 c4bd
000001e0: dcee e7bd 61c8 9c3d 21d6 d6bc 3a83 d2bc
000001f0: 54bf 87bd 9846 06ba 1661 453c 5abe ae3c
00000200: adc2 14bc ce41 64bb f440 5dbd 3e98 b4bd
00000210: 71d5 133e 872f 4abd 8b53 04bd 6c9c 7abd
00000220: 01ae e4bd fbff acbd d5b7 c3bd f0a0 e6bd
00000230: bf93 f1bd 8d26 39bd f3ed 0abd 6ed4 96bd
00000240: 583f 5bbe 9248 cf3c be2b 11bd e31b 2ebc
00000250: 85fa a2bd 7d37 b0bd b49d 8cbd c60c e7bd
00000260: eccd d43c 5233 c73b 9ca0 47bd 1787 82be
00000270: d8f7 60bd 1d04 e7bc 0dc0 c4bd d105 57bd
00000280: 7791 56be d1ad a0bd b9ac 2fbc d473 04bc
00000290: da0c 99bd dae1 493d 733e e93c fc1d bdbd
000002a0: 2c18 f5bc e0ba 93bd 7bd0 b5bd 7121 b43b
000002b0: ef10 e8bd 0e7d 54bb 3e4d 41bc dc2d 0fbd
000002c0: 23cc b0bd a999 eebd 7de3 7cbd 9168 d93d
000002d0: 1e10 14bd 4abf 0ebe 0c84 75bd 5c30 b5bd
000002e0: 55f6 853e 78ea 3a3d 8737 4dbd cce2 f9bd
000002f0: 27c5 ebbd a2bb 77bc 0762 123e 601f e4bb
00000300: 43cd 80be 9939 753d a7ba 54bc ff88 18bd
00000310: 824d 8a3c eb09 263e 2f66 14bd d742 2f3e
00000320: 66d3 043d 5b6d 27be d9f3 263b 0e94 77bd
00000330: dbc8 a93c a3d3 e9bd 79b1 843e e49b a9bd
00000340: 1cd8 d33a 3ace 21bd 368f 86bd 71f9 3ebb
00000350: 9cb3 7d3d 0d77 8dbd 46f2 ba3d 4bf3 e0bd
00000360: 5664 433d c553 c53d 5a19 353c e1db 18be
00000370: 45c4 c3bb 14e6 14be 7ae5 aa3d 4ebe 713d
00000380: eb69 123e d956 86bc 489d 02be a017 0abe
00000390: 9de6 89bd eacc 5ebc b020 e13d 99a9 313d
000003a0: e456 7fbd de3b 0a3d f23d 783d 406a 643d
000003b0: 8b71 363d 8e79 803d 48b1 1f3e 13f5 74bd
000003c0: cfb8 a13d d6b7 21bd f94c 103d d614 d4bd
000003d0: f768 15be 7f4f d4bd 2b2e 8abd 6e98 3cbd
000003e0: 8f5e eb3d ab17 83bd 913e 983d 3d71 343c
000003f0: 2615 173d 173e 983d 173c 18bc bdbb ecbc
-0.07420968 -0.029127976 -0.040778987 -0.011847864 0.028390897 -0.019877976 -0.11087048 0.04527072
-0.114179164 -0.02063565 0.06321431 -0.14742246 -0.05628987 -0.12355163 -0.17156813 0.094137944
-0.03352793 -0.092038035 0.07268786 0.008427453 0.13519074 -0.15289892 -0.12675203 -0.03061378
0.08202911 -0.13620219 0.02278323 -0.07640601 -0.16517314 -0.09418675 0.08523983 -0.014797877
-0.14511298 -0.2961983 0.024221692 -0.20902106 -0.056341246 0.00244968 0.04941636 -0.18778807
-0.049540766 -0.0627049 -0.16095395 -0.09437391 -0.04027948 -0.032786436 0.028800717 -0.06634455
0.019610278 -0.14596078 0.12361032 -0.019862654 -0.22183695 0.008204253 0.0019604552 -0.27511957
-0.021655515 -0.17782179 0.0069615976 -0.08133736 -0.10290149 0.0060597495 0.059645 -0.034021877
0.019374678 -0.11192487 0.20957743 -0.13773082 -0.03282084 0.03947364 0.015463538 -0.025483707
0.020246182 0.025958778 -0.08183009 -0.09598408 0.07826475 -0.008523422 0.008232199 -0.04409941
-0.057966664 0.011334976 -0.015851608 0.014082977 0.05761812 -0.08617583 0.13482599 -0.13208142
0.052377015 0.016295897 0.18027234 -0.21030961 -0.08069286 -0.0982938 0.022042664 -0.03683891
-0.013580969 0.13533641 0.08014527 -0.06411 0.032924913 0.07090537 0.092099525 -0.07757513
0.046651218 0.026167868 -0.011617273 -0.1400404 -0.026046017 -0.11384766 -0.13497752 0.12204668
0.119741015 0.01864534 0.2607615 -0.11757948 0.039494134 0.018114503 0.28962797 -0.09607376
-0.11324856 0.07655407 -0.026225151 -0.02569734 -0.0662829 -0.00051222136 0.012047073 0.021331001
-0.009079617 -0.0034829262 -0.054017022 -0.088181004 0.1443689 -0.04936173 -0.032306235 -0.06118433
-0.11166001 -0.08447262 -0.095565476 -0.11261165 -0.117957585 -0.04520278 -0.033918332 -0.073647365
-0.21410882 0.025303159 -0.035442106 -0.010626766 -0.07957939 -0.086043335 -0.06866017 -0.11281733
0.025977097 0.006079116 -0.048737153 -0.2549369 -0.054923862 -0.028200204 -0.09606943 -0.05249578
-0.20953928 -0.07845653 -0.010722333 -0.008084256 -0.07473154 0.049287654 0.02847216 -0.09234235
-0.029918753 -0.07213378 -0.08877655 0.0054971506 -0.11331355 -0.0032423171 -0.011798201 -0.034955844
-0.08632686 -0.11650402 -0.061740387 0.106156476 -0.036148183 -0.13940158 -0.059940383 -0.088471144
0.261645 0.045633763 -0.050101783 -0.12201461 -0.11512213 -0.015120419 0.14295207 -0.006961748
-0.25156602 0.059869383 -0.0129839545 -0.037240025 0.016882662 0.16214721 -0.036230262 0.17115341
0.032428168 -0.1635031 0.0025474934 -0.06044393 0.020725658 -0.114173196 0.2591665 -0.08281687
0.0016162428 -0.039503314 -0.06570284 -0.0029140378 0.061938867 -0.06907473 0.09128241 -0.109839045
0.04770311 0.096351184 0.011053408 -0.14927627 -0.005974325 -0.14540893 0.083445504 0.05901938
0.14298217 -0.016398834 -0.1275531 -0.13485575 -0.06733439 -0.01359866 0.10992563 0.04337463
-0.062338725 0.0337485 0.06060595 0.05576539 0.044541877 0.06273185 0.15594971 -0.059804033
0.078965776 -0.03948196 0.035229657 -0.10355537 -0.14590822 -0.10366725 -0.06747087 -0.046043806
0.11492645 -0.06400999 0.074338086 0.011013326 0.036885403 0.07433718 -0.00929167 -0.028898114

network_body._body_endoder.seq_layers.2.bias f4 [128]
00000000: 63a9 0e3d a10b f93c 8e86 503d 847d 943c
00000010: f947 373d fa3c 0b3b d4b1 153d cd49 8d3d
00000020: 91f7 dc3c 625c 393d 1d42 8b3d bedf 6cbb
00000030: 8b46 993c 408c ef3b c91a 51ba ad12 a33c
00000040: 02e1 3d3b 8da5 753d e6cb 5b3d cf9a 1a3d
00000050: 8e32 3d3d 0631 99bc 7270 be3c 9881 833c
00000060: a3fa 393d 2b34 e83c 365a 9b3c 5781 79bb
00000070: 6867 acbc 1538 753b 7760 8d3a cf84 143d
00000080: 0485 e8bc 084f 3c3d 7ee4 183d 1790 173b
00000090: 7c6d b83b 7450 063d 57c7 e13c 7559 12bc
000000a0: 957d 5c3d b9ce 97bc c8a9 2e3d 1e89 5e3d
000000b0: 1f91 e03c b1cd 2ebc 03b3 acbb 5c15 093d
000000c0: 2e87 d03c c75e a13c e376 0e3d ab91 79bb
000000d0: 4a63 0e3d 8a65 16bb cf04 e13c a770 2e3d
000000e0: a0cf acbc fcda 1abc 9f9b 783d 9777 68bc
000000f0: 6b38 763d 1d74 a43c db01 ffbb 3188 1d3c
00000100: 07b8 0c3c 53c2 233c a1be 143a 81a6 073d
00000110: 8492 183c 07a8 af3b 7d49 863b 08ff e93c
00000120: 2579 003b e2bc ac3c b48f 133d 84c3 2dbc
00000130: a64e 213a cbc4 363d 4a57 a13c faf6 a73c
00000140: e9e9 523d b712 243d dac0 50bc 6d7f c13c
00000150: 854d dc3c ab57 5f3b 888f 6a3c a4b0 0a3d
00000160: ac17 023d 4d1a a4ba bc7d edbb cc33 c7bb
00000170: 41ec cd3c 9c36 d83c 4f9b 163d 818a 753d
00000180: 5ed4 c9ba 26a8 103d 76ee b63c ace5 3dbc
00000190: 27a8 80ba f0f8 303d 7e03 863d 59c9 2d3d
000001a0: 0cd5 d63c e371 c03c c3b0 95bc feb2 36bc
000001b0: 131c 7abb bfd2 843b 3cac 2b3d 642d 43bc
000001c0: 354e 513c 435f 363c fa7f 9b3d 5ae8 a43d
000001d0: 1f12 533d 6534 353d 4328 d83c d2db 373d
000001e0: 4d9d 503d ec19 48bb 881d 0cbc 17af 803d
000001f0: 1e54 2f3c 7227 543c 7fc8 0f3a 7bf6 343d
0.03482951 0.030401053 0.05090957 0.018126257 0.044746373 0.0021246062 0.036546543 0.06898842
0.026973518 0.04525412 0.067997195 -0.0036144103 0.018710395 0.0073104203 -0.00079767086 0.019906366
0.0028973226 0.059972335 0.05366125 0.037745293 0.04619079 -0.018700134 0.023246977 0.016053006
0.04540504 0.028345188 0.018963914 -0.0038071477 -0.021045402 0.003741746 0.0010786195 0.03625947
-0.02838374 0.045973808 0.037327282 0.0023126656 0.005628286 0.03279157 0.027560873 -0.008932461
0.0538307 -0.01853119 0.042642385 0.054329984 0.02741295 -0.010669158 -0.0052703633 0.033467636
0.025455084 0.019698514 0.034781348 -0.003808121 0.03476266 -0.0022948706 0.027468113 0.042587902
-0.021095097 -0.009451624 0.060695287 -0.014188669 0.060112398 0.020074898 -0.0077822036 0.00961499
0.008588797 0.009995061 0.0005674158 0.033117775 0.009312276 0.0053606066 0.004098116 0.028563991
0.0019603458 0.02108616 0.036025718 -0.010605697 0.0006153382 0.04462127 0.019694943 0.02050351
0.051492605 0.04005691 -0.012741292 0.023620332 0.026892433 0.0034079354 0.014316447 0.033859864
0.031760857 -0.0012520045 -0.0072476547 -0.0060791727 0.025137069 0.026393227 0.036769208 0.05994654
-0.0015398373 0.03531661 0.022330504 -0.011590403 -0.0009815738 0.043206155 0.06543635 0.04242835
0.026224636 0.023491805 -0.018272763 -0.0111510735 -0.0038163706 0.004053443 0.041912302 -0.011912677
0.012774994 0.011131111 0.07592769 0.0805213 0.051530953 0.04423942 0.026386386 0.04488737
0.050931264 -0.0030533029 -0.008551963 0.06283396 0.010701207 0.012948858 0.00054848933 0.044180375

action_model._discrete_distribution.branches.0.weight f4 [9, 128]
00000000: 0de8 81bc e9b0 863c 97c5 bd3a 6cad b33c
00000010: f3db 073c 0871 883b 3c45 813c d0fe 913b
00000020: fd51 a5bc e16b 73bc 4b6f 1f3c 31e2 94ba
00000030: 29a0 283c 3bf4 c83c f2b8 d43b 868f 76bb
00000040: f121 913c 2888 383c 1a05 3a3c e12d 253d
00000050: efdf fcbb eadf 28bc 5b30 6a3b e289 05bb
00000060: b85f 5fbb d6d9 9c3c 878b 9bba 2b35 cabb
00000070: 12b7 c8bb a80d 4d3c a211 e1ba af33 1b3c
00000080: 1a2b b5bb 6435 993c 9e9b ab3c 23e4 a53b
00000090: d971 023c bdd6 c33a 77d9 073d 93ef f63b
000000a0: 778e c13b c0ae 3d39 04e3 39bc bd89 cbbc
000000b0: 3fb1 233c a96e 48bb 2822 f33b b09a 7abb
000000c0: 8098 823c abcb cb3c d41a a73c bae3 8a3b
000000d0: 79dd 463c 72dc 50bc 6494 9a3c 183a 8c3b
000000e0: 7bcb 88bc 2f48 3f3c 23f7 363c 0f09 253c
000000f0: 724d e1bc 30ee 4d3c 2e64 ea3b 81ee 8e3c
00000100: 90e0 4bbb 6a56 e13c d9aa 4abc 9398 913c
00000110: 427f f639 08d9 b0bc a5e6 bc3a ed69 b63c
00000120: 8db1 313c c1a1 133c 85f8 113c d0f8 ff39
00000130: 4714 24bc 725d e73c 7afc cb3b 81e6 15bb
00000140: f27c 353b c7c7 993b 01be 773c c85b 9d3c
00000150: 3719 243a 1c1f a23b cf76 5bbc 57d7 a7bc
00000160: 641a b9ba eca4 993c 9cef 353c f81e 763c
00000170: 541c b43b 934f a83b c0bf c13c e30e 853c
00000180: 9da5 563c ad67 863c 42c0 81ba ced8 023b
00000190: de41 403b 9fd1 433c 5f43 4d3c 6d2b a53b
000001a0: f5c8 c93c 76d4 8dbc fcf7 0bba e3bd 19bb
000001b0: 866f 783c 9186 83bc 77aa 203c 938a f13a
000001c0: ea7b 3b3c 5ca6 543b 8ca4 dc3b facb 1dbc
000001d0: 06d9 b73c 3113 993b cea1 a53c e23c a83c
000001e0: 57e4 c4bb de49 c13a e34d 0dbc 4540 143c
000001f0: d0ba 9f3b 6e88 b63c 72b4 213a d828 343b
00000200: 4fdb 01bd ce1b 8bbc 2ea0 c0bc caab d3bc
00000210: 2cc1 0bbd 10bd 103d 46dd a3bc d9df 34bd
00000220: de29 ef3b 8d71 85bc 612a 01bd e611 c83c
00000230: 7f18 923c 3997 b63b e687 9dbc a693 02bc
00000240: 4788 fe3b 89c6 4ebd ebc8 1fbd daa5 bdbc
00000250: fe57 25bd b8a0 813c cbfe 96bb 38fa 383c
00000260: 7ef4 35bd d46b 87bc 1ff0 c3bb a364 673b
00000270: 8313 153d 2d91 06bc 679f 92bc dae0 8fbc
00000280: c1ca d03c 3217 22bd 7eeb cbbc 089c 19bc
00000290: 3023 90bb 1902 99bc 5931 e0bb e122 813b
000002a0: 66dd 63bd b762 1b3c a419 09bc 8e13 29bd
000002b0: 36b1 85bb d57b ff3c 6f6c e73b aa3f 88bb
000002c0: c318 80bc a779 4f3a 5d61 5cbc 334f 3fbb
000002d0: 707b 04bc 5378 ba3c 5e93 c2bc 3e6e 10bd
000002e0: d785 503d 3b0d 19bb a6ea 31bd 809a 853c
000002f0: 9a5a febc a39f d4bb 7ccb 3ebc b846 b8bc
00000300: 34a2 9bb9 4e3f e73b ceb2 423c c5ba fcbc
00000310: c3de dfbb b29b b63c cb38 b53c 2172 bdbc
00000320: 246c 983a e1ba e1bc 6519 46bc 627b f03a
00000330: 49a6 1b3d 39ec dfbc 85c6 06ba d774 f43a
00000340: 175e 66bd bc11 a8bc 8504 9b3c d194 85bc
00000350: 7905 07bd 5ca8 403d 2f9d d03c 2578 2fbc
00000360: 56e5 78bc 70db 28bc f23d 0c3d da05 0cbc
00000370: c93a 9138 480e ecbc f82a 69bd 01f3 46bd
00000380: 308c 853c bed1 a8bc b9e8 abbb 96e2 463c
00000390: de0b d33c 792b d2bc bdc6 40bd 0ae0 0abd
000003a0: f6d0 e43a f25b e33a ef76 043d d4e2 113d
000003b0: 3036 eebb f4e0 063c 93cb 2dbd dc93 a23c
000003c0: 42a6 97bc 0349 083d 84ff 61bd e08a 54bd
000003d0: b0d8 a03b 5dd4 ab3b abd1 863b 7eee b2bc
000003e0: 7dd2 cabc 533c 123c 68ae b83c 4b44 81bd
000003f0: 54fa 1dbc c627 aa3c a28b 223b cbe3 17bd
-0.01585772 0.01644178 0.0014478442 0.02193328 0.008292186 0.004163865 0.015780084 0.004455425
-0.020180697 -0.014857263 0.009731124 -0.0011358914 0.010292091 0.02453052 0.0064917738 -0.0037622168
0.01771638 0.011262931 0.011353755 0.040326957 -0.0077171247 -0.0103072915 0.0035734389 -0.0020376374
-0.0034084152 0.019146841 -0.0011867144 -0.006170889 -0.0061253393 0.012515463 -0.0017171393 0.009472772
-0.0055288197 0.018702216 0.020948227 0.0050625964 0.007961714 0.0014941316 0.033166375 0.0075358837
0.0059068757 0.00018089544 -0.011345629 -0.024845952 0.009990989 -0.0030583537 0.007419843 -0.0038239174
0.015941858 0.02487739 0.020398535 0.004238573 0.012137764 -0.012747871 0.018869586 0.0042793863
-0.01669859 0.011674925 0.01116732 0.0100729605 -0.02750275 0.012568995 0.0071530556 0.017447712
-0.0031109191 0.027507026 -0.012369835 0.017772948 0.0004701559 -0.021587864 0.0014411999 0.022267306
0.010845554 0.009010733 0.008909349 0.0004882277 -0.0100146 0.0282428 0.006225166 -0.0022872987
0.0027692881 0.004693005 0.015120984 0.019208804 0.0006259861 0.004947556 -0.013395025 -0.020488424
-0.0014122245 0.018755399 0.011104491 0.015022032 0.005496541 0.005136439 0.023651004 0.01624245
0.013101009 0.016406858 -0.0009899216 0.0019965651 0.0029336135 0.011951833 0.01252827 0.005040577
0.024631957 -0.017313223 -0.0005339382 -0.0023459129 0.015163308 -0.016055377 0.009806267 0.0018428139
0.011443118 0.003244779 0.0067334827 -0.009631151 0.022442352 0.0046714772 0.020218756 0.020536844
-0.0060086655 0.0014746746 -0.008624527 0.009048526 0.0048745647 0.022281852 0.0006168551 0.0027490165
-0.03170329 -0.016981032 -0.02351388 -0.025838751 -0.03411977 0.035336554 -0.020002972 -0.04415879
0.007298692 -0.016289497 -0.031534556 0.024422597 0.017833946 0.0055722264 -0.01922984 -0.007969772
0.0077677104 -0.050482307 -0.03900997 -0.023150373 -0.04036712 0.015823707 -0.0046080104 0.011290126
-0.04442262 -0.016530909 -0.0059795524 0.0035307787 0.03639556 -0.008213324 -0.017898275 -0.017563272
0.025487306 -0.039572902 -0.024892565 -0.00937558 -0.004398726 -0.018677758 -0.00684182 0.0039409255
-0.055631064 0.009483985 -0.00836793 -0.041278414 -0.004079963 0.031186977 0.007062487 -0.00415798
-0.015636807 0.0007914551 -0.013450948 -0.0029191494 -0.00808607 0.022762453 -0.02375191 -0.035261385
0.05090889 -0.0023353833 -0.04343667 0.016309023 -0.031049062 -0.0064887567 -0.011645194 -0.022494659
-0.00029684755 0.007057107 0.011883451 -0.030850777 -0.006831975 0.022291038 0.022121808 -0.02312571
0.0011628908 -0.027554931 -0.012091015 0.0018347318 0.03800038 -0.02733432 -0.0005141276 0.0018650544
-0.056242075 -0.020516269 0.018923054 -0.016306313 -0.032964204 0.04703556 0.025465576 -0.010709797
-0.015191397 -0.010306224 0.034238763 -0.008546317 6.9250884e-05 -0.028815404 -0.056925744 -0.04857159
0.016302198 -0.020607825 -0.0052462486 0.012138983 0.025762495 -0.025655495 -0.04706453 -0.033905067
0.0017457295 0.0017346127 0.032339986 0.03561671 -0.0072696432 0.008232344 -0.04243047 0.019845895
-0.018511895 0.033272754 -0.05517532 -0.051890254 0.0049086437 0.0052438215 0.00411435 -0.021842238
-0.024758572 0.008925515 0.0225441 -0.06311854 -0.009642202 0.020770919 0.0024802466 -0.037082475

action_model._discrete_distribution.branches.0.bias f4 [9]
00000000: 22f9 953b 4d43 fbbc 918b 2ebc 86ed 3d3c
00000010: aded acbc e2be 3c3c 8c00 fdbc 55ac 063d
00000020: 3149 47bc
0.004576818 -0.03067174 -0.010653392 0.0115922745 -0.021109426 0.011520119 -0.03088405 0.032879192
-0.012163446
