Lofty2024/results/MoveToPoint8/MoveToPoint.onnx (onnx, 89178 bytes, 9 tensors)

discrete_act_size_vector f4 [1, 2]
00000000: 0000 1041 0000 1041
9.0 9.0

network_body._body_endoder.seq_layers.0.weight f4 [128, 12]
00000000: ab30 7dbe 3bc2 273e 0059 83be 2713 19be
00000010: 86ce a33d b7bc 2cbf 65f2 bebe 3dda afbd
00000020: 6f67 aabe 6454 6b3e 7284 8abe 944a 783e
00000030: 27ae d1be fdc7 633d c14e 933e 66b7 2bbd
00000040: fff1 e8be 8c2c 43be 20a1 5e3d 0902 083f
00000050: 0624 a43e e513 383f bf45 20bf 96ca f8bd
00000060: bf0d 47be 9455 d1bc 7ce3 41bd 9e49 16bf
00000070: 22ce 993e 2295 9fbd 1864 173f 6d68 513e
00000080: dea3 4ebd 075d db3d 3edb 373e 7c9d 7fbd
00000090: 31c6 b2bd edd8 0b3e f9ff ae3e 6327 973e
000000a0: d4a9 103d fc19 73bd 0ca9 7fbd 7770 49bf
000000b0: f289 1b3e 9416 e2be 806f 2a3d 9ef1 19be
000000c0: 9366 563e 70f3 a8be af88 6f3e 8433 a43e
000000d0: 6d4c c23d 5c7f 403e 36e5 243e 0244 6b3d
000000e0: 10b3 39be 3013 07be bff0 3f3c 0397 72be
000000f0: 1bea 53be 527c 323e 7977 8abe c604 a0be
00000100: 4bcf 51bf 0940 63be bcc8 6f3e 809d c43e
00000110: ad50 b63e 3230 babe 3aae c0bd 1119 c0bc
00000120: 5c38 433e ed5d 3cbe 1d43 9bbe 4167 2ebd
00000130: 7774 6dbc 8e61 903e 331c d2be 55af 4ebc
00000140: 2402 21bd 2957 a7be 3c36 86bd 80c3 21be
00000150: 6b18 53be 3d2f 033e 609b 8abe 7069 1cbd
00000160: 0cae 833e 793f cabe dfab a5be 1e15 e2bd
00000170: f6d5 a83e 36d1 443e add9 21be 4afb 783e
00000180: 8308 6a3e 2647 65be a2b6 a03e a36e e83d
00000190: a704 4cbe 177e 98be cc32 87be 7b93 27be
000001a0: 146e bdbe 8e3b 0cbf f579 b9be e965 063f
000001b0: d25d 7bbc a31c 65be 13e1 b93e ec3a 563e
000001c0: 4908 9abe 6a90 3cbe 46c8 a23d 50e6 163e
000001d0: 9fa7 c0bd ba53 b43e f7b1 26be 41cd 7c3e
000001e0: ecf7 17be 4643 e0be 9533 83bd b30f bb3e
000001f0: b0af 043f 3fac 0ebe f2f4 a1be 47a8 4c3e
00000200: 16a7 afbe d099 da3c a267 493e 3efe c43d
00000210: 45c0 28be 7cd7 febe 38bc 643e 5fe2 efbd
00000220: e301 de3e 20dc 4c3c 1d67 bfbe 212d d4bc
00000230: a139 8bbe ffc5 233e 6393 f6bb c71a 893e
00000240: 2b6b ac3e 9479 9c3e 01b3 423c 7f61 c8be
00000250: ca12 b8be c8d1 4f3e 9956 243e f28d 8e3d
00000260: c4d0 73be 9af7 41be 57a4 d6be 9cc0 0fbd
00000270: 45f8 aebd affa 03be c74c b03c 58ba 49be
00000280: 3153 32be 66bf 833e 46dc b3bd 37d5 913d
00000290: 1b85 87be f847 81bd fb01 a33d 5705 75be
000002a0: 9d5b a03e bcea 0e3e 355e b53e 6b57 cfbe
000002b0: 059f abbe 7560 983e 6352 8cbe 91ff cdbe
000002c0: 6b1f 713c 20a5 92bd 39e5 dabe f29b 14bf
000002d0: b5a5 973d 2f6f 91be 864a b43e 6270 4ebe
000002e0: 2248 0d3e da07 f63e d1b7 84bd c5fb 83bd
000002f0: 3df5 f2bd 83b5 88be 02f6 373d 7b73 32be
00000300: ee92 06be d688 cb3d 021f 15be 2333 3fbe
00000310: c035 d23d 670f aabd a484 92bd fafd 18be
00000320: 6787 92be 776b 96be 7103 0cbe 005f 9f3c
00000330: bc98 d93e 93aa 4fbd 3144 e33e 42ea 3bbd
00000340: 63b0 a1be f4bc fd3e a27e c8be 4f7b 7bbc
00000350: 366b debd c5fe 1abd 2a75 523e c251 9c3e
00000360: 3350 e4be 670e 0b3e a9e0 57bd a5af 7a3e
00000370: 2f51 033e c757 5e3e 954b 1fbe 6d72 38bf
00000380: 2c3e 333e 0b0c ed3e e15b 9cbd e7dd 32be
00000390: 1915 e2be a5c9 913e 519a ea3e 2e23 9f3e
000003a0: 0b13 a3be e08d 763e cfb4 3b3e e99c 1bbf
000003b0: d124 8dbe e546 903e a273 01be 7dc9 2abd
000003c0: a0e6 813d 2c51 1f3f 552b 633c 10ca b9be
000003d0: 0749 603e 7734 8ebd 5366 5e3d bbac d2bd
000003e0: 0d1c 18bf 9227 e6be 5f5a 9e3e 20c2 0c3f
000003f0: fc7e 30bd 91e6 44be b084 9bbe fa41 ce3c
-0.24725597 0.16382687 -0.2565384 -0.14948712 0.079983756 -0.67475456 -0.37294307 -0.085865475
-0.3328204 0.22981411 -0.27054173 0.242472 -0.4095318 0.055610646 0.28771022 -0.04192295
-0.45497128 -0.19059962 0.05435288 0.53128105 0.32058734 0.71905357 -0.62606424 -0.12148015
-0.19438837 -0.025553502 -0.047336087 -0.5870608 0.3004008 -0.07792117 0.59137106 0.20449992
-0.050449245 0.10711103 0.17954728 -0.06240605 -0.08729208 0.1365697 0.34179667 0.29522237
0.03531821 -0.059350953 -0.062417075 -0.7868723 0.1518934 -0.4415785 0.04161024 -0.15033576
0.20937566 -0.32998228 0.23391984 0.32070553 0.09487233 0.18798584 0.16103062 0.057437904
-0.18134713 -0.13190913 0.011715113 -0.23690419 -0.20694773 0.17430237 -0.27044275 -0.31253642
-0.8195693 -0.22192396 0.23416418 0.38401413 0.35608426 -0.36364895 -0.09408231 -0.023449453
0.19064468 -0.18395205 -0.3032464 -0.04257894 -0.014493099 0.28199428 -0.4103714 -0.012615045
-0.039308682 -0.32683685 -0.06553313 -0.15797234 -0.20614783 0.12810989 -0.27071667 -0.03818649
0.25718725 -0.3950155 -0.3235769 -0.11039184 0.3297574 0.19220433 -0.15805693 0.24314609
0.2285481 -0.22390422 0.31389338 0.11349227 -0.1992365 -0.297837 -0.26405942 -0.16364853
-0.36998045 -0.54778373 -0.36225858 0.5249925 -0.015342193 -0.22374205 0.3630453 0.20920914
-0.30084446 -0.18414465 0.079483554 0.14736295 -0.09406971 0.35220128 -0.16278826 0.24687673
-0.14840668 -0.43801326 -0.06406323 0.36535415 0.5183058 -0.13932894 -0.3163219 0.19986068
-0.34307164 0.026684672 0.19668439 0.09618805 -0.16479595 -0.49773777 0.22337425 -0.11713099
0.43360814 0.012503654 -0.37383357 -0.025900425 -0.27192405 0.15993498 -0.007524894 0.26778242
0.33675513 0.30561507 0.011883498 -0.39136884 -0.35951835 0.20294869 0.1604866 0.06960668
-0.23810107 -0.18942109 -0.41922256 -0.035095796 -0.085434474 -0.12888597 0.021520985 -0.19699991
-0.17414548 0.25731963 -0.08782248 0.07120746 -0.2646874 -0.06312555 0.07959362 -0.23927818
0.31319895 0.13956732 0.35423437 -0.40496382 -0.3351976 0.2976109 -0.27406606 -0.40234044
0.014716963 -0.07160401 -0.42753008 -0.58050454 0.07404653 -0.2840514 0.35213107 -0.20160058
0.13797048 0.48052865 -0.06480373 -0.064445056 -0.11863182 -0.26700982 0.044912346 -0.17426865
-0.13141987 0.09938209 -0.1456261 -0.18671851 0.10264158 -0.08303719 -0.071542054 -0.14940634
-0.2861893 -0.29378864 -0.13673188 0.01945448 0.4249934 -0.05069978 0.44387963 -0.045877703
-0.31579885 0.49558222 -0.39159113 -0.015349223 -0.108602926 -0.037840623 0.20552507 0.30531126
-0.44592437 0.13579713 -0.052704487 0.24481066 0.12823938 0.21713172 -0.15556176 -0.720496
0.17504185 0.4629825 -0.07634712 -0.17467462 -0.4415672 0.28474155 0.4582086 0.31081527
-0.31850466 0.24077559 0.18330692 -0.607863 -0.2756715 0.28179088 -0.12641767 -0.04169606
0.06342816 0.62233233 0.013865312 -0.36286974 0.21902858 -0.069436006 0.054296803 -0.10286852
-0.594178 -0.44952065 0.30928323 0.5498371 -0.04308985 -0.19228579 -0.3037467 0.025177944

network_body._body_endoder.seq_layers.0.bias f4 [128]
00000000: ec2f 16bc f55a b33b be65 d5bb 4a84 c43b
00000010: 6de5 cebb 8fb9 71bb 2c21 c83c 0dd6 2e3c
00000020: 4359 5d3b 32cb 68ba af8c 133c 2e1c 903b
00000030: e098 80bc 26c1 b63b d102 4abc 9a44 02bb
00000040: a632 493b 8fd9 5abb cde8 903a 6a2e 35bc
00000050: 67d5 ebba 961a 5c3a 0e2b 273c f998 453b
00000060: 2b6a 37bc fbd0 9439 0644 8dbc 6b51 89bb
00000070: d07b 8fbc 95f9 b8bc 393e df3b e6da 6d3b
00000080: 10e9 65bc 61eb 4c3b 9fd9 b939 ec87 4d3b
00000090: b8d5 83bb 5d56 01bb d4aa 83bc 408f 80bc
000000a0: 4128 603c d7d5 3dbb a673 263c 9073 ba3c
000000b0: 7179 6a3c cf27 3bbc 194d cab9 57f2 1dbc
000000c0: ee90 303c 74ca 1ebb 183a ae3c e541 09bc
000000d0: 092d 63bb bdeb 9dbb 332a 6abc 7e14 ab3b
000000e0: 4a57 823b c6c4 adbb ed9f 29bc 1ba2 06bc
000000f0: ee00 0a3c 3a61 ccbc 23ee 1abc e302 a8bb
00000100: 6bc8 89bb c5a7 e53b 00f5 e6bb 58d6 ab3b
00000110: 4781 35bc 1b45 93bc 597e babb b520 8fbc
00000120: 6943 1fbb d9cc ca3b 531f 7bba 04f4 d73b
00000130: da79 b638 ae53 38ba 6a8a 15bb 2232 c9bb
00000140: dc0d e33b 9de1 ad3c e1c8 d93b 46cb 47ba
00000150: 1896 1a3b 5946 5f3c 17df 0fbc 112f 783b
00000160: 23ed 32bc 4137 4c3b 0614 20ba 7c9c 4cbc
00000170: e686 ffbb 87cb 39bc 1259 abbb 52bb 28bc
00000180: 4817 503c 87ca cf3b 53a7 da3b 346c ce3c
00000190: adc1 303b 80c4 9b3c f72f b5bb 3212 5fbb
000001a0: 4675 99bb f112 153c 474a b8bb 6e18 94ba
000001b0: e8ed 973b 234f 133d cde4 f9bb 0c1e 74bb
000001c0: 43de 9a3b 1bb8 5e3c 19b1 05bc 52ae afba
000001d0: bc21 69bc 3d3e 6ebb 5fd1 f8bb bad3 28bc
000001e0: 6c93 1a3d a495 b6ba b9fd 9e3c 1f10 92bb
000001f0: 897e 4bbc cdca 1a3b 53bf 11bc 9ba1 cf3a
-0.009166699 0.0054734894 -0.0065123728 0.0059972154 -0.006313971 -0.0036884283 0.02442988 0.010671151
0.0033775128 -0.0008880376 0.00900571 0.0043978905 -0.015697896 0.0055772243 -0.012329773 -0.0019877315
0.0030700355 -0.0033393835 0.0011055708 -0.011058429 -0.0017992676 0.00083962956 0.010203136 0.0030150993
-0.011194746 0.00028384462 -0.01724435 -0.004190614 -0.017515093 -0.022579947 0.0068128374 0.0036293804
-0.014032617 0.0031268226 0.0003544809 0.0031361533 -0.00402328 -0.0019735314 -0.016072668 -0.015693307
0.013681472 -0.002896657 0.010159409 0.022760183 0.01431118 -0.011423065 -0.00038585885 -0.009640298
0.010776741 -0.0024229558 0.021267936 -0.008377527 -0.0034664294 -0.004819362 -0.014292288 0.0052209487
0.003977691 -0.0053029982 -0.010353071 -0.00821736 0.008423073 -0.024948705 -0.00945619 -0.0051272972
-0.0042048 0.007008525 -0.0070482492 0.0052440576 -0.011078185 -0.017977288 -0.0056913313 -0.01747165
-0.0024301654 0.0061889705 -0.0009579558 0.006590368 8.701133e-05 -0.0007031512 -0.0022818097 -0.0061400095
0.0069291424 0.021225745 0.006646261 -0.00076215377 0.0023587998 0.013627612 -0.008781216 0.003786985
-0.010920796 0.0031160864 -0.00061064993 -0.012488481 -0.0077980636 -0.011340029 -0.005229124 -0.010298567
0.012700863 0.006341282 0.0066727786 0.02519808 0.0026970909 0.019014597 -0.0055293995 -0.0034037945
-0.0046831695 0.009098754 -0.005624089 -0.0011298785 0.004636515 0.035964143 -0.007626152 -0.0037249355
0.0047262027 0.013593699 -0.008159899 -0.0013403392 -0.014229234 -0.0036353015 -0.0075933184 -0.010304386
0.03773825 -0.0013930094 0.019408094 -0.004457488 -0.012420305 0.0023619414 -0.008895713 0.0015841009

network_body._body_endoder.seq_layers.2.weight f4 [128, 128]
00000000: 48f4 bc3d 1bf9 8dbd a2e5 573c 1e60 04be
00000010: 9857 303d 9722 433e ce45 aebd 13cb bebd
00000020: 68f2 b63d d964 283d 8766 6a3b c3ba 7e3d
00000030: 95e2 f53b b10a c0bd dfc0 eb3d 8f18 603a
00000040: 0f27 6abd 6ed4 76be 8e20 bebc b46b c9bd
00000050: 57bc ce3c 95fb 23bd e9aa 71bd a37c e93d
00000060: 185f 85bd 15dd e6bd 2f60 18bd 8d0f 2dbc
00000070: 693f 25bd 2b8f ae3d 9343 20be bccf 62bc
00000080: d630 023e 1ab4 3c3c 774f 813d 01d5 283d
00000090: bef4 823c 1689 f4bd e4b2 acbd 479a c3bd
000000a0: 68ef dcbc 929e a3bd 56ac 8dbd 2057 7b3d
000000b0: f9a7 a1bd ce7c 2a3d 2236 ac3d aae1 053d
000000c0: 01ba 123d 9050 df3d 224f eabd a268 01be
000000d0: 08d5 5ebd 7b9f 863d a7ae 0abd 36ea 673e
000000e0: a5ce 0f3d 3638 6c3d 1fb9 c7bc 152d 463e
000000f0: 43e2 8ebd 0a1f c73d 62c2 aa3d aa1f b0ba
00000100: f40b 573d 52c1 a7bd b5d1 b6bd e8da 0dbd
00000110: 3ee4 99bc 3267 113e e13d 5dbd f12b 9f3d
00000120: 4bb3 09bb 00d7 dc3d 2862 573d 128d 9ebd
00000130: b704 b63d 5527 43bc 37ff 4bbe 15c0 3d3c
00000140: e1a2 fabb 3534 e6bc 834e a43c 1710 a6bd
00000150: 9f70 80bd d43e 2bbd 91d0 67bd a4a8 e53d
00000160: 03a6 8ebc 4572 6abe 0896 d2bd a301 11be
00000170: 3344 003e 65b8 ae3b 9991 4ebd 52f1 a63d
00000180: 8c8b 21bd 2b70 533c 35b1 e53d 1d3b 823d
00000190: 7277 5abd e2e7 d6bb 95ef 2fbe 95d6 dfbc
000001a0: 681b f6bd d1b2 9bbd 8f70 27bd 2a6c 3dbe
000001b0: cac8 61bd 815e 0c3e 53d2 f23d acdc a03c
000001c0: 2d95 223d 5298 33bd ee86 f5bd bbf5 99bd
000001d0: e35a 513e 4a99 403e b4e1 8cbc 92b8 953d
000001e0: da0d 8dbb c23b b13c 4ef9 8c3d a275 25bd
000001f0: cf9d 0abe ff83 143d 4d20 b338 1a45 37bc
00000200: 777e 183c ddfa 9dbd 6f2b bb3d 9520 ab3c
00000210: ce4e 9c3c 0fdb 3b3c 6743 433d c4f4 1c3d
00000220: 1586 733c d907 1ebc 2114 f13d fa5d cebc
00000230: b6bf c9bd c539 f33d 6cd7 083d 30fc 043e
00000240: e465 2ebc 8280 96bd 7c8a cdbd 3053 063d
00000250: 2f2d fcbd 942c 92bd 71e2 123b 659c f5bd
00000260: 3e4c 853d 6c36 b43d 6112 bd39 3d9f d5bb
00000270: cf95 523d 63fb b53b 402e 37bc 94a4 e5bd
00000280: be44 0c3d f4ab 75bd 68a6 fabd be9f fcbc
00000290: 7321 f23d 767f 97bc 6751 43bc 1c51 3b3d
000002a0: f4ba c03d 71c8 96bd 82b3 8dbd 25af 98bd
000002b0: e7d8 1e3e b66b 87bb 503f 0ebe 2d61 573d
000002c0: 6a6b 4ebe 52b9 34bd fc60 d0bd deb6 b8bc
000002d0: 66df 913c 4741 7abd 1dc5 f13a 2dfd 85bd
000002e0: c4d0 0cbc f2e5 113d 1314 713d a2ad cf3d
000002f0: 6f1b 50bd 604e de3d a0b3 0c3d 3265 59bd
00000300: 9497 9d3d e60a 9fbd 6c1e 1fbe 5468 ee3b
00000310: 5df2 b83d 7d0e 53bd 97af 58be c616 843c
00000320: 5b1e 49bd 530b f9bc bab6 eebd 61e8 fe3d
00000330: 6a2a 2cbe f527 a7bd 57a5 333e 0166 f6bd
00000340: 4993 a43b 1905 c0bc d402 bebb 73f7 3abe
00000350: 51a9 7bbe 0e61 d83b d492 8ebb e938 863b
00000360: d161 d43d 9c1a bb3d 4c9c e0bc 2982 1a3d
00000370: aac8 f13b e46c 1dbd 8f31 a4bd 8b33 513c
00000380: 6e67 83bb 13e6 acbd 9c5a 14be 673a 99bd
00000390: 268f c5bd 5150 8f3c 3ac9 05be b94f 623d
000003a0: 0abf 4fbd a6ae 86bd 95dd d73d 9c66 c8bd
000003b0: 5ce5 933d 38e3 fbbc 5ad2 0fbe dcb8 793c
000003c0: b731 4c3a bfae 5ebe 711a 8cbd 51b6 9dbd
000003d0: 3c70 64bd dc07 a93d 28e4 3fbd e371 153e
000003e0: c135 413c 92ae 073e 8d01 bd3c 657c 00bd
000003f0: 61d9 713c 3747 44bd 21ee 11be 9ace 5cbe
0.092262805 -0.06932279 0.013177307 -0.12927291 0.043052286 0.19056164 -0.08509408 -0.09316077
0.08932954 0.0411118 0.0035766677 0.06218983 0.0075038173 -0.09377039 0.115113966 0.00085485814
-0.057166155 -0.24104473 -0.023208883 -0.09834996 0.025236292 -0.04003485 -0.059000883 0.11400726
-0.06512278 -0.11272637 -0.037201103 -0.01056279 -0.040343676 0.08523401 -0.15650778 -0.013843473
0.12713942 0.011517549 0.06313985 0.04121876 0.015985843 -0.119402096 -0.08432558 -0.095509104
-0.026969627 -0.07989229 -0.06917636 0.061362386 -0.07893366 0.04162293 0.084087625 0.032685913
0.03582192 0.10904038 -0.11440875 -0.1263757 -0.05440238 0.06573387 -0.033857968 0.22647938
0.03510918 0.057670794 -0.024380265 0.19353135 -0.0697675 0.09722717 0.08337857 -0.0013437171
0.052501634 -0.0819117 -0.08926717 -0.034632593 -0.018785592 0.14199522 -0.05401409 0.07772053
-0.0021011408 0.107831955 0.052583843 -0.07741751 0.08887618 -0.011911233 -0.19921575 0.01158144
-0.007648811 -0.028101066 0.020056969 -0.08108538 -0.06271481 -0.041807964 -0.05659539 0.11213806
-0.017413145 -0.22895153 -0.102825224 -0.1416078 0.12526016 0.00533204 -0.05043182 0.08151497
-0.039439723 0.012905161 0.1121544 0.06358931 -0.05333657 -0.0065584043 -0.17181237 -0.027324
-0.12016946 -0.07602466 -0.04087883 -0.18498293 -0.055123128 0.13707925 0.118565224 0.019636475
0.039693046 -0.043846436 -0.119886264 -0.075175725 0.20444827 0.18808475 -0.017197467 0.073105946
-0.0043046298 0.02163494 0.068834886 -0.040395387 -0.13536762 0.036258694 8.5414016e-05 -0.011185909
0.009307495 -0.07713864 0.09139144 0.02088956 0.019080546 0.011465802 0.0476717 0.038319364
0.014863511 -0.009645426 0.117714174 -0.025191296 -0.09851019 0.11876253 0.033408567 0.12986827
-0.01064441 -0.0734873 -0.100361794 0.032794178 -0.123133056 -0.07137409 0.0022412802 -0.119927205
0.06508683 0.08799443 0.00036062583 -0.006519227 0.0514124 0.0055536493 -0.01118046 -0.112130314
0.034245245 -0.05997844 -0.12238771 -0.03083789 0.11822786 -0.018493395 -0.011921263 0.04573165
0.094106585 -0.0736245 -0.06919004 -0.07455281 0.15512429 -0.004132713 -0.1389134 0.05258291
-0.20158163 -0.044122048 -0.10174748 -0.022548135 0.01780672 -0.06109741 0.0018445585 -0.0654243
-0.0085946955 0.035619684 0.058857035 0.1014054 -0.050807413 0.108547926 0.03435099 -0.053075023
0.07694927 -0.077657506 -0.15538949 0.0072756205 0.09030602 -0.05152749 -0.21160732 0.01612414
-0.049101215 -0.030400908 -0.11655946 0.124466665 -0.16813055 -0.08161918 0.17543541 -0.120311745
0.0050224406 -0.02343993 -0.005798677 -0.18258457 -0.24576308 0.0066033667 -0.0043509994 0.0040961397
0.103702195 0.09135935 -0.027418278 0.037721787 0.0073786573 -0.038433924 -0.08017265 0.012768636
-0.0040101325 -0.08442321 -0.1448769 -0.074818425 -0.09646444 0.017494353 -0.13065043 0.05525181
-0.0507193 -0.0657628 0.1054031 -0.09785196 0.07221481 -0.030747995 -0.14045087 0.015241828
0.00077893905 -0.21746348 -0.06840981 -0.0770079 -0.055771098 0.08253452 -0.046848446 0.14594226
0.011792601 0.13250187 0.023072029 -0.031368632 0.0147613 -0.04791948 -0.14250995 -0.21563187

network_body._body_endoder.seq_layers.2.bias f4 [128]
00000000: 8ade 91bb 8487 23bc c266 27bc 0bff e8ba
00000010: 487c 4cbc 81d4 633b 24ad 6f3c 697c 8cbb
00000020: 3475 ddbc b564 29bc a671 11bc 6bb1 9e3b
00000030: c970 2fbc 25c8 8b3c 817c dbbb dfcb 2abb
00000040: e4ce 3a3c 806b c53b 179f d9bb 55eb 35bc
00000050: 8cb0 033b 3986 0abc 32d1 cc39 6f33 413c
00000060: e8e0 843c 4f19 363b 53b4 8d3b 0241 12bc
00000070: cfb0 683c 757c 29bc 8bc0 563b e635 8a3c
00000080: 1525 3cbb 51b7 b13b f2b0 9f3b 3085 babb
00000090: 0868 8e3b 6cb9 96bb b6fc 0f3a 10ea 6fbc
000000a0: 41f9 783b 07fc e8ba a131 df3b f128 7bbb
000000b0: 849d 293c bbb3 74bb ed1f 953b a2e7 87ba
000000c0: e02b 9abc d343 e53b fcb9 76bb e40c 59bc
000000d0: 93aa 94bb c5d0 ddbb 6e07 e9ba dfe8 0dbb
000000e0: 0b85 9639 7973 ac3c 4511 873b 3f53 30bb
000000f0: fe67 043b 9e21 583a 19be 583c 8ad3 64bb
00000100: e9d6 1abc 84e0 83bc b60d 6aba 7015 64bb
00000110: 0a42 27bc d4bc fd39 e218 03bc 9549 37bc
00000120: 3d29 e0bb 4560 43bc 30d3 7f3c 040b 70bc
00000130: 3dce db3b 1617 4fb9 ecd0 773b f127 303a
00000140: 4560 4c3b f24c bbbb 4d3a 923b 8c7d af38
00000150: 363d c439 84ff 1e3c 981e a63b 3244 043c
00000160: d6ac 023b bd17 a9bb 5286 b3b9 3c80 87ba
00000170: 058a 6fbb 188d 24bb 622f 7a3c be42 c23b
00000180: 8aa2 4aba 9ef6 d0bb 253c 68bb ca8d d8bb
00000190: ad03 583b 8dea f0ba f755 31bb 6650 3ebb
000001a0: a0f1 19b9 4663 063c a0f8 61bc 8d7e 00bc
000001b0: 14e5 553c a2f5 81bc 7621 c8b9 5731 34bc
000001c0: 05c8 533b a0aa 173c 04dd e6bb 4e5c 203c
000001d0: e7ab c3bb 0bdf 733c 356f 09bc f84a 3ebb
000001e0: def5 bdbb cca5 233a 4a08 e9ba 6bcd a73b
000001f0: 7f82 0cbc 309a 0ebb 00f7 38bc 99da 663c
-0.0044515776 -0.00998104 -0.01021737 -0.0017776204 -0.012480803 0.0034764113 0.014628682 -0.004287292
-0.027033426 -0.010338952 -0.008877194 0.004842927 -0.010708042 0.01706321 -0.0066981916 -0.0026061458
0.011401866 0.006024778 -0.0066412794 -0.011103471 0.0020094244 -0.008454853 0.00039065775 0.011792048
0.016220525 0.0027786081 0.004324475 -0.008926632 0.014202311 -0.010344614 0.0032768573 0.016871404
-0.0028708626 0.0054234643 0.0048733884 -0.0056921467 0.0043458976 -0.0045997407 0.0005492674 -0.014643207
0.0037990364 -0.0017775305 0.006811336 -0.0038323964 0.010352496 -0.0037338573 0.004550925 -0.0010368715
-0.01881975 0.0069966107 -0.0037647476 -0.013247702 -0.0045369356 -0.006769272 -0.0017778703 -0.0021653695
0.00028709354 0.021051155 0.0041219317 -0.0026905087 0.0020203586 0.00082447554 0.013228917 -0.0034916126
-0.009450653 -0.016098268 -0.00089284347 -0.0034802817 -0.010208616 0.00048396608 -0.008001538 -0.011186977
-0.0068408535 -0.011924808 0.015614316 -0.014651064 0.006707935 -0.00019749659 0.0037813736 0.0006719819
0.003118531 -0.0057159597 0.0044625164 8.368035e-05 0.0003742964 0.009704474 0.005069565 0.0080729
0.0019939444 -0.0051603005 -0.00034241617 -0.00103379 -0.0036550772 -0.0025108512 0.015270086 0.0059283664
-0.00077299087 -0.0063770553 -0.003543624 -0.0066086994 0.0032961175 -0.0018380448 -0.0027059296 -0.002903962
-0.0001468123 0.00820238 -0.013792187 -0.007842672 0.013055105 -0.015864197 -0.00038171903 -0.010998092
0.0032315266 0.009256989 -0.00704539 0.009787632 -0.00597142 0.014884721 -0.00838833 -0.0029036384
-0.005797132 0.0006242662 -0.001777896 0.0051209233 -0.008576035 -0.0021759383 -0.011289358 0.014090204

action_model._discrete_distribution.branches.0.weight f4 [9, 128]
00000000: f8d9 bc3b fa3b 163c 5de9 d0ba c291 d7ba
00000010: 6bfe a6b9 ea73 24bb 2111 0dbc bbbb 46bc
00000020: dfc5 5f3a e62d 9dba 2b19 613c 50c3 133c
00000030: 4a4b 983a 5519 d33b 675a 0dbc 3507 bc3b
00000040: c15b 863b 97c4 d4ba 4a76 473c 9bd7 bbbb
00000050: b314 07bc 6584 e23b 3615 81bb f292 f9bb
00000060: 8b00 e93b 0b12 6fbb 0c75 12bb d71d 523c
00000070: 88a8 a2bb 2747 e5bb 4ff3 de3b 04c8 85ba
00000080: ca98 c9bb dfc5 fabb 620a 6d3b 9607 873c
00000090: 3ffa 26bc 60bf 173a b3f2 88bb 5cde 2a3c
000000a0: ab52 0a3b 2397 f1bb c92b 0d3b b54d 8f3c
000000b0: 36ea 463b 07c7 88bb ca60 523a 7e49 3bbb
000000c0: d665 8ebc d3c1 7e3b bb76 43b9 3875 ff3b
000000d0: a36a 0fbc 5abd 61bc df07 b23b e2de d6b9
000000e0: 2390 4abc 4e10 293c d923 253c ce18 013c
000000f0: 0847 ffbb 2c4c bfba a5b2 c238 a287 9c3b
00000100: 75ab 5b3b cffa 8dbb 3382 903c e259 25bb
00000110: c0fc e83c 5f05 0ebc da2d 0d3c 22c3 d9b9
00000120: d681 b53b 244b 843b 3e6f b1ba 77a9 e73b
00000130: 9b92 76bc 56a0 04bb 7f40 87bc e0f3 613c
00000140: da74 05bc 8cf3 2c3b b3a0 c53b d63c 8ebc
00000150: 8809 953b 52f1 e6bb 0fd6 7dbb f275 cabb
00000160: 2bc2 70bb 5d1c 2dbc 129a 6dbc 1109 8cbb
00000170: 6f2e ec3a eba3 0b3c 9817 3abc 2fe0 d9bb
00000180: 7c24 13bc 08fa 253b b9ef 8cbb f329 283b
00000190: bab8 423c af91 11bc f34f 15bc 6b4b 263b
000001a0: 8f15 d43b 40ff 04bc c035 27bc ca95 c8bb
000001b0: 19ad 233b ef26 2a3c 83ac ee3a ad86 17bc
000001c0: 3f91 fa3b db49 6e3b 6341 dd3b a02e 403c
000001d0: 7fd0 973b a441 30bc 5b28 2ebc b558 993b
000001e0: c539 bdbb c572 853c 63c9 48bc cdee 703b
000001f0: cfe7 313c faf5 24bb c181 1cbc 808d abbb
00000200: a378 48bc 5952 2839 2dd8 edb8 35dd ec3b
00000210: bad9 78bc edf3 ffbb 8fa8 0d3c 3c30 8c3c
00000220: df08 583b 9952 503c 3fc7 473c 395b c43b
00000230: 8556 2a3c 3c04 a1bc 9a28 553b 565e 283c
00000240: ce5f 983c 109d 80bb d735 b33b f57c 84ba
00000250: 4ba2 74bc 0657 f63b da07 f73c e47b 00bd
00000260: 2f44 19bc 8244 1cbc 2f75 a3bb 489d f73b
00000270: 4a9c 3d3c dbbe 443c e949 07bb c824 b83c
00000280: 5faa d73c 44e0 53bb ef24 0d3c 0c43 39ba
00000290: 467e c23c c0dc a93b 7d13 833c f2d6 433b
000002a0: 2dc1 f73a 19b1 183c 9727 fc3b 596f 7c3a
000002b0: 188a c2bb 62fe 8e3c 9d41 983b 649f 883c
000002c0: 7735 aa3b 9bbf 14bb 97e2 aa3c 7ff0 7abc
000002d0: 12b1 b53c 2c8c 4a3b 46bc ce3c 06f2 2abb
000002e0: 22b4 0d3c cd43 39bb a8a8 f1bc 87bf b83a
000002f0: 25ed 18bc 29cd 943b 3281 11bc 139e b4bb
00000300: 422d 973c 95ab da3b 8566 f3ba 3d0d 693c
00000310: 860e 933c d99a d3bc 85d7 223c 5b9d 90bc
00000320: b027 8b3c acec 213c b9d5 5cbc 9270 5b3c
00000330: e301 073d 4157 093b b71e 83ba 3132 833c
00000340: 2170 503b 5998 203c 6ea2 43bc 22d4 673c
00000350: df05 37bc 31a8 babb 0d1c a53c 4c7f 97b9
00000360: 5b3e 7fba 5119 01bc 14d0 d83b e722 4abb
00000370: a84f a43b 30fc 15bb ba23 533c 57cb 46bc
00000380: 2888 87ba 4d51 da3c fb9c f13b ed70 c43b
00000390: afe7 82bb e6ef 2c3c 8452 a8bc 453d 0bbc
000003a0: eb07 f3bb 0f17 e63a e72d b23b 072f 8dba
000003b0: 71bb 82bc e6ad 523c 9d44 b23b b4f0 eebb
000003c0: e618 ccbc 420d 0b3b b18e aa3b 5c58 d93b
000003d0: 3023 aa3c 547e 88bc 330d 65bb 7526 113c
000003e0: d07f 733a c7e9 453c fec7 d43c 2cb6 103c
000003f0: a08a 7fbb 8790 583c 0931 febb ad21 a8bb
0.0057632886 0.009169573 -0.0015938688 -0.0016446637 -0.00031851543 -0.0025093504 -0.008610041 -0.012129719
0.000853626 -0.0011991828 0.013738911 0.009018734 0.0011619118 0.006442229 -0.008627511 0.005738164
0.0041002934 -0.0016232905 0.012174198 -0.0057324893 -0.008244681 0.0069127553 -0.003939296 -0.007616394
0.0071106604 -0.003647926 -0.0022347597 0.012824497 -0.004963938 -0.0069970074 0.006803907 -0.0010206704
-0.006152247 -0.0076529826 0.0036169519 0.01648311 -0.010191499 0.000578871 -0.0041793226 0.010428991
0.0021106403 -0.007372753 0.002154099 0.017493108 0.0030352003 -0.0041741165 0.0008025287 -0.002857774
-0.017382544 0.0038872852 -0.0001864088 0.007795956 -0.0087534515 -0.013778055 0.005433067 -0.0004098332
-0.012363466 0.010318829 0.0100793475 0.007879449 -0.00779045 -0.0014594845 9.283916e-05 0.004776911
0.0033518944 -0.004332877 0.017640209 -0.0025230576 0.028440833 -0.008668273 0.008616889 -0.0004153485
0.0055391593 0.004037278 -0.0013537181 0.0070697623 -0.015049602 -0.002023717 -0.016510246 0.0137910545
-0.008145535 0.0026390282 0.0060311197 -0.017362993 0.0045482554 -0.0070478106 -0.0038732325 -0.006178611
-0.0036736827 -0.010565844 -0.014502065 -0.0042735417 0.0018019209 0.008522968 -0.011358164 -0.006649039
-0.0089808665 0.0025326032 -0.004301038 0.002565977 0.011884863 -0.008884831 -0.0091133 0.0025374542
0.0064722965 -0.008117497 -0.010205686 -0.006121372 0.0024975 0.010385259 0.0018209371 -0.009248418
0.007646709 0.003635994 0.0067521795 0.011729866 0.004633009 -0.010757837 -0.010629739 0.004679764
-0.005774709 0.016290078 -0.012255046 0.003676343 0.01085849 -0.0025171028 -0.00955242 -0.005235374
-0.012235793 0.00016052405 -0.000113413065 0.0072285184 -0.015188629 -0.0078110606 0.0086461445 0.017112844
0.0032964272 0.012715005 0.0121935 0.00599232 0.010396604 -0.01965534 0.003252542 0.010276398
0.01860037 -0.0039249733 0.0054690647 -0.0010108041 -0.014931272 0.007517698 0.030155111 -0.03136815
-0.009354635 -0.009537818 -0.0049883346 0.007556591 0.011572907 0.012008394 -0.002064342 0.022478476
0.026326356 -0.0032329718 0.008614763 -0.00070671807 0.023741852 0.005183786 0.016000504 0.0029882756
0.0018902175 0.009319567 0.007695149 0.0009629629 -0.005936872 0.017455284 0.0046464936 0.016677566
0.005194362 -0.0022697214 0.02086 -0.015316128 0.02217916 0.0030906303 0.02523626 -0.0026084199
0.008648904 -0.0028269172 -0.029499367 0.0014095166 -0.009333883 0.0045410586 -0.0088809 -0.005512008
0.018454198 0.006673286 -0.0018569982 0.014224348 0.017951261 -0.025830673 0.009939079 -0.017653158
0.016986698 0.009883087 -0.01347869 0.013393538 0.032960784 0.0020956548 -0.001000366 0.016015144
0.0031805115 0.0098019475 -0.011940582 0.0141496975 -0.011170833 -0.0056963195 0.020154977 -0.00028895808
-0.000973677 -0.007879571 0.0066166017 -0.0030843557 0.0050143786 -0.0022885911 0.012886936 -0.012133441
-0.001034026 0.026650095 0.00737345 0.005994907 -0.003994904 0.010555243 -0.020547159 -0.0084984945
-0.0074167154 0.001755448 0.005437601 -0.0010771462 -0.01595852 0.012858843 0.0054403082 -0.0072918776
-0.024914216 0.002121762 0.0052049984 0.0066328477 0.020768732 -0.0166618 -0.0034950494 0.0088592665
0.000928876 0.012079663 0.02597427 0.008832496 -0.003899254 0.013218052 -0.0077573103 -0.0051309676

action_model._discrete_distribution.branches.0.bias f4 [9]
00000000: 0000 0000 5c57 063c ccc9 273c e61f 043c
00000010: 3429 b2bb f660 20ba b2a6 2fbc 43a1 42bb
00000020: 7ee5 38bc
0.0 0.008199539 0.010240983 0.008064246 -0.0054370407 -0.0006117964 -0.010720896 -0.002969817
-0.011285184

action_model._discrete_distribution.branches.1.weight f4 [9, 128]
00000000: 4ecb 133b 334e cabb adfd 6a3c 19b4 d93b
00000010: cbac e639 6202 803c 9403 613c 4802 e43b
00000020: b56e 07ba 4e4d 793c b265 183c 5026 1ebc
00000030: 89c2 443a ce5f cabc 4d89 cc3b 19c0 313c
00000040: 7f85 f63a c303 fc3c 567e c8bc 5a0a a83c
00000050: b277 073c 285d 863c a6d3 96bb 4f8c 64bb
00000060: 22d5 74bc 64f5 28bc 8360 cc3b b149 823b
00000070: 7c63 b7bc 535d f7bb a1aa 0a3c 5347 9d3b
00000080: aabe 83ba 9a3b bdbc 5df6 23bc 3c7e b5bb
00000090: 25cd 2dbc ed0a 55bb be54 a2ba 660d f23b
000000a0: 1799 4d3c 3148 b1bc 8f7f ffbb fb35 b33b
000000b0: 9177 973c 7352 81bb edec 933b fa1c c5bb
000000c0: 6fe5 a6bb 97c7 2bbc c569 403c 8daa 86bb
000000d0: b005 5ebb 306c 9dbb 5743 46bb d2cb 9f3c
000000e0: 7b17 e73b 40de 8db9 0799 c2b9 e30c 00bb
000000f0: 3907 ef3b 45ac 1b3c d0b5 223b 8f8b 60bc
00000100: 0a87 353b 41bd b93b 3fe7 87bb e2f5 e4bb
00000110: 9e57 493c f2b2 00bc 37d9 f5bb 1a18 3a3c
00000120: e83f ed3b e7a8 323c d627 6fbc 46a4 b8bb
00000130: 2ab8 853c 0696 72bb d3bc aabb 013b e2bb
00000140: 7c59 ecbb 5bec 403c 3daf 29bc 007b a539
00000150: efcd c43a 7276 3b3c f5f0 dcbb bcc0 823c
00000160: 2a4c 22bc f64a f93b 720a 5bb9 820f a2ba
00000170: 886d 633b a178 033b 76cb 4d3c 7aca 553c
00000180: 40bb a2bb 3762 793b 0f59 f03b 4c6b 3a3c
00000190: 0a09 893c bb42 013c f212 893c 7da9 2abb
000001a0: dd0e 60bb 6e4b d63b baf1 1c3c 16c6 4638
000001b0: 5cf7 613b 828c 793b dd07 1e3a 4481 93b7
000001c0: e474 07bc 6297 f439 5897 a73b f9ba a7bb
000001d0: d172 173c 4db1 e63c 57dd f63b 2fba 87bc
000001e0: c63a 13bb ef18 cabb 1264 dbbb ce38 9fbc
000001f0: b977 903b 8a9c 553b b7bd 5f3c e6dc c13c
00000200: 5d7b 12bc 1ea2 583c 7506 9c3b 5561 e63b
00000210: 9c26 513b 8b80 413c 2391 9bbb 33c1 f43a
00000220: 06d0 e43b 1e01 3c3c 8d81 983c cf75 59bc
00000230: 2bf6 973b 1aa1 af3c 1834 98bc b1dd 60bc
00000240: 399a 78bc 0f5e a8bc c2af bf3b f772 e3bb
00000250: 21e1 263c 71e3 07bb 151d 733b d500 b03c
00000260: a943 39bc 7dac 153c cd75 923b f867 94ba
00000270: ed14 a0bc 6599 bfba e5e9 89bb fcd6 88bc
00000280: 8723 6b3c dfdf 753c a288 a33b c3bd 8b3a
00000290: b57a 5ebc 7ab7 0c3c a37d 803a 4303 493c
000002a0: c030 b0b9 d19c 3e3d cd47 2c3c 9e14 833c
000002b0: 7c7f 8d3a 3608 723c e1ee c0bc 609a 49bb
000002c0: d66e 0a3c 0348 953b 4cf0 943b 2b2c 0f3c
000002d0: de64 f3bb 7c43 f63a c23c 07bc 51c1 9a3b
000002e0: 43c5 3e3c f4be 59bb 54ad ccba fe32 b9bb
000002f0: df7b 2e3b 3032 6fbc db90 18bb b5c2 f3bb
00000300: 003e 423c 6898 57ba 4545 d8bb fde9 79bc
00000310: 4a4d 07bc 6788 c13c 0fdf cdba 5c2d 85bc
00000320: d616 f93c 2694 b3bb f814 483c 841e f63b
00000330: 3401 32bc 3324 85bc e0fd 173b 01f1 453c
00000340: f569 c9ba 871f 14bc 059d 89bc f692 eabb
00000350: 2c3c aa3c d113 8f3b 40b0 bbba 2675 4a3b
00000360: e711 2e3b 9c61 803c e24f 8cbc 9ea7 dd3b
00000370: 6298 44b9 9495 4abc e054 43bc 5f16 b8bc
00000380: 4f25 4a3b e21e 093b 97a4 083b e44d 2fbb
00000390: bb52 51bb afb6 35ba 4f4d 1abc a492 8fb8
000003a0: 5a0e 993b ec75 813b bbd3 83bb 47e3 583c
000003b0: ef94 843c 50f9 193c 8526 adbc ec75 9cbc
000003c0: d529 a2bc 50a8 8cba be3a 233c 3a25 383d
000003d0: 3a89 4fbb 895e 943c 5a61 ac3c 2976 253c
000003e0: 2430 82bc 14e6 eb3b 8a70 243b 7452 e53c
000003f0: aab7 b3bc ad11 88ba ae71 f83b e6c8 333c
0.00225516 -0.006173873 0.014342708 0.0066437838 0.0004399776 0.015626136 0.013733763 0.0069582798
-0.0005166338 0.015216185 0.00930159 -0.009652689 0.00075057946 -0.024703886 0.0062419535 0.010849022
0.0018808095 0.030763512 -0.024474304 0.020512749 0.008268284 0.016401842 -0.004602867 -0.003487367
-0.014943393 -0.010312412 0.006237091 0.00397607 -0.022386305 -0.007548967 0.008463533 0.0047997623
-0.0010051329 -0.02309971 -0.010007468 -0.00553873 -0.010607992 -0.0032507733 -0.0012384874 0.007386851
0.0125487065 -0.021640869 -0.0077971886 0.0054690815 0.01848963 -0.0039465963 0.0045143277 -0.006015417
-0.0050932686 -0.010484598 0.011743967 -0.0041096867 -0.0033877902 -0.0048041567 -0.003025254 0.019506369
0.0070523596 -0.00027059205 -0.00037116578 -0.001953893 0.007294562 0.0095015215 0.0024827607 -0.013705148
0.0027698898 0.005668313 -0.0041474397 -0.0069873193 0.012288956 -0.007855164 -0.0075027007 0.011358285
0.0072402842 0.010904527 -0.0145969 -0.0056348173 0.016323168 -0.003701569 -0.005210498 -0.0069040065
-0.007212816 0.011775102 -0.0103567215 0.00031562895 0.0015014986 0.011441814 -0.0067425915 0.015961044
-0.009905854 0.007607813 -0.00020889359 -0.0012364241 0.0034702737 0.0020060914 0.012560716 0.013048762
-0.0049661696 0.0038052925 0.0073348354 0.011378121 0.016727943 0.007889445 0.016732667 -0.0026040964
-0.0034188547 0.0065397536 0.0095791165 4.739136e-05 0.0034479713 0.0038078134 0.00060283934 -1.758396e-05
-0.008267615 0.00046652096 0.005114477 -0.0051187244 0.009243683 0.028160715 0.00753371 -0.016568271
-0.0022465452 -0.006167523 -0.006695279 -0.019436266 0.0044088033 0.0032594525 0.013656071 0.023664903
-0.008940545 0.0132222455 0.004761512 0.007030646 0.0031913882 0.011810432 -0.0047475263 0.00186733
0.006982806 0.011474876 0.018616462 -0.013272717 0.0046375 0.021439124 -0.018579528 -0.01372473
-0.015173488 -0.020552663 0.0058498094 -0.006941195 0.010185511 -0.002073493 0.0037096192 0.021484772
-0.011307635 0.009135363 0.0044696094 -0.0011322489 -0.019541228 -0.0014617859 -0.0042087906 -0.016704075
0.014351732 0.015006988 0.004990653 0.0010661412 -0.01357906 0.008588666 0.0009803068 0.012268844
-0.00033605658 0.04653627 0.0105151655 0.016001042 0.001079544 0.014772465 -0.023551406 -0.003076218
0.008449277 0.0045557036 0.004545247 0.008738558 -0.007427796 0.0018788422 -0.008254232 0.004722752
0.011643711 -0.003322539 -0.0015615621 -0.0056518307 0.0026624126 -0.014599368 -0.00232797 -0.0074389824
0.011855602 -0.00082243094 -0.0066000544 -0.015253541 -0.008258173 0.023624612 -0.0015706735 -0.01625698
0.030406397 -0.005480307 0.012212031 0.007510962 -0.010864545 -0.016252613 0.0023192093 0.012081386
-0.0015366661 -0.00904072 -0.016798506 -0.0071586324 0.020780645 0.004366376 -0.0014319494 0.003089258
0.0026560964 0.015671544 -0.017127935 0.0067643663 -0.00018748784 -0.012364764 -0.011922091 -0.022471605
0.0030844992 0.0020922949 0.0020850056 -0.0026749307 -0.003194018 -0.0006931824 -0.009417846 -6.846085e-05
0.0046709003 0.003950825 -0.004023043 0.013237781 0.016184298 0.00939782 -0.021136532 -0.019099198
-0.019795338 -0.0010731313 0.009962736 0.044957377 -0.0031667487 0.018111484 0.021042515 0.010098972
-0.015892096 0.0071990583 0.0025091493 0.027993418 -0.021938164 -0.0010381244 0.007581911 0.010973191

action_model._discrete_distribution.branches.1.bias f4 [9]
00000000: 6a89 b33b 62c9 c03b d4c9 27bc e576 48ba
00000010: 90d1 253a 0ced 17bc 7bdb 693a c9a4 b6b9
00000020: 25ea ac3b
0.0054790275 0.0058833817 -0.010240991 -0.0007647111 0.0006325478 -0.009272825 0.000892095 -0.0003483652
0.0052769356
