Lofty2024/results/Test17/MoveToPlayer.onnx (onnx, 77734 bytes, 4 tensors)

network_body._body_endoder.seq_layers.0.weight f4 [128, 12]
000000 c3 96 78 3d 9c 33 3c be 0b 89 ac be 7f 08 09 3e
       0.060690653 -0.18379062 -0.33698305 0.13382147
000010 30 a9 2c bd 87 11 bf be 01 dc bf 3b c8 14 7a bd
       -0.042153537 -0.3731806 0.005855084 -0.061054975
000020 90 ac 49 3f f6 a8 2c 3e 84 32 00 be f7 30 b9 be
       0.78778934 0.16861328 -0.1251927 -0.3617017
000030 97 35 2c 3c 0d a7 9c be 87 a2 93 3e f9 48 87 be
       0.010510824 -0.305962 0.28834936 -0.2642286
000040 24 a6 0a bd 65 bc 81 bd 66 59 8f be 4b 0a 1f 3e
       -0.03384985 -0.063347615 -0.27997893 0.1553127
000050 f2 63 0d 3f 9a 69 c0 bd d2 9e b7 3d fa 48 f1 be
       0.5523063 -0.09395142 0.089658394 -0.4712599
000060 fb ed 80 be 9e 86 a9 be 9d 92 ca 3e c1 3c df be
       -0.25181565 -0.33110517 0.39564982 -0.4360104
000070 38 71 f8 3d f2 09 86 3e 76 59 36 be 60 2a e3 3e
       0.1213097 0.26179463 -0.17807564 0.44368267
000080 0f 84 9d be 78 87 a1 3e f6 ba d7 3e 9b 5c 76 bd
       -0.30764815 0.31548667 0.42134827 -0.06014691
000090 c5 72 8a be 94 6d 7b be 01 c7 8b bc 3b 5e ba 3d
       -0.27040687 -0.2455352 -0.017062666 0.09100004
0000a0 21 5a 0b bf 13 9a 44 3c 37 ef db bd fb 11 93 3c
       -0.544344 0.011999625 -0.10738986 0.01795291
0000b0 5d d9 2d be f9 36 f6 be a0 20 52 bb 8d 1a 71 3d
       -0.16977449 -0.48088816 -0.0032062903 0.05886321
0000c0 8d ce a4 3d da 1b fb 3e 02 ba 94 be c7 94 cf be
       0.08047209 0.49044687 -0.29048163 -0.40543196
0000d0 bc 97 07 bf e8 ad 5e be b1 fd b2 bd 79 62 62 be
       -0.52965903 -0.21746027 -0.08739794 -0.22107877
0000e0 d3 7a 6c 3e 15 a7 19 3e fa 13 db be 20 08 ba 3d
       0.23093729 0.15005143 -0.42788678 0.09083581
0000f0 a9 24 bd 3e 14 04 a0 3d 14 d9 0b 3d c7 0e 0b bf
       0.36942032 0.07813278 0.03414257 -0.54319423
000100 67 86 34 3e 3a b7 6e be e4 72 23 3e fd b3 7e be
       0.17629395 -0.23312083 0.15961796 -0.24873348
000110 4a 28 60 bf 49 08 25 bd 77 9a 4d be a0 7b a2 be
       -0.87561476 -0.040291104 -0.20078455 -0.31734943
000120 9e 27 ed 3c d8 98 43 bf d8 a8 c2 3e fc 43 ba 3c
       0.028949555 -0.76405096 0.38019443 0.022737496
000130 91 a5 5e 3d 5c 68 c8 3e 3a 7d d0 3c 50 11 35 bf
       0.054357115 0.3914212 0.025450338 -0.7072954
000140 07 7b 49 be a3 d9 f8 bd 28 f9 93 be 96 23 43 3e
       -0.19675837 -0.12150886 -0.2890103 0.19056544
000150 e1 f2 76 3e e4 46 d1 be 62 7d df 3e 1c bb a2 3d
       0.24116088 -0.40874398 0.43650347 0.079458445
000160 b8 89 2f 3f 02 d2 05 bf 79 96 c9 3e cd 9b 8c be
       0.6856952 -0.5227357 0.39372614 -0.27462617
000170 97 90 67 3e 72 8f 4a bf 35 af 9e be 84 e7 ed 3e
       0.2261375 -0.7912513 -0.30993047 0.46465695
000180 21 c1 90 3c be 06 fa 3e 4a 72 4b 3e 5c 89 e7 3d
       0.017670216 0.4883327 0.19867817 0.11305496
000190 47 3d 9a 3d 01 e6 83 3d d6 ac 18 bc d3 72 3d be
       0.07531219 0.06440354 -0.009318551 -0.18500833
0001a0 69 84 c1 3e 86 c3 8a be 1e 0a a4 3d 85 1f 83 be
       0.37796333 -0.27102298 0.08009742 -0.25609985
0001b0 08 c4 2b 3e 3d f5 9f be a0 10 83 be 65 03 29 bc
       0.16773999 -0.3124179 -0.2559862 -0.010315751
0001c0 7d 56 d7 bd f5 a7 b0 3e e2 f8 0d 3f 97 72 be 3b
       -0.10514543 0.3450314 0.5545789 0.005812
0001d0 09 2a 4f 3c aa a3 c0 3d 82 51 94 bd b5 27 d2 3e
       0.012644299 0.094062164 -0.07242109 0.4104592
0001e0 d2 77 63 3e eb ae 42 bf 51 6b 10 3f 8e b5 c7 bc
       0.22213677 -0.76048154 0.5641375 -0.024378564
0001f0 47 58 55 3e 04 b9 a6 bd ed 5d 48 3d 66 e5 be be
       0.20834456 -0.08140758 0.0489177 -0.37284392
000200 27 f1 62 3e 8b bd 34 be 87 c9 53 be a5 c2 1d be
       0.22162305 -0.1765043 -0.20682345 -0.15406282
000210 7d b6 7a 3e 7a 69 08 3e 78 39 fb be 15 fc 91 be
       0.24483676 0.13321486 -0.49067283 -0.28512636
000220 9c b1 e8 3e 39 cb 37 3c 7d 41 7f be ea e8 78 3e
       0.45448005 0.011217886 -0.24927326 0.243076
000230 f6 63 d0 be 51 f9 d0 3e f6 22 e7 3c 35 67 b3 be
       -0.40701264 0.40815213 0.028214913 -0.35039678
000240 02 17 f1 bd c7 c7 46 3e 06 f6 12 bf 17 27 48 be
       -0.117719665 0.19412147 -0.5740665 -0.19546162
000250 2d 0f 59 3c 9e 47 42 be ec b1 ea 3e bc b5 23 3e
       0.013248247 -0.18972632 0.4583887 0.15987295
000260 ae 6b 0f 3f d8 6c 0e 3e f6 fa d1 be d1 bb 95 be
       0.5602368 0.13908708 -0.4101178 -0.29244855
000270 c6 ef ec 3d 7f d9 1b bf 2f 35 29 3f bd a3 67 3e
       0.11569171 -0.6087875 0.66096777 0.22621055
000280 05 2b cf bc 49 d1 1f be f6 38 40 3d 7d b7 d0 3d
       -0.025289068 -0.1560718 0.046929322 0.101912476
000290 9e 80 2e be 25 84 c4 3c a1 09 0a be f0 a4 c7 3d
       -0.17041251 0.023988793 -0.13480236 0.09748256
0002a0 77 69 0c 3f 3f a8 9b be ad 90 89 bd 03 f4 4c 3e
       0.54848427 -0.304018 -0.06717048 0.20014958
0002b0 8a 1d 88 be 9e 17 cb 3e 7d 03 6b be 5e bd d7 be
       -0.26585037 0.39666456 -0.2295055 -0.42136663
0002c0 9b b8 95 3e a4 5d ff 3e b6 99 83 be ec 07 2a be
       0.29242405 0.4987613 -0.2570321 -0.16604584
0002d0 ba 17 df 3e 6c 1e 18 3f 1e 27 41 be 49 b4 85 be
       0.4357279 0.5942142 -0.18862578 -0.2611411
0002e0 d9 90 14 be d0 f7 26 be 73 f7 72 3d 8b 60 09 be
       -0.1450838 -0.1630547 0.059318017 -0.13415734
0002f0 7c d4 5a bb 79 f1 29 3e 24 52 91 be aa fc b3 be
       -0.003339081 0.16596021 -0.2838298 -0.35153705
000300 ad 1d 26 3e 84 81 d7 3d f7 25 fb be 72 5e f7 3e
       0.16222258 0.1052275 -0.49052402 0.48314244
000310 52 de 98 3d ea 3e 02 3f d0 7b 9a be eb 3b 0a be
       0.07464279 0.5087725 -0.30172586 -0.1349942
000320 b2 c5 52 3d da 70 36 3f 4d cd b3 3e 3c 4e eb bd
       0.05145807 0.7126595 0.3511757 -0.114895314
000330 25 aa 9c 3d 21 4a 08 3f e6 ff b9 3e 9e c3 7b 3e
       0.0764964 0.5323811 0.36328048 0.24586341
000340 cc 0d 69 be db 66 d9 bd 64 ba 50 3e 9b 01 6b 3e
       -0.2275917 -0.10615321 0.20383602 0.22949831
000350 90 65 d3 3e ea 2a d7 bc 3a 6d 88 bd 99 79 a0 bd
       0.41288424 -0.02626558 -0.06661458 -0.07835693
000360 b4 72 80 be 4a 37 75 be 14 82 06 3e ed 1c 32 bf
       -0.25087512 -0.23946872 0.13135558 -0.6957539
000370 1c a1 6b 3e c0 e8 b4 3d 85 96 9e bd 65 7a 47 be
       0.23010677 0.08833456 -0.07743553 -0.19480284
000380 cb 2b 3e 3e ee a5 96 bd 66 f4 c5 bd 8e 18 55 3e
       0.18571393 -0.07355867 -0.09665756 0.20810148
000390 9d 25 80 3d 3c a5 85 be 41 f9 81 3e 29 c3 04 be
       0.06257174 -0.26102626 0.25385478 -0.12965073
0003a0 46 18 96 be f7 d4 c4 bd c0 89 d8 3e 41 1c 0a bd
       -0.29315394 -0.09610932 0.42292595 -0.03371835
0003b0 bc 6d 7b 3e 47 8b e5 bc 99 18 83 3e b2 34 f6 3c
       0.24553579 -0.028020514 0.25604704 0.030054424
0003c0 c8 62 2d 3d e1 58 7c 3d ef a6 8e bd 3a d9 76 be
       0.042330533 0.0616082 -0.06965434 -0.24106303
0003d0 13 9f b1 bc 34 5d fa bd 56 c1 85 be 3b 7b f2 bd
       -0.021682298 -0.12224808 -0.26124066 -0.118399106
0003e0 b2 23 9f 3d 4c 7e 25 3d d5 42 16 bf ef 7d db 3d
       0.0777048 0.04040365 -0.5869573 0.10717379
0003f0 5e 70 14 be 7d c5 97 3e 4d 4e 2c 3f 13 cc b6 bd
       -0.1449599 0.2964286 0.6730698 -0.08925643

network_body._body_endoder.seq_layers.0.bias f4 [128]
000000 00 00 00 00 00 00 00 00 00 00 00 00 00 00 00 00
       0.0 0.0 0.0 0.0
000010 00 00 00 00 00 00 00 00 00 00 00 00 00 00 00 00
       0.0 0.0 0.0 0.0
000020 00 00 00 00 00 00 00 00 00 00 00 00 00 00 00 00
       0.0 0.0 0.0 0.0
000030 00 00 00 00 00 00 00 00 00 00 00 00 00 00 00 00
       0.0 0.0 0.0 0.0
000040 00 00 00 00 00 00 00 00 00 00 00 00 00 00 00 00
       0.0 0.0 0.0 0.0
000050 00 00 00 00 00 00 00 00 00 00 00 00 00 00 00 00
       0.0 0.0 0.0 0.0
000060 00 00 00 00 00 00 00 00 00 00 00 00 00 00 00 00
       0.0 0.0 0.0 0.0
000070 00 00 00 00 00 00 00 00 00 00 00 00 00 00 00 00
       0.0 0.0 0.0 0.0
000080 00 00 00 00 00 00 00 00 00 00 00 00 00 00 00 00
       0.0 0.0 0.0 0.0
000090 00 00 00 00 00 00 00 00 00 00 00 00 00 00 00 00
       0.0 0.0 0.0 0.0
0000a0 00 00 00 00 00 00 00 00 00 00 00 00 00 00 00 00
       0.0 0.0 0.0 0.0
0000b0 00 00 00 00 00 00 00 00 00 00 00 00 00 00 00 00
       0.0 0.0 0.0 0.0
0000c0 00 00 00 00 00 00 00 00 00 00 00 00 00 00 00 00
       0.0 0.0 0.0 0.0
0000d0 00 00 00 00 00 00 00 00 00 00 00 00 00 00 00 00
       0.0 0.0 0.0 0.0
0000e0 00 00 00 00 00 00 00 00 00 00 00 00 00 00 00 00
       0.0 0.0 0.0 0.0
0000f0 00 00 00 00 00 00 00 00 00 00 00 00 00 00 00 00
       0.0 0.0 0.0 0.0
000100 00 00 00 00 00 00 00 00 00 00 00 00 00 00 00 00
       0.0 0.0 0.0 0.0
000110 00 00 00 00 00 00 00 00 00 00 00 00 00 00 00 00
       0.0 0.0 0.0 0.0
000120 00 00 00 00 00 00 00 00 00 00 00 00 00 00 00 00
       0.0 0.0 0.0 0.0
000130 00 00 00 00 00 00 00 00 00 00 00 00 00 00 00 00
       0.0 0.0 0.0 0.0
000140 00 00 00 00 00 00 00 00 00 00 00 00 00 00 00 00
       0.0 0.0 0.0 0.0
000150 00 00 00 00 00 00 00 00 00 00 00 00 00 00 00 00
       0.0 0.0 0.0 0.0
000160 00 00 00 00 00 00 00 00 00 00 00 00 00 00 00 00
       0.0 0.0 0.0 0.0
000170 00 00 00 00 00 00 00 00 00 00 00 00 00 00 00 00
       0.0 0.0 0.0 0.0
000180 00 00 00 00 00 00 00 00 00 00 00 00 00 00 00 00
       0.0 0.0 0.0 0.0
000190 00 00 00 00 00 00 00 00 00 00 00 00 00 00 00 00
       0.0 0.0 0.0 0.0
0001a0 00 00 00 00 00 00 00 00 00 00 00 00 00 00 00 00
       0.0 0.0 0.0 0.0
0001b0 00 00 00 00 00 00 00 00 00 00 00 00 00 00 00 00
       0.0 0.0 0.0 0.0
0001c0 00 00 00 00 00 00 00 00 00 00 00 00 00 00 00 00
       0.0 0.0 0.0 0.0
0001d0 00 00 00 00 00 00 00 00 00 00 00 00 00 00 00 00
       0.0 0.0 0.0 0.0
0001e0 00 00 00 00 00 00 00 00 00 00 00 00 00 00 00 00
       0.0 0.0 0.0 0.0
0001f0 00 00 00 00 00 00 00 00 00 00 00 00 00 00 00 00
       0.0 0.0 0.0 0.0

network_body._body_endoder.seq_layers.2.weight f4 [128, 128]
000000 06 b2 13 bd 64 18 0c 3e 2b 16 2b 3d 6f 0a 20 3e
       -0.03605845 0.1368118 0.041769188 0.1562898
000010 6e 6f a7 3b f7 7c 5a bc f0 fd 87 3d eb 9f 0f 3e
       0.005109719 -0.013335458 0.066402316 0.14025848
000020 6f b4 fa b7 20 5b 9d bd 16 c6 d2 bd 92 9c 4b 3e
       -2.9886343e-05 -0.07683396 -0.10291688 0.19883946
000030 86 92 00 3e b7 65 85 bc e5 1e ef 3d ea ae 6c 3c
       0.12555894 -0.016283853 0.116758145 0.014446
000040 4f fa 0a be 95 d8 bd 3c b6 28 84 3d 34 01 87 3c
       -0.13572048 0.023174563 0.064530775 0.016480066
000050 b1 c2 9a bd 2c 14 81 bd fa f7 78 bd 04 06 3c 3d
       -0.07556666 -0.063026756 -0.060783364 0.045904174
000060 b6 36 a2 bd d8 46 e8 bd 55 58 5c bb b4 7d 97 bd
       -0.079205915 -0.113416374 -0.0033621986 -0.07397023
000070 e6 65 29 be 50 24 99 3d 3e 24 bb 3c 4e 9e 53 3c
       -0.16542777 0.07477629 0.02284443 0.012916161
000080 39 59 a6 bd bd 6b 57 bb 90 5d f2 3d 7a 11 b3 3d
       -0.081224866 -0.0032870614 0.11834252 0.08743568
000090 b8 3a f5 3d d6 07 17 be 06 11 00 bd 26 19 e3 3c
       0.1197409 -0.14749083 -0.031266235 0.027721953
0000a0 b7 56 2b 3d c7 4d e8 3d 57 57 aa 3d d7 f6 4a 3d
       0.041830745 0.1134296 0.0831744 0.04955181
0000b0 e1 b5 8b 3d 2d 90 81 3d 5e ec d2 bc a1 2e 05 3e
       0.068218 0.063263275 -0.025747474 0.13006069
0000c0 d7 bf a2 bc 85 1e 27 3e 7f 3c c7 bc 03 6c 4b 3e
       -0.019866867 0.16320236 -0.024320839 0.19865422
0000d0 c0 05 2e bd 5d ba 6e 3d a3 d9 65 bd e4 af 27 3d
       -0.042485952 0.0582832 -0.056115758 0.040939227
0000e0 7e bc 9a bd f2 87 e0 3d 97 a9 cf bd a2 a9 06 be
       -0.07555483 0.109634295 -0.101397686 -0.13150647
0000f0 64 dc 28 3e 27 cd 40 bd 02 b1 c6 bd c5 ca 02 bd
       0.16490322 -0.04707065 -0.0970173 -0.031931657
000100 0c c3 d7 3d f9 c1 07 3d 03 4a 3b 3c 48 5b 6f bd
       0.10535249 0.03314397 0.01143122 -0.058436662
000110 ed d0 06 be 1c 9e 99 bd 0a 55 c0 bc a7 5d b5 bc
       -0.13165636 -0.0750086 -0.02347805 -0.022139383
000120 14 21 c0 3d bb 78 a5 3d 8d db 28 bd 61 ca 70 bc
       0.09381309 0.08079668 -0.041225005 -0.014696688
000130 ad e5 c5 bd 32 26 62 bd 2d 3e d9 3d 7e e7 d7 3c
       -0.09662948 -0.055212207 0.10607562 0.026355501
000140 3a e8 fd 3a 67 fb 6c bc fd 99 f5 3d cb 51 1f be
       0.0019371577 -0.014464236 0.119922616 -0.15558545
000150 d0 f0 b7 bd 49 df 32 3d ca 50 25 bd fd fa c3 bd
       -0.08981478 0.043669973 -0.04036025 -0.095693566
000160 50 57 d3 3d d0 7e 30 3d c8 1d 0f 3e 5c ab 05 3e
       0.10319388 0.043089688 0.13976204 0.1305365
000170 24 c6 e5 3d 0f c0 8e 3d 9e e7 92 3d e5 df 03 3d
       0.11219433 0.06970226 0.07173084 0.032195944
000180 2d b9 c1 bc d3 73 5b bd 4d 2f 23 be f2 d2 9f bc
       -0.023647869 -0.053577255 -0.15936013 -0.019509766
000190 99 3f 64 be 84 2c bf 3d e3 2a 28 3e b9 d3 de bd
       -0.22289886 0.093346626 0.1642261 -0.10880227
0001a0 00 22 b5 3d 5a 6f 4d bc a0 70 d3 bc 48 a9 b7 bd
       0.088443756 -0.012538755 -0.02581054 -0.08967835
0001b0 cb 76 99 bd d2 4e 3a 3d 92 23 a5 bc 8a 9b 6e 3c
       -0.07493361 0.045485325 -0.020158563 0.014563451
0001c0 bd 91 6b 3d 1b c0 19 bd 2a d8 30 be 52 1a 78 bc
       0.057512034 -0.03753672 -0.1726996 -0.015142994
0001d0 e9 4f 12 bd 99 71 60 3d 74 b6 45 bd 3d c3 2a 3e
       -0.03572074 0.054795835 -0.048269704 0.1667604
0001e0 17 c8 8f 3c 8f 27 dd bd 70 89 ae bd 88 65 2f 3d
       0.017551465 -0.10798561 -0.08522308 0.042821437
0001f0 25 40 06 3d e1 52 d3 bd fd 1b d6 3d 49 a1 9a bd
       0.032776017 -0.10318542 0.10454557 -0.07550294
000200 da e7 f1 3c 07 c9 94 bd c0 04 e3 3d 5e 30 d2 bd
       0.0295295 -0.072649054 0.1108489 -0.102631316
000210 a8 67 c3 bc 97 15 1a bd 2b 83 ac 3d 0b 17 b5 bd
       -0.023853138 -0.037618246 0.08423456 -0.08842286
000220 83 d1 a0 bd 6a 35 1d 3e fd d4 dd 3b b1 90 5e 3c
       -0.07852461 0.15352407 0.006769775 0.013584302
000230 cb 7b 77 bd 12 0e bd 3d 5b 93 71 3d e6 c5 ad 3c
       -0.060420793 0.09231199 0.05897842 0.02121253
000240 f4 64 40 bd da 4e c0 3d 01 b2 64 bd 5b 36 da bd
       -0.046971276 0.0939004 -0.05583382 -0.10654899
000250 58 78 13 be 97 30 0a bc 18 38 f2 3b 8f dd 45 3d
       -0.14401376 -0.008434436 0.007391941 0.048306998
000260 2a 13 9d 3d 9a 99 af bd 76 52 ac 3d 7d e1 6c bd
       0.07669671 -0.08574219 0.08414166 -0.05783223
000270 e9 20 25 bd 5b 0f d2 3d 5d 48 98 3d e2 88 a7 3d
       -0.04031459 0.10256835 0.07435677 0.08180405
000280 05 8c fc bd b0 88 24 3c e4 52 05 bd 29 f0 34 3d
       -0.12331394 0.010042354 -0.032549754 0.044174347
000290 63 d3 b5 3d 3b a3 08 3e a4 b1 01 3e f4 41 ee bd
       0.088782094 0.13343517 0.12665421 -0.11633673
0002a0 77 6a d2 bd cd e0 17 3e 46 42 0b bd 30 08 02 bc
       -0.10274213 0.14831848 -0.03399875 -0.007936522
0002b0 92 15 cb bc 73 36 bf bb 20 ec 01 be 1d c7 57 bd
       -0.024790559 -0.0058353483 -0.12687731 -0.052680124
0002c0 db 5d 15 be 32 2c 87 3d 65 88 0c 3c 9e 97 c9 3d
       -0.14586584 0.066002265 0.008577441 0.09843372
0002d0 7c fe 6e bd 02 a0 07 bd 88 4f a7 3d 6f 98 90 bd
       -0.058348164 -0.03311158 0.08169466 -0.070603244
0002e0 c4 0c 90 3c 52 cf b9 3c 67 6e f6 bc f8 05 8a 3c
       0.017584212 0.022681866 -0.03008194 0.01684855
0002f0 28 5c f9 bd 09 fc b5 3d ed f0 a2 bd 74 d4 39 bd
       -0.121757805 0.088859625 -0.07956109 -0.045368627
000300 9b be a3 bc ed da cd 3c 3a c3 e2 3d 36 15 15 be
       -0.019988349 0.025128806 0.11072393 -0.14558873
000310 a8 b2 fe bd 3e 2f 45 3d 39 d1 c4 3c 01 7b 23 3d
       -0.1243642 0.048140757 0.024025546 0.039912228
000320 76 3d db bd e8 02 e7 3d f2 83 56 bc 89 73 17 3c
       -0.10705082 0.11279851 -0.013092982 0.009243854
000330 8b 7d b1 bd b0 58 f6 3d 73 65 0c be 49 c4 17 bd
       -0.086665235 0.120286345 -0.13710575 -0.037052426
000340 32 5e ea 3b 20 b9 99 3d 32 ce 9c bd ee 37 3a be
       0.0071523422 0.07506013 -0.07656516 -0.18185398
000350 69 5d 10 bc 14 70 cf bd f9 07 cd 3c 89 b3 f4 bd
       -0.008811333 -0.10128799 0.025028216 -0.11948306
000360 b7 01 e5 bd f0 d5 14 bd 97 9b 09 3d 4d 38 16 3e
       -0.11181968 -0.03633684 0.033595648 0.14669915
000370 ca 73 27 3c f1 fa 00 3c 84 d8 12 3e 87 4b 25 bd
       0.010220477 0.007872329 0.14340407 -0.04035523
000380 0f 87 fd bd d4 f7 be bc 58 f3 b1 bd 8f 17 93 3d
       -0.12379276 -0.023311533 -0.08688992 0.07182228
000390 79 c4 37 3d 40 f6 64 bc a3 a4 90 bd 3c 27 be bd
       0.044865105 -0.013974726 -0.07062652 -0.09284827
0003a0 e9 c4 a8 bd ed 53 ac 3d fe 99 49 bc 53 94 e6 3d
       -0.08240683 0.08414445 -0.012304781 0.11258759
0003b0 eb 76 13 3e c1 15 de bd c2 75 a7 3d b7 d3 0e 3c
       0.14400832 -0.10843993 0.081767574 0.008717469
0003c0 60 5a 29 3d 19 52 80 bc 58 b1 80 3c c4 ed 69 3d
       0.041345954 -0.015664147 0.015709564 0.057111517
0003d0 27 bb b1 bd 59 19 e3 bd ae 7b c0 3d 8d 50 2a 3c
       -0.086782746 -0.11088819 0.0939859 0.010395181
0003e0 a6 25 7b 3c 8e b3 72 3e 0b 4e b7 3d 35 43 2c 3d
       0.0153288 0.23701307 0.089504324 0.04205628
0003f0 48 71 3b 3d db 15 60 bd 58 50 0c be bc ae 1a bd
       0.04576233 -0.054708343 -0.13702524 -0.037764296

action_model._discrete_distribution.branches.0.weight f4 [1, 128]
000000 98 b0 56 3b f5 e3 a3 bc 8f a6 90 3c ab 43 56 bb
       0.0032759067 -0.02000616 0.017657546 -0.0032694142
000010 3e 38 04 bc 93 3a b3 bb 53 89 38 3a fb 14 1a 3a
       -0.00807005 -0.005469629 0.0007039506 0.000587776
000020 53 e2 19 3c 4d 69 c5 ba 40 3a 55 3c bb 60 d9 bb
       0.009392339 -0.0015061289 0.013014376 -0.0066338456
000030 39 11 45 3c cc c8 86 bc d8 07 1b bc df 8f 01 bb
       0.012028032 -0.01645317 -0.009462319 -0.0019769592
000040 43 1e f6 3b f0 04 c9 3b 80 79 1e 3b bf a1 47 bb
       0.0075109317 0.006134622 0.0024181306 -0.0030461398
000050 b5 92 61 ba ad 88 a0 bb 96 b0 2e 3b 53 c8 f2 3b
       -0.000860493 -0.0048991055 0.0026655546 0.0074091344
000060 fa 65 e5 bb 12 21 03 ba 20 e4 1a bc f3 52 05 3c
       -0.007000682 -0.0005002181 -0.009453803 0.008137452
000070 3a 4b c8 bb 62 7c ac 3b ed 40 30 bc a9 eb b6 3b
       -0.0061124833 0.005263851 -0.010757667 0.005582292
000080 35 fd 94 bb 10 63 1f 3c 65 0e 16 bc 08 45 dd bb
       -0.004546786 0.009728208 -0.009158705 -0.006752614
000090 a3 32 15 38 5e f1 37 3b 9f f4 52 bb 46 d1 04 3b
       3.5571527e-05 0.002806745 -0.0032189263 0.0020266338
0000a0 1e 14 a8 bc 02 ea 86 bc a0 a4 be 3a 13 85 4b 3c
       -0.020517405 -0.016469005 0.0014544912 0.012421864
0000b0 0b af 52 b9 55 dc 43 3c 93 3c cb 3c 15 00 c8 bc
       -0.00020092369 0.011954387 0.024809157 -0.024414102
0000c0 4b e3 58 3b 27 5f c0 ba 68 c8 cd 3b f6 e8 af 3c
       0.0033094462 -0.0014676795 0.006279994 0.02147339
0000d0 03 2c f4 bb 1b 49 51 3c 35 8c f0 bb d3 34 fa bb
       -0.0074515357 0.012773777 -0.0073409327 -0.0076356917
0000e0 2f a4 47 3c 53 13 8f 3c 3f 4d 2e bc 33 1b 05 3b
       0.0121851405 0.01746527 -0.010638534 0.0020310401
0000f0 90 77 e8 bb 57 84 88 3b e0 de 7c bc e9 ca 10 bb
       -0.007094331 0.0041661668 -0.015433997 -0.00220936
000100 02 e9 3e 3c 66 b9 ac bb 82 e1 be 3c 63 a8 3b b9
       0.011652233 -0.0052711247 0.02330089 -0.00017896439
000110 34 40 32 3b 43 0c 5e bc 3f 97 27 bc 6b 33 5d bb
       0.0027198913 -0.013552728 -0.010228931 -0.0033752571
000120 b8 38 82 bc 8a da e2 ba ca 07 ec 3b da 42 e1 3b
       -0.015896186 -0.0017307561 0.007203077 0.0068744244
000130 1d 0e a2 3b bf 1d 08 3b 37 08 06 3c 9a a6 27 bb
       0.00494553 0.0020769683 0.0081806695 -0.002558148
000140 17 ee f8 bb 96 c8 4a ba e8 32 fd 3b 67 a6 4d bc
       -0.007596742 -0.0007735578 0.0077270158 -0.01255188
000150 df d7 9d bb 2a ba a5 bc f7 7d e0 bb 5a 3c ba 3c
       -0.0048169936 -0.020230372 -0.0068509537 0.022733856
000160 68 63 0e b9 0b 8c 1d ba 08 4d 3e 3b 8b 88 2e 3c
       -0.00013579207 -0.0006009943 0.0029037613 0.010652672
000170 7f 42 a7 bb f0 50 2e 3b f9 fe 1e bc 07 a4 5d 3c
       -0.0051043625 0.0026598535 -0.009704345 0.013527877
000180 62 d7 42 bc 09 95 c2 ba aa c4 05 3a ba 6f f5 bb
       -0.011892172 -0.0014845441 0.00051028526 -0.0074901255
000190 7d bd 15 bc 1d 46 16 3c 77 e2 5e bc 7c f1 47 bc
       -0.009139416 0.00917199 -0.013603798 -0.01220357
0001a0 7c bc 35 3c 0f 54 27 3c 89 ae 1b 3c 6e f2 b8 ba
       0.011092301 0.010212912 0.009502062 -0.0014110336
0001b0 4b f0 3d bc 38 72 4e bc 8f 6b 36 3b 5f a0 34 3a
       -0.011592935 -0.012600474 0.0027835106 0.0006890352
0001c0 85 57 51 bc a3 96 a2 3a 9d 62 40 3b 4c 67 42 bc
       -0.012777214 0.0012404512 0.0029355653 -0.011865448
0001d0 98 f6 30 3b ed d9 ab bb 32 21 04 3c 0a ba 48 3c
       0.002700245 -0.0052444846 0.008064555 0.012251386
0001e0 4f 7a f9 3a e8 0e 56 bc 60 48 4e 3c b2 7b 16 3c
       0.0019033643 -0.013065077 0.012590498 0.009184765
0001f0 50 b1 5e bc 66 a2 4c 3c 08 e3 78 b8 a7 ff 4b 3c
       -0.013592079 0.012489891 -5.9339247e-05 0.012451089
