Lofty2024/results/Test17/MoveToPlayer/checkpoint.pt (torch, 154850 bytes, 10 tensors)

network_body._body_endoder.seq_layers.0.weight f4 [128, 12]
00000000: c396 783d 9c33 3cbe 0b89 acbe 7f08 093e
00000010: 30a9 2cbd 8711 bfbe 01dc bf3b c814 7abd
00000020: 90ac 493f f6a8 2c3e 8432 00be f730 b9be
00000030: 9735 2c3c 0da7 9cbe 87a2 933e f948 87be
00000040: 24a6 0abd 65bc 81bd 6659 8fbe 4b0a 1f3e
00000050: f263 0d3f 9a69 c0bd d29e b73d fa48 f1be
00000060: fbed 80be 9e86 a9be 9d92 ca3e c13c dfbe
00000070: 3871 f83d f209 863e 7659 36be 602a e33e
00000080: 0f84 9dbe 7887 a13e f6ba d73e 9b5c 76bd
00000090: c572 8abe 946d 7bbe 01c7 8bbc 3b5e ba3d
000000a0: 215a 0bbf 139a 443c 37ef dbbd fb11 933c
000000b0: 5dd9 2dbe f936 f6be a020 52bb 8d1a 713d
000000c0: 8dce a43d da1b fb3e 02ba 94be c794 cfbe
000000d0: bc97 07bf e8ad 5ebe b1fd b2bd 7962 62be
000000e0: d37a 6c3e 15a7 193e fa13 dbbe 2008 ba3d
000000f0: a924 bd3e 1404 a03d 14d9 0b3d c70e 0bbf
00000100: 6786 343e 3ab7 6ebe e472 233e fdb3 7ebe
00000110: 4a28 60bf 4908 25bd 779a 4dbe a07b a2be
00000120: 9e27 ed3c d898 43bf d8a8 c23e fc43 ba3c
00000130: 91a5 5e3d 5c68 c83e 3a7d d03c 5011 35bf
00000140: 077b 49be a3d9 f8bd 28f9 93be 9623 433e
00000150: e1f2 763e e446 d1be 627d df3e 1cbb a23d
00000160: b889 2f3f 02d2 05bf 7996 c93e cd9b 8cbe
00000170: 9790 673e 728f 4abf 35af 9ebe 84e7 ed3e
00000180: 21c1 903c be06 fa3e 4a72 4b3e 5c89 e73d
00000190: 473d 9a3d 01e6 833d d6ac 18bc d372 3dbe
000001a0: 6984 c13e 86c3 8abe 1e0a a43d 851f 83be
000001b0: 08c4 2b3e 3df5 9fbe a010 83be 6503 29bc
000001c0: 7d56 d7bd f5a7 b03e e2f8 0d3f 9772 be3b
000001d0: 092a 4f3c aaa3 c03d 8251 94bd b527 d23e
000001e0: d277 633e ebae 42bf 516b 103f 8eb5 c7bc
000001f0: 4758 553e 04b9 a6bd ed5d 483d 66e5 bebe
00000200: 27f1 623e 8bbd 34be 87c9 53be a5c2 1dbe
00000210: 7db6 7a3e 7a69 083e 7839 fbbe 15fc 91be
00000220: 9cb1 e83e 39cb 373c 7d41 7fbe eae8 783e
00000230: f663 d0be 51f9 d03e f622 e73c 3567 b3be
00000240: 0217 f1bd c7c7 463e 06f6 12bf 1727 48be
00000250: 2d0f 593c 9e47 42be ecb1 ea3e bcb5 233e
00000260: ae6b 0f3f d86c 0e3e f6fa d1be d1bb 95be
00000270: c6ef ec3d 7fd9 1bbf 2f35 293f bda3 673e
00000280: 052b cfbc 49d1 1fbe f638 403d 7db7 d03d
00000290: 9e80 2ebe 2584 c43c a109 0abe f0a4 c73d
000002a0: 7769 0c3f 3fa8 9bbe ad90 89bd 03f4 4c3e
000002b0: 8a1d 88be 9e17 cb3e 7d03 6bbe 5ebd d7be
000002c0: 9bb8 953e a45d ff3e b699 83be ec07 2abe
000002d0: ba17 df3e 6c1e 183f 1e27 41be 49b4 85be
000002e0: d990 14be d0f7 26be 73f7 723d 8b60 09be
000002f0: 7cd4 5abb 79f1 293e 2452 91be aafc b3be
00000300: ad1d 263e 8481 d73d f725 fbbe 725e f73e
00000310: 52de 983d ea3e 023f d07b 9abe eb3b 0abe
00000320: b2c5 523d da70 363f 4dcd b33e 3c4e ebbd
00000330: 25aa 9c3d 214a 083f e6ff b93e 9ec3 7b3e
00000340: cc0d 69be db66 d9bd 64ba 503e 9b01 6b3e
00000350: 9065 d33e ea2a d7bc 3a6d 88bd 9979 a0bd
00000360: b472 80be 4a37 75be 1482 063e ed1c 32bf
00000370: 1ca1 6b3e c0e8 b43d 8596 9ebd 657a 47be
00000380: cb2b 3e3e eea5 96bd 66f4 c5bd 8e18 553e
00000390: 9d25 803d 3ca5 85be 41f9 813e 29c3 04be
000003a0: 4618 96be f7d4 c4bd c089 d83e 411c 0abd
000003b0: bc6d 7b3e 478b e5bc 9918 833e b234 f63c
000003c0: c862 2d3d e158 7c3d efa6 8ebd 3ad9 76be
000003d0: 139f b1bc 345d fabd 56c1 85be 3b7b f2bd
000003e0: b223 9f3d 4c7e 253d d542 16bf ef7d db3d
000003f0: 5e70 14be 7dc5 973e 4d4e 2c3f 13cc b6bd
0.060690653 -0.18379062 -0.33698305 0.13382147 -0.042153537 -0.3731806 0.005855084 -0.061054975
0.78778934 0.16861328 -0.1251927 -0.3617017 0.010510824 -0.305962 0.28834936 -0.2642286
-0.03384985 -0.063347615 -0.27997893 0.1553127 0.5523063 -0.09395142 0.089658394 -0.4712599
-0.25181565 -0.33110517 0.39564982 -0.4360104 0.1213097 0.26179463 -0.17807564 0.44368267
-0.30764815 0.31548667 0.42134827 -0.06014691 -0.27040687 -0.2455352 -0.017062666 0.09100004
-0.544344 0.011999625 -0.10738986 0.01795291 -0.16977449 -0.48088816 -0.0032062903 0.05886321
0.08047209 0.49044687 -0.29048163 -0.40543196 -0.52965903 -0.21746027 -0.08739794 -0.22107877
0.23093729 0.15005143 -0.42788678 0.09083581 0.36942032 0.07813278 0.03414257 -0.54319423
0.17629395 -0.23312083 0.15961796 -0.24873348 -0.87561476 -0.040291104 -0.20078455 -0.31734943
0.028949555 -0.76405096 0.38019443 0.022737496 0.054357115 0.3914212 0.025450338 -0.7072954
-0.19675837 -0.12150886 -0.2890103 0.19056544 0.24116088 -0.40874398 0.43650347 0.079458445
0.6856952 -0.5227357 0.39372614 -0.27462617 0.2261375 -0.7912513 -0.30993047 0.46465695
0.017670216 0.4883327 0.19867817 0.11305496 0.07531219 0.06440354 -0.009318551 -0.18500833
0.37796333 -0.27102298 0.08009742 -0.25609985 0.16773999 -0.3124179 -0.2559862 -0.010315751
-0.10514543 0.3450314 0.5545789 0.005812 0.012644299 0.094062164 -0.07242109 0.4104592
0.22213677 -0.76048154 0.5641375 -0.024378564 0.20834456 -0.08140758 0.0489177 -0.37284392
0.22162305 -0.1765043 -0.20682345 -0.15406282 0.24483676 0.13321486 -0.49067283 -0.28512636
0.45448005 0.011217886 -0.24927326 0.243076 -0.40701264 0.40815213 0.028214913 -0.35039678
-0.117719665 0.19412147 -0.5740665 -0.19546162 0.013248247 -0.18972632 0.4583887 0.15987295
0.5602368 0.13908708 -0.4101178 -0.29244855 0.11569171 -0.6087875 0.66096777 0.22621055
-0.025289068 -0.1560718 0.046929322 0.101912476 -0.17041251 0.023988793 -0.13480236 0.09748256
0.54848427 -0.304018 -0.06717048 0.20014958 -0.26585037 0.39666456 -0.2295055 -0.42136663
0.29242405 0.4987613 -0.2570321 -0.16604584 0.4357279 0.5942142 -0.18862578 -0.2611411
-0.1450838 -0.1630547 0.059318017 -0.13415734 -0.003339081 0.16596021 -0.2838298 -0.35153705
0.16222258 0.1052275 -0.49052402 0.48314244 0.07464279 0.5087725 -0.30172586 -0.1349942
0.05145807 0.7126595 0.3511757 -0.114895314 0.0764964 0.5323811 0.36328048 0.24586341
-0.2275917 -0.10615321 0.20383602 0.22949831 0.41288424 -0.02626558 -0.06661458 -0.07835693
-0.25087512 -0.23946872 0.13135558 -0.6957539 0.23010677 0.08833456 -0.07743553 -0.19480284
0.18571393 -0.07355867 -0.09665756 0.20810148 0.06257174 -0.26102626 0.25385478 -0.12965073
-0.29315394 -0.09610932 0.42292595 -0.03371835 0.24553579 -0.028020514 0.25604704 0.030054424
0.042330533 0.0616082 -0.06965434 -0.24106303 -0.021682298 -0.12224808 -0.26124066 -0.118399106
0.0777048 0.04040365 -0.5869573 0.10717379 -0.1449599 0.2964286 0.6730698 -0.08925643

network_body._body_endoder.seq_layers.0.bias f4 [128]
00000000: 0000 0000 0000 0000 0000 0000 0000 0000
00000010: 0000 0000 0000 0000 0000 0000 0000 0000
00000020: 0000 0000 0000 0000 0000 0000 0000 0000
00000030: 0000 0000 0000 0000 0000 0000 0000 0000
00000040: 0000 0000 0000 0000 0000 0000 0000 0000
00000050: 0000 0000 0000 0000 0000 0000 0000 0000
00000060: 0000 0000 0000 0000 0000 0000 0000 0000
00000070: 0000 0000 0000 0000 0000 0000 0000 0000
00000080: 0000 0000 0000 0000 0000 0000 0000 0000
00000090: 0000 0000 0000 0000 0000 0000 0000 0000
000000a0: 0000 0000 0000 0000 0000 0000 0000 0000
000000b0: 0000 0000 0000 0000 0000 0000 0000 0000
000000c0: 0000 0000 0000 0000 0000 0000 0000 0000
000000d0: 0000 0000 0000 0000 0000 0000 0000 0000
000000e0: 0000 0000 0000 0000 0000 0000 0000 0000
000000f0: 0000 0000 0000 0000 0000 0000 0000 0000
00000100: 0000 0000 0000 0000 0000 0000 0000 0000
00000110: 0000 0000 0000 0000 0000 0000 0000 0000
00000120: 0000 0000 0000 0000 0000 0000 0000 0000
00000130: 0000 0000 0000 0000 0000 0000 0000 0000
00000140: 0000 0000 0000 0000 0000 0000 0000 0000
00000150: 0000 0000 0000 0000 0000 0000 0000 0000
00000160: 0000 0000 0000 0000 0000 0000 0000 0000
00000170: 0000 0000 0000 0000 0000 0000 0000 0000
00000180: 0000 0000 0000 0000 0000 0000 0000 0000
00000190: 0000 0000 0000 0000 0000 0000 0000 0000
000001a0: 0000 0000 0000 0000 0000 0000 0000 0000
000001b0: 0000 0000 0000 0000 0000 0000 0000 0000
000001c0: 0000 0000 0000 0000 0000 0000 0000 0000
000001d0: 0000 0000 0000 0000 0000 0000 0000 0000
000001e0: 0000 0000 0000 0000 0000 0000 0000 0000
000001f0: 0000 0000 0000 0000 0000 0000 0000 0000
0.0 0.0 0.0 0.0 0.0 0.0 0.0 0.0
0.0 0.0 0.0 0.0 0.0 0.0 0.0 0.0
0.0 0.0 0.0 0.0 0.0 0.0 0.0 0.0
0.0 0.0 0.0 0.0 0.0 0.0 0.0 0.0
0.0 0.0 0.0 0.0 0.0 0.0 0.0 0.0
0.0 0.0 0.0 0.0 0.0 0.0 0.0 0.0
0.0 0.0 0.0 0.0 0.0 0.0 0.0 0.0
0.0 0.0 0.0 0.0 0.0 0.0 0.0 0.0
0.0 0.0 0.0 0.0 0.0 0.0 0.0 0.0
0.0 0.0 0.0 0.0 0.0 0.0 0.0 0.0
0.0 0.0 0.0 0.0 0.0 0.0 0.0 0.0
0.0 0.0 0.0 0.0 0.0 0.0 0.0 0.0
0.0 0.0 0.0 0.0 0.0 0.0 0.0 0.0
0.0 0.0 0.0 0.0 0.0 0.0 0.0 0.0
0.0 0.0 0.0 0.0 0.0 0.0 0.0 0.0
0.0 0.0 0.0 0.0 0.0 0.0 0.0 0.0

network_body._body_endoder.seq_layers.2.weight f4 [128, 128]
00000000: 06b2 13bd 6418 0c3e 2b16 2b3d 6f0a 203e
00000010: 6e6f a73b f77c 5abc f0fd 873d eb9f 0f3e
00000020: 6fb4 fab7 205b 9dbd 16c6 d2bd 929c 4b3e
00000030: 8692 003e b765 85bc e51e ef3d eaae 6c3c
00000040: 4ffa 0abe 95d8 bd3c b628 843d 3401 873c
00000050: b1c2 9abd 2c14 81bd faf7 78bd 0406 3c3d
00000060: b636 a2bd d846 e8bd 5558 5cbb b47d 97bd
00000070: e665 29be 5024 993d 3e24 bb3c 4e9e 533c
00000080: 3959 a6bd bd6b 57bb 905d f23d 7a11 b33d
00000090: b83a f53d d607 17be 0611 00bd 2619 e33c
000000a0: b756 2b3d c74d e83d 5757 aa3d d7f6 4a3d
000000b0: e1b5 8b3d 2d90 813d 5eec d2bc a12e 053e
000000c0: d7bf a2bc 851e 273e 7f3c c7bc 036c 4b3e
000000d0: c005 2ebd 5dba 6e3d a3d9 65bd e4af 273d
000000e0: 7ebc 9abd f287 e03d 97a9 cfbd a2a9 06be
000000f0: 64dc 283e 27cd 40bd 02b1 c6bd c5ca 02bd
00000100: 0cc3 d73d f9c1 073d 034a 3b3c 485b 6fbd
00000110: edd0 06be 1c9e 99bd 0a55 c0bc a75d b5bc
00000120: 1421 c03d bb78 a53d 8ddb 28bd 61ca 70bc
00000130: ade5 c5bd 3226 62bd 2d3e d93d 7ee7 d73c
00000140: 3ae8 fd3a 67fb 6cbc fd99 f53d cb51 1fbe
00000150: d0f0 b7bd 49df 323d ca50 25bd fdfa c3bd
00000160: 5057 d33d d07e 303d c81d 0f3e 5cab 053e
00000170: 24c6 e53d 0fc0 8e3d 9ee7 923d e5df 033d
00000180: 2db9 c1bc d373 5bbd 4d2f 23be f2d2 9fbc
00000190: 993f 64be 842c bf3d e32a 283e b9d3 debd
000001a0: 0022 b53d 5a6f 4dbc a070 d3bc 48a9 b7bd
000001b0: cb76 99bd d24e 3a3d 9223 a5bc 8a9b 6e3c
000001c0: bd91 6b3d 1bc0 19bd 2ad8 30be 521a 78bc
000001d0: e94f 12bd 9971 603d 74b6 45bd 3dc3 2a3e
000001e0: 17c8 8f3c 8f27 ddbd 7089 aebd 8865 2f3d
000001f0: 2540 063d e152 d3bd fd1b d63d 49a1 9abd
00000200: dae7 f13c 07c9 94bd c004 e33d 5e30 d2bd
00000210: a867 c3bc 9715 1abd 2b83 ac3d 0b17 b5bd
00000220: 83d1 a0bd 6a35 1d3e fdd4 dd3b b190 5e3c
00000230: cb7b 77bd 120e bd3d 5b93 713d e6c5 ad3c
00000240: f464 40bd da4e c03d 01b2 64bd 5b36 dabd
00000250: 5878 13be 9730 0abc 1838 f23b 8fdd 453d
00000260: 2a13 9d3d 9a99 afbd 7652 ac3d 7de1 6cbd
00000270: e920 25bd 5b0f d23d 5d48 983d e288 a73d
00000280: 058c fcbd b088 243c e452 05bd 29f0 343d
00000290: 63d3 b53d 3ba3 083e a4b1 013e f441 eebd
000002a0: 776a d2bd cde0 173e 4642 0bbd 3008 02bc
000002b0: 9215 cbbc 7336 bfbb 20ec 01be 1dc7 57bd
000002c0: db5d 15be 322c 873d 6588 0c3c 9e97 c93d
000002d0: 7cfe 6ebd 02a0 07bd 884f a73d 6f98 90bd
000002e0: c40c 903c 52cf b93c 676e f6bc f805 8a3c
000002f0: 285c f9bd 09fc b53d edf0 a2bd 74d4 39bd
00000300: 9bbe a3bc edda cd3c 3ac3 e23d 3615 15be
00000310: a8b2 febd 3e2f 453d 39d1 c43c 017b 233d
00000320: 763d dbbd e802 e73d f283 56bc 8973 173c
00000330: 8b7d b1bd b058 f63d 7365 0cbe 49c4 17bd
00000340: 325e ea3b 20b9 993d 32ce 9cbd ee37 3abe
00000350: 695d 10bc 1470 cfbd f907 cd3c 89b3 f4bd
00000360: b701 e5bd f0d5 14bd 979b 093d 4d38 163e
00000370: ca73 273c f1fa 003c 84d8 123e 874b 25bd
00000380: 0f87 fdbd d4f7 bebc 58f3 b1bd 8f17 933d
00000390: 79c4 373d 40f6 64bc a3a4 90bd 3c27 bebd
000003a0: e9c4 a8bd ed53 ac3d fe99 49bc 5394 e63d
000003b0: eb76 133e c115 debd c275 a73d b7d3 0e3c
000003c0: 605a 293d 1952 80bc 58b1 803c c4ed 693d
000003d0: 27bb b1bd 5919 e3bd ae7b c03d 8d50 2a3c
000003e0: a625 7b3c 8eb3 723e 0b4e b73d 3543 2c3d
000003f0: 4871 3b3d db15 60bd 5850 0cbe bcae 1abd
-0.03605845 0.1368118 0.041769188 0.1562898 0.005109719 -0.013335458 0.066402316 0.14025848
-2.9886343e-05 -0.07683396 -0.10291688 0.19883946 0.12555894 -0.016283853 0.116758145 0.014446
-0.13572048 0.023174563 0.064530775 0.016480066 -0.07556666 -0.063026756 -0.060783364 0.045904174
-0.079205915 -0.113416374 -0.0033621986 -0.07397023 -0.16542777 0.07477629 0.02284443 0.012916161
-0.081224866 -0.0032870614 0.11834252 0.08743568 0.1197409 -0.14749083 -0.031266235 0.027721953
0.041830745 0.1134296 0.0831744 0.04955181 0.068218 0.063263275 -0.025747474 0.13006069
-0.019866867 0.16320236 -0.024320839 0.19865422 -0.042485952 0.0582832 -0.056115758 0.040939227
-0.07555483 0.109634295 -0.101397686 -0.13150647 0.16490322 -0.04707065 -0.0970173 -0.031931657
0.10535249 0.03314397 0.01143122 -0.058436662 -0.13165636 -0.0750086 -0.02347805 -0.022139383
0.09381309 0.08079668 -0.041225005 -0.014696688 -0.09662948 -0.055212207 0.10607562 0.026355501
0.0019371577 -0.014464236 0.119922616 -0.15558545 -0.08981478 0.043669973 -0.04036025 -0.095693566
0.10319388 0.043089688 0.13976204 0.1305365 0.11219433 0.06970226 0.07173084 0.032195944
-0.023647869 -0.053577255 -0.15936013 -0.019509766 -0.22289886 0.093346626 0.1642261 -0.10880227
0.088443756 -0.012538755 -0.02581054 -0.08967835 -0.07493361 0.045485325 -0.020158563 0.014563451
0.057512034 -0.03753672 -0.1726996 -0.015142994 -0.03572074 0.054795835 -0.048269704 0.1667604
0.017551465 -0.10798561 -0.08522308 0.042821437 0.032776017 -0.10318542 0.10454557 -0.07550294
0.0295295 -0.072649054 0.1108489 -0.102631316 -0.023853138 -0.037618246 0.08423456 -0.08842286
-0.07852461 0.15352407 0.006769775 0.013584302 -0.060420793 0.09231199 0.05897842 0.02121253
-0.046971276 0.0939004 -0.05583382 -0.10654899 -0.14401376 -0.008434436 0.007391941 0.048306998
0.07669671 -0.08574219 0.08414166 -0.05783223 -0.04031459 0.10256835 0.07435677 0.08180405
-0.12331394 0.010042354 -0.032549754 0.044174347 0.088782094 0.13343517 0.12665421 -0.11633673
-0.10274213 0.14831848 -0.03399875 -0.007936522 -0.024790559 -0.0058353483 -0.12687731 -0.052680124
-0.14586584 0.066002265 0.008577441 0.09843372 -0.058348164 -0.03311158 0.08169466 -0.070603244
0.017584212 0.022681866 -0.03008194 0.01684855 -0.121757805 0.088859625 -0.07956109 -0.045368627
-0.019988349 0.025128806 0.11072393 -0.14558873 -0.1243642 0.048140757 0.024025546 0.039912228
-0.10705082 0.11279851 -0.013092982 0.009243854 -0.086665235 0.120286345 -0.13710575 -0.037052426
0.0071523422 0.07506013 -0.07656516 -0.18185398 -0.008811333 -0.10128799 0.025028216 -0.11948306
-0.11181968 -0.03633684 0.033595648 0.14669915 0.010220477 0.007872329 0.14340407 -0.04035523
-0.12379276 -0.023311533 -0.08688992 0.07182228 0.044865105 -0.013974726 -0.07062652 -0.09284827
-0.08240683 0.08414445 -0.012304781 0.11258759 0.14400832 -0.10843993 0.081767574 0.008717469
0.041345954 -0.015664147 0.015709564 0.057111517 -0.086782746 -0.11088819 0.0939859 0.010395181
0.0153288 0.23701307 0.089504324 0.04205628 0.04576233 -0.054708343 -0.13702524 -0.037764296

network_body._body_endoder.seq_layers.2.bias f4 [128]
00000000: 0000 0000 0000 0000 0000 0000 0000 0000
00000010: 0000 0000 0000 0000 0000 0000 0000 0000
00000020: 0000 0000 0000 0000 0000 0000 0000 0000
00000030: 0000 0000 0000 0000 0000 0000 0000 0000
00000040: 0000 0000 0000 0000 0000 0000 0000 0000
00000050: 0000 0000 0000 0000 0000 0000 0000 0000
00000060: 0000 0000 0000 0000 0000 0000 0000 0000
00000070: 0000 0000 0000 0000 0000 0000 0000 0000
00000080: 0000 0000 0000 0000 0000 0000 0000 0000
00000090: 0000 0000 0000 0000 0000 0000 0000 0000
000000a0: 0000 0000 0000 0000 0000 0000 0000 0000
000000b0: 0000 0000 0000 0000 0000 0000 0000 0000
000000c0: 0000 0000 0000 0000 0000 0000 0000 0000
000000d0: 0000 0000 0000 0000 0000 0000 0000 0000
000000e0: 0000 0000 0000 0000 0000 0000 0000 0000
000000f0: 0000 0000 0000 0000 0000 0000 0000 0000
00000100: 0000 0000 0000 0000 0000 0000 0000 0000
00000110: 0000 0000 0000 0000 0000 0000 0000 0000
00000120: 0000 0000 0000 0000 0000 0000 0000 0000
00000130: 0000 0000 0000 0000 0000 0000 0000 0000
00000140: 0000 0000 0000 0000 0000 0000 0000 0000
00000150: 0000 0000 0000 0000 0000 0000 0000 0000
00000160: 0000 0000 0000 0000 0000 0000 0000 0000
00000170: 0000 0000 0000 0000 0000 0000 0000 0000
00000180: 0000 0000 0000 0000 0000 0000 0000 0000
00000190: 0000 0000 0000 0000 0000 0000 0000 0000
000001a0: 0000 0000 0000 0000 0000 0000 0000 0000
000001b0: 0000 0000 0000 0000 0000 0000 0000 0000
000001c0: 0000 0000 0000 0000 0000 0000 0000 0000
000001d0: 0000 0000 0000 0000 0000 0000 0000 0000
000001e0: 0000 0000 0000 0000 0000 0000 0000 0000
000001f0: 0000 0000 0000 0000 0000 0000 0000 0000
0.0 0.0 0.0 0.0 0.0 0.0 0.0 0.0
0.0 0.0 0.0 0.0 0.0 0.0 0.0 0.0
0.0 0.0 0.0 0.0 0.0 0.0 0.0 0.0
0.0 0.0 0.0 0.0 0.0 0.0 0.0 0.0
0.0 0.0 0.0 0.0 0.0 0.0 0.0 0.0
0.0 0.0 0.0 0.0 0.0 0.0 0.0 0.0
0.0 0.0 0.0 0.0 0.0 0.0 0.0 0.0
0.0 0.0 0.0 0.0 0.0 0.0 0.0 0.0
0.0 0.0 0.0 0.0 0.0 0.0 0.0 0.0
0.0 0.0 0.0 0.0 0.0 0.0 0.0 0.0
0.0 0.0 0.0 0.0 0.0 0.0 0.0 0.0
0.0 0.0 0.0 0.0 0.0 0.0 0.0 0.0
0.0 0.0 0.0 0.0 0.0 0.0 0.0 0.0
0.0 0.0 0.0 0.0 0.0 0.0 0.0 0.0
0.0 0.0 0.0 0.0 0.0 0.0 0.0 0.0
0.0 0.0 0.0 0.0 0.0 0.0 0.0 0.0

action_model._discrete_distribution.branches.0.weight f4 [1, 128]
00000000: 98b0 563b f5e3 a3bc 8fa6 903c ab43 56bb
00000010: 3e38 04bc 933a b3bb 5389 383a fb14 1a3a
00000020: 53e2 193c 4d69 c5ba 403a 553c bb60 d9bb
00000030: 3911 453c ccc8 86bc d807 1bbc df8f 01bb
00000040: 431e f63b f004 c93b 8079 1e3b bfa1 47bb
00000050: b592 61ba ad88 a0bb 96b0 2e3b 53c8 f23b
00000060: fa65 e5bb 1221 03ba 20e4 1abc f352 053c
00000070: 3a4b c8bb 627c ac3b ed40 30bc a9eb b63b
00000080: 35fd 94bb 1063 1f3c 650e 16bc 0845 ddbb
00000090: a332 1538 5ef1 373b 9ff4 52bb 46d1 043b
000000a0: 1e14 a8bc 02ea 86bc a0a4 be3a 1385 4b3c
000000b0: 0baf 52b9 55dc 433c 933c cb3c 1500 c8bc
000000c0: 4be3 583b 275f c0ba 68c8 cd3b f6e8 af3c
000000d0: 032c f4bb 1b49 513c 358c f0bb d334 fabb
000000e0: 2fa4 473c 5313 8f3c 3f4d 2ebc 331b 053b
000000f0: 9077 e8bb 5784 883b e0de 7cbc e9ca 10bb
00000100: 02e9 3e3c 66b9 acbb 82e1 be3c 63a8 3bb9
00000110: 3440 323b 430c 5ebc 3f97 27bc 6b33 5dbb
00000120: b838 82bc 8ada e2ba ca07 ec3b da42 e13b
00000130: 1d0e a23b bf1d 083b 3708 063c 9aa6 27bb
00000140: 17ee f8bb 96c8 4aba e832 fd3b 67a6 4dbc
00000150: dfd7 9dbb 2aba a5bc f77d e0bb 5a3c ba3c
00000160: 6863 0eb9 0b8c 1dba 084d 3e3b 8b88 2e3c
00000170: 7f42 a7bb f050 2e3b f9fe 1ebc 07a4 5d3c
00000180: 62d7 42bc 0995 c2ba aac4 053a ba6f f5bb
00000190: 7dbd 15bc 1d46 163c 77e2 5ebc 7cf1 47bc
000001a0: 7cbc 353c 0f54 273c 89ae 1b3c 6ef2 b8ba
000001b0: 4bf0 3dbc 3872 4ebc 8f6b 363b 5fa0 343a
000001c0: 8557 51bc a396 a23a 9d62 403b 4c67 42bc
000001d0: 98f6 303b edd9 abbb 3221 043c 0aba 483c
000001e0: 4f7a f93a e80e 56bc 6048 4e3c b27b 163c
000001f0: 50b1 5ebc 66a2 4c3c 08e3 78b8 a7ff 4b3c
0.0032759067 -0.02000616 0.017657546 -0.0032694142 -0.00807005 -0.005469629 0.0007039506 0.000587776
0.009392339 -0.0015061289 0.013014376 -0.0066338456 0.012028032 -0.01645317 -0.009462319 -0.0019769592
0.0075109317 0.006134622 0.0024181306 -0.0030461398 -0.000860493 -0.0048991055 0.0026655546 0.0074091344
-0.007000682 -0.0005002181 -0.009453803 0.008137452 -0.0061124833 0.005263851 -0.010757667 0.005582292
-0.004546786 0.009728208 -0.009158705 -0.006752614 3.5571527e-05 0.002806745 -0.0032189263 0.0020266338
-0.020517405 -0.016469005 0.0014544912 0.012421864 -0.00020092369 0.011954387 0.024809157 -0.024414102
0.0033094462 -0.0014676795 0.006279994 0.02147339 -0.0074515357 0.012773777 -0.0073409327 -0.0076356917
0.0121851405 0.01746527 -0.010638534 0.0020310401 -0.007094331 0.0041661668 -0.015433997 -0.00220936
0.011652233 -0.0052711247 0.02330089 -0.00017896439 0.0027198913 -0.013552728 -0.010228931 -0.0033752571
-0.015896186 -0.0017307561 0.007203077 0.0068744244 0.00494553 0.0020769683 0.0081806695 -0.002558148
-0.007596742 -0.0007735578 0.0077270158 -0.01255188 -0.0048169936 -0.020230372 -0.0068509537 0.022733856
-0.00013579207 -0.0006009943 0.0029037613 0.010652672 -0.0051043625 0.0026598535 -0.009704345 0.013527877
-0.011892172 -0.0014845441 0.00051028526 -0.0074901255 -0.009139416 0.00917199 -0.013603798 -0.01220357
0.011092301 0.010212912 0.009502062 -0.0014110336 -0.011592935 -0.012600474 0.0027835106 0.0006890352
-0.012777214 0.0012404512 0.0029355653 -0.011865448 0.002700245 -0.0052444846 0.008064555 0.012251386
0.0019033643 -0.013065077 0.012590498 0.009184765 -0.013592079 0.012489891 -5.9339247e-05 0.012451089

network_body._body_endoder.seq_layers.0.weight f4 [128, 12]
00000000: db17 b8be 81cf ef3d da6a c1be 827c a83e
00000010: 339f f03d 9a05 053d 54c2 8abb 82fd c53e
00000020: 3136 353d 938a bebd dc9a 1a3e bc3c 49be
00000030: 8836 d5be 98ab cb3d 5571 ffbc e3b8 d7bc
00000040: 376b 16bf 4fe0 c23d 262a e43d 783e 53be
00000050: 3feb 0abf 3194 2dbf 20fc ae3d 2b1f 00bd
00000060: 8ddc 403c 53b7 f93e 34b2 0f3e 5c26 e0bd
00000070: 82e1 213e 8fae 083d 7271 a4be ce70 1fbe
00000080: 4822 c3bd 71b4 2bbe e434 283e baf7 913e
00000090: 2b03 91be 87e8 9cbe e0bc 593e 7a45 98be
000000a0: a786 2e3e 3a10 9a3d 171b 96be c555 223e
000000b0: 68a2 223d 88f9 d33e 4faa 7abd 9537 bc3e
000000c0: 7626 913e b876 02be 25b0 98bd fb34 933e
000000d0: 87bb 043f 323c 1b3e ed0d a63e ac76 76be
000000e0: d85b 423d e318 433f a6bb 583e cd5c 6abe
000000f0: 6013 883d a636 0d3e f466 2bbe b773 213d
00000100: afed d13d e40a 9d3c b001 5f3e 6d47 19be
00000110: 64e0 d93c 04bb a6be cd93 bebd 3e9b 6abe
00000120: 05ec 1ebe 07f9 dcbe 735a 44be e61c c7be
00000130: 1c31 0d3e 6c5b eebd 166e a8be a3f3 62bd
00000140: 7d4f dcbe 94ba 17bf d3b9 cabe bdc7 043e
00000150: 16b7 d53e 6899 1ebe 3e62 ef3e 1b72 a23d
00000160: 40c4 9abe 8dda 083e fc3f b4bb 4b93 33bd
00000170: 5587 ce3e 34ae 143e 150d d73d 2fea d73e
00000180: 7029 eb3d ec72 d0be 695e 7fbe 0c80 fd3e
00000190: 11e2 84bc 639a 12be ab02 9dbd 17e6 d53d
000001a0: c701 a73e 10af 12be f937 ad3e 842a 91bd
000001b0: fb20 49bc a5fc f73d e198 31be ed0c b83e
000001c0: 83bd e7bc 8233 39be 3885 15bf ac0d b3be
000001d0: 3be0 a3be 3b08 383d a708 ac3d 44e4 fe3e
000001e0: c5ad 3dbc 68c9 ca3e 4318 04be 5a3f 5abe
000001f0: 79e8 eb3d 5398 46bf 9132 b43d 1dcc a03e
00000200: 2a52 6e3d e094 40be 7db7 60be 6928 52bd
00000210: b1de f73d 80cb b23e 2401 a03e 6999 1c3f
00000220: 239c 0abf c424 343f 7ec6 ee3c c265 833e
00000230: 5f70 92bc 86d1 15be 5938 c4be 65a2 c03e
00000240: f8b7 7bbe 0f79 1ebc b1f4 c63e c1b9 243e
00000250: 5f60 dcba c7e0 82be 5b35 5a3e cb39 1cbf
00000260: 6b87 d53c 1a64 aebe 8154 6ebd bc3b 92be
00000270: 3784 35be fbd8 b93d 8314 25bd 616e ea3d
00000280: 26b4 9ebd 9ce4 e6b9 6db2 d5be 9ff0 b5be
00000290: d4bb b13d 00bb c9be b6c7 b2be 4b00 80bd
000002a0: 8270 ec3e 91f7 6abe 9d6d 7fbd 7f3f 033e
000002b0: 1ec6 c03e 9fa9 523e 2178 aa3d e745 3c3d
000002c0: c3d8 16be 56a7 84be b110 4d3e 1efb 8cbb
000002d0: 925f 12bd 4e49 b03e 9502 ba3e 067e f43d
000002e0: 2fe6 ce3d 61bf a83e 94bc b93e 41cb 1bbe
000002f0: 4ea3 423e 3f6b 333e 2e4d fcbd 4624 d03d
00000300: 3807 52be 8838 23bf 6a3c a53e e8fb a7be
00000310: aa1f 83bd c176 78bd 406c 273e fc5b 993d
00000320: 3bb7 0a3e c335 16be 84df 98bd d206 efbe
00000330: 4891 bebd 6a53 273e 880d b2be 0572 69be
00000340: 5907 16bd cd93 883e 8b92 c43d 5f01 eebd
00000350: caea ba3c 1e38 93be ed78 a6be 0b20 0f3e
00000360: a2cb f4be d108 7b3e 74c2 4fbc 7656 4e3e
00000370: 31c5 93bd 70af 683e 6063 e43d 5668 163e
00000380: 59c9 c2ba 4749 163e 65ed 9a3e d049 07bf
00000390: de5b 083f bd03 683e 7586 13bf 9d70 77be
000003a0: b33d 173e 5b2c e3bc d5d4 c2bd 6596 26bd
000003b0: 4eef 7a3e b908 5f3e f26f f0bd 15d3 81be
000003c0: a1fc f23e 3107 c0be 78e3 adbd 6663 e93d
000003d0: c059 99bd a3a0 ba3c e914 15be 7495 62be
000003e0: fb30 a03e 1d66 6b3e 8d7a b4be a800 82be
000003f0: 63cc 343e e644 3b3e c5cd d2be 4e6d be3d
-0.359557 0.117095 -0.37776834 0.32907492 0.11749115 0.032476045 -0.0042345915 0.38669974
0.044241134 -0.09303775 0.15098137 -0.19652075 -0.41643167 0.09944838 -0.03118197 -0.026333278
-0.58757347 0.0951544 0.11140852 -0.20629299 -0.5426521 -0.6780425 0.08544183 -0.031279724
0.011771333 0.48772678 0.14032823 -0.109448165 0.1580868 0.033369597 -0.32117802 -0.15570375
-0.09528023 -0.16768052 0.16426426 0.28509313 -0.2832273 -0.30646154 0.21263456 -0.29740506
0.17043553 0.07522626 -0.29317543 0.15853031 0.039705664 0.41401315 -0.061197575 0.36761156
0.28349656 -0.127406 -0.07455472 0.28751358 0.51848644 0.15159681 0.324325 -0.24068707
0.04745087 0.7620985 0.21165332 -0.22886963 0.066443205 0.13790378 -0.16738492 0.039416995
0.10250413 0.019170232 0.21777987 -0.14968653 0.026596256 -0.32564557 -0.093055345 -0.22910783
-0.15519722 -0.43158743 -0.19175129 -0.38889235 0.13788265 -0.11638531 -0.3289649 -0.05540813
-0.43029395 -0.5926907 -0.39594898 0.12966819 0.41741246 -0.15488207 0.4675464 0.0793192
-0.30227852 0.1336462 -0.0055007916 -0.04384164 0.40337625 0.14519578 0.10500542 0.42170855
0.11482513 -0.40712678 -0.24938358 0.49511755 -0.016221078 -0.14316706 -0.076665245 0.10444277
0.32618544 -0.14324594 0.33831766 -0.07088187 -0.01227593 0.12108735 -0.17343475 0.35947362
-0.028288608 -0.18086055 -0.584064 -0.34971368 -0.32007012 0.044929724 0.08400088 0.49783528
-0.011577074 0.39606786 -0.1289988 -0.21313229 0.1151895 -0.7757618 0.08798707 0.31405726
0.058183827 -0.18806791 -0.21944995 -0.05130807 0.12103022 0.34920883 0.3125087 0.61171585
-0.54144496 0.703686 0.029147383 0.25663573 -0.017875848 -0.14630708 -0.3832424 0.37623897
-0.24581897 -0.009672417 0.3885856 0.16086484 -0.0016813389 -0.25562117 0.21309416 -0.61025685
0.026065549 -0.34060746 -0.058186058 -0.285612 -0.17726217 0.09074589 -0.040302765 0.11446834
-0.07749204 -0.00044039346 -0.4173769 -0.35535142 0.086784035 -0.39400482 -0.34917992 -0.06250056
0.46179587 -0.22946002 -0.062360395 0.1281719 0.3765115 0.20572518 0.08323694 0.0459651
-0.14731126 -0.25908917 0.20025899 -0.0043023964 -0.035735674 0.34430927 0.36330095 0.119380996
0.10102498 0.3295851 0.36276686 -0.15214254 0.19007608 0.1752138 -0.12319408 0.101631686
-0.20510566 -0.63758135 0.32272655 -0.32809377 -0.06402524 -0.060660128 0.16349888 0.07488248
0.1354646 -0.14668946 -0.07464507 -0.4668489 -0.09305054 0.16340414 -0.3477595 -0.22797401
-0.0366281 0.26675263 0.09598263 -0.11621355 0.022817034 -0.28753752 -0.32514134 0.13977067
-0.4781161 0.24515082 -0.012680639 0.2015017 -0.07215346 0.22723174 0.11151767 0.14688239
-0.0014861032 0.1467639 0.30259243 -0.52847004 0.5326518 0.22657676 -0.5762704 -0.24164052
0.1476963 -0.027731111 -0.09513251 -0.04067077 0.2450535 0.21780671 -0.11740102 -0.25356355
0.47458366 -0.37505487 -0.08490652 0.11395912 -0.074878216 0.022781676 -0.14558758 -0.22127324
0.3128737 0.22988172 -0.3524975 -0.25391126 0.17656092 0.18288001 -0.41172615 0.09298192

network_body._body_endoder.seq_layers.0.bias f4 [128]
00000000: 0000 0000 0000 0000 0000 0000 0000 0000
00000010: 0000 0000 0000 0000 0000 0000 0000 0000
00000020: 0000 0000 0000 0000 0000 0000 0000 0000
00000030: 0000 0000 0000 0000 0000 0000 0000 0000
00000040: 0000 0000 0000 0000 0000 0000 0000 0000
00000050: 0000 0000 0000 0000 0000 0000 0000 0000
00000060: 0000 0000 0000 0000 0000 0000 0000 0000
00000070: 0000 0000 0000 0000 0000 0000 0000 0000
00000080: 0000 0000 0000 0000 0000 0000 0000 0000
00000090: 0000 0000 0000 0000 0000 0000 0000 0000
000000a0: 0000 0000 0000 0000 0000 0000 0000 0000
000000b0: 0000 0000 0000 0000 0000 0000 0000 0000
000000c0: 0000 0000 0000 0000 0000 0000 0000 0000
000000d0: 0000 0000 0000 0000 0000 0000 0000 0000
000000e0: 0000 0000 0000 0000 0000 0000 0000 0000
000000f0: 0000 0000 0000 0000 0000 0000 0000 0000
00000100: 0000 0000 0000 0000 0000 0000 0000 0000
00000110: 0000 0000 0000 0000 0000 0000 0000 0000
00000120: 0000 0000 0000 0000 0000 0000 0000 0000
00000130: 0000 0000 0000 0000 0000 0000 0000 0000
00000140: 0000 0000 0000 0000 0000 0000 0000 0000
00000150: 0000 0000 0000 0000 0000 0000 0000 0000
00000160: 0000 0000 0000 0000 0000 0000 0000 0000
00000170: 0000 0000 0000 0000 0000 0000 0000 0000
00000180: 0000 0000 0000 0000 0000 0000 0000 0000
00000190: 0000 0000 0000 0000 0000 0000 0000 0000
000001a0: 0000 0000 0000 0000 0000 0000 0000 0000
000001b0: 0000 0000 0000 0000 0000 0000 0000 0000
000001c0: 0000 0000 0000 0000 0000 0000 0000 0000
000001d0: 0000 0000 0000 0000 0000 0000 0000 0000
000001e0: 0000 0000 0000 0000 0000 0000 0000 0000
000001f0: 0000 0000 0000 0000 0000 0000 0000 0000
0.0 0.0 0.0 0.0 0.0 0.0 0.0 0.0
0.0 0.0 0.0 0.0 0.0 0.0 0.0 0.0
0.0 0.0 0.0 0.0 0.0 0.0 0.0 0.0
0.0 0.0 0.0 0.0 0.0 0.0 0.0 0.0
0.0 0.0 0.0 0.0 0.0 0.0 0.0 0.0
0.0 0.0 0.0 0.0 0.0 0.0 0.0 0.0
0.0 0.0 0.0 0.0 0.0 0.0 0.0 0.0
0.0 0.0 0.0 0.0 0.0 0.0 0.0 0.0
0.0 0.0 0.0 0.0 0.0 0.0 0.0 0.0
0.0 0.0 0.0 0.0 0.0 0.0 0.0 0.0
0.0 0.0 0.0 0.0 0.0 0.0 0.0 0.0
0.0 0.0 0.0 0.0 0.0 0.0 0.0 0.0
0.0 0.0 0.0 0.0 0.0 0.0 0.0 0.0
0.0 0.0 0.0 0.0 0.0 0.0 0.0 0.0
0.0 0.0 0.0 0.0 0.0 0.0 0.0 0.0
0.0 0.0 0.0 0.0 0.0 0.0 0.0 0.0

network_body._body_endoder.seq_layers.2.weight f4 [128, 128]
00000000: b13b 113d c79d b73a 9e7f 2bbe 1bc1 6c3d
00000010: 9679 88bd 484c 2ebe cc01 e13c 5fc0 8e3d
00000020: 2ff9 d0bd 6676 f73d acca 51bc 138d 96bd
00000030: 4605 b43c 19a1 94bd f6e0 fbbc f522 723d
00000040: 4d64 2d3d 2c3e 86bd c5d1 b1bd ac82 0ebe
00000050: e0fd d4bd 5de8 17be 8c51 3f3d 7c7e 943d
00000060: 863c e13d fedd 5ebd 2757 2f3e b736 853c
00000070: 55aa b93d b57f f73b 768d 1e3b e4db d9bc
00000080: 574c fa3c f767 a5bd 9265 623d a43a 3f3d
00000090: aba5 0abe 7b5a fd3b 200c eebd aea6 de3d
000000a0: 2b6a 063e ef84 20be 3ce7 22b8 fd3f d1bc
000000b0: 1f2a 7dbd de69 243d f26c 83bc aa44 d13d
000000c0: 3ecb d4bd 8a18 13be 80b6 cdbd 6a17 3dbd
000000d0: f3ef 7b3d 30d3 fa3d 0d73 e5bd 5180 903c
000000e0: 42fb c7bd c522 363d 0496 f5bc 892f b6bd
000000f0: 8b82 c2bd 037a 03be ea87 f53c f7c2 6e3d
00000100: 21c7 253d 3559 e73d 84d8 eabc e9f4 7b3c
00000110: 0587 80bc bb89 1abd e0ca fc3d 5a28 42be
00000120: 6e46 9ebd 720f 613d 5efe 77bd c900 21bd
00000130: 2ca4 f6bd 9806 68bd 3d20 91be b7dd 4abb
00000140: fc98 bc3d 0fea 983d 02dc 99bd d1f4 2f3e
00000150: 6592 0a3e 0c56 c13d 9b77 ad3c 7af2 c7bc
00000160: 0acf 8a3e 11fe 373d d8b6 aa3c 66d2 633d
00000170: e04b 07be 8876 54bd edb4 0cbe ea83 0e3e
00000180: 6770 63bc d38b d03c 1359 293e 163c 9b3c
00000190: 66ac 0abe e84b 4fbd ad11 723b 0471 4d3d
000001a0: 9e6d 07bd e0a0 a93d 348d f93d b930 7e3e
000001b0: 6b7f 403d c9f7 323d ee67 bb3c 1542 863d
000001c0: 2b34 c43d 8c95 643e 5ec2 fbb8 e7f1 6e3d
000001d0: fe77 f33b 5cfd 51ba 5512 be3d e926 b13d
000001e0: 3e9e eebc 7bf0 913d 26b1 aebb d4d1 93b9
000001f0: 0b44 8c3d 7863 5b3d f56b 0cbe 1d9d 3b3e
00000200: 7eac 593c 59e0 103e 6a8c aebd ee3b 68bc
00000210: 233e dfbc 8ddd c53d 04eb ea3d 0119 4c3d
00000220: 2161 adbd c7aa efbd e05a b3bd a3cf 813d
00000230: 8450 1dbe 1e60 49bd a0d1 413e 2546 da3d
00000240: 60d6 f53d 6bcf 9d3d 23d1 8a3d cc2f eabb
00000250: bcd0 45bd 4962 e8bd 7f70 0abd c750 993d
00000260: a021 0d3d fcfc 3d3d a446 e3bc c376 cfbc
00000270: 7eb1 9cbd 560c 97bc 2e00 423d 4c89 d7bd
00000280: a8f9 14bd d6b8 5fbd 5f1c 02bd f712 c93c
00000290: d57b ba3a b582 1d3e de54 16bd d592 793c
000002a0: 784b 9d3d 5681 3ebc ca53 7a3d b168 d5bd
000002b0: d15f 49bd 4292 ef3d 7af2 463d be8e e3bd
000002c0: b96a 783d b70f 2e3d ee56 76bd f598 6abc
000002d0: 3999 3fbc 66db b03c ffe4 8f3d 0a05 39bc
000002e0: c31b 1fbd c720 24be a5b7 03be 1626 83bd
000002f0: 346f d9bb cd7c a43d 8f2c 393d 1f22 d1bc
00000300: aaad 72bd ec96 2abd aae9 853d 2b43 003e
00000310: 0864 d73d 886c 3c3e ed9e 42bd 9f55 bfbc
00000320: 1e10 853c a353 9fbc c18d d03c 3322 ac3a
00000330: 4dc2 a13d 30e1 4c3e f5de 293b 0aa8 243d
00000340: 30b4 db3d 586c 4cba c389 483b 40e4 233d
00000350: 0943 8cbd 3b25 d33c ed18 8abd 30a6 113e
00000360: 43ab e8bb 4ee4 693e 1070 96bd b540 65bd
00000370: 0210 47bd e02e d0bd 422f 6d3b ae52 c73c
00000380: 1c6b 4cbd 0394 aa3d 2fb5 043e 1fb7 b03d
00000390: 16cb 43be ed40 0fbd 8a37 febd daf7 4e3c
000003a0: 1862 123e 6e54 c13d c502 60bd 4f11 0fbd
000003b0: 0846 93bd ef24 c1bc ef88 a0bd f1fd d7bd
000003c0: adf4 103d 93ab f6bd 31d8 70be e0d6 26be
000003d0: 8e39 9b3d 6aa7 a03d 7180 8f3d 1478 5bbd
000003e0: fa00 40bd d894 303d ac24 3a3e e8c1 2e3e
000003f0: 7520 433e 4e2d 3a3d 2af1 a0bb 9952 b6bd
0.035457317 0.0014008813 -0.16747901 0.057801347 -0.06663816 -0.17021286 0.027466677 0.069702856
-0.10203778 0.120831296 -0.012804668 -0.073511265 0.02197517 -0.072572894 -0.030746918 0.05911537
0.042331982 -0.06554827 -0.086825885 -0.13917035 -0.10399985 -0.14834733 0.04670863 0.072506875
0.10997872 -0.054410927 0.1712309 0.016261442 0.090656914 0.0075530657 0.0024193204 -0.02659411
0.03055398 -0.0807647 0.055272646 0.046686783 -0.1353976 0.0077317334 -0.116234064 0.108716354
0.13126437 -0.1567571 -3.8839164e-05 -0.025543207 -0.061807748 0.040140025 -0.01604316 0.10218175
-0.10390328 -0.1436483 -0.10044575 -0.046164908 0.06150813 0.12247312 -0.11203585 0.017639311
-0.097647205 0.044466753 -0.02997876 -0.08895785 -0.09497555 -0.12839513 0.029972035 0.0582914
0.040473107 0.11296312 -0.028667696 0.015378215 -0.015689382 -0.037729006 0.12343383 -0.18960705
-0.07728277 0.05494637 -0.060545318 -0.03930739 -0.12043032 -0.056646913 -0.28344908 -0.0030954906
0.09208867 0.07466518 -0.07512666 0.17183234 0.13532408 0.0944024 0.021175196 -0.024407614
0.27111083 0.04492003 0.02083914 0.055620573 -0.13212538 -0.051870853 -0.13740893 0.13917509
-0.013881779 0.025457298 0.16537885 0.01894955 -0.13542327 -0.0506095 0.0036936805 0.05015661
-0.033063523 0.082826376 0.121851355 0.24823274 0.046996515 0.043693338 0.022876706 0.06555573
0.09580263 0.22322673 -0.000120048164 0.058336165 0.0074300757 -0.0008010471 0.0928084 0.0865
-0.02912819 0.07125946 -0.0053311763 -0.0002819436 0.06848916 0.053561658 -0.13713057 0.18321653
0.013285754 0.14148082 -0.085228756 -0.014174445 -0.027251309 0.09661398 0.11470607 0.049828533
-0.084657915 -0.11702495 -0.087575674 0.06338432 -0.15362746 -0.04916393 0.18927622 0.1065791
0.120037794 0.077055775 0.06778171 -0.007146811 -0.048294768 -0.113468714 -0.03379869 0.0748611
0.034455895 0.046383843 -0.027743645 -0.025325185 -0.076510414 -0.0184385 0.047363453 -0.10524234
-0.036370903 -0.054619633 -0.031765338 0.024545176 0.0014227579 0.15381892 -0.03670203 0.015232761
0.0768041 -0.011627516 0.061115064 -0.10420359 -0.049163643 0.11697818 0.048571087 -0.1111121
0.060648654 0.042495456 -0.060141496 -0.014318694 -0.011694246 0.021588992 0.070260994 -0.011292705
-0.038844835 -0.16028129 -0.12863024 -0.06403749 -0.006635571 0.08031616 0.04520851 -0.025528966
-0.05924765 -0.041647837 0.065387085 0.12525623 0.10517126 0.18400776 -0.047514845 -0.023356257
0.016243037 -0.01944906 0.025458219 0.0013132751 0.07898388 0.20007777 0.0025920246 0.040199317
0.107277274 -0.0007798127 0.003059969 0.040012598 -0.068487234 0.025774589 -0.067430355 0.14223552
-0.007100494 0.22840998 -0.07345593 -0.055969913 -0.04859925 -0.10165191 0.0036191498 0.024331417
-0.049906835 0.08329012 0.12959741 0.086286776 -0.1912044 -0.034974027 -0.12412937 0.012632335
0.14295232 0.09439932 -0.05469014 -0.034928616 -0.07191092 -0.023577182 -0.07838618 -0.10546482
0.03538959 -0.12044444 -0.2351997 -0.16292906 0.07579337 0.07844432 0.0700692 -0.053581312
-0.04687593 0.0431107 0.18178052 0.17066157 0.1905535 0.045453362 -0.0049115615 -0.08902473

network_body._body_endoder.seq_layers.2.bias f4 [128]
00000000: 0000 0000 0000 0000 0000 0000 0000 0000
00000010: 0000 0000 0000 0000 0000 0000 0000 0000
00000020: 0000 0000 0000 0000 0000 0000 0000 0000
00000030: 0000 0000 0000 0000 0000 0000 0000 0000
00000040: 0000 0000 0000 0000 0000 0000 0000 0000
00000050: 0000 0000 0000 0000 0000 0000 0000 0000
00000060: 0000 0000 0000 0000 0000 0000 0000 0000
00000070: 0000 0000 0000 0000 0000 0000 0000 0000
00000080: 0000 0000 0000 0000 0000 0000 0000 0000
00000090: 0000 0000 0000 0000 0000 0000 0000 0000
000000a0: 0000 0000 0000 0000 0000 0000 0000 0000
000000b0: 0000 0000 0000 0000 0000 0000 0000 0000
000000c0: 0000 0000 0000 0000 0000 0000 0000 0000
000000d0: 0000 0000 0000 0000 0000 0000 0000 0000
000000e0: 0000 0000 0000 0000 0000 0000 0000 0000
000000f0: 0000 0000 0000 0000 0000 0000 0000 0000
00000100: 0000 0000 0000 0000 0000 0000 0000 0000
00000110: 0000 0000 0000 0000 0000 0000 0000 0000
00000120: 0000 0000 0000 0000 0000 0000 0000 0000
00000130: 0000 0000 0000 0000 0000 0000 0000 0000
00000140: 0000 0000 0000 0000 0000 0000 0000 0000
00000150: 0000 0000 0000 0000 0000 0000 0000 0000
00000160: 0000 0000 0000 0000 0000 0000 0000 0000
00000170: 0000 0000 0000 0000 0000 0000 0000 0000
00000180: 0000 0000 0000 0000 0000 0000 0000 0000
00000190: 0000 0000 0000 0000 0000 0000 0000 0000
000001a0: 0000 0000 0000 0000 0000 0000 0000 0000
000001b0: 0000 0000 0000 0000 0000 0000 0000 0000
000001c0: 0000 0000 0000 0000 0000 0000 0000 0000
000001d0: 0000 0000 0000 0000 0000 0000 0000 0000
000001e0: 0000 0000 0000 0000 0000 0000 0000 0000
000001f0: 0000 0000 0000 0000 0000 0000 0000 0000
0.0 0.0 0.0 0.0 0.0 0.0 0.0 0.0
0.0 0.0 0.0 0.0 0.0 0.0 0.0 0.0
0.0 0.0 0.0 0.0 0.0 0.0 0.0 0.0
0.0 0.0 0.0 0.0 0.0 0.0 0.0 0.0
0.0 0.0 0.0 0.0 0.0 0.0 0.0 0.0
0.0 0.0 0.0 0.0 0.0 0.0 0.0 0.0
0.0 0.0 0.0 0.0 0.0 0.0 0.0 0.0
0.0 0.0 0.0 0.0 0.0 0.0 0.0 0.0
0.0 0.0 0.0 0.0 0.0 0.0 0.0 0.0
0.0 0.0 0.0 0.0 0.0 0.0 0.0 0.0
0.0 0.0 0.0 0.0 0.0 0.0 0.0 0.0
0.0 0.0 0.0 0.0 0.0 0.0 0.0 0.0
0.0 0.0 0.0 0.0 0.0 0.0 0.0 0.0
0.0 0.0 0.0 0.0 0.0 0.0 0.0 0.0
0.0 0.0 0.0 0.0 0.0 0.0 0.0 0.0
0.0 0.0 0.0 0.0 0.0 0.0 0.0 0.0

value_heads.value_heads.extrinsic.weight f4 [1, 128]
00000000: 00e6 083c a87e 363d 5db7 c6bd 5476 873d
00000010: 1050 4ebd 2e8f 0f3e 1dc5 2abe aa04 a7bd
00000020: 2d7e c3bd 5c53 283e 0aa3 06be 400a a23c
00000030: 808f 24be 463d 1cbe 5d0b 50be 1c3d 7fbd
00000040: 804b adba 8076 173e 9094 553d 6068 8fbb
00000050: 1e79 203e 4805 7fbd fc47 f93d 2830 943d
00000060: c058 343d d0be 81bc e85a 47be 88a6 e33d
00000070: 5abc f1bd a061 0dbe d4ab d83d 3315 e6bd
00000080: 2432 073d c0de 14bb 4821 b4bc 8cf6 6abd
00000090: bcd1 d13d 08ef 92bc b005 6c3d 2459 e2bd
000000a0: b784 51be 34d5 c33d 64c9 1a3e ce0d 553e
000000b0: 76c5 1c3e bc1b 04be 96fb b0bd 7a58 123e
000000c0: 8858 7a3d 0893 833c 0ad4 493e 162d 0ebe
000000d0: 3ca5 12be b034 f83c eaff 023e d038 553c
000000e0: 9766 49be c0b7 48bc 704b 593d 9016 92bd
000000f0: 5a88 0f3e 5e87 8fbd 22b9 3d3e e428 95bd
00000100: 0eec 383e f84c c13d 5c7a a43d e09d 513c
00000110: ae44 493e 449a 133e f92b 44be fd2b 4cbe
00000120: 5873 f13d 8821 053e 941d 0dbe 9e21 91bd
00000130: 6af6 463e 281f 2c3d b4f8 c5bd 84b7 53be
00000140: 8e6e 48be 2a79 bdbd f00c ae3c 3cae d2bd
00000150: f8b9 21bd 289a df3d 483c b43d 4eef 9dbd
00000160: 70d9 8f3c a47e a23d 7bd9 08be bc37 45be
00000170: f837 353e 1448 2d3e a4a4 46bd 64fd 263e
00000180: add0 53be dbb6 cbbd 76ae 4ebe 7859 393d
00000190: d81a 45bd e065 963b 6c6b 453e d7e2 e3bd
000001a0: 4ebb 1b3e a05a c53b 5c10 9b3d 2c40 b43d
000001b0: 38c5 333e 3066 223c 6006 153d 1459 66bd
000001c0: 9079 623d 48d7 c93d 3911 d9bd 3062 8ebc
000001d0: acb3 93bd 1cb1 cebd 14ea 22be 76c4 42be
000001e0: 2cbd 52bd f9a4 2ebe c8fa 7e3d 19ae d5bd
000001f0: e037 513c 60d2 e83d fe62 03be 4ce9 803d
0.0083556175 0.044554383 -0.097029425 0.06614366 -0.050369322 0.14019462 -0.16676755 -0.081551865
-0.095455505 0.16438049 -0.13148132 0.019780278 -0.16070366 -0.15257749 -0.20316835 -0.062314138
-0.0013221353 0.14791298 0.052143633 -0.004376456 0.15671203 -0.062260896 0.12171933 0.072357476
0.04402995 -0.015838057 -0.19468272 0.11115748 -0.11803503 -0.13806772 0.105796486 -0.11234512
0.033006802 -0.0022715777 -0.021988526 -0.05736403 0.10245082 -0.017936245 0.05762261 -0.110521585
-0.20460783 0.0956215 0.15115887 0.20806047 0.153097 -0.12901205 -0.08641736 0.14291564
0.061119586 0.01606132 0.19709793 -0.13884386 -0.14320844 0.03029856 0.12792936 0.013014033
-0.19668041 -0.012250841 0.05305046 -0.0713321 0.14016858 -0.07008241 0.18527654 -0.0728319
0.18058798 0.09438509 0.08031151 0.012793988 0.19655105 0.14414316 -0.19157399 -0.19938655
0.11789578 0.13001072 -0.13780814 -0.0708649 0.19429937 0.0420219 -0.09666577 -0.20675474
-0.19573423 -0.09251626 0.021246403 -0.10287139 -0.039483994 0.10918075 0.0880056 -0.07711659
0.017559737 0.07934311 -0.13364212 -0.19259542 0.17697132 0.16922027 -0.048496857 0.16307598
-0.20685072 -0.09946986 -0.20183739 0.04525134 -0.048121303 0.004589781 0.1927926 -0.11127251
0.1520817 0.006022766 0.0757148 0.08801302 0.17555702 0.009912059 0.036383033 -0.056237295
0.055291712 0.09855515 -0.10598988 -0.017380804 -0.07212004 -0.10092375 -0.15909606 -0.19020256
-0.05144994 -0.1705512 0.062250882 -0.10433597 0.012769669 0.11368251 -0.12830731 0.06294498
