Lofty2024/results/Test8/MoveToPoint.onnx (onnx, 89178 bytes, 9 tensors)

discrete_act_size_vector f4 [1, 2]
000000 00 00 10 41 00 00 10 41
       9.0 9.0

network_body._body_endoder.seq_layers.0.weight f4 [128, 12]
000000 1e b1 87 bd 32 83 c7 3e 4a 5f bf be 9e 2f a0 be
       -0.06625579 0.38967282 -0.37377387 -0.3128633
000010 67 da 16 be 2a 00 ff 3d 9d 2c dc bd 94 b4 54 3d
       -0.14731751 0.12451203 -0.10750697 0.051930025
000020 b9 91 28 3e c1 9d 4f 3c 3f 5e ba 3e 2c 1f 1c 3d
       0.16461839 0.012671889 0.3640003 0.038115665
000030 6d 46 5c be 2c 63 07 be ce 81 13 be 00 62 c0 3c
       -0.2151124 -0.13221425 -0.14404985 0.02348423
000040 50 ce b6 be de d8 00 bf 3c d0 c8 bd 02 71 b7 3c
       -0.3570428 -0.50330913 -0.098053426 0.022392754
000050 74 4d 06 bf 3f 58 53 3e f3 b4 2c bf 51 13 3a 3e
       -0.52461934 0.20639132 -0.67463607 0.18171431
000060 46 12 02 bf 9b 47 c2 bb 7f a6 94 be 12 bd de bd
       -0.50809133 -0.005928946 -0.29033276 -0.10875906
000070 24 43 a5 bd d1 5d b0 be d1 be 05 bf 03 61 84 3e
       -0.08069447 -0.34446576 -0.5224429 0.25855264
000080 b1 a4 20 be cd 82 ac 3d 97 ca 06 bc 1a fa 23 3e
       -0.15687825 0.08423386 -0.008227012 0.16013375
000090 c2 c4 1b 3e fe 62 fc 3e 57 11 ea 3d 3c c3 63 3e
       0.15211776 0.49294275 0.114290886 0.22242445
0000a0 50 57 9b be 80 0f dd be 9f bb 38 3f 81 df 82 3d
       -0.30340052 -0.43175888 0.7216129 0.06390286
0000b0 5c d3 3e be 79 51 4e 3d 51 7b b6 bd 46 b3 31 be
       -0.18635315 0.050370667 -0.089102395 -0.17353544
0000c0 84 82 5b be 35 74 c7 3e 6e da 04 be 1e 46 ab bc
       -0.21436507 0.38955846 -0.1297395 -0.020907458
0000d0 eb 77 af be c5 e6 80 3e d5 9e 1c be 5f a4 fa 3d
       -0.34271178 0.25176063 -0.15294965 0.122383825
0000e0 1b 43 c3 bd 54 f0 6c 3e 63 dc 80 3d 19 e4 d2 be
       -0.09534284 0.23138553 0.062920354 -0.4118965
0000f0 c0 d9 5f be fb 87 36 bd ed ba 94 3d 3b 6e 86 3b
       -0.21860409 -0.044563275 0.07262216 0.004102496
000100 47 16 f8 3e bc 72 01 bf b5 ed cc be a1 34 2a be
       0.48454496 -0.50565696 -0.40025106 -0.16621639
000110 73 cf 12 bf 60 bf ea be 7e b2 fd bc e7 51 ec 3c
       -0.5734779 -0.45849133 -0.0309689 0.028847648
000120 65 66 75 3d 21 43 8e 3e 8f 71 63 be 71 f9 48 3e
       0.059912104 0.2778559 -0.22211288 0.19626404
000130 5b ad c1 3e 1c e4 c4 bc 84 73 0c 3e 4d 55 74 3e
       0.37827572 -0.024034552 0.1371594 0.23860665
000140 0c ec d4 3e cc c4 f0 bd 0d 86 85 3c 66 61 0f bf
       0.4158634 -0.11756286 0.016299272 -0.56007993
000150 ec af ca be 90 7f 5a 3e 5f 85 12 be a6 83 18 3e
       -0.39587343 0.21337724 -0.1430869 0.1489397
000160 0c 9e b8 3d 71 15 29 bc 97 37 d4 bd c4 65 75 3e
       0.0901452 -0.010320053 -0.103621654 0.23964602
000170 b3 bd ff be cc 95 42 be 02 88 d5 bd 99 84 82 bc
       -0.49949417 -0.19002455 -0.10426332 -0.015932368
000180 81 c8 d5 3d b2 e9 0e 3f 81 7b 17 3f 3e 16 b5 bd
       0.10438634 0.5582534 0.59172827 -0.08842133
000190 fc 1c c3 3c 87 45 ef 3e 88 6b 34 3c a3 77 cd 3d
       0.023817532 0.46732733 0.011011966 0.100325845
0001a0 d0 09 89 3d 0b fe 14 be 9e 23 15 be 8d 94 b0 bd
       0.06691325 -0.14550035 -0.14564368 -0.08622084
0001b0 d8 a3 30 bd f7 bc 0d 3d 20 94 1b bf ea c9 e9 3e
       -0.043125004 0.03460404 -0.60772896 0.4566186
0001c0 4e a2 25 3f 40 6f ac 3d 28 86 87 3e 61 3b 62 bd
       0.6470078 0.08419657 0.2646954 -0.05523241
0001d0 60 fb a1 be 4c 64 25 be 6c 54 fe be f9 08 fb bd
       -0.31637096 -0.16151541 -0.49673784 -0.12257571
0001e0 c8 14 05 be 04 10 4f 3d 30 6e bc 3e 3c 19 c7 be
       -0.12996209 0.050552383 0.36802816 -0.3888644
0001f0 8a f8 0f 3d c0 11 1c 3e 21 5e 89 bc 63 92 5d bc
       0.035149135 0.15241146 -0.016768517 -0.013523671
000200 ec f7 61 3e 48 d4 7d 3e 7a 5d 6b be 53 39 c0 be
       0.22067231 0.2478801 -0.22984877 -0.37543735
000210 a8 d8 c3 be 75 16 4d be 2d 09 ba bc 30 51 5f bd
       -0.38251233 -0.20028098 -0.022709453 -0.054520786
000220 f5 fb 28 bd a8 f6 b6 3e 5c 6e 94 be 9c 35 74 be
       -0.04125591 0.3573506 -0.28990448 -0.23848575
000230 95 de c8 3e 26 15 c8 3d 6c cf c4 3d 80 30 df bd
       0.39232317 0.09769659 0.09609875 -0.108979225
000240 bd ff 5f 3e d5 2b 97 3c 93 d3 c1 be ca 08 20 bc
       0.218749 0.018453518 -0.3785673 -0.0097677205
000250 c9 eb 91 3c bc f1 17 be 6e c7 a2 3e 23 36 bf 3e
       0.017812626 -0.14838308 0.31792778 0.3734599
000260 58 71 ad 3e 86 52 83 3d a0 cf bd 3e f2 44 17 3d
       0.33875537 0.064122245 0.37072468 0.036930986
000270 fd e8 78 be 39 4c 20 be 3d 8d 05 be 93 31 8c 3e
       -0.24307628 -0.15654077 -0.1304216 0.27381572
000280 88 5d c6 be 2e 69 d3 3c 94 a5 8f bd ea 2e b3 be
       -0.38743234 0.02580699 -0.070140034 -0.3499673
000290 50 cd b1 be e4 e3 da 3e bb 2a 03 bd d7 6e c6 be
       -0.34726954 0.42751992 -0.032023173 -0.3875644
0002a0 19 bf 3e 3d bb a0 42 be fd ab bc 3e 34 f3 d7 bd
       0.046568964 -0.19006626 0.36849967 -0.10544434
0002b0 aa e4 24 3d a4 e1 03 3e 9b c5 d6 3e 68 e1 3f be
       0.040257134 0.12879044 0.41947636 -0.1873833
0002c0 c3 5a 3d 3e 90 0c eb 3d 66 bb 29 3e 9d 15 ad 3d
       0.18491654 0.114770055 0.16575393 0.08451388
0002d0 84 5e e4 3d e6 05 83 be 35 14 42 3e 89 9c fa 3d
       0.1115084 -0.25590438 0.18953021 0.12236888
0002e0 8d 80 0e 3e 6c 98 af 3e f0 74 ac bd 65 46 26 3e
       0.13916226 0.34295976 -0.084207416 0.16237791
0002f0 e9 3e 55 be 70 45 b5 3b 17 07 6e be 4a a9 9a be
       -0.2082478 0.0055319592 -0.23244892 -0.30207282
000300 bd cd 1d bf a1 7e 78 3e 0d ad 51 3e d3 41 16 3e
       -0.61642057 0.24267055 0.2047617 0.14673547
000310 36 58 d1 3d 16 99 96 3e 0a cb 2d be 13 07 01 3f
       0.10221903 0.2941367 -0.16971985 0.5040142
000320 81 b8 d9 3e 32 2a b7 3e 75 82 e0 3d e9 9e 8f be
       0.42523578 0.3577438 0.10962383 -0.28050926
000330 7b d7 3e bd bb fc bf 3d f5 0b 09 3f f7 09 3a be
       -0.046592217 0.093743764 0.5353387 -0.18167864
000340 71 ec 20 3e 47 6b d3 be 1b 1e 8e 3e d6 cd 56 3e
       0.15715195 -0.41292784 0.27757344 0.20976958
000350 b7 c2 d8 be ed 93 13 3e 48 c5 03 3f d2 e4 02 3d
       -0.42336056 0.14411898 0.514729 0.0319565
000360 7e 56 36 3e cc ba 0a 3e 26 ec cc 3e 75 59 3d be
       0.17806432 0.1354782 0.40023917 -0.18491156
000370 84 8d 7d 3e 6b 93 b6 bb d7 3c 5d bd b4 97 9b 3e
       0.24761015 -0.005571773 -0.0540131 0.30389178
000380 76 35 3b be c1 5e c4 bd 9e 4b d7 3e 68 ce b6 3d
       -0.18282112 -0.095883854 0.4204988 0.089260876
000390 3b 29 8e 3d 17 60 86 3e be 05 83 3e 6c f3 d0 be
       0.06941458 0.26245186 0.25590318 -0.40810716
0003a0 02 b8 26 bf 53 3c 03 3f 0f 94 14 3d 70 0c 58 3c
       -0.65124524 0.5126392 0.036274012 0.013186559
0003b0 37 b4 33 bd 86 83 ff 3d da d8 31 3e 76 10 50 bf
       -0.04387304 0.12476258 0.17367879 -0.8127512
0003c0 c8 70 86 3e 95 6b 18 3e 67 94 86 3e d6 01 f6 3e
       0.2625792 0.1488479 0.26285097 0.48048276
0003d0 81 60 73 3e 86 af ac bd 1c 74 71 3e d4 86 ae 3d
       0.23767282 -0.08431916 0.23579448 0.0852181
0003e0 ea 08 be 3e 8f 31 99 3d 64 16 9b 3c 11 f0 3e 3e
       0.37116176 0.07480156 0.018931575 0.18646266
0003f0 02 40 0a 3f 30 03 f1 36 34 c1 30 3e 7f 1e 09 3e
       0.5400392 7.1827308e-06 0.17261201 0.1339054

network_body._body_endoder.seq_layers.0.bias f4 [128]
000000 3e 16 d2 3c 14 26 cd bc 93 77 7c b8 fa b6 2f 3c
       0.025645372 -0.025042571 -6.0192844e-05 0.010724777
000010 49 d5 8d 3c e2 51 4d bd 9b 6a 8b 3b d5 16 10 bc
       0.017313616 -0.050126918 0.0042546517 -0.008794506
000020 bd 85 81 bc 05 ea 76 3d b5 eb 14 3c 20 33 46 b9
       -0.015810842 0.060281772 0.0090894 -0.00018901797
000030 01 9c 7f 3c cb e9 ec 3c 9f 94 e3 bc 0a b1 86 bc
       0.015601159 0.028920075 -0.027780829 -0.01644184
000040 9d 48 ab 3c d6 41 9f 3b 29 8b c8 3b 65 f0 8d bc
       0.020908648 0.004860143 0.006120105 -0.017326543
000050 99 7f f0 bc d9 1d eb bc 92 3f 0d bc e9 09 87 3c
       -0.029357718 -0.028700756 -0.008621113 0.016484218
000060 43 f5 fb bc 48 82 aa 3c 12 46 5a 3c c2 86 21 3c
       -0.030756598 0.020814076 0.01332237 0.009858789
000070 8e 76 c5 3c 29 73 d0 bc 1a 05 91 3b fa 94 cc bc
       0.024104383 -0.025445538 0.004425657 -0.024973381
000080 ba 1e 5a 3c ac 7e 05 bd 3d db 79 3b 0a 88 40 3b
       0.01331299 -0.032591507 0.003812506 0.002937796
000090 99 4c 3c bc 31 a8 d2 3b 6e 7b 6b bc be f1 88 bd
       -0.011492872 0.0064287414 -0.01437269 -0.06686734
0000a0 57 ff 53 3b f8 dd 20 3c 81 d1 5a 3c 88 e7 aa bc
       0.003234824 0.0098185465 0.013355614 -0.020862356
0000b0 85 5c 34 bc 04 b7 56 bc 3f d3 35 bd fe ae e0 3c
       -0.0110083865 -0.013105158 -0.044390913 0.027427193
0000c0 ec ad 07 bd bc 40 8e 3b b4 a5 1e 3d 7d 7e 06 3c
       -0.03312485 0.004341213 0.038732246 0.008208868
0000d0 f1 0b 91 bc 1f ac 76 bc 42 33 36 b9 21 70 14 3d
       -0.01770589 -0.015055685 -0.00017375968 0.036239747
0000e0 75 2c fc 3b dc 3f 7f bc 19 a3 31 bc 8e fa 96 3a
       0.0076957294 -0.01557919 -0.010842108 0.0011518763
0000f0 c3 8a 84 3c 86 09 86 3c fb 12 51 bc db 6c 39 bc
       0.016179448 0.016361963 -0.012760873 -0.011317457
000100 ea 39 bc 3c a1 92 ef 3c 7b 54 7a bd 1c 2f b0 bc
       0.022976834 0.029244723 -0.061115723 -0.021506839
000110 2f ff 0b 3c 43 a9 31 bd e6 ec 21 3b ea 5b 95 3c
       0.008544727 -0.04337431 0.0024707853 0.018232305
000120 b0 0d 4d bb 1b 15 85 bc 17 ea a0 3b 26 8f 8e 3c
       -0.0031288676 -0.016245415 0.004910718 0.017402243
000130 dc d4 00 3d cb d2 0d bd b7 f9 c6 bc 9d 7f 92 bb
       0.031453 -0.034624856 -0.024288995 -0.004470779
000140 e6 40 2a bc 99 02 e3 bc 51 dc 76 bc 51 44 77 bb
       -0.01039145 -0.0277112 -0.015067176 -0.0037729929
000150 0e 3a e1 bc 19 30 0b bd d4 af 32 3b 30 47 bd bc
       -0.027493503 -0.033981416 0.0027265446 -0.023105234
000160 d7 22 38 bc d2 9e 00 bc f9 35 8d 3b da 84 da 38
       -0.011238775 -0.007850366 0.0043094126 0.000104197956
000170 a9 9b 0f bd fc 7b 07 3c 6b d2 59 3c d4 21 24 3c
       -0.03506056 0.008269306 0.013294796 0.010017831
000180 0d ea 6f 3c 3c 00 88 bb e9 cb 71 bc 80 1d 43 bc
       0.014643204 -0.0041504186 -0.014758089 -0.011908889
000190 a7 86 2b bd 77 65 26 bc 32 3a 37 bc f2 4a c3 bc
       -0.04187646 -0.010156027 -0.011183308 -0.023839448
0001a0 73 65 2e bd 94 70 a5 bc 7c 84 98 bc cd 8b a5 3a
       -0.04257722 -0.020195283 -0.018617861 0.0012630165
0001b0 1d d4 a0 bc 7b cc db 3c b4 a6 97 3c bd 96 d4 3c
       -0.019632393 0.026830902 0.018512107 0.025950784
0001c0 a8 ce cf bc 2b 07 67 bc 6e f7 b1 3b 7a 90 a5 3b
       -0.025367096 -0.01410083 0.0054311072 0.0050526233
0001d0 dd 58 93 3b cb 4a 82 3c 89 25 3d bc ef fa d6 bc
       0.0044966773 0.015904805 -0.011544594 -0.026242701
0001e0 b0 f9 36 b7 3b 57 8c 3c 68 2f dd bc f4 c7 18 bd
       -1.090618e-05 0.017131438 -0.027000144 -0.037300065
0001f0 c8 f1 c7 bc a9 14 6a bc 37 c0 a0 bc ab df c9 bc
       -0.024407282 -0.014287152 -0.019622905 -0.024642786

network_body._body_endoder.seq_layers.2.weight f4 [128, 128]
000000 c9 4e 63 3d c4 77 df 3d 1b 18 d6 bd 51 f6 28 bd
       0.055495057 0.10911515 -0.104538165 -0.04125053
000010 b6 df 44 bc 15 e2 84 bc a6 dd af 3c d8 37 e9 3c
       -0.0120162275 -0.016221086 0.021467995 0.028469011
000020 d0 49 d8 bc 61 84 48 bd 5f de 4a 3d ba 3f fd bd
       -0.026402384 -0.04895437 0.049528476 -0.123656705
000030 e8 cc 84 bc b9 3c 53 bd 78 a0 dd 3d 78 74 ed bc
       -0.016210988 -0.05157158 0.108216226 -0.0289862
000040 00 f1 bd bd 00 ff 34 3b ee 59 68 bd 41 ff 01 bd
       -0.09274483 0.0027617812 -0.05672639 -0.03173757
000050 92 f8 4b 3b ca ce 2c bd 57 41 58 be 18 ac 1f 3d
       0.0031123501 -0.042189397 -0.21118675 0.03898248
000060 8a d5 da 3b 6f ab 5a bd 24 f4 f1 bb bc 30 0e bd
       0.006678288 -0.053386148 -0.00738384 -0.034714445
000070 08 05 28 bc 0a 0a a0 3c b9 03 a2 bd 38 ec ad 3c
       -0.010255106 0.019536037 -0.07910866 0.021230802
000080 54 9c 9b 3d e6 3e 07 3d c8 c1 5c bd f3 68 28 bd
       0.075981766 0.03301897 -0.05389574 -0.041115712
000090 14 2d 5b 3c 33 76 37 bd ec 5b 99 3c 5d 68 b1 3d
       0.013377447 -0.044790458 0.01872059 0.08662484
0000a0 cb 94 5e be 8a 52 b8 b9 02 b2 60 3e 02 49 41 3e
       -0.21736448 -0.0003515671 0.21942905 0.18875507
0000b0 4a fa 6c bd 77 66 42 3e 15 e3 0c 3e cc 5c 70 3d
       -0.05785588 0.189844 0.137585 0.058682248
0000c0 33 f1 b9 bd 6b 34 78 3d 96 f2 d6 bc 96 f9 88 bb
       -0.09079208 0.060596865 -0.02623872 -0.0041801436
0000d0 3a 27 4e 3c 15 32 8c 3d 00 f3 0e bd 3c 17 10 3e
       0.0125825945 0.0684549 -0.03489971 0.14071363
0000e0 86 9c 1a 3a 38 19 e7 bd 11 ef 3f 3d 40 89 0f bd
       0.00058979576 -0.11284107 0.04685885 -0.035043
0000f0 8c d9 94 bd 60 25 af 3d 32 12 74 3b a7 4d 6f bd
       -0.07268056 0.085520506 0.003724229 -0.058423664
000100 0b 1d c9 bc 0a 13 f2 bb 2c c5 7e 3e 96 cb 7a bd
       -0.024549982 -0.0073875235 0.24879903 -0.06122931
000110 a5 85 d4 3d 95 4c 5a 3c 0b 7a 84 3c a8 82 16 bd
       0.10377053 0.013323923 0.016171476 -0.036745697
000120 9a 0b be bd 84 6a c2 3d bf 08 97 3c 65 ed c0 3d
       -0.092795566 0.094929725 0.018436788 0.094202794
000130 45 c3 43 bd ba 32 23 bd c9 7a 28 bd 2e 74 6a bd
       -0.047793645 -0.0398433 -0.041132722 -0.057239704
000140 de b5 03 be 0f 4a 18 bb e7 63 8a 3b e1 ef a7 bd
       -0.12862346 -0.0023237502 0.004223335 -0.0820005
000150 03 d8 59 bc be e3 77 3e 91 a7 1b bc af aa af 3d
       -0.01329613 0.2420797 -0.0095004 0.08577477
000160 29 7b cb bd bc c1 cd 3a bf e8 4f bd 78 7f c2 bd
       -0.099356 0.0015697996 -0.050759073 -0.09496969
000170 f3 d0 fb bc b2 38 ef bd b5 7e 02 bd e7 a3 57 bd
       -0.030739283 -0.11680736 -0.03185912 -0.052646544
000180 ce 9a b9 bd f2 f4 e1 bd 0e 9c f3 3d 26 ad 8b bd
       -0.0906273 -0.11033048 0.118949994 -0.06820135
000190 ea 19 ac bc 33 52 1d 3e 8c 8c 2a bd e2 a1 e3 bc
       -0.02100845 0.15363388 -0.041637942 -0.027787153
0001a0 0c 9a ed bd 38 28 be 3c 10 ce f1 3c c2 da 01 3e
       -0.11601648 0.023212537 0.029517204 0.12681106
0001b0 78 94 51 3b 44 f8 c1 3d 8b 86 93 3d 9c 29 61 be
       0.0031979363 0.09471181 0.072033964 -0.21988529
0001c0 13 61 ce 3c 3a c2 77 bd 0d 6b 3e 38 c3 4b 94 3c
       0.025192773 -0.060487963 4.539923e-05 0.018102532
0001d0 09 4e 90 bd f6 10 8c bc 0d c0 23 be 52 58 8b bd
       -0.07046134 -0.017097931 -0.1599123 -0.06803955
0001e0 0e 29 bb bd ae 8c 26 be 34 2c 84 be fb 90 a7 bd
       -0.0913869 -0.16264603 -0.25814974 -0.0818195
0001f0 0f 36 2a 3d df a2 d2 3d 94 55 6e be a2 4c 8b 3d
       0.04155546 0.102849714 -0.23274833 0.06801726
000200 83 df e3 3b 80 23 49 bd 8b 4c 45 bc 63 02 1e bd
       0.006954135 -0.04910612 -0.012042175 -0.038576495
000210 07 79 e9 bb 32 30 30 3d 0c e5 6a bd 5f f7 c9 bc
       -0.0071250233 0.043014713 -0.057347342 -0.024654089
000220 c1 27 06 3e 4b ea b6 bd 5d ed 99 bd c1 32 78 3d
       0.13101102 -0.089314066 -0.075159766 0.060595278
000230 10 1b 94 3d 74 e3 1d 3e fb 5c 86 bd d4 c3 2c bd
       0.07231724 0.15418798 -0.06560703 -0.042178944
000240 aa b0 4d 3d 2f 54 10 bd 8b 4b 48 be 09 b0 65 3c
       0.050217308 -0.035236534 -0.19560067 0.014019021
000250 dc c4 2f be 17 86 42 3d 41 40 00 be 9b 5f fe 3b
       -0.1716494 0.04749116 -0.12524511 0.007762862
000260 e6 36 ee 3d d8 62 6f 3c eb ce 16 3b 24 63 e7 3d
       0.11631565 0.0146109685 0.0023011516 0.112982064
000270 0b a3 8d bc 1b c3 53 3d 00 65 e7 bd 5f 58 25 bd
       -0.017289659 0.05169974 -0.11298561 -0.04036748
000280 1f 9a a1 be b4 7b ee 3c f9 79 3a be 3a 08 52 bd
       -0.31562898 0.02911172 -0.18210591 -0.051277377
000290 ab 66 1d ba 15 0a 42 bd ec d0 e1 bc da 4b c2 bd
       -0.00060043734 -0.047372896 -0.027565442 -0.09487124
0002a0 d2 86 64 3d 92 76 8c bd d5 74 0b bc 34 45 0b bd
       0.055792637 -0.06858553 -0.008511742 -0.034001544
0002b0 d9 fd dc bd 73 3a ab bc 16 bd 94 bd 23 c1 49 bd
       -0.10790605 -0.020901894 -0.07262628 -0.049256455
0002c0 aa 9a 1e be c4 bc 68 3d 47 eb 37 bd 18 d3 8e bd
       -0.15488687 0.056820646 -0.044902112 -0.06973857
0002d0 b7 ae c2 bc 53 a6 02 3d a0 1a 83 3c b4 b8 02 3e
       -0.023764951 0.0318969 0.016003907 0.12765771
0002e0 6a 7c 5c bc b8 65 a4 bd e7 79 95 bd a1 75 84 ba
       -0.013457397 -0.08027214 -0.07298642 -0.0010105857
0002f0 e7 01 63 bd 21 97 20 be d7 40 94 bc db f7 0d be
       -0.055421736 -0.15682651 -0.018097324 -0.1386408
000300 aa c2 47 3e 92 39 12 3a 0b fb 40 3c c0 8c b5 3d
       0.19507852 0.00055780367 0.011778603 0.088647366
000310 a7 65 f5 bb a6 27 94 3d 46 3a 56 3d e1 67 dd 3d
       -0.0074889245 0.07234125 0.052301668 0.10810829
000320 7e 7d cd ba 8d 2e 6e bd 75 fe e9 bc 08 3b 7c 3d
       -0.0015677658 -0.058149863 -0.028563717 0.061579734
000330 c6 39 9f 3c 80 db 00 be 04 9a d7 bd 7e 47 76 bc
       0.019436728 -0.12583733 -0.10527423 -0.0150316935
000340 91 a4 99 bc 7d ca 94 3d ec 9d e0 bd 10 95 32 3b
       -0.01875523 0.07265184 -0.10967621 0.0027249493
000350 a8 95 ad 3d 69 c4 3c 3d 4f 52 11 be 9b b2 17 bd
       0.0847581 0.04608575 -0.14191554 -0.037035566
000360 5c 81 21 bd a1 b1 8c bc ba 3c 82 3d 89 26 5f bd
       -0.039430007 -0.017174544 0.06359239 -0.05448011
000370 44 8c b7 3d 04 a9 8c 3d 74 b8 ac 3d 7b 47 87 bd
       0.089623004 0.06868175 0.08433619 -0.06605431
000380 7d d6 45 3d 6c 6a 8f bd 62 82 d0 3a 54 e0 9d 3c
       0.048300255 -0.0700272 0.0015907998 0.019272007
000390 b6 9c e9 bd 22 d8 e6 bd a7 69 0a 3d a7 ef 70 3d
       -0.11406843 -0.11271693 0.033792164 0.0588223
0003a0 84 47 2c 3d e5 f1 32 3d c7 50 e8 3d 8f 19 aa 3d
       0.04206039 0.04368772 0.11343532 0.08305656
0003b0 a0 6b 8a bd ca 3c 8c bd 6a 9d 04 be c5 93 02 3e
       -0.06758809 -0.06847532 -0.12950674 0.12751682
0003c0 cd 4a 51 3d 06 d8 ef bb 92 d2 5b 3d c3 a0 1f be
       0.051096726 -0.007319453 0.053667612 -0.1558867
0003d0 dd 5e 62 be 26 88 ae 3c ef 33 84 bd b1 33 06 bc
       -0.221065 0.021305155 -0.06455218 -0.008191035
0003e0 66 ca 13 3d a4 db a7 bc 78 04 5a 3e eb 74 81 bd
       0.036081694 -0.020490475 0.21290767 -0.063211285
0003f0 ba 63 39 bd 4c 38 fb 3b 78 77 f4 3d 57 f2 07 be
       -0.045261122 0.007666623 0.11936849 -0.13276039

network_body._body_endoder.seq_layers.2.bias f4 [128]
000000 b5 a8 25 bd 06 9e 04 3c 3e b4 58 bc cd a1 0b 3c
       -0.040444095 0.008094316 -0.013226567 0.008522463
000010 74 fe 17 3b f9 50 05 bc aa 6c 02 bc ef 0d 05 bd
       0.0023192437 -0.008136981 -0.007960478 -0.03248399
000020 1e 75 3d 3c e6 ff f7 3c 86 9e b3 b7 55 b7 57 3b
       0.011563567 0.03027339 -2.1412281e-05 0.003291567
000030 b9 16 dd 3c fd 48 95 bc f4 5d ed bb 36 2b e7 bb
       0.026988374 -0.01822328 -0.007243866 -0.0070547117
000040 d5 a4 23 3c bf 79 15 3c a4 b7 08 bd 89 e4 49 3c
       0.0099880295 0.009123265 -0.03337826 0.012322553
000050 41 5d ce bb 36 bd 45 bc 91 e0 13 3c 2d d3 6d 3b
       -0.006297738 -0.012069037 0.009025709 0.00362892
000060 ac 94 75 bb 20 33 09 3c 31 95 e8 3b 6f c2 db bc
       -0.0037472649 0.008374006 0.007097863 -0.026826112
000070 d2 05 8a bc f6 75 60 bc 8f ab b3 3a af ec 04 bd
       -0.016848478 -0.013699999 0.0013707745 -0.03245228
000080 1f f9 26 3c 7a a8 ba 3a 90 6d 22 3b b3 fe e1 bb
       0.010191231 0.0014240884 0.0024784543 -0.0068968176
000090 a1 49 66 3c 02 25 ff bb 43 2f be bc 9a 7e 4f 3c
       0.01405564 -0.007786394 -0.023215896 0.0126644615
0000a0 81 4c b7 bc 8d c3 dd bc 46 7d 40 bd 48 40 30 3c
       -0.022375347 -0.027070785 -0.04699447 0.010757513
0000b0 bf c5 b7 bc b6 21 b2 bc f9 0e f1 bc 41 d1 b1 bc
       -0.02243316 -0.02174459 -0.029426085 -0.021706225
0000c0 d1 b9 23 bc 6e 05 9b 3c 8e fb 91 3b a4 72 ce 3b
       -0.009993033 0.018923488 0.0044550365 0.0063002873
0000d0 6b 85 83 3c 38 1a 08 bd 24 5f eb bc 0d 26 9c bc
       0.01605483 -0.03322813 -0.02873189 -0.019061113
0000e0 95 8b 57 bd c8 9f 20 bd c4 9a 5c bb df ca 6b bc
       -0.05262335 -0.03921488 -0.0033661583 -0.01439163
0000f0 10 78 8c bc 65 35 5c bc d6 fb f5 bb 90 6b 3b 3c
       -0.017147094 -0.013440465 -0.007506828 0.011439219
000100 04 78 63 3c 95 3f 01 bd c7 ed 11 bd 08 4e 8f bb
       0.013883594 -0.031554777 -0.035627153 -0.0043733157
000110 78 aa 50 bc eb 6a 12 bd 14 ae 40 bd fd ab 03 bd
       -0.012735955 -0.035746496 -0.047041014 -0.032146443
000120 f8 53 c4 bc f4 0b d1 3b 21 fc 23 bc 07 30 24 bc
       -0.02396582 0.0063795988 -0.010008843 -0.010021216
000130 4a 97 43 bd ce 46 00 bd 9a da 0b bc fb 52 aa bc
       -0.047751702 -0.031317525 -0.008536005 -0.020791521
000140 87 7d d2 ba 99 f2 26 bb ba b5 b1 bc da a9 17 3c
       -0.0016059139 -0.002547419 -0.0216931 0.009256804
000150 d4 c7 19 3d c3 b5 24 bc 0a 26 d7 bc 3c b5 48 bc
       0.037544087 -0.010053101 -0.026263256 -0.012250241
000160 9c b1 ba bc 96 9d 70 ba b8 33 89 3b e5 2d c2 bc
       -0.022789769 -0.00091787556 0.0041870736 -0.023703525
000170 4b 83 a3 bb 7e 1e b0 39 c0 1c 46 3c 2b fa 96 bc
       -0.0049900166 0.00033592054 0.0120918155 -0.018429836
000180 a0 2a 6c bc 2f ca 11 bb 22 71 f0 3b e5 18 e1 bb
       -0.0144144595 -0.0022245755 0.007337705 -0.0068694227
000190 4f 16 45 3d c4 a3 12 bd cb 18 3b 3b 6d 29 61 bc
       0.04811698 -0.03580071 0.0028548713 -0.013742787
0001a0 f4 49 b1 3c ab 3f 9d 3c 00 33 01 3c ef 98 01 bd
       0.021641709 0.019195398 0.0078856945 -0.03163999
0001b0 0c 34 f6 bb 57 d6 24 bc ec 26 30 3c a3 14 00 3c
       -0.0075135287 -0.010060868 0.010751467 0.00781742
0001c0 86 16 da bb 8e d7 cc ba 51 b1 86 bb 6e 7a e0 3c
       -0.006655517 -0.0015628205 -0.004110493 0.027402129
0001d0 e0 f1 80 bc 5c 65 dd bc 0c f3 1c 3d 18 44 cd bc
       -0.015740335 -0.027025871 0.038317725 -0.025056884
0001e0 04 58 2a 3c b7 f5 06 bd 68 c0 93 bc 58 95 1d bd
       0.010396961 -0.032949176 -0.018036082 -0.038472503
0001f0 a7 24 3c bc e4 e4 0e bd e6 28 1f 3c 52 dc 39 3c
       -0.011483348 -0.034886256 0.009714341 0.011344032

action_model._discrete_distribution.branches.0.weight f4 [9, 128]
000000 e3 d3 74 3b 5c c2 12 3c 30 fd e8 3b d3 6c 6d 3c
       0.003735774 0.008957472 0.0071102604 0.014491278
000010 56 c3 33 bb 57 79 82 3c 13 44 8d 3c 60 9f e0 bb
       -0.0027429662 0.015927 0.017244374 -0.0068549365
000020 39 3f 42 ba 6a 93 41 bb 47 a5 e3 3b 32 7a 8c bb
       -0.00074099336 -0.0029537329 0.006947193 -0.0042870278
000030 c8 40 ac 3b 89 89 92 3b 3f 6a b1 bb 35 74 b0 ba
       0.005256746 0.004471962 -0.005414277 -0.0013462367
000040 30 7c 72 3c bf b0 8d 3c f0 00 67 3c 7f a5 cb bb
       0.014800116 0.017296193 0.014099345 -0.006214797
000050 03 5d 65 3b 62 92 6d b9 b7 e9 30 3c 78 36 63 ba
       0.0034998066 -0.00022656613 0.010797909 -0.0008667479
000060 30 76 f3 3b f6 06 8a 3c a6 f2 82 bc bd 12 61 bb
       0.0074298605 0.016849022 -0.015984844 -0.0034343444
000070 cb d9 35 3c 8f e5 45 3c bf fa 2c 3b b1 c1 ae 3b
       0.011099289 0.012078657 0.0026394574 0.0053331484
000080 97 e1 21 bc 75 fe f7 bb db 73 4a 3c d3 a0 0b 3c
       -0.009880445 -0.0075681754 0.012356724 0.00852223
000090 56 e0 40 3c a5 8f 1b 3c 87 48 a7 3c ff 12 f2 bb
       0.011772236 0.009494697 0.020420326 -0.0073875184
0000a0 ad 0c 39 bb f2 65 08 bc d3 a6 ab 3b 66 67 28 3c
       -0.0028236315 -0.008325087 0.005238393 0.010278558
0000b0 b7 db ea ba b6 1c 05 3c 3b b6 4e 3b 55 a9 3a 3b
       -0.0017918263 0.008124521 0.0031541723 0.0028482277
0000c0 f8 61 41 3c 33 03 c2 3c df 23 2a 3a 3a e2 0b bc
       0.011803143 0.023683166 0.00064903306 -0.008537823
0000d0 32 37 20 3c 19 1c 8d ba d5 65 97 bb 3b 08 ee bb
       0.009778785 -0.001076582 -0.0046202936 -0.0072641647
0000e0 ef 6c c4 ba 3a 80 cd 3b 67 f5 81 3b 7a b3 48 3c
       -0.0014986078 0.0062713893 0.003966022 0.012249822
0000f0 fe cf 2a bb af 4f 9e 3b 59 e8 42 bb c0 5e 75 3b
       -0.0026063914 0.0048312764 -0.002974054 0.0037440509
000100 33 e1 68 3c 7d 75 a7 bb 97 ef 9c 3b d1 d6 a8 3b
       0.014213848 -0.0051104412 0.0047893035 0.0051525612
000110 6b 29 45 b9 4b 7d 2c 3b 9b 2f 3a 3a f7 6b 1b bb
       -0.00018802813 0.0026319798 0.00071024307 -0.0023715475
000120 95 f2 ac bb 8e 4e a7 3a ab ba 29 3c 2b b8 6d 3b
       -0.0052779415 0.00127645 0.0103594465 0.0036273103
000130 c3 d1 39 bc 4b fb ac 3c 4a d3 a0 3b 17 01 ae bc
       -0.011341515 0.02111592 0.004908 -0.021240754
000140 10 fb f0 bb e3 9a 42 3c 8d 7d 2f 3c 4f cc 04 bc
       -0.0073541477 0.011877748 0.010711086 -0.008105352
000150 53 ff a0 bb a3 8d 4f bc 87 f8 1a bb 94 f1 04 3b
       -0.0049132495 -0.012668046 -0.002364667 0.0020285593
000160 45 85 df bb f7 71 0f 3c 7f 3c 67 bc 8b 14 5e bc
       -0.006821307 0.008755199 -0.0141135445 -0.0135547025
000170 62 89 2f bc 47 4f 58 bc 0a a7 27 bc 77 c5 3c bc
       -0.010713907 -0.013202495 -0.010232696 -0.011521689
000180 18 35 e2 3a 55 da 0e 3c 13 c8 4a 3c ff 60 f8 3a
       0.0017258255 0.008719047 0.012376803 0.0018949806
000190 2b 2a e4 bb fd 70 02 3c 2c 05 00 3c d3 8f ef 3a
       -0.0069630346 0.007961509 0.007813733 0.0018277116
0001a0 5e 56 33 bb 0d 24 cf 3c 8f b0 a3 bb d9 38 3b bc
       -0.0027364711 0.025285745 -0.0049954127 -0.011427128
0001b0 41 d8 28 bc 6a 90 49 bc ab 9a 0c 3b 43 9c 9d ba
       -0.010305465 -0.012302497 0.0021454494 -0.0012024719
0001c0 4e 04 bf 3b 6b df 52 bc b9 e6 11 3c a3 12 80 3b
       0.0058293706 -0.01287065 0.008905106 0.0039084717
0001d0 1d ea 8d 3c b1 5a 2f b8 46 c7 af 3a 9b 0f 08 bc
       0.017323548 -4.1807714e-05 0.0013410829 -0.008304502
0001e0 08 36 82 39 1e bc 3a 3a 0a 73 34 3c 77 42 64 bb
       0.0002483579 0.00071233686 0.011013756 -0.0034829655
0001f0 ad 3f 77 3c 0b 2a 3e bc cb 1a ce 3a 12 87 e1 bc
       0.015090865 -0.0116067035 0.0015724538 -0.027530227
000200 f5 a7 05 bc 43 8b 9b ba 33 e5 75 bb a2 eb 75 bc
       -0.00815772 -0.0011867065 -0.0037520647 -0.0150097925
000210 3d 35 49 3c b9 0f a6 ba 33 92 fb ba 8d 70 a8 3c
       0.012280759 -0.0012669481 -0.0019193351 0.02056148
000220 0d dd 04 bc 00 a2 03 bc ef b7 c4 3c 50 ef 9f 3b
       -0.008109343 -0.008034229 0.024013488 0.004880823
000230 40 fd 29 3c 28 78 d3 3b 56 8c 87 b9 5f ff 03 bc
       0.010375321 0.0064535327 -0.00025853765 -0.008056491
000240 62 b0 45 3b eb af ef 3b da 9f cd 38 37 45 82 bc
       0.0030164947 0.007314672 9.8049364e-05 -0.015902145
000250 da 36 95 bb f7 cc c2 3b 8a 53 e2 3b c7 1d 8f 3b
       -0.004553658 0.005944844 0.0069069313 0.0043675634
000260 02 fc ea bb d3 6f a2 3c ed 18 f0 39 3b c2 05 3a
       -0.007171155 0.019828713 0.00045794938 0.000510249
000270 c3 83 82 3b fd 23 7c 3a f6 77 83 ba 33 f1 0d bc
       0.0039829924 0.00096184 -0.0010030258 -0.008663463
000280 eb 39 d6 3b 2d ab ea 3b f0 01 86 b9 b9 35 29 bc
       0.006537666 0.007161519 -0.00025559915 -0.01032775
000290 13 3a 2a bb e7 1a d9 3a b3 75 89 bb 00 e0 4c bc
       -0.0025974556 0.0016563804 -0.004194939 -0.012504578
0002a0 23 bb 25 bc 7b 6f d0 3a bf dc bb b9 6a c2 74 bb
       -0.010115418 0.0015902364 -0.00035831888 -0.0037347325
0002b0 4f a3 8c bb fa 0c 8e 3c 29 7e 3a 3c 68 96 30 3c
       -0.004291929 0.017340172 0.011382618 0.010778047
0002c0 b1 c6 cb bb a2 bd 79 3c 0b 12 ac 3c 73 5f 39 3c
       -0.006218754 0.015242966 0.021004697 0.011314261
0002d0 e2 a1 a0 39 ab 0f 90 3b a8 25 c1 39 1b 2a 53 bb
       0.0003063819 0.004396399 0.00036839885 -0.0032221142
0002e0 e6 29 94 3c c2 6b 37 3c e9 6c 0b 3c 3f 2c 4b 3c
       0.018086385 0.011195125 0.008509853 0.012400686
0002f0 85 ab 87 bb ee d8 b7 3b a0 03 a5 3b 85 b2 eb bb
       -0.00414032 0.005610577 0.0050358325 -0.007192912
000300 0d a4 85 3c da 80 8c bb 09 94 18 3a 19 7d 1a 3b
       0.016313577 -0.0042878212 0.0005820399 0.00235731
000310 fa 1d 7d ba c5 a1 d7 bb 18 dc 5b bc 3d 6e fb bb
       -0.0009655651 -0.0065805637 -0.013419174 -0.0076730535
000320 20 61 14 3b f9 e2 05 3c b8 5d d1 bb 2f 80 95 3b
       0.0022640899 0.00817179 -0.006389346 0.0045624
000330 60 11 ee 3a b3 cc 4d 3b e3 1a 6d bc bd cb 63 b9
       0.0018163137 0.0031402528 -0.014471742 -0.00021724305
000340 e8 e0 e1 3b 9f d8 e4 3c 00 d5 5a 3a 83 81 a1 3b
       0.006893266 0.027935324 0.00083477795 0.004928769
000350 2f c8 5f 3b 7a 4a 72 b8 e0 04 61 bb 73 d8 b8 3b
       0.0034146418 -5.7766658e-05 -0.003433518 0.005641037
000360 a5 74 ce bb 37 7a 8d 3c c8 3a 62 3c 75 5d 47 bb
       -0.006300526 0.01727019 0.01380796 -0.0030420695
000370 c2 1e ef 3b c3 64 07 3c c0 0f 6d 3b a9 5d b0 bb
       0.007297368 0.00826377 0.0036172718 -0.005382259
000380 33 82 c5 ba ad d3 33 3c cb df 9b 3c 14 b5 48 3c
       -0.001506871 0.01097576 0.019027611 0.012250204
000390 47 3b 69 3c 63 38 60 ba f4 52 10 39 7a 79 8b bc
       0.014235324 -0.0008553324 0.00013763813 -0.017025698
0003a0 d1 3d 37 3c 93 a1 53 3c 65 67 67 3c 32 c2 10 bc
       0.011184172 0.01291694 0.014123772 -0.008835362
0003b0 90 22 58 3b f1 e1 a8 ba b5 8a 13 bb f8 a7 d1 bb
       0.0032979585 -0.0012884719 -0.0022513096 -0.0063981973
0003c0 f2 5b a8 ba 1a c2 30 3a 3a 63 d1 3a 4a ef da bb
       -0.0012844785 0.00067427906 0.0015975006 -0.0066813575
0003d0 67 94 1a bc 75 23 67 3b 98 7b 71 bb 4b e7 1b bc
       -0.009434796 0.0035268937 -0.003684735 -0.009515594
0003e0 c6 0e 21 bb 76 72 bd 39 41 f1 18 ba cb 0f b4 3b
       -0.0024575456 0.0003613417 -0.00058342895 0.0054950467
0003f0 ea 7a 3a bc cb 29 72 3b 63 07 f4 bb 3d 67 d1 bb
       -0.011381844 0.003695118 -0.0074471696 -0.006390481

action_model._discrete_distribution.branches.0.bias f4 [9]
000000 00 00 00 00 00 00 00 00 00 00 00 00 00 00 00 00
       0.0 0.0 0.0 0.0
000010 00 00 00 00 86 16 9a 3c e1 5e c7 bc 9d 6b 87 3c
       0.0 0.018809568 -0.024337234 0.016530806
000020 ea 46 54 bc
       -0.01295636

action_model._discrete_distribution.branches.1.weight f4 [9, 128]
000000 83 0a 1c bd 22 ba 86 3a 4b 49 22 3c 37 8e b2 3c
       -0.038095962 0.001027886 0.00990517 0.021796329
000010 83 b6 dc bb 28 1d c7 3b ae 2b 2c bc 29 45 18 bc
       -0.0067356243 0.0060764737 -0.010508461 -0.009293833
000020 ba 38 14 bc 2b f6 58 bd a1 70 c1 bc 37 44 d6 3b
       -0.009046728 -0.05296914 -0.023613276 0.0065388936
000030 46 04 72 bd 6f 93 28 bd fa b2 92 3c 65 e6 ea bc
       -0.059086107 -0.04115623 0.017907608 -0.028674314
000040 cd 0f a3 3c 0b 12 2e bb c1 4f 2d bd 6b 2b 0a bc
       0.019904995 -0.0026561047 -0.042312387 -0.008433203
000050 d7 8e e3 3b f5 d3 c8 3c 79 65 fd 3c 9f 4d 15 bd
       0.006944518 0.024515131 0.030932175 -0.03645098
000060 7d 49 5a 3c 92 9b 2b bc 8f dd 9f bb 8b 7d 2a bc
       0.013323185 -0.010474103 -0.0048787068 -0.010405908
000070 53 aa b3 3c 4b b2 bc 3b d3 48 09 3c 17 7d ab 3c
       0.021931803 0.005758559 0.008379179 0.02093367
000080 22 ee e9 3c 94 99 46 bd 45 4e b7 3c e6 78 dd bb
       0.028555933 -0.048486307 0.022376189 -0.006758797
000090 5e 29 9a 3c d8 d0 1c 3b ff c1 a2 b9 97 17 1f 3d
       0.018818554 0.0023928192 -0.00031043586 0.038840856
0000a0 d5 b0 14 bd 4d 25 d2 bb 2b da 2b bc f1 9a 5b 3d
       -0.036301453 -0.006413138 -0.010489027 0.05361456
0000b0 85 b5 a1 3b a8 9e e6 bc 0a 2a 48 39 87 76 61 3c
       0.004934969 -0.028151825 0.00019089147 0.013761169
0000c0 d4 7f 3f b9 00 b2 c4 3c 56 82 63 3c 1a 61 9c 3c
       -0.00018262799 0.024010658 0.013886055 0.01908927
0000d0 c3 bf ad 3b 9e 0a a7 bb b5 72 0d bc 57 d2 b5 bc
       0.005302401 -0.005097701 -0.008633305 -0.022195024
0000e0 44 a2 9b bc b5 98 db bc f3 7e 96 bd 96 cc 2c 3d
       -0.018998273 -0.026806215 -0.073484324 0.042187296
0000f0 3d cf 41 3c 9b 9b 60 3c 9f 14 13 3c 13 ac 21 3c
       0.011829195 0.013708974 0.008977084 0.009867686
000100 62 9a 50 bb a1 b3 a4 bc 02 21 20 bd cb 88 92 3c
       -0.00318303 -0.020105185 -0.03909398 0.017887494
000110 2a 5e 99 bc e2 0f 83 bb b1 3d 6e bc 4d 4a 40 bc
       -0.018721659 -0.003999696 -0.014541076 -0.011736465
000120 2a 1a 73 3c e6 5b 8b bc df a8 da 3c 01 6c 99 3b
       0.014837781 -0.017011594 0.026691852 0.0046820645
000130 72 ba d8 bc 91 bb 8d bc c8 28 dc bc 28 52 ce ba
       -0.026456092 -0.017301353 -0.026874915 -0.0015741037
000140 e3 8e b3 3b 4a 3a 9a bb 2c e8 12 bd 6f 66 38 3c
       0.00547968 -0.0047066556 -0.035865948 0.011254891
000150 80 30 89 bb 88 83 9e 3c 3c cd e4 3c fa 30 32 bd
       -0.00418669 0.019349828 0.027929895 -0.04350374
000160 8e 4a e6 bc 87 a8 c9 bc 14 2c fd b8 a3 e1 82 3c
       -0.028111722 -0.024616493 -0.0001207219 0.015976733
000170 36 22 8d bb d0 a4 95 3c e2 f1 b7 3c ba c7 56 3c
       -0.004307057 0.018267065 0.022454206 0.013109142
000180 4a 4c 2e bd 34 e7 f1 bb f5 ca 09 bc e8 b7 79 3c
       -0.042553224 -0.007382298 -0.008410205 0.015241601
000190 c0 02 e9 3c 56 d8 fe bc 18 12 83 bc e5 a8 19 bc
       0.028443694 -0.031109016 -0.015999839 -0.0093786465
0001a0 ac 5d 5f 3c 18 a0 59 3c d4 f6 2b bd 25 42 f6 bc
       0.013633173 0.013282798 -0.04198344 -0.030060837
0001b0 5e 97 bc 3b a3 4c 42 3c bd 91 8f 3c 17 ea ce 3a
       0.005755349 0.011859092 0.017525548 0.0015786317
0001c0 18 fd a9 bc 75 35 0a bc c8 bf 84 3c ea a0 90 3c
       -0.020750567 -0.008435597 0.01620473 0.017654855
0001d0 2c 92 84 bc 1b 89 9b 3c 3e ee e6 3c 78 c9 34 3c
       -0.016182981 0.018986275 0.028189775 0.011034362
0001e0 5e 13 14 3d ad 23 07 bd 85 73 dd bc 93 fe 00 bd
       0.036151282 -0.032993007 -0.027032623 -0.03149278
0001f0 13 61 d6 3c e5 2f 83 bc 6d e5 96 bc d4 c8 f0 3b
       0.026169335 -0.016014049 -0.018419946 0.0073481593
000200 dd dc 8f bc d3 e7 1b bc a8 25 81 3c d4 2f b0 3c
       -0.01756137 -0.00951572 0.015765026 0.021507181
000210 5a 85 f3 3c e0 bf ba 3c 82 46 17 bc aa b2 31 3b
       0.029726673 0.022796571 -0.009233119 0.0027114549
000220 4c 67 cd 3c 39 a1 a8 3c c8 0c 89 bc 0b 96 c4 3c
       0.02507367 0.02058469 -0.016729727 0.023997327
000230 c1 74 18 3d 60 83 c6 3c 58 dd 5a bb 82 be b1 3c
       0.03722072 0.024232566 -0.0033396091 0.021697287
000240 06 fb 56 bd 40 96 ca 3c 7c bf 82 3c 7b 6d a4 3c
       -0.05248549 0.024729848 0.015960447 0.020071736
000250 46 74 60 ba 19 98 63 3b a9 b6 1e bd dd 1b e3 3c
       -0.0008562248 0.0034728108 -0.038748417 0.027723247
000260 b9 1b f4 3b 46 cf 3f bc 76 b9 77 bd 06 8c 0c bc
       0.007449594 -0.011707133 -0.060479604 -0.008578306
000270 df b1 ec 3c 69 c0 5f 39 84 40 2f 3c d5 00 1c bc
       0.02889341 0.00021338616 0.010696534 -0.009521683
000280 1c 05 89 3c 34 a8 91 3c 87 a0 f7 bb e7 56 ee 3b
       0.01672607 0.0177804 -0.007556978 0.007273543
000290 22 ef 19 3b 8d 16 69 3c 3b 01 94 3c 3d 8a 79 3c
       0.0023488482 0.014226568 0.018066993 0.0152307125
0002a0 0c 79 a7 3c 03 e5 07 3d e1 48 bd ba 43 fc 78 bc
       0.020443462 0.033177387 -0.0014441275 -0.015196863
0002b0 3d 7b 05 bd 4f 06 0e 3c 52 f8 81 bc 9c 1c 2d bc
       -0.032588232 0.008668496 -0.015865479 -0.010565903
0002c0 78 b3 9d bb fd 19 e5 3c 1a a5 b7 bc 40 4b 87 bd
       -0.004812654 0.027966494 -0.022417594 -0.0660615
0002d0 4d a1 83 bd be c9 74 bc a7 7d ec 38 8c 45 ba bc
       -0.0642725 -0.014940677 0.000112767615 -0.02273824
0002e0 51 69 61 3b 84 6e 2c 3b 50 81 95 3c 97 65 3b 3b
       0.003439505 0.002631099 0.018250138 0.0028594488
0002f0 d5 d3 da 3c 79 b4 2f 3c 12 0b 9d 3c e2 a0 d4 3b
       0.026712338 0.01072418 0.019170318 0.0064889053
000300 5a 9e 16 bc 8d 26 ae bc d2 45 2a 3d bf c3 0c bc
       -0.009193027 -0.021258617 0.041570492 -0.008591591
000310 70 f0 d3 bb a0 a8 c3 bc 27 23 2a bc 95 be c3 3a
       -0.0064678714 -0.023884118 -0.010384358 0.0014934117
000320 8d 4d c5 bc e2 12 c8 3a 7a ab 38 3c 37 2b 24 bd
       -0.02408483 0.0015264417 0.011271352 -0.040080275
000330 0d 6e 8b 3b be 5a ab ba 08 44 c0 3b 01 72 26 bb
       0.0042550624 -0.0013073308 0.005867485 -0.0025397541
000340 db 14 9f bb 6c 85 1f bd 21 f8 97 b9 a4 3e 63 bb
       -0.004854781 -0.0389456 -0.00028985835 -0.0034674788
000350 e5 f8 4d 3c 8c 76 1c 3d 9c 0d 96 bb c5 f8 17 3d
       0.012571548 0.038198993 -0.004579259 0.03710248
000360 df 56 47 bb 40 bb f8 bb e7 8e cb 3c 42 b9 85 bc
       -0.003041677 -0.0075906813 0.024848415 -0.01632369
000370 ed 5f 82 bc 15 3e f9 bc 52 9c 8f bd 02 77 b6 3b
       -0.015914882 -0.03042511 -0.070122376 0.005568386
000380 ec 5e bf 3c 10 21 e8 3c 01 56 e4 3c 74 31 8d 3c
       0.023360692 0.028336078 0.027873041 0.017235495
000390 84 ec 07 3d b8 36 a7 3b e3 7d d6 3c 30 7c 69 3c
       0.033184543 0.0051029585 0.026183074 0.0142508
0003a0 e0 32 2b 3d 4e e6 e5 3c 5a 5a 53 3b 49 59 24 bc
       0.041796565 0.02806392 0.0032249899 -0.010031053
0003b0 f8 ed f6 bc fb 5e 57 3b b9 06 62 bd 72 6d c5 bc
       -0.03014277 0.003286301 -0.055182192 -0.02410004
0003c0 de 51 8c 3c 70 a9 1b 3d 29 ee ac bc a9 5e 75 3b
       0.017128881 0.038003385 -0.021109657 0.0037440455
0003d0 f3 75 49 3c ed 45 94 3a c6 4e eb 3c 43 de 86 bb
       0.012296188 0.0011312343 0.028724086 -0.004115851
0003e0 1c c8 fc bc a6 93 b8 3c a3 74 4b 3c 53 57 c9 3b
       -0.030857138 0.022531342 0.012417945 0.006144443
0003f0 2f 42 dd 3b ad 96 3b 3d 0b 6e 09 bb 1f 93 29 bd
       0.0067522745 0.045797992 -0.0020970132 -0.04140007

action_model._discrete_distribution.branches.1.bias f4 [9]
000000 6d 19 0d 3d 30 4d 40 bc 7b 32 0f bc ce e1 21 bc
       0.034448076 -0.011737153 -0.008740063 -0.009880496
000010 95 3f 5d bc 00 00 00 00 00 00 00 00 00 00 00 00
       -0.013503929 0.0 0.0 0.0
000020 00 00 00 00
       0.0
