Lofty2024/results/MoveToPointNew2/MoveToPoint/checkpoint.pt (torch, 469602 bytes, 33 tensors)

network_body._body_endoder.seq_layers.0.weight f4 [128, 12]
000000 28 3e 27 be b1 5a 54 be 01 85 c8 3e 82 3c 39 be
       -0.16332304 -0.20737721 0.39163974 -0.18089488
000010 9d 30 c8 be 96 b3 8b be a2 c5 11 3f 2a eb 7c be
       -0.3909959 -0.2728545 0.5694219 -0.24699083
000020 9c 0f b3 be 22 dc 8b 3e 39 6e 99 bd 5b 2e 98 3e
       -0.34972847 0.27316386 -0.074917264 0.29722866
000030 11 03 01 bf c2 c5 a1 3d 3d 60 c0 bd a6 5e cf bd
       -0.50395304 0.078990474 -0.09393356 -0.10125475
000040 fe 40 06 3e 8a 0c ab be 0d 9c 20 be c4 94 c3 bd
       0.1311073 -0.33408004 -0.15684529 -0.09549859
000050 58 5d 1f be e5 2f e2 be 6f 1e 46 be 76 cf c7 be
       -0.15562952 -0.44177166 -0.19347547 -0.39025468
000060 fc a7 35 3e e0 20 88 be ca 93 40 3e 98 03 8f bd
       0.17739862 -0.26587582 0.18806377 -0.06983107
000070 40 d0 9d be fe 07 13 bf 4c 83 ca 3d a9 df 5a be
       -0.30822945 -0.5743407 0.09888324 -0.21374382
000080 df d3 b1 3d 94 7e e1 3c b0 ff a4 be 8f 0d dc be
       0.08682989 0.027526177 -0.32226324 -0.42979094
000090 58 1e bd 3e 2f 0a 8b be d0 30 52 3e 0d 60 6d 3e
       0.36937213 -0.27156207 0.20526433 0.23181172
0000a0 da ba b8 3d 71 cd a8 bd 5e c7 3e 3d 2a 8c 14 3c
       0.09020014 -0.0824231 0.04657685 0.009066621
0000b0 ad 3b a8 bd 36 16 d4 bd 2c 63 9f bd 69 0f 45 3e
       -0.08214507 -0.10355799 -0.077825874 0.1924416
0000c0 0e 0b 8c 3e 28 34 0f 3e 7a 61 96 3d 6f ff 8d 3e
       0.27352184 0.1398474 0.07342811 0.27733943
0000d0 9e 85 7f bd f1 1a dd 3d 64 b1 0d be 7b 98 fa 3d
       -0.062383287 0.10796154 -0.138372 0.122361146
0000e0 25 23 f4 39 8b 8c f8 bd 21 9f cc be 77 0b 29 3e
       0.0004656549 -0.121361814 -0.39965156 0.1650828
0000f0 f7 af 4e 3e e3 95 14 bf c2 09 a7 3e 35 0e e7 3e
       0.20184313 -0.5804121 0.32624632 0.45128027
000100 3f 9b 6b bc d7 a5 e7 bd 72 88 1c be 81 c2 7b bd
       -0.014380275 -0.11310928 -0.15286425 -0.06146479
000110 86 9d 34 be 3e 4b 00 be 82 a4 1d 3e 4d 7d 7c bd
       -0.17638215 -0.12528703 0.15394786 -0.061642934
000120 3e de ad 3c cb 3d 7a 3e 6b dc 14 be 2d 99 97 3e
       0.021224137 0.24437635 -0.14537208 0.2960905
000130 15 19 c5 bd f3 db fe be 64 33 be bd 9f d7 95 be
       -0.09623925 -0.49777183 -0.09287146 -0.29266068
000140 f9 0e ba 3e 16 e9 c1 be 05 48 bd be 06 1b f6 3e
       0.36339548 -0.37873143 -0.3696901 0.48067492
000150 28 e9 c1 bd 24 96 67 3e 9e c1 d6 bb 71 58 6f be
       -0.09468299 0.22615868 -0.0065538427 -0.23373581
000160 0e 7a c6 bd 85 6b 28 3e 0e ea a9 3e 5a b1 05 be
       -0.09691249 0.16447265 0.33186382 -0.13055936
000170 5d c3 bd bd f2 36 95 3e a2 d7 c2 3e 59 04 84 3c
       -0.09265778 0.29143482 0.3805514 0.016115354
000180 89 e6 c3 3e f8 60 b8 bd 30 e1 d5 bd 89 45 5a 3e
       0.38261822 -0.0900287 -0.10443342 0.21315588
000190 f3 28 01 3e 3b 81 41 be 51 1a 22 bf 6e 5a e8 bd
       0.12613277 -0.18896954 -0.63321406 -0.11345373
0001a0 6a 0d 80 3e 6e bc f4 3d 94 27 48 3e 6b 67 52 3e
       0.25010234 0.119500026 0.19546348 0.20547263
0001b0 d9 6d 29 3e 3d 7d 2b 3e c4 e8 6e be 72 b1 46 bd
       0.1654581 0.16746993 -0.2333098 -0.04850907
0001c0 2a 50 92 bd e5 c7 be 3e 0e f4 84 be 43 39 c7 3e
       -0.07144196 0.37261882 -0.2596745 0.38910875
0001d0 af 92 13 bf da 40 f5 3e de 1b 72 3e 3f 61 1c 3f
       -0.57645696 0.4790104 0.23643443 0.61085886
0001e0 e8 42 28 3f d3 70 18 be 08 5a af bd b9 33 0b be
       0.6572709 -0.14886789 -0.08562094 -0.1359395
0001f0 83 27 54 3e 48 e0 d2 3d f4 67 0e bd d9 9a b5 3e
       0.20718198 0.102966845 -0.034767106 0.35469702
000200 a6 a4 1d 3d e6 a0 58 3d 30 86 99 3d e5 45 52 be
       0.0384871 0.05288782 0.07496297 -0.20534475
000210 f8 3e fd 3c 4d 4a 87 bc b6 cd 5c be 8c 4f b3 3e
       0.030913815 -0.016514922 -0.21562847 0.35021627
000220 6f d2 b6 3d 11 30 a7 be 81 9f 86 be 66 83 59 bd
       0.08926856 -0.3265386 -0.26293567 -0.053103827
000230 56 e3 05 3e 4c d9 16 bd 6a 38 20 bc b5 e7 aa be
       0.13075003 -0.036828324 -0.009779075 -0.33379903
000240 1a 73 be 3c ba f8 0b be fb 5b a5 bd ef 33 e8 be
       0.023248244 -0.136691 -0.080741845 -0.45352122
000250 53 ed 86 3e 04 04 10 bf 7b c2 3b 3e ef eb 15 bf
       0.2635294 -0.5625613 0.18335907 -0.5856313
000260 f1 87 e9 3e de 9c 91 3e fd f5 c2 bd e8 77 d1 3e
       0.45611528 0.28439993 -0.09519575 0.40911794
000270 75 6f 8f be fd 73 da 3d 98 bc 35 bd 94 90 a8 be
       -0.28014722 0.10666654 -0.04436931 -0.32922804
000280 fe 95 31 be b2 60 99 3e fe 12 00 3f 24 71 87 bd
       -0.17342374 0.29956585 0.5002898 -0.06613377
000290 03 9e f3 3e 04 4c ae 3d cc cb 37 bd ee b9 8c 3e
       0.4758149 0.085105926 -0.04487209 0.27485603
0002a0 a3 47 e4 be 2f 9a 46 3d 2a ac 6f 3e 2d 39 b7 3d
       -0.44585904 0.048486885 0.23405519 0.08946452
0002b0 4f ba 9d 3e 12 a7 86 be 09 d8 1b be 06 7f e6 3c
       0.30806205 -0.2629934 -0.1521913 0.028136741
0002c0 79 42 25 bc 00 7f 02 3e 6a 27 3d 3e 71 33 00 bf
       -0.010086649 0.12743759 0.18472067 -0.50078493
0002d0 dd 6e 4c 3d 02 bc bc 3d 4f 98 9e bd a8 05 a2 bd
       0.049910415 0.09215547 -0.07743894 -0.07911235
0002e0 9a fd a0 3d 1a 97 7a be 61 10 6d be 13 7e db be
       0.07860871 -0.24471703 -0.2315078 -0.42869624
0002f0 2f 8d c6 be bf 76 70 3e 8e e7 8c 3c d3 e5 cb be
       -0.3877959 0.23482798 0.017200258 -0.3982378
000300 41 60 25 bf e1 75 65 3e a1 66 d6 be 40 49 b1 be
       -0.64599997 0.22408248 -0.41875175 -0.34626198
000310 4c 27 d2 bc 4d 60 87 bd cb 25 0b 3e d3 a9 75 be
       -0.025653504 -0.06610165 0.13588636 -0.23990564
000320 fa 74 93 3d 84 a4 a1 be 42 b0 2b 3f 20 04 4c be
       0.07200046 -0.31570828 0.67065823 -0.19923449
000330 63 a0 a9 be a4 d7 55 3e ab 4c 18 3e eb 9e c7 3e
       -0.33130178 0.20883042 0.14872997 0.38988432
000340 57 16 b0 3e f1 d4 97 bd dd 8f 09 3f d9 82 c7 be
       0.34392044 -0.07413662 0.5373514 -0.38967016
000350 14 6f 03 bc 8f eb 9a 3e fd 18 ad be 75 75 81 3e
       -0.008022089 0.30257842 -0.33808127 0.25284925
000360 a7 3a a4 be b5 8b b3 be 7b bb 34 be bc e6 98 bd
       -0.32075998 -0.35067526 -0.17649643 -0.07465884
000370 c1 e5 0d bf 80 85 05 bf b2 a8 9f bb 3b df ae be
       -0.554287 -0.5215683 -0.004872405 -0.34154686
000380 3b 5b c9 be 4a 16 23 3f 69 76 b0 3c b2 07 a0 3e
       -0.39327416 0.63705885 0.021540837 0.3125587
000390 c6 89 fc be 09 6b 4e 3d 29 5a d6 3d 74 b6 59 3d
       -0.49323863 0.050395045 0.104664154 0.053152516
0003a0 41 6f d3 bd 19 21 91 bd c0 35 5b 3e 89 52 5c be
       -0.103239544 -0.07086391 0.21407223 -0.2151586
0003b0 97 20 20 3f cb eb 0e 3f 35 01 b1 3e a3 e2 06 be
       0.6254973 0.5582854 0.34571233 -0.13172393
0003c0 eb 23 19 be eb 1e a2 bc 64 e8 c5 3c 08 82 81 3f
       -0.14955108 -0.019790133 0.024158664 1.0117807
0003d0 80 48 70 be c9 93 ea bd a0 65 b8 be 9b fd d6 bb
       -0.23465157 -0.11453969 -0.36015034 -0.006560994
0003e0 5d d5 c0 3d be a1 56 3d 1f 17 42 be f5 b9 0a be
       0.09415696 0.052400343 -0.18954132 -0.135475
0003f0 c8 13 3b be a1 d3 c7 bd 94 d5 e0 bc d7 8f aa be
       -0.18269265 -0.09757162 -0.027445592 -0.33312866

network_body._body_endoder.seq_layers.0.bias f4 [128]
000000 45 1d 16 be c2 d8 84 bd e6 46 c8 bd f7 5f 96 bd
       -0.14659603 -0.06486656 -0.09779148 -0.073425226
000010 45 ff fc bc cb a0 a6 bd 83 23 18 bd 2b 78 07 3c
       -0.03088344 -0.081361376 -0.03714324 0.008268396
000020 bf 61 ef bc 9e f0 b6 3d 46 93 cf 3c 15 f9 e9 3c
       -0.029221414 0.08932613 0.02533878 0.028561154
000030 f7 b1 98 3c d6 9f ea bc 6f 0c 19 3d 10 c8 31 bd
       0.018639548 -0.028640669 0.037365373 -0.043403685
000040 54 f9 3c bd bf 92 0c bd 36 10 99 3c 2c 44 01 3d
       -0.046136215 -0.034319635 0.018684488 0.031559154
000050 04 96 ec 3c af 77 b4 3c 78 03 97 ba c4 78 07 bc
       0.028880127 0.022029726 -0.001152142 -0.008268539
000060 d3 32 32 bd 67 33 9c 3d 1d 7b 49 3d 89 ff 84 3d
       -0.0435055 0.07626992 0.049189676 0.06494052
000070 93 5d 6a 3c 25 88 c7 3d 00 57 14 bd 92 fc 50 3d
       0.014304536 0.097427644 -0.036215782 0.05102212
000080 05 96 10 bd 4e 95 5f bc 66 bb 62 bd 6a db 4e bd
       -0.03529932 -0.013646437 -0.0553545 -0.05050222
000090 83 57 61 3d 70 7a 20 3d 0f 53 ce 3d 55 fc c9 3c
       0.0550151 0.039179265 0.10074436 0.024656454
0000a0 f6 ba 88 bd 1f 54 ab 3b 4f 64 5b bc 19 6d 1e bc
       -0.06676285 0.005228534 -0.013390615 -0.009669566
0000b0 ee 4b 19 bc bd 6a d0 3c 58 44 29 3d d7 ca c4 3c
       -0.009356482 0.025441522 0.041324943 0.024022503
0000c0 3a 51 56 bd a5 15 a5 3d 79 0d d0 3d ab f8 b3 bd
       -0.052323557 0.08060769 0.1015882 -0.08787664
0000d0 b2 b8 04 3c c4 e8 bf 3c 59 63 e9 bc 60 18 82 3d
       0.008100675 0.023426421 -0.028489755 0.063523054
0000e0 81 90 27 bd 02 7b b3 3d 3b 88 bd 3b dd cb 09 3c
       -0.040909294 0.08763696 0.005784062 0.008410421
0000f0 59 ed f5 3c ca e9 64 3d bf 28 01 bb 5f 48 d5 bb
       0.030020403 0.05588702 -0.0019708124 -0.0065088714
000100 83 53 95 3b f3 09 b8 3c bd 05 1d 3b 84 bb 0e 3d
       0.0045570745 0.022465682 0.002395972 0.034846798
000110 e8 e9 b9 3d c8 a6 b5 bc 99 e0 bb 3c 9e 5c bc b7
       0.09077817 -0.022174254 0.022934245 -2.2454475e-05
000120 bf 68 f8 3c 25 4e 42 bd da e7 31 bc 1f f5 da bc
       0.030323384 -0.047437806 -0.0108585 -0.026728211
000130 47 08 1b bd 70 50 80 bc f9 7d 1f bd 7f eb 92 3c
       -0.03784969 -0.015663356 -0.038938496 0.017934559
000140 39 c1 62 bc f3 ed e9 bb 50 0e ce 3d 8e 0f 13 3d
       -0.013840013 -0.0071389615 0.10061324 0.035903506
000150 2c e2 00 bd f9 3a 2b bc 53 3f 89 3c 5a 28 51 bd
       -0.031465694 -0.010451072 0.016753828 -0.051063873
000160 e0 07 ed 3b 06 98 1e 3d fb bc 17 bc 97 c2 93 3d
       0.007233605 0.0387192 -0.009261365 0.072148494
000170 ba a3 7a bd 80 94 4b bd b0 55 3f bd 50 3a 37 bd
       -0.061191298 -0.049702168 -0.046712577 -0.044733346
000180 e2 4e 4e 3d 71 44 87 3c c1 cc d5 bd 77 8a 2f 3d
       0.050368197 0.016512128 -0.10439444 0.04285666
000190 97 fa 0e 3c 98 2b 4b bc a9 76 d4 bc 70 3b 90 3c
       0.008726737 -0.01240053 -0.025935488 0.017606467
0001a0 6a 7d e9 3c 9d 6f 85 3d fc 20 a5 b7 43 b9 18 bd
       0.028502185 0.06515429 -1.9684892e-05 -0.037286054
0001b0 df 4d 25 bb 9a 94 26 bd 29 c4 5b bd ba 8e cf bc
       -0.0025223417 -0.04066906 -0.05365387 -0.025336612
0001c0 d3 62 23 bd 2d 2d 6e bc 19 75 20 3d b6 72 83 bd
       -0.039889168 -0.014537138 0.039174173 -0.06418364
0001d0 7d 01 87 bb 39 db 82 bb 26 b2 64 3d 7d 5e 85 bb
       -0.0041200505 -0.0039934185 0.055833958 -0.004070102
0001e0 76 6b 24 bd 6c f1 03 3d 2b 3d ac ba 56 de 8d bb
       -0.040141545 0.03221266 -0.0013140788 -0.004329483
0001f0 63 8a 82 bc 32 41 34 3d 46 24 7a 3d 38 d3 bd 3c
       -0.015935129 0.044007488 0.06106975 0.023172006

network_body._body_endoder.seq_layers.2.weight f4 [128, 128]
000000 8e ec 4b bc 28 37 5d bd 13 3e be bd 34 cd 8d 3d
       -0.012446536 -0.05400768 -0.092891835 0.06923905
000010 32 1a e6 3c b9 c3 ad bc 33 5f 82 bc 64 52 9e 3d
       0.028088663 -0.021211492 -0.015914535 0.077305585
000020 ea 9f 56 be 8a 71 79 3d e3 98 7b 3c c1 9b 1e 3e
       -0.2095944 0.060899295 0.015356275 0.15489103
000030 4a 31 4e be b1 30 8f bd a9 21 8e 3c 04 43 f5 3d
       -0.2013599 -0.06991709 0.017350035 0.11975673
000040 08 e6 60 3c 54 bd 70 bd ee 3c 40 3e 1c 6b 9d bd
       0.013726719 -0.058774307 0.18773243 -0.07686445
000050 3c 8b b5 bc e8 d9 b2 bd 5d d3 d4 3d 69 70 0c 3e
       -0.022161119 -0.087329686 0.10391877 0.13714756
000060 fa a4 28 3e 61 fb a6 bd 96 85 eb 3d 73 83 33 bd
       0.16469184 -0.081534155 0.11500089 -0.04382653
000070 b5 88 10 be 85 e2 7e bc ff 2d 0a 3d 02 3d 83 3e
       -0.1411465 -0.015556936 0.03373527 0.25632483
000080 0e bc cf 3c 6e 10 ef bd af 40 8a 3c a3 48 07 bd
       0.025358226 -0.116730556 0.016876547 -0.033028256
000090 a7 fe 5d bd 61 f3 bd 3d d3 e4 14 3e c7 f9 95 3d
       -0.054197934 0.092749365 0.14540415 0.07323032
0000a0 8b 41 89 3a fa 60 0b be 26 9a e8 bd c3 91 63 bc
       0.0010471804 -0.13611212 -0.113575265 -0.013889733
0000b0 33 d3 5e be 69 bc 92 bd 5d 17 69 3c bb 15 c0 3d
       -0.21760254 -0.07164843 0.014226762 0.09379145
0000c0 2e aa 35 be 1f 1f cd bd 04 b1 ad bd b8 00 eb 3c
       -0.177407 -0.100157015 -0.08481029 0.028686866
0000d0 ea 70 0d 3e 05 66 86 bc 48 75 aa bc 9a a2 55 be
       0.13812605 -0.016406069 -0.020807877 -0.20862809
0000e0 3b 4d 8a bd 20 ca 1f 3e 7f 7f 7b 3c f9 55 83 3b
       -0.06753012 0.15604448 0.015350222 0.0040080515
0000f0 9b 8c 9f 3d 61 c1 ab bb 8d 56 66 bd 21 82 4e 3c
       0.0779049 -0.0052415584 -0.056234885 0.012604267
000100 11 a7 bb 3c da 8d 07 3e b1 41 bb bd 6e 9f 64 3c
       0.022906812 0.13237706 -0.09143389 0.013954027
000110 af 57 25 3c 4a 74 8e 3d f4 c9 a9 3d 20 80 40 3e
       0.010091706 0.06955774 0.082904726 0.18798876
000120 8d e7 6e bd d7 06 07 3d c2 bb 0f bd d1 62 27 bd
       -0.058326293 0.032965507 -0.03509117 -0.040865723
000130 d4 07 f1 bd f1 6f 46 be 36 0a b8 bd a9 8f ac bd
       -0.11769071 -0.1937864 -0.089863226 -0.084258385
000140 de f7 01 3e 45 62 9a 3d 20 2b 62 3c c1 00 35 bc
       0.1269221 0.07538275 0.013804227 -0.011047543
000150 95 b7 ba bc bf f9 12 3d a2 a8 03 be 2d ea 16 be
       -0.022792617 0.035882708 -0.12857297 -0.14737768
000160 1b 7d 6e bd c9 41 8b bd f1 81 c1 3c 8e 74 fa 3d
       -0.05822478 -0.06799657 0.023621531 0.12229262
000170 e1 13 4b be 75 5d 3a be 1a d1 b0 bd 4d 79 32 bd
       -0.19831802 -0.18199714 -0.08633633 -0.043572713
000180 fd 60 51 be fa b2 4f be 43 dc 5f 3c a7 5f 9b 3d
       -0.20447154 -0.20283118 0.013663354 0.075866036
000190 86 1c 26 3d f8 97 97 bd e4 1a 73 3d 44 43 04 3d
       0.040554546 -0.074020326 0.059351817 0.032290712
0001a0 48 9d 9d 3d f2 98 99 3d 2d fb 47 bd 0d 8c 03 3e
       0.07696015 0.07499875 -0.048823524 0.12846394
0001b0 74 60 46 3d 31 70 df bc 89 3d 9c bd a7 36 dd 3d
       0.04843183 -0.027275177 -0.076289244 0.1080144
0001c0 77 31 78 bd ce de fc 3d e7 06 8d 3e 52 8d 16 3e
       -0.06059405 0.12347184 0.2754433 0.14702347
0001d0 9c db 58 3d 65 f5 65 be 79 4e 0e bd 18 00 88 3d
       0.05294381 -0.22456892 -0.034742806 0.06640643
0001e0 61 98 79 3c a4 7b 5e 3d 7a 7c b9 3d b1 fe 78 3d
       0.015234084 0.05431713 0.09056945 0.060789768
0001f0 05 b3 92 bd 8d 06 bd 3d 01 03 b2 bd b3 e2 52 bc
       -0.071630515 0.09229765 -0.08691979 -0.012871432
000200 44 24 a0 bd 34 60 45 bd 16 84 98 3d ba 39 ed bc
       -0.07819417 -0.04818745 0.074470684 -0.02895819
000210 1d 54 93 bd 7a 9d a6 3d 98 f4 00 3e 7a d7 e6 bd
       -0.07193778 0.08135505 0.12593305 -0.11271568
000220 9d 9a 07 3e 35 8b 7f be 8d 8f 8e bd 2a 38 a2 bd
       0.13242574 -0.24955447 -0.06960974 -0.07920869
000230 fc 52 ed 3d 51 c8 e8 bc 78 6a 1c 3e d7 4e d8 3d
       0.11588094 -0.02841583 0.1527499 0.105619125
000240 ab 0e db bd 7f 95 13 3e ee d8 b5 3d 55 de 28 3e
       -0.10696157 0.14412497 0.08879267 0.16491063
000250 07 8a 8e bb 46 27 14 be 92 c6 14 3d 8b f0 ac bd
       -0.0043499502 -0.14468107 0.036322184 -0.084443174
000260 38 bc 1d 3e 8a 16 29 be cb 70 26 be 7b a8 c7 3d
       0.15403831 -0.16512504 -0.16253965 0.09748932
000270 b3 0c 04 3d 5c 9f 78 be b1 c4 80 3c 12 07 a4 3d
       0.032238673 -0.24279541 0.01571879 0.08009161
000280 e9 30 41 bc 1f ea dd bc 30 7e 67 bd 53 2d a9 3d
       -0.011791446 -0.027089177 -0.056516826 0.08260598
000290 d1 b5 90 3b 64 08 30 bd 62 f2 51 be ee 86 be 3c
       0.0044162055 -0.042976752 -0.20502618 0.023257699
0002a0 2f 7e 03 3e 5c 19 b2 3d 87 5e a1 bd d2 60 94 3c
       0.12841104 0.08696243 -0.07879358 0.018112574
0002b0 af 64 ed 3d cc 48 a6 bc a9 9b f4 bc 5d cb 78 3d
       0.115914695 -0.020298384 -0.02985938 0.060740817
0002c0 c1 e0 ae 3c 57 87 fd 3a 1f 98 e0 bd ba 55 90 bd
       0.021347405 0.0019342703 -0.10966515 -0.07047601
0002d0 59 df 04 3e 61 c8 38 3e 2b 50 2f 3e a0 ec 05 3e
       0.12975825 0.18045188 0.17120425 0.13078547
0002e0 b4 8f f4 bc a1 d8 57 bd 96 f4 ae 3d fa 24 9c bd
       -0.02985368 -0.052696828 0.08542745 -0.0762424
0002f0 05 53 58 3c 42 ba b6 bd 97 f8 49 bd 94 97 0f be
       0.013203387 -0.089222446 -0.04930934 -0.14022666
000300 5f 23 0a 3e 0a 39 bf 3d 00 b2 16 3c f4 cd 32 bd
       0.13490056 0.09337051 0.009197712 -0.043653443
000310 95 42 51 3e 37 ae e0 3d fe ee 88 bc 7b 34 58 bb
       0.20435555 0.10970729 -0.016715523 -0.0032990265
000320 64 d9 48 3d a8 69 cf 3d ae c3 b0 3d 5e 50 42 3c
       0.049035445 0.10127574 0.08631073 0.011859981
000330 b6 6b 0e 3e 48 d4 96 bc 7f e1 01 bd 64 86 50 bd
       0.13908276 -0.01841177 -0.03170919 -0.050909415
000340 d4 76 dd 3d 6c b5 3d bc 01 41 a7 be bc 44 a2 bd
       0.1081368 -0.011578899 -0.32666782 -0.07923266
000350 70 ff ad bd cd fa 90 3c 77 d6 15 3e cc 0b cb 3d
       -0.084959865 0.017697716 0.14632593 0.099143595
000360 7e 53 2e 3c 24 86 aa 3b c5 d2 56 bc 94 bb 01 be
       0.010640023 0.005203979 -0.013111775 -0.12669212
000370 03 28 f3 bd a0 61 49 3e 30 f4 4b bd e1 d2 4b bd
       -0.11872866 0.19666147 -0.049793422 -0.049761657
000380 87 87 b2 3b 2b 57 07 3d 97 c8 ea 3c 3e 6e 87 3d
       0.005448285 0.033042114 0.028660102 0.06612824
000390 33 1c bd 3d f6 77 46 3c 28 38 b8 3d 16 a2 41 be
       0.09233894 0.012113562 0.08995086 -0.18909487
0003a0 95 70 3f 3d 26 55 58 be 18 8b 93 3d c3 5c b7 bd
       0.046738226 -0.21126232 0.072042644 -0.0895324
0003b0 dd b2 f9 3c 0d 4a 29 3e 23 6b 86 bc 21 55 68 bd
       0.030480796 0.16532154 -0.016408509 -0.05672181
0003c0 aa 4e 76 3d 9c 84 56 3d 96 5e 26 be a1 d3 e1 bd
       0.060133614 0.05237256 -0.16247019 -0.11026693
0003d0 01 42 16 be 54 fc 80 bd 36 fb 51 bd d0 92 0f be
       -0.14673616 -0.06298128 -0.051264964 -0.14020848
0003e0 a2 51 dc 3c 10 33 7f 3d 2b e6 3c bd 10 b7 25 3e
       0.026894394 0.062304556 -0.046117943 0.16183114
0003f0 6f 8f bc 3d f7 1a 95 3d b7 62 18 be c9 61 73 bd
       0.09207045 0.07280534 -0.14881407 -0.059419427

network_body._body_endoder.seq_layers.2.bias f4 [128]
000000 f4 a5 47 bd b8 d9 39 ba 94 9e db 3b 34 e4 a2 bc
       -0.04874225 -0.00070896326 0.0067022536 -0.019884206
000010 12 8f 33 3d 3f d5 de 3c 90 82 90 bd 4b 0f 25 3d
       0.043837614 0.027201293 -0.07056153 0.040297788
000020 3b 00 ea 3c 59 c6 f7 bc 4b f6 c5 3c 35 aa 57 bc
       0.028564563 -0.030245947 0.024165293 -0.013163139
000030 f8 d4 fd 3c 16 74 d1 bc ad 1f 91 bd ac 0e f0 3c
       0.03098534 -0.02556805 -0.0708612 0.029303871
000040 98 32 09 bd 99 d5 0a 3d a0 eb 9b 3c 23 1f 21 bc
       -0.033495516 0.03389511 0.019033253 -0.009834084
000050 ac 34 79 3a 93 16 52 bd d6 93 64 bc 1e 64 2a bc
       0.0009506445 -0.05129106 -0.013951262 -0.010399846
000060 06 cb 0b 3d a4 9a 1c 3c 50 ab 4f bd 46 0a bd bd
       0.034129165 0.009558354 -0.050700486 -0.09230475
000070 c3 35 c3 3c 5f 88 0f bd fb 31 87 bc 96 5c e0 3c
       0.023829347 -0.035042163 -0.016503325 0.027387898
000080 22 e2 6d bb 34 c4 4e 3c 48 5e 48 bd bb a4 9f ba
       -0.0036298116 0.012620021 -0.04891804 -0.0012179831
000090 d6 f7 8a bd dc c7 4a 3b 3c 29 c9 3a 36 6a e7 3a
       -0.06785552 0.003094188 0.0015347372 0.0017655555
0000a0 e4 2c f2 3c 6f 5a 3f bd 78 b1 0f bd ea b3 c2 3c
       0.029562421 -0.046717104 -0.035081357 0.02376743
0000b0 bf 5e af 3c 76 83 47 3c d9 a7 bd bd 15 d3 1b bd
       0.021407483 0.012177339 -0.0926053 -0.0380431
0000c0 c9 ce cc 39 b3 d7 e7 bc 34 15 2f 3d cd c2 0e 3c
       0.0003906398 -0.028301096 0.04274483 0.008713436
0000d0 16 c0 03 bd 04 e5 f0 3c 66 63 7d bb 03 c8 06 3d
       -0.03216561 0.029406078 -0.0038663982 0.03290559
0000e0 c3 54 29 3d 2d 6f 83 bd ef eb a0 3c 86 c5 a4 bc
       0.0413406 -0.064176895 0.019643752 -0.020113718
0000f0 bd 89 52 bd 13 c7 93 bd 2b 71 95 3c 64 36 d3 bd
       -0.05140089 -0.07215705 0.01824244 -0.103131086
000100 ab 41 ea 3c 75 79 03 3d 98 48 ce 3c c4 00 ac bc
       0.028595766 0.032098252 0.0251811 -0.020996459
000110 3c f5 46 3d 35 8e 04 be 57 ee a0 3c a3 af 33 3d
       0.048573717 -0.12944873 0.0196449 0.043868672
000120 e2 44 ca 3c 52 79 2e 3c 47 0b 23 bd 01 62 97 bc
       0.024691049 0.010649042 -0.039805677 -0.01847935
000130 9f 0a 33 3d 40 e0 99 3c e6 1a b4 bd 70 da 32 bc
       0.0437113 0.018783689 -0.08794193 -0.010916337
000140 7e 7f 6f 3d 73 84 d5 3a af d2 4f 3d 6e e6 34 bd
       0.058471195 0.0016290083 0.050738033 -0.044165067
000150 55 ae 85 bb c5 52 1c bd 38 97 fc 3c 77 54 95 3c
       -0.00407962 -0.038164873 0.030833825 0.018228753
000160 44 7f 03 3d 20 3b 05 bd 89 cc eb bc 5c ac 49 bc
       0.03210379 -0.03252709 -0.028784053 -0.01230916
000170 b4 d6 a2 bd c7 56 9b bc 6f d6 d9 bd fd c1 c8 bc
       -0.079511076 -0.018962277 -0.10636603 -0.024506563
000180 ae ca 8c 3d 71 3b 76 3b 74 97 4f bd 67 f5 d6 bb
       0.068745956 0.003757205 -0.050681546 -0.006560016
000190 18 9e 4f 3d 97 9d 92 bc 8c f6 0a 3c ef a0 31 bd
       0.05068788 -0.01789741 0.008481633 -0.04336637
0001a0 10 13 01 be 50 9e 8e 3c a0 78 c5 bc 49 2b 99 bd
       -0.12604928 0.017409474 -0.02410537 -0.07478959
0001b0 90 0e 51 3d c2 39 74 ba ab 1d de 3c a4 44 2a bc
       0.05103928 -0.0009316468 0.027113756 -0.010392342
0001c0 ba 7a 71 bd fa fc 54 bd 2b 74 7b 3d 09 cd 06 bc
       -0.05895493 -0.05199907 0.061390083 -0.008227595
0001d0 b3 2d d8 bd d9 39 55 3d f0 9a d6 3c e5 8a e1 bb
       -0.105555914 0.05205712 0.026196927 -0.0068830126
0001e0 25 65 13 bd e8 8b 43 bc 09 65 28 3d 05 a9 ec bb
       -0.03598513 -0.011935212 0.04111198 -0.007222297
0001f0 e9 d0 bb bb fc 11 85 bc fb f8 54 bd ad 17 54 3c
       -0.005731691 -0.016243927 -0.05199526 0.012945098

action_model._discrete_distribution.branches.0.weight f4 [9, 128]
000000 c8 48 05 3c 87 3d 0f bc 1c 01 00 3c bd 15 46 3b
       0.008135028 -0.008742697 0.0078127645 0.003022536
000010 0e 47 85 bc 9b a7 9a 3a 73 b4 20 bb 1c 20 11 bc
       -0.016269233 0.0011799218 -0.0024521619 -0.008857753
000020 d4 94 19 3c 28 9c b9 bb 77 bf b1 3b 8e 3c 46 bc
       0.009373862 -0.005664367 0.0054244357 -0.012099398
000030 1f ad b3 b9 27 8a 67 3c 3a b3 fc 3b 62 a3 6c bb
       -0.00034270526 0.014132059 0.007711795 -0.0036108126
000040 9b bd 7a 3a 31 ed b4 3b 1a 3d 6b ba 73 17 d1 bb
       0.00095649966 0.0055214395 -0.00089736434 -0.006380969
000050 af d0 2c ba ad 2b 3e 3b 3f 1f 81 ba 9b 50 a6 bb
       -0.00065923756 0.0029017732 -0.0009851231 -0.005075527
000060 22 da 6e bc d9 a5 2a bc 88 86 91 3b 95 a2 1a bb
       -0.014578374 -0.010415518 0.004441086 -0.0023595442
000070 85 bc f2 bb 52 1e 0a 3b 73 64 be bb 5a 66 ff bb
       -0.007407727 0.0021075201 -0.0058103143 -0.0077941837
000080 8d 2f ac ba eb 21 37 bb c5 7e 88 bb 22 7f 9d bc
       -0.001313673 -0.00279438 -0.0041655027 -0.01922566
000090 c3 66 b5 bb 2f 5c d0 b9 0f f8 83 ba 53 1e 47 bb
       -0.005535932 -0.00039741534 -0.0010068434 -0.0030383065
0000a0 3c 66 19 bb bb 43 87 ba 9a e1 0c bc cf 2b 75 39
       -0.0023406884 -0.0010319868 -0.0085987095 0.0002338134
0000b0 a4 82 4a 3b 0b 1d 23 3c d5 db e5 bb 95 ac 90 b9
       0.0030900622 0.009955655 -0.0070147314 -0.00027594404
0000c0 1a f6 8e 3b 17 52 b8 bb fb 2c 78 bc f8 3e 3e bc
       0.0043628337 -0.0056250202 -0.015147443 -0.011611693
0000d0 43 d9 2a bc 27 8f 05 3c 45 9d f0 bb 24 8f 86 3b
       -0.010427776 0.008151806 -0.0073429667 0.004106419
0000e0 c5 bb 99 bb 58 13 5c bc e5 26 c8 3b 5f e0 2d bc
       -0.0046915733 -0.013432346 0.006108152 -0.010612576
0000f0 ad 90 e6 3b ee d1 9c bc 95 4e 99 3b 33 2b c9 bb
       0.0070362897 -0.019143071 0.004678557 -0.006139183
000100 1b 0d 95 bb 7d 8c 5c 3c 53 42 16 3c 3f e0 23 bb
       -0.0045486814 0.013461229 0.009171086 -0.0025005487
000110 7f 3a 00 3b 80 ea 78 bb 31 ef 11 3b 6d 57 64 ba
       0.0019566116 -0.003798157 0.0022267813 -0.0008710537
000120 03 4a a5 ba 7b 24 7e 3b fb e7 56 3b c9 e7 b1 3c
       -0.0012610558 0.0038779068 0.003279208 0.02171697
000130 af 03 30 3a 90 3e 86 bc cb a2 1e 3c 18 22 0e bc
       0.0006714416 -0.016387254 0.009682368 -0.008675121
000140 25 10 5c 3b f6 88 8f 3c 3a 52 59 3a 77 ca 82 3c
       0.0033578959 0.017521363 0.0008290146 0.015965683
000150 7b 06 d1 3b fd a0 f0 bb 6f 04 18 bb 4f b1 c9 bb
       0.0063789464 -0.00734341 -0.0023196002 -0.00615517
000160 97 b7 e2 bb 7f f0 3e 3c a3 68 f6 ba 2b 02 de bb
       -0.0069188583 0.011654018 -0.0018799495 -0.006775161
000170 f7 2c 6d 3c ec a6 33 bb 7c fa 47 3c 4b 29 84 bc
       0.0144760525 -0.0027412726 0.012205716 -0.016132971
000180 4a 94 a2 3a 7f 2f 1d 3c db 80 97 3b 09 46 09 bc
       0.0012403813 0.0095938435 0.004623515 -0.008378514
000190 ef ca 5c bc d3 65 b8 3b 45 49 5b bb 00 83 6c 3b
       -0.0134761175 0.005627373 -0.003346042 0.0036088824
0001a0 1e ce 82 3c 5d 00 8a 3c 83 f4 ba ba c7 1a 87 3b
       0.015967425 0.016845876 -0.0014263544 0.004123065
0001b0 6c b7 03 bc 5b 0c 71 bc 41 76 26 3b 25 13 cc b9
       -0.008039337 -0.014712418 0.0025400075 -0.00038924176
0001c0 b5 ba 6c 3a 27 2e 74 b8 a3 49 3c 3c ab c7 0e 3a
       0.0009030507 -5.8217116e-05 0.011492166 0.0005446623
0001d0 3f 1d 71 bc e8 65 37 3c 77 d3 d3 3b 7b 93 92 3b
       -0.0147164455 0.01119373 0.0064644176 0.0044731474
0001e0 c3 47 d7 bb 25 03 11 bc 57 51 27 3b 75 02 fa 39
       -0.006569834 -0.008850847 0.002553066 0.00047685546
0001f0 0b 3e a5 3b 62 87 97 bc ca cd 54 3c b6 f1 18 3a
       0.0050427965 -0.018497173 0.012988517 0.00058343576
000200 c0 59 f1 bb 41 66 b3 3b 5c b3 93 3b a3 d7 00 3c
       -0.0073654354 0.005474836 0.0045074653 0.007863912
000210 1a 02 ed bb 2c 8f 44 bc 67 a1 81 3b bc 24 4a b9
       -0.0072329165 -0.011997025 0.0039560082 -0.00019277906
000220 8d 09 54 bb 6b 77 0a bc 32 b1 7d bc c3 13 94 3c
       -0.0032354326 -0.008451323 -0.015484141 0.01807583
000230 34 16 2e bb ff 23 d9 ba 23 ad 01 bc 73 16 80 3c
       -0.0026563527 -0.0016566514 -0.007914814 0.015635705
000240 9f 39 24 bc 13 21 00 3c 90 57 20 3b 80 c3 b8 bc
       -0.010023504 0.0078203855 0.0024466254 -0.02255416
000250 5d 85 e0 3a 5f 15 5d bb 45 90 44 3c c7 33 8c bc
       0.0017129589 -0.0033734662 0.011997287 -0.017114533
000260 7a 13 59 bb da d0 b1 bc b7 91 2b bc e2 8c 2f bc
       -0.0033123181 -0.021706033 -0.010471753 -0.010714741
000270 6d 56 e0 ba 5a 9f 2a 3a 31 10 92 bb 75 46 75 ba
       -0.0017115601 0.00065087306 -0.0044574966 -0.0009356507
000280 3c 05 11 bc 2d be 2b 3c 90 bc 57 bc c2 0c d6 3a
       -0.008851346 0.010482353 -0.013167515 0.0016330706
000290 4a 2c 25 3c bd da da 3b 66 69 bb 3b d6 b0 0f 3c
       0.01008136 0.0066789077 0.0057193516 0.008770188
0002a0 82 e2 71 3b 08 4d 53 bb ad 9b d1 bb 7d f0 7a 3c
       0.003690869 -0.003224196 -0.006396732 0.015316126
0002b0 15 89 3e bb 07 66 69 bb 5f e7 41 bc 6a c2 74 bb
       -0.0029073406 -0.0035613792 -0.011834948 -0.0037347325
0002c0 ae a1 a2 bb b9 22 80 3b e0 43 5f 3b 7b 70 3e 3b
       -0.0049631214 0.0039103893 0.0034067556 0.0029058743
0002d0 ba 1d ff 39 b2 fd 1e bc 22 c8 d2 3b c2 4d e1 bc
       0.00048659538 -0.00970404 0.006432549 -0.027502898
0002e0 43 07 56 bc 70 03 fa 3b ed f7 4d ba 7c 3d b3 3b
       -0.013063255 0.0076298043 -0.0007857073 0.005469976
0002f0 fb b5 4a bc 37 e0 22 3c 10 ac 97 3c 12 d7 a6 3b
       -0.012372489 0.009941152 0.018514663 0.0050915563
000300 ff 56 17 3c f9 5f c4 ba f2 c3 7a 3a 05 0d 21 bc
       0.00923705 -0.0014982215 0.0009565941 -0.009829764
000310 3f ff b2 bb 53 f5 0c 3b 61 66 ad bb bf 7f ca bb
       -0.0054625566 0.002150853 -0.0052917455 -0.0061797793
000320 4d 3b 53 3c 80 5f 35 ba 0f 40 65 3c ce a6 97 3b
       0.012892556 -0.00069188327 0.013992324 0.004628039
000330 49 47 24 ba 0f f7 9e 3c 3d 88 53 3c b4 97 c1 39
       -0.0006266726 0.019404916 0.0129109 0.00036924856
000340 2e 58 07 bc 4d 86 ff bb 10 61 65 bc 58 dd 75 37
       -0.00826077 -0.0077979923 -0.014000192 1.4654674e-05
000350 bd f5 e2 b9 93 3d ad bb c7 34 59 bc 35 34 5d ba
       -0.00043289168 -0.0052868812 -0.013257212 -0.00084382604
000360 f3 ef 6d bc 7b 8c a0 ba 03 af c0 3b 12 2d f1 3a
       -0.01452254 -0.0012248898 0.005880238 0.0018400273
000370 d7 1f dd bb 5e da 01 3b eb 44 e8 bb 4e a3 8f 3c
       -0.0067481804 0.0019813995 -0.007088294 0.017533924
000380 8b c3 27 bc ce 35 a7 39 47 e5 d7 b9 b2 30 6b bc
       -0.010239492 0.0003189281 -0.0004117882 -0.014354872
000390 88 ab d0 bb 0f 5f bc bc 4e ec a8 bb 0f bf c3 bb
       -0.0063681044 -0.022994546 -0.005155123 -0.0059737037
0003a0 d5 14 78 bb 00 0b 5b bb 50 c4 be 38 0d 09 e9 bb
       -0.0037854214 -0.0033423305 9.096472e-05 -0.0071116746
0003b0 37 f2 fb bb 8f b3 82 3c 91 f9 92 bb b5 dc 85 3b
       -0.0076887864 0.01595476 -0.004485317 0.004085148
0003c0 90 c6 ed ba e2 76 b7 bb a0 88 7e bc 75 a7 8a 3b
       -0.0018140841 -0.0055988887 -0.015535504 0.004231388
0003d0 bd 07 8b 3b eb 98 c3 3b 55 59 73 bc 68 10 77 bc
       0.004242866 0.005969157 -0.014852841 -0.015079595
0003e0 6e 8a 22 3c 41 e7 47 3c 5a 72 2d 3c d6 a8 a9 bb
       0.0099206995 0.012201131 0.010586346 -0.0051775975
0003f0 f5 9b 20 3b 94 f1 2f 3c f9 c0 88 3c c2 8d 4b bc
       0.002450702 0.010738749 0.016693579 -0.012423934

action_model._discrete_distribution.branches.0.bias f4 [9]
000000 00 00 00 00 00 00 00 00 00 00 00 00 00 00 00 00
       0.0 0.0 0.0 0.0
000010 00 00 00 00 e7 15 17 bb 25 9f fe bc cb 0e f2 3c
       0.0 -0.0023053826 -0.031081745 0.02954807
000020 94 e6 bd 3b
       0.0057953093

exp_avg f4 [128, 12]
000000 40 66 8e b9 38 93 2a b8 e6 c5 9b b9 2a d2 6e b9
       -0.00027160533 -4.0668267e-05 -0.0002971135 -0.00022775741
000010 38 93 2a b8 0e 12 9d b9 18 e2 72 b9 9b 38 1c b8
       -4.0668267e-05 -0.00029958825 -0.00023163145 -3.7246016e-05
000020 6c 1b 92 b9 67 98 8c b9 9b 38 1c b8 fe 96 76 b9
       -0.0002786772 -0.0002681643 -3.7246016e-05 -0.00023516637
000030 67 5e 99 34 fa 9b b5 34 47 e1 86 36 c1 05 4f 34
       2.8567158e-07 3.3827365e-07 4.019737e-06 1.928047e-07
000040 fa 9b b5 34 8e ec 02 36 c5 c7 52 b3 85 22 ac 34
       3.3827365e-07 1.9509203e-06 -4.9076124e-08 3.2062613e-07
000050 bb 09 84 36 bb f5 ca 34 85 22 ac 34 e2 3b b1 35
       3.9350393e-06 3.7804224e-07 3.2062613e-07 1.3204956e-06
000060 ea 81 3c 39 31 31 ad 37 19 4d d7 38 92 0a 2f 39
       0.00017977474 2.0646114e-05 0.000102663595 0.00016693238
000070 31 31 ad 37 76 a3 0f b8 45 1a 3d 39 d9 89 af 37
       2.0646114e-05 -3.424609e-05 0.00018034231 2.0925816e-05
000080 91 08 d3 38 da e0 44 39 d9 89 af 37 a3 61 22 b8
       0.0001006286 0.0001877578 2.0925816e-05 -3.871474e-05
000090 42 bc 2e 3a 62 f1 2a 39 64 2f b1 3a ab 66 e5 b8
       0.0006665626 0.00016302385 0.0013518152 -0.00010938694
0000a0 62 f1 2a 39 e8 c1 1a 3a 8b 5a 1f 3a 67 d3 24 39
       0.00016302385 0.0005903528 0.00060788606 0.00015719012
0000b0 dc 04 ae 3a 47 93 bf b8 67 d3 24 39 c8 41 0c 3a
       0.0013276595 -9.135022e-05 0.00015719012 0.00053503783
0000c0 6a 0d e6 39 65 df de 38 94 64 af 3a ee 7d 1a ba
       0.00043879013 0.000106273954 0.0013381415 -0.0005893399
0000d0 65 df de 38 2a 54 8c 3a 84 2e d3 39 cf ba da 38
       0.000106273954 0.0010706235 0.00040279713 0.00010429846
0000e0 d6 7a af 3a 11 4a 19 ba cf ba da 38 64 b1 89 3a
       0.0013388048 -0.00058475236 0.00010429846 0.0010505137
0000f0 6b 3b 6f 39 14 1c e3 37 fa 3e 69 39 e4 bd a7 39
       0.00022814951 2.7073584e-05 0.00022244072 0.00031994202
000100 14 1c e3 37 19 27 93 39 3c 9e 6d 39 d4 6c e3 37
       2.7073584e-05 0.00028067155 0.00022661028 2.7111186e-05
000110 08 e6 69 39 b9 85 a7 39 d4 6c e3 37 39 74 93 39
       0.00022306305 0.00031952353 2.7111186e-05 0.00028124618
000120 a9 9b 94 ba 40 d7 73 b9 db 72 41 bb bd 07 b0 3a
       -0.0011337894 -0.00023254473 -0.0029517922 0.001343004
000130 40 d7 73 b9 ff 58 25 bb f7 3d 84 ba df a0 6b b9
       -0.00023254473 -0.0025230048 -0.0010089268 -0.00022471276
000140 04 9f 40 bb a3 61 ad 3a df a0 6b b9 28 cb 1f bb
       -0.0029391656 0.001322795 -0.00022471276 -0.0024382565
000150 1a 5a d6 39 3c fa ba 38 64 c3 b8 3a 46 13 8c ba
       0.00040884392 8.915781e-05 0.0014096317 -0.0010686896
000160 3c fa ba 38 47 3d 99 3a ed 0e db 39 8b ff c0 38
       8.915781e-05 0.0011691236 0.00041782056 9.202872e-05
000170 79 aa bd 3a 59 ec 90 ba 8b ff c0 38 be 1d 9f 3a
       0.001447036 -0.0011056765 9.202872e-05 0.0012139601
000180 3b 02 29 36 9a 64 8d b8 9c f2 5d ba c4 2e 68 3a
       2.518426e-06 -6.7421424e-05 -0.00084666326 0.0008857066
000190 9a 64 8d b8 0a 9a 9b b9 24 b7 c1 b5 c5 d0 8d b8
       -6.7421424e-05 -0.00029678672 -1.4432921e-06 -6.76229e-05
0001a0 72 b1 64 ba ce 21 68 3a c5 d0 8d b8 9e 8e 9c b9
       -0.0008723951 0.0008855135 -6.76229e-05 -0.00029860897
0001b0 ad db bd 3a 2c b3 87 38 b3 9e 10 3a 7d 99 01 ba
       0.0014485024 6.470675e-05 0.0005516812 -0.0004943831
0001c0 2c b3 87 38 ba 73 92 38 00 85 b4 3a 44 32 86 38
       6.470675e-05 6.983378e-05 0.0013772547 6.3989806e-05
0001d0 b7 4a 13 3a c7 70 fe b9 44 32 86 38 c1 90 87 38
       0.00056187384 -0.0004853068 6.3989806e-05 6.464264e-05
0001e0 46 5b 89 3a 14 8d 56 39 ac d0 ae 3a f0 6b 15 39
       0.0010479472 0.00020461186 0.0013337336 0.00014249957
0001f0 14 8d 56 39 46 c2 03 39 89 c2 8a 3a 8c 48 56 39
       0.00020461186 0.00012565506 0.001058654 0.00020435656
000200 72 b6 b1 3a b1 50 37 39 8c 48 56 39 1c dd e9 38
       0.0013558401 0.000174823 0.00020435656 0.000111514906
000210 1a fc 43 ba c5 db a6 b8 e3 f2 fb b8 87 ae 55 ba
       -0.0007476226 -7.956432e-05 -0.00012013854 -0.0008151312
000220 c5 db a6 b8 34 20 af 39 3c 8b 45 ba e4 64 a7 b8
       -7.956432e-05 0.00033402594 -0.0007535701 -7.981973e-05
000230 c1 da ef b8 f1 51 56 ba e4 64 a7 b8 cc 31 af 39
       -0.00011437154 -0.00081756624 -7.981973e-05 0.00033415703
000240 78 25 d3 b9 db 1e db 37 42 30 4d b7 d0 4b 05 3a
       -0.00040272973 2.6121203e-05 -1.2230188e-05 0.00050848443
000250 db 1e db 37 8b 32 46 b9 5c b8 8f b9 33 fa 08 38
       2.6121203e-05 -0.0001890158 -0.00027412444 3.2657943e-05
000260 48 17 0d 38 da f8 fd 39 33 fa 08 38 c0 37 c6 b8
       3.3638702e-05 0.0004844133 3.2657943e-05 -9.45176e-05
000270 fa e4 fc 38 4b dd 24 38 29 3a fb 39 12 93 41 b9
       0.000120589466 3.9306742e-05 0.00047917783 -0.00018460702
000280 4b dd 24 38 f9 f9 d8 39 f8 86 13 39 a8 4c 2c 38
       3.9306742e-05 0.00041384975 0.00014069292 4.1079387e-05
000290 fc ba 02 3a 51 8d 62 b9 a8 4c 2c 38 c6 65 ef 39
       0.0004986969 -0.00021605684 4.1079387e-05 0.0004566146
0002a0 7b 94 41 ba ec 75 94 b8 e0 87 e3 b8 c5 de 55 ba
       -0.0007384491 -7.0791546e-05 -0.00010849512 -0.00081585004
0002b0 ec 75 94 b8 d8 95 d8 39 9e a9 4c ba ef 02 9d b8
       -7.0791546e-05 0.00041310373 -0.00078072574 -7.48689e-05
0002c0 1d f2 fa b8 4f 17 61 ba ef 02 9d b8 f4 34 df 39
       -0.00011966026 -0.0008586542 -7.48689e-05 0.00042573328
0002d0 b1 97 c5 b9 7e 4c 27 b8 e2 6e 42 b9 49 bd d2 b9
       -0.00037687787 -3.988714e-05 -0.00018542589 -0.0004019535
0002e0 7e 4c 27 b8 73 b8 29 39 21 6a c3 b9 ba b9 2a b8
       -3.988714e-05 0.00016185809 -0.0003727237 -4.070413e-05
0002f0 8c a3 35 b9 70 41 d4 b9 ba b9 2a b8 94 d5 2a 39
       -0.00017322431 -0.00040484546 -4.070413e-05 0.00016292027
000300 d6 81 43 b7 14 c7 91 b5 78 a7 4c b7 ef 06 d9 35
       -1.16531355e-05 -1.0861281e-06 -1.2198339e-05 1.6169778e-06
000310 14 c7 91 b5 6d 06 5b b7 79 0f b1 37 a7 a7 db 35
       -1.0861281e-06 -1.3054913e-05 2.110725e-05 1.6365565e-06
000320 eb c0 83 36 ac 1a 7b b7 a7 a7 db 35 fb 4e 5a 37
       3.926563e-06 -1.4966976e-05 1.6365565e-06 1.3012202e-05
000330 f0 ff d1 36 ee 07 71 b7 27 c1 29 39 84 e4 c1 b8
       6.2584804e-06 -1.4366566e-05 0.00016189051 -9.2455215e-05
000340 ee 07 71 b7 31 d4 e6 39 44 fd 14 38 0b ed 3a b7
       -1.4366566e-05 0.00044027113 3.552182e-05 -1.1141655e-05
000350 28 40 3f 39 aa 6e 09 b9 0b ed 3a b7 9f d7 03 3a
       0.0001823908 -0.00013106564 -1.1141655e-05 0.00050293835
000360 32 28 83 b9 24 3f cb b7 0e 34 40 b9 fb a3 84 b9
       -0.00025016215 -2.4228888e-05 -0.00018329939 -0.00025299177
000370 24 3f cb b7 fe 48 97 38 6a 3f 75 b9 6a 45 cd b7
       -2.4228888e-05 7.213837e-05 -0.00023388644 -2.4470228e-05
000380 83 5b 2e b9 aa ce 8d b9 6a 45 cd b7 66 7d ca 38
       -0.00016628024 -0.00027047592 -2.4470228e-05 9.655468e-05
000390 8e 48 0a bb 87 f7 ae b9 3e 99 51 bb 8f d3 a3 3a
       -0.0021100375 -0.00033372288 -0.0031982209 0.0012498962
0003a0 87 f7 ae b9 9b 06 ea ba 37 72 01 bb cf 89 aa b9
       -0.00033372288 -0.0017854752 -0.0019751915 -0.00032527602
0003b0 1b d0 4f bb fe b0 9c 3a cf 89 aa b9 f7 5a d8 ba
       -0.0031709734 0.0011954603 -0.00032527602 -0.0016506602
0003c0 06 32 3e ba e4 46 8a b8 34 2d d2 39 09 c4 75 ba
       -0.0007255379 -6.593557e-05 0.00040088 -0.000937522
0003d0 e4 46 8a b8 75 c9 8a 3a 4b c9 43 ba c9 a8 8b b8
       -6.593557e-05 0.0010588603 -0.00074686547 -6.659475e-05
0003e0 39 a7 d4 39 7a 1f 75 ba c9 a8 8b b8 83 d2 89 3a
       0.00040560382 -0.00093506987 -6.659475e-05 0.0010515008
0003f0 ac 28 16 ba 95 47 29 b9 57 9b fc ba bc 78 fd 39
       -0.00057281065 -0.00016143762 -0.0019272369 0.00048345875

exp_avg_sq f4 [128, 12]
000000 7a 46 0f 38 1a 36 de 34 8f 51 77 37 bd d3 03 38
       3.4159493e-05 4.1390086e-07 1.4741337e-05 3.143003e-05
000010 1a 36 de 34 5c 56 a7 37 55 58 42 38 59 f4 07 35
       4.1390086e-07 1.9948166e-05 4.633547e-05 5.064699e-07
000020 62 79 96 37 8d 9a 08 38 59 f4 07 35 40 77 af 37
       1.7937917e-05 3.2568863e-05 5.064699e-07 2.0917156e-05
000030 a0 97 0e 35 11 a2 88 33 41 e8 82 35 db ff a1 34
       5.3119766e-07 6.362473e-08 9.75335e-07 3.0174746e-07
000040 11 a2 88 33 c4 10 55 32 06 5d 0c 35 24 ba 88 33
       6.362473e-08 1.2402044e-08 5.228943e-07 6.366852e-08
000050 6a 95 6a 35 3f a8 a2 34 24 ba 88 33 d6 d5 75 32
       8.738922e-07 3.0297267e-07 6.366852e-08 1.4309498e-08
000060 eb ee ce 39 86 c3 59 36 23 c6 b5 38 b0 0c e4 38
       0.0003946939 3.244933e-06 8.6676584e-05 0.000108742504
000070 86 c3 59 36 53 1d 87 37 2a e1 c8 39 d5 09 5b 36
       3.244933e-06 1.610691e-05 0.00038314733 3.2639266e-06
000080 2e 60 b5 38 f8 6f e4 38 d5 09 5b 36 88 49 87 37
       8.6486674e-05 0.00010892743 3.2639266e-06 1.6127495e-05
000090 40 63 5a 3a a8 bb 01 37 b8 8e 86 39 c3 70 1c 3a
       0.00083308294 7.732691e-06 0.00025664805 0.00059677305
0000a0 a8 bb 01 37 3a f5 8d 39 0b 22 53 3a 9a 33 03 37
       7.732691e-06 0.00027076324 0.0008054084 7.820223e-06
0000b0 82 7c 85 39 b9 8d 1c 3a 9a 33 03 37 b1 93 8e 39
       0.00025460502 0.0005972046 7.820223e-06 0.0002719439
0000c0 73 cf 3e 39 c9 47 f8 35 62 63 b8 38 c2 e6 75 38
       0.00018197093 1.8498332e-06 8.792315e-05 5.8627462e-05
0000d0 c9 47 f8 35 0a 40 c4 38 12 3a 36 39 06 fe f8 35
       1.8498332e-06 9.3579365e-05 0.00017378505 1.855137e-06
0000e0 96 be c0 38 0e 21 76 38 06 fe f8 35 27 96 c5 38
       9.190773e-05 5.8681755e-05 1.855137e-06 9.42166e-05
0000f0 84 46 9c 39 65 46 1e 36 bd a7 6c 38 c7 7c 0d 39
       0.00029807177 2.358481e-06 5.6423003e-05 0.00013493291
000100 65 46 1e 36 d8 cc 14 38 1b 93 94 39 74 49 1e 36
       2.358481e-06 3.5476725e-05 0.00028338362 2.358659e-06
000110 8a ef 64 38 29 79 0d 39 74 49 1e 36 f3 c9 14 38
       5.4582524e-05 0.00013491944 2.358659e-06 3.547403e-05
000120 ab 44 b6 3a 4e aa 6b 37 2b 04 3d 3a c8 04 dc 38
       0.0013905963 1.4046744e-05 0.0007210399 0.00010491308
000130 4e aa 6b 37 36 42 26 3a b2 c8 ad 3a 5d aa 6c 37
       1.4046744e-05 0.00063422637 0.0013258664 1.4106362e-05
000140 7b ed 4e 3a 04 3c dd 38 5d aa 6c 37 c0 2b 28 3a
       0.0007893664 0.0001054928 1.4106362e-05 0.00064152107
000150 01 24 65 3a 85 f0 09 37 f7 cd b1 39 66 6a 2d 39
       0.0008741022 8.221837e-06 0.00033913527 0.00016538202
000160 85 f0 09 37 a6 a0 84 39 f8 a5 5d 3a d0 80 0a 37
       8.221837e-06 0.00025296694 0.0008455212 8.2554325e-06
000170 e4 76 b9 39 b6 0c 2e 39 d0 80 0a 37 d7 c1 84 39
       0.0003537453 0.00016598668 8.2554325e-06 0.00025321424
000180 7a 3f 9a 39 04 38 5f 36 61 7c 44 39 5c 60 44 39
       0.00029420463 3.3262195e-06 0.00018738351 0.00018727913
000190 04 38 5f 36 56 df a2 39 34 47 8d 39 7c 36 5f 36
       3.3262195e-06 0.00031065446 0.00026946666 3.3261304e-06
0001a0 c2 6e 51 39 12 61 44 39 7c 36 5f 36 7e df a2 39
       0.00019973054 0.00018728178 3.3261304e-06 0.00031065563
0001b0 5a 70 1b 3a df 1f 46 37 dc 30 60 3a 70 12 d6 39
       0.00059295224 1.180914e-05 0.00085522025 0.00040830998
0001c0 df 1f 46 37 0d 35 8c 3a e4 d7 0f 3a 55 71 46 37
       1.180914e-05 0.0010696963 0.00054871873 1.1828107e-05
0001d0 81 c8 62 3a bb 44 d6 39 55 71 46 37 24 8e 8c 3a
       0.0008651093 0.0004086847 1.1828107e-05 0.0010723514
0001e0 69 02 53 3b 83 c1 ed 37 48 b2 48 3a bd db ff 3a
       0.0032197481 2.8342713e-05 0.00076559605 0.0019520443
0001f0 83 c1 ed 37 cf d7 3a 3a d2 5d 4c 3b c5 55 f0 37
       2.8342713e-05 0.0007127495 0.003118385 2.8650169e-05
000200 98 99 48 3a 1e 17 00 3b c5 55 f0 37 54 ec 3a 3a
       0.0007652282 0.001954503 2.8650169e-05 0.00071305525
000210 5a 99 33 3a 98 70 c0 36 5c 66 d7 38 f6 e1 15 3a
       0.0006851159 5.7351535e-06 0.00010271065 0.000571757
000220 98 70 c0 36 54 ee bf 38 59 97 29 3a 33 72 c0 36
       5.7351535e-06 9.151982e-05 0.0006469391 5.7353404e-06
000230 0a 38 ba 38 79 e2 15 3a 33 72 c0 36 8b ef bf 38
       8.879609e-05 0.0005717646 5.7353404e-06 9.152208e-05
000240 cb 8c 80 3b 01 cc 0f 38 5d 5f a2 3a ac 43 48 3a
       0.003923034 3.428385e-05 0.001238804 0.00076394784
000250 01 cc 0f 38 61 da eb 39 af 8b 77 3b 8a 54 0f 38
       3.428385e-05 0.00044985398 0.0037772467 3.417259e-05
000260 48 b9 a5 3a 4b 52 48 3a 8a 54 0f 38 65 3c ef 39
       0.0012643719 0.0007641657 3.417259e-05 0.0004563063
000270 cd f3 19 38 af c8 c2 34 56 be 97 37 27 42 82 36
       3.67051e-05 3.6281332e-07 1.8089235e-05 3.882003e-06
000280 af c8 c2 34 f0 2f 3f 37 92 c6 21 38 5e 94 ce 34
       3.6281332e-07 1.13956485e-05 3.8570324e-05 3.847844e-07
000290 77 2a a3 37 95 ec 91 36 5e 94 ce 34 20 81 43 37
       1.9450888e-05 4.3488785e-06 3.847844e-07 1.165297e-05
0002a0 63 3a 10 3a 68 15 bf 36 da c9 e0 38 d9 2b 0e 3a
       0.00055018644 5.6947356e-06 0.0001071875 0.0005423404
0002b0 68 15 bf 36 b5 c8 b6 38 5e ae 06 3a fd e5 bf 36
       5.6947356e-06 8.715821e-05 0.0005137677 5.7190177e-06
0002c0 9d e8 bf 38 26 8c 0e 3a fd e5 bf 36 ae 38 b7 38
       9.150917e-05 0.0005437754 5.7190177e-06 8.7366774e-05
0002d0 12 55 0f 3a 51 7b bd 36 8d 09 6d 38 ca 22 12 3a
       0.00054676936 5.646995e-06 5.6514098e-05 0.0005574642
0002e0 51 7b bd 36 70 e2 ba 38 66 88 00 3a 00 99 bd 36
       5.646995e-06 8.9113484e-05 0.00049031375 5.6504505e-06
0002f0 a0 30 24 38 87 1d 12 3a 00 99 bd 36 f4 dc ba 38
       3.9145933e-05 0.0005573858 5.6504505e-06 8.910327e-05
000300 2d a3 5b 36 5b 34 26 34 d9 3e 20 36 d8 2c 50 35
       3.2728524e-06 1.5479002e-07 2.387844e-06 7.7551294e-07
000310 5b 34 26 34 81 0f fc 33 ad a6 85 37 fa 9c 80 34
       1.5479002e-07 1.17374846e-07 1.593245e-05 2.3956073e-07
000320 c1 18 b9 36 05 17 aa 35 fa 9c 80 34 96 4d c3 34
       5.5163114e-06 1.2672687e-06 2.3956073e-07 3.6378032e-07
000330 3f f3 96 39 ff 87 1b 36 f6 60 84 38 e8 28 0a 39
       0.00028791462 2.317596e-06 6.312311e-05 0.00013175944
000340 ff 87 1b 36 e7 35 5d 38 6b 8b 99 39 b1 2c 21 36
       2.317596e-06 5.2740706e-05 0.0002928631 2.4016883e-06
000350 31 c1 8a 38 d7 ae 0b 39 b1 2c 21 36 a6 2b 61 38
       6.6163375e-05 0.00013321206 2.4016883e-06 5.368483e-05
000360 a7 9e b3 39 cf 4a 83 36 bc 8a c3 37 2c a9 cc 39
       0.00034259746 3.912813e-06 2.3310415e-05 0.00039035955
000370 cf 4a 83 36 71 18 83 38 e6 d4 a9 39 3e 9e 83 36
       3.912813e-06 6.251119e-05 0.00032392814 3.922526e-06
000380 5b f2 92 37 c5 cd cc 39 3e 9e 83 36 12 9f 83 38
       1.7517412e-05 0.00039063222 3.922526e-06 6.276196e-05
000390 5c c9 8b 3b 43 90 20 38 4f fd b6 3a be 92 f2 3a
       0.0042659473 3.8281327e-05 0.001396099 0.0018506867
0003a0 43 90 20 38 97 88 c5 3a d3 ec 86 3b eb 08 21 38
       3.8281327e-05 0.0015070614 0.004117587 3.8393697e-05
0003b0 d5 af bf 3a 6d fc f2 3a eb 08 21 38 56 e5 c6 3a
       0.0014624546 0.0018538364 3.8393697e-05 0.0015174549
0003c0 f4 7d cd 3a ce b4 4d 37 d3 8a b8 38 cd a1 9f 3a
       0.0015677796 1.2261049e-05 8.799662e-05 0.0012178958
0003d0 ce b4 4d 37 86 24 56 39 dc 87 c6 3a 6f bc 4d 37
       1.2261049e-05 0.00020422236 0.001514669 1.2262825e-05
0003e0 7f 5d 9d 38 a7 a1 9f 3a 6f bc 4d 37 9d 1f 56 39
       7.5037584e-05 0.0012178913 1.2262825e-05 0.00020420407
0003f0 4d a9 9b 37 26 d2 7c 35 ef 06 e6 38 f3 a9 98 36
       1.8556277e-05 9.418312e-07 0.00010968546 4.5497377e-06

exp_avg f4 [128]
000000 9b 38 9c b8 85 22 2c 35 d9 89 2f 38 67 d3 a4 39
       -7.449203e-05 6.4125226e-07 4.1851632e-05 0.00031438025
000010 cf ba 5a 39 d4 6c 63 38 df a0 eb b9 8b ff 40 39
       0.00020859692 5.422237e-05 -0.0004494255 0.00018405744
000020 c5 d0 0d b9 44 32 06 39 8c 48 d6 39 e4 64 27 b9
       -0.0001352458 0.00012797961 0.00040871312 -0.00015963946
000030 33 fa 88 38 a8 4c ac 38 ef 02 1d b9 ba b9 aa b8
       6.5315886e-05 8.2158775e-05 -0.0001497378 -8.140826e-05
000040 a7 a7 5b 36 0b ed ba b7 6a 45 4d b8 cf 89 2a ba
       3.273113e-06 -2.228331e-05 -4.8940456e-05 -0.00065055204
000050 c9 a8 0b b9 92 7d a8 b9 f0 0f e4 b9 94 03 4e b9
       -0.0001331895 -0.00032137014 -0.00043499423 -0.00019647024
000060 ca 3e a7 b7 2c 1a 3f b8 be 1f 10 b7 85 42 0f 3a
       -1.993719e-05 -4.5562323e-05 -8.590459e-06 0.0005464929
000070 23 a3 17 3a c8 84 b3 38 16 50 f5 b8 88 52 c8 39
       0.0005784502 8.5601176e-05 -0.000116974275 0.00038208463
000080 74 b2 de b9 68 bb c1 37 4c 5f 82 b7 f9 cc 0a b7
       -0.00042476098 2.309466e-05 -1.5541584e-05 -8.273165e-06
000090 8d 84 b0 39 3c fd 88 b9 37 9d 39 3a ae 8e 24 b9
       0.00033668094 -0.00026128616 0.0007080617 -0.00015693411
0000a0 76 34 6f b8 75 d2 86 38 73 9d c3 39 f7 18 9b 38
       -5.70309e-05 6.4288186e-05 0.00037310607 7.395626e-05
0000b0 84 f8 64 38 cb 14 85 38 14 74 3e 39 18 ad 6a b7
       5.4590884e-05 6.345807e-05 0.00018163054 -1.3987788e-05
0000c0 66 dd fc 37 94 56 fb 38 00 d9 2c b9 90 4b 70 b8
       3.0143838e-05 0.00011984739 -0.00016484037 -5.7290832e-05
0000d0 8e 60 2a ba bc 6e 1e ba 03 24 98 38 66 c6 d6 37
       -0.0006499373 -0.00060437224 7.2546325e-05 2.5603174e-05
0000e0 54 29 57 b9 00 7b 06 39 75 e9 14 b9 59 88 31 39
       -0.00020519394 0.00012825057 -0.0001420135 0.00016930829
0000f0 29 53 04 39 f8 97 9b 38 b1 61 bd 38 80 45 e3 b8
       0.0001261948 7.419282e-05 9.030419e-05 -0.00010837149
000100 24 04 df b9 94 c2 00 ba f2 93 3a 39 a1 9b 2c ba
       -0.0004253696 -0.0004911807 0.00017793456 -0.000658447
000110 39 b9 60 ba 71 7d 64 b9 b0 fe 16 39 f5 ec aa b9
       -0.0008572522 -0.00021790505 0.00014399993 -0.00032601474
000120 d2 2f 50 39 62 8f 1e b9 0e a3 98 b9 10 5e 4a b9
       0.0001985424 -0.00015121468 -0.00029113184 -0.00019299262
000130 de 66 2d b8 19 a5 44 39 35 33 fe b8 51 a2 e3 38
       -4.1342217e-05 0.0001875352 -0.00012121202 0.00010854437
000140 9d cd 8f b9 dc d7 90 37 a7 f2 a1 39 a8 2d 7c b9
       -0.0002742828 1.7266655e-05 0.00030889103 -0.00024049601
000150 b7 75 cf b8 44 55 4b b9 d4 93 b6 b9 3d 7b af b8
       -9.892455e-05 -0.00019391353 -0.00034823886 -8.367605e-05
000160 ae 97 bf 38 e9 58 00 b7 f4 c6 d3 b8 3b 24 58 b8
       9.135842e-05 -7.6500955e-06 -0.00010098322 -5.1532155e-05
000170 b1 03 80 39 84 94 ec b5 39 54 02 39 96 63 e1 b6
       0.00024416813 -1.7626594e-06 0.00012429141 -6.717116e-06
000180 60 a9 93 b9 f0 20 07 b9 0b dc 7f 38 3f 95 20 b9
       -0.0002816422 -0.00012886873 6.100167e-05 -0.00015314388
000190 82 f1 89 39 d0 b6 8e 38 85 a4 59 b9 c4 3c 69 b9
       0.00026310614 6.805139e-05 -0.00020756021 -0.00022243249
0001a0 26 cc 1b ba ea c6 83 39 18 1e 82 36 a3 ac 62 b8
       -0.0005943201 0.0002513447 3.8778053e-06 -5.404338e-05
0001b0 f3 b4 e9 b9 fa f8 02 ba 58 40 d7 b8 39 75 11 b9
       -0.0004457604 -0.0004996207 -0.00010263984 -0.00013871946
0001c0 28 13 25 39 58 79 34 b8 7e 20 2c ba fd 4a 6d 36
       0.00015742762 -4.3028354e-05 -0.0006566121 3.53594e-06
0001d0 a8 66 b0 b8 3f e0 b6 39 9c 40 8a 39 58 30 c3 b8
       -8.411455e-05 0.00034880821 0.0002636955 -9.307329e-05
0001e0 2e fb 06 b9 92 69 a7 b8 d5 00 02 ba fb c8 c1 b8
       -0.00012872808 -7.9828445e-05 -0.00049592304 -9.240393e-05
0001f0 2a 64 80 b9 d8 f5 e2 b8 00 87 b3 39 93 5d 00 3a
       -0.0002448869 -0.00010822312 0.00034242123 0.0004896756
