Lofty2024/results/Test8/MoveToPlayer/MoveToPlayer-37309.pt (torch, 460314 bytes, 36 tensors)

network_body._body_endoder.seq_layers.0.weight f4 [128, 12]
000000 e7 77 06 3e 2e d1 86 be 25 ce a0 3d 4a 4f b9 3d
       0.13131677 -0.26331466 0.07851819 0.09048326
000010 9c 08 e8 3e b6 66 a3 3e 88 4b 84 3e 39 d4 1b 3e
       0.45319068 0.319143 0.25838876 0.15217675
000020 48 6f b0 3e f5 54 ea bd a5 b1 8b 3c 1b 91 cf be
       0.344599 -0.114419855 0.017052481 -0.40540394
000030 81 2c 10 3e a9 72 49 be 94 fc 09 3e 4a 73 1c bd
       0.14079477 -0.19672646 0.13475257 -0.038195886
000040 9c c7 ad be 83 37 40 bf 22 d5 cb 3e 75 3c ee 3d
       -0.33941352 -0.75084704 0.39811045 0.11632625
000050 8c 23 42 3e 3e 68 7e 3c b9 7c 39 3d cb f6 b9 be
       0.18958873 0.015527783 0.04528496 -0.363211
000060 4b 71 27 be 2c 42 b7 3e 9b ea ec be b9 46 89 3e
       -0.16351812 0.35792673 -0.4627274 0.2681177
000070 81 26 77 be 3f 4c b6 3c e6 f9 b0 3e 4c be 88 be
       -0.24135782 0.022253154 0.34565657 -0.26707685
000080 da 67 62 3e 58 9b d2 3e cf e5 ce bd ae c7 14 3e
       0.22109929 0.41134143 -0.10102426 0.14529297
000090 57 a4 90 3e 15 02 f0 3c b7 a8 9a bd 24 ad 9a be
       0.2825038 0.029297868 -0.07551711 -0.3021022
0000a0 d6 89 00 bf 76 cf bf be 8d 09 13 bd 10 6a 2b bd
       -0.5021032 -0.37462968 -0.03589778 -0.041849196
0000b0 b2 07 16 be e6 63 4d be 12 56 ac be d6 64 e8 3e
       -0.14651373 -0.2005764 -0.33659416 0.45389432
0000c0 39 4e 23 be 7d 31 17 be 17 9b b6 be 96 5a 0d 3e
       -0.15947808 -0.14764972 -0.356652 0.13804087
0000d0 89 cc b1 be cc fe 7a 3e 78 d9 82 bc 4d ab e9 bc
       -0.3472636 0.2451126 -0.015972838 -0.028524065
0000e0 c2 4e 97 3b 94 3a 93 bd 71 d3 09 3f f9 06 b3 3d
       0.004617543 -0.07188907 0.5383826 0.08741564
0000f0 05 6f d1 3e 3a db 16 3f 84 48 40 3e b1 5f 13 3d
       0.40905014 0.58928263 0.18777663 0.03597993
000100 59 b6 72 3c 05 61 33 be 96 0b 63 3e 6b 64 b1 3d
       0.014813983 -0.17517479 0.22172388 0.08661731
000110 db aa 16 3e 50 4a 62 bd e0 a9 2f 3d 74 06 4a be
       0.14713614 -0.05524665 0.042886615 -0.19729024
000120 60 ce 22 bf 48 b9 d4 3d 3f 92 33 3e 2d cd 12 bc
       -0.63596153 0.10386902 0.17536257 -0.0089600505
000130 4f dc 4b bc e0 89 63 be 50 ed 85 3e da 94 63 be
       -0.012442662 -0.22220564 0.26157618 -0.22224751
000140 5e d6 33 3e c2 f8 2e bd 35 97 eb 3d 1f 33 90 be
       0.17562243 -0.042717703 0.1150345 -0.28164002
000150 89 cf c3 3e 65 08 84 3e cc 6c 98 3e 9d d3 07 bf
       0.38244274 0.25787655 0.29770505 -0.5305727
000160 37 c2 bf bc d1 fe 72 be a0 2b 02 bd e3 b8 e4 3e
       -0.023408039 -0.23730017 -0.031779885 0.44672307
000170 c8 b4 77 be 6d 91 2e bd 63 11 2e 3d bd d6 4e bb
       -0.24190056 -0.042619158 0.04249705 -0.00315611
000180 97 c0 64 3e 6a 76 18 be bc 17 27 be 8c 31 1c 3f
       0.22339092 -0.14888921 -0.16317648 0.610131
000190 cf ac d9 3d 0e d7 b6 bc f0 a8 44 3e 47 49 55 bd
       0.10628664 -0.022319343 0.1920507 -0.052071836
0001a0 a4 bd a3 be 52 38 25 bd 3d a2 1b bd d1 e1 bc 3e
       -0.31980622 -0.040336914 -0.03799652 0.36891034
0001b0 c9 a3 ba bd 1a 8d 16 bf 54 f7 ef be 16 19 d8 be
       -0.09113271 -0.58809054 -0.46868384 -0.4220664
0001c0 47 8f d7 3c 8f f8 dd bd 09 f5 0f 3f ab de 0c be
       0.026313437 -0.108384244 0.5623327 -0.13756816
0001d0 86 ad 99 be b8 fe c8 3e 5a 34 1f 3e f5 df 33 be
       -0.300152 0.39256835 0.15547314 -0.17565902
0001e0 ed d7 b1 3d e9 aa 8f be 13 91 0f 3d a6 2b 30 3d
       0.08683763 -0.28060082 0.035050463 0.043010376
0001f0 cd f1 d8 bd a0 6c ad 3e 2a 18 22 3d 45 73 23 3e
       -0.10592995 0.33871937 0.039573826 0.1596194
000200 e8 97 17 bd 34 18 32 be 84 f8 6f be d8 8e e3 be
       -0.037010103 -0.17392045 -0.23434645 -0.4444492
000210 ea f3 d6 3c e6 ec 18 3e b7 37 1e 3e b2 f0 01 bb
       0.026239354 0.1493412 0.15450941 -0.0019827303
000220 b7 6e 1b 3f 56 25 f8 be 51 f9 04 be 9a a3 a4 bd
       0.6071581 -0.48465985 -0.12985732 -0.08039017
000230 f9 97 25 3f 4d 68 98 be 64 7c 4c bd 46 f0 28 be
       0.64685017 -0.29767075 -0.049923316 -0.16497907
000240 dd b5 85 3e 13 08 52 3e ce ca 4e 3e 32 25 90 3d
       0.26115313 0.20510893 0.20194551 0.070383444
000250 10 0b da bd 51 85 70 3e 8d b5 fd 3d 07 58 48 3d
       -0.10646641 0.23488356 0.12388144 0.048912074
000260 f8 7c 8a be 12 bf 98 3d 22 f7 35 3e 05 48 0a 3e
       -0.2704847 0.07458319 0.17770055 0.13504036
000270 2e 70 c8 bd 93 62 44 3f b9 06 26 bf 05 8f 0f be
       -0.097870216 0.7671291 -0.6485401 -0.14019401
000280 1a 71 15 be dc 22 7b be 0a 7d 90 bb f1 a0 80 be
       -0.14593926 -0.24525017 -0.004409437 -0.2512279
000290 5a 48 c2 be b5 c2 24 3e 2e ed df 3c 0b 1c 13 3c
       -0.37945825 0.160899 0.027334776 0.008978854
0002a0 ef 47 c0 be a2 a4 dd bd 3e c4 15 be 33 07 9a bd
       -0.3755488 -0.10822417 -0.14625642 -0.075209044
0002b0 55 8c ae be 28 ed bd 3e 5f 98 fa be 08 86 ec bc
       -0.3409144 0.37094998 -0.48944375 -0.028872505
0002c0 0c b9 e0 3d e4 a7 b2 3e 8b 73 e0 3d 2a 3a f8 3e
       0.10972795 0.34893715 0.10959538 0.48481876
0002d0 ad 91 5c be aa 22 7d be 60 b6 db 3b eb cb f7 bd
       -0.21539946 -0.24720255 0.0067050904 -0.12099441
0002e0 a7 e0 e1 be 72 79 dc be d4 e3 4f be 3f eb 82 3e
       -0.4411671 -0.43061405 -0.20301753 0.25570104
0002f0 b5 96 2c 3e 70 91 4e be aa 3f af 3d f6 96 8a be
       0.16854365 -0.20172668 0.08557065 -0.270683
000300 54 95 0b bf e8 ca a0 bb 32 f1 20 3e 9a f4 28 3e
       -0.5452473 -0.004907001 0.15717009 0.16499558
000310 5b 82 3b be d6 7f 33 be af 2f 09 bd 73 7e 1f 3f
       -0.18311445 -0.17529234 -0.03349274 0.6230232
000320 36 20 0a bf 57 1a 37 bd 68 84 05 3d 88 3f df 3e
       -0.539554 -0.044702854 0.032596976 0.43603158
000330 4a 67 a2 3e 7d d1 8c bc 65 c4 09 3f 37 c6 68 be
       0.31719428 -0.017189736 0.538153 -0.22731863
000340 57 cf bc 3c b2 22 d5 bd 0f 54 20 3e 03 a9 07 be
       0.023048086 -0.10407008 0.15657066 -0.13248067
000350 18 ff 8c bb 40 69 e8 bd 12 54 7b 3e dd 80 31 3e
       -0.0043028705 -0.113482 0.24543789 0.17334314
000360 6d d3 95 bd 9a 37 ba 3e 5a aa c5 3e d9 0f 1b bd
       -0.07315717 0.36370546 0.3860653 -0.03785691
000370 bd c6 d6 bc ba 2f 83 be 55 c1 85 3c e6 35 c0 be
       -0.026217813 -0.2562235 0.01632754 -0.3754112
000380 a5 83 24 3d f1 91 93 3e 93 26 8d 3e 06 96 23 3f
       0.04016461 0.28822282 0.27568492 0.6390079
000390 6d 2c 8b bd b1 84 97 be 3d 44 b1 3e 9f 34 54 be
       -0.06795583 -0.29593423 0.34622374 -0.20723198
0003a0 50 dd f6 bd 78 a4 81 be 37 14 40 3c 92 ed 30 3b
       -0.12053931 -0.25320792 0.01172357 0.0026997072
0003b0 4c f0 20 be 70 74 44 3e 68 93 23 3c 8d 59 05 bd
       -0.15716666 0.19185042 0.009983875 -0.032556105
0003c0 c1 09 d1 be 7a 16 76 3e 2a 13 56 3d 98 3a ce 3d
       -0.40827754 0.24032012 0.05226437 0.100697696
0003d0 2e e8 66 be be d1 e5 be 45 34 8f be fe 79 4f be
       -0.22549507 -0.44886583 -0.27969566 -0.2026138
0003e0 83 c9 60 3c a4 f8 a5 3e c0 e5 97 3d f6 d7 bd be
       0.013719919 0.3241626 0.07416868 -0.37078828
0003f0 d5 89 7e bd 6b 6a 0e 3f db b9 95 3c 58 15 67 3e
       -0.062143166 0.5563113 0.0182771 0.22566736

network_body._body_endoder.seq_layers.0.bias f4 [128]
000000 53 6a 31 3b 85 ea 86 3b fc e7 fc bb 63 31 27 bb
       0.002707143 0.0041173124 -0.0077180844 -0.0025511615
000010 e7 2b 04 3c 63 53 b5 3b c3 e5 9a 3a b8 ef a1 3b
       0.008067108 0.005533622 0.0011817742 0.004941907
000020 90 e2 f2 3a 01 d3 9a 3b 2e f1 c6 ba ab db 22 3b
       0.0018530656 0.0047248607 -0.0015178078 0.002485017
000030 78 8f e1 3a 2e fa c7 bb b1 2d 8b bb 17 63 29 3b
       0.0017208895 -0.006102822 -0.00424739 0.0025846416
000040 65 49 cb bb 12 f7 1c 3b 18 ff 08 3c a9 5d 8a bb
       -0.0062038177 0.0023950976 0.0083616 -0.004222591
000050 2f 92 e1 bb 21 bb 72 3b c3 bc d6 3b 04 b4 42 bb
       -0.0068838815 0.0037037807 0.006553264 -0.0029709348
000060 3d 4f 5d bb 80 3a 8b bb 3c 30 2a 3b 52 e6 d4 bb
       -0.0033769154 -0.004248917 0.0025968691 -0.006497183
000070 ee 3e f7 3a 00 98 76 3a 16 02 16 bb 6a 91 bc 3b
       0.0018863359 0.0009406805 -0.0022889427 0.0057546394
000080 04 12 cc 3a 52 1e ad bb c2 b1 f0 ba f8 70 4e 3b
       0.0015569334 -0.0052831555 -0.0018363523 0.003150044
000090 1e a0 8d 3b 62 d7 98 3b 0c 8b 91 3a 31 79 90 bb
       0.004322066 0.0046643475 0.0011104061 -0.0044089784
0000a0 b3 c6 89 3b 31 d1 88 bb 10 6e dc 38 55 ce 97 3a
       0.004204595 -0.004175328 0.00010510918 0.0011581877
0000b0 c9 18 ad 3b 44 51 30 3b ed 31 9e ba 0d d4 80 38
       0.0052824956 0.0026903907 -0.0012069322 6.143013e-05
0000c0 d9 16 72 3b 0d 6f 26 3b e1 7f f5 39 5b b3 2a 3a
       0.0036939888 0.0025395781 0.0004682532 0.00065117114
0000d0 11 76 70 bb 1e 26 c7 3b b6 15 b8 bb 02 44 78 bb
       -0.0036691467 0.006077542 -0.0056178225 -0.0037882333
0000e0 57 87 cc ba 56 a1 21 3b 1d 0f 99 bb 82 80 af 3b
       -0.0015604299 0.0024662814 -0.004670991 0.0053558955
0000f0 5c 42 53 bb 42 6b e1 3a 48 c7 1e 39 bd cf ac 3b
       -0.0032235598 0.0017198103 0.00015142292 0.005273788
000100 b1 e3 1a 3a f1 70 15 bb 41 b2 84 bb 6d 82 89 3a
       0.00059085625 -0.0022802914 -0.00404957 0.001049114
000110 28 65 f8 3b 93 86 d6 bb c2 2f 1f 3b 1f 04 8b 3a
       0.007580418 -0.006546804 0.002428994 0.0010606087
000120 d6 ce 8a bb 6f c3 bb 3a e8 d6 ad 3b c6 39 2d 3b
       -0.0042360825 0.0014325212 0.00530516 0.002643214
000130 2f 71 95 3b 2f 04 50 bb 11 16 dc bb d1 8d 36 3b
       0.0045606117 -0.0031740775 -0.0067164977 0.0027855525
000140 f9 89 55 ba 7d fd 84 3a 46 04 91 3b de ae a0 3a
       -0.00081458647 0.0010146346 0.0044255583 0.0012259146
000150 6a c7 ab 3b 2b 24 21 bb bb a2 07 bc 7b 74 bd 3a
       0.005242278 -0.0024588208 -0.008278544 0.001445427
000160 f3 79 84 bb 8a ee d5 3a 51 3e c5 3b d8 06 88 b9
       -0.004042858 0.00163217 0.0060193916 -0.0002594504
000170 6d 88 cf bb 94 ab 3b 3b e1 e7 49 bb 9c d8 6e b9
       -0.006333402 0.0028636204 -0.0030808377 -0.00022778142
000180 56 e1 46 bb 16 e9 ec ba 56 3c c5 3b 35 93 75 b9
       -0.0030346713 -0.0018074836 0.0060191555 -0.0002341986
000190 49 c3 4a bb 1b 4f 40 bb 1b f5 f8 ba 41 de 91 3b
       -0.0030939153 -0.0029344026 -0.0018993946 0.0044515436
0001a0 48 a7 1a 3c ae 1f f8 ba 9d f9 7a bb db 8e 74 bb
       0.009439297 -0.001893034 -0.0038295754 -0.0037316594
0001b0 23 bd 55 3c 66 41 80 3b 1f da 91 bb 42 6a af 3b
       0.013045582 0.003914046 -0.004451051 0.005353243
0001c0 5c d4 a4 3b bd 2b 85 bb c6 d3 a5 bb 0b 7b c1 bb
       0.005030198 -0.004064052 -0.0050606458 -0.0059045604
0001d0 ec da 84 3b 4d da 90 3b 53 a4 b4 bb 84 8c b6 3b
       0.004054418 0.0044205547 -0.005512753 0.00557095
0001e0 ad b0 87 ba 5b f7 b5 bb d4 c8 a1 bb df b4 c6 ba
       -0.0010352336 -0.0055531687 -0.0049372707 -0.0015160105
0001f0 9a 13 82 3b 04 92 c4 3b 48 02 95 3b d1 4b 5e bb
       0.003969622 0.0059988517 0.004547391 -0.0033919702

network_body._body_endoder.seq_layers.2.weight f4 [128, 128]
000000 7e a0 1d bd ad 70 59 bb 77 f3 41 3d 71 08 af 3d
       -0.038483135 -0.0033178732 0.047351327 0.08546532
000010 12 2f 3f 3d 73 76 d1 3b 65 e5 1d 3d 30 f0 e0 bd
       0.04667575 0.006392294 0.038548846 -0.10983312
000020 b0 36 4b 3d 47 16 d0 3d 98 bd 2d bd f4 9e cb 3d
       0.0496127 0.10160499 -0.04241714 0.09942427
000030 6c 1b c3 bd ed 56 92 bd 00 f9 11 bd 08 2d 1b bd
       -0.09526715 -0.07145486 -0.035637856 -0.037884742
000040 d6 4d 8f bd c7 13 42 be 3d d7 3b 3c 8f 5d 19 bb
       -0.06997268 -0.18952857 0.011464891 -0.0023401713
000050 06 5d 72 bc cb 39 5c be e7 3b 13 bd 4d 1f 99 3d
       -0.014792686 -0.21506421 -0.0359458 0.07476673
000060 cc ed b2 3c ed 6c 91 3c 57 a8 e3 bd ac 49 24 bd
       0.021841906 0.017752135 -0.11116093 -0.04010932
000070 27 6c c0 3d d5 0c 13 bd e3 b7 e3 bc f7 6b c9 bd
       0.093956284 -0.03590091 -0.027797645 -0.09835046
000080 43 04 ec bd b9 86 3e bc 2b d0 52 3c 13 42 50 3d
       -0.1152425 -0.0116288 0.012867014 0.050844263
000090 a9 50 b5 bd 1e 0a cd bd 95 84 7a 3c 98 fa 15 be
       -0.08853275 -0.10011695 0.015290399 -0.14646375
0000a0 cb 0a ba bd f0 30 1a be 60 eb f7 bd b7 6a b6 3d
       -0.0908409 -0.1505773 -0.12105441 0.08907073
0000b0 79 7f 6b 3d 12 fe 8f bd a7 00 44 3d dd dd ea bd
       0.057494614 -0.07030882 0.047852185 -0.11468098
0000c0 24 9f 22 bd cc d4 84 3d 51 19 c8 bd 5b d6 d6 bd
       -0.03970255 0.064859 -0.09770454 -0.10490104
0000d0 a7 c7 c2 3c dd 1f 63 be be d2 22 bd 53 72 b6 bb
       0.023776842 -0.22180124 -0.03975176 -0.0055678277
0000e0 14 47 28 3d 79 f1 72 bc a8 58 9c 3d 56 8b a9 bd
       0.04108341 -0.014828079 0.07634097 -0.08278529
0000f0 2e 95 ae bd a7 09 cd bd e1 bb d0 3d bb b2 05 3c
       -0.085245475 -0.10011607 0.10192085 0.008160288
000100 13 ca c6 3c d3 46 97 bb 26 df 8d 3d 30 f7 ef 3d
       0.024266278 -0.004616597 0.06927328 0.11717069
000110 82 34 44 be 82 a7 4c be 23 3d 60 3d da 43 11 bd
       -0.19160655 -0.19985774 0.054745805 -0.0354651
000120 52 5a 90 bd 1f fe e8 3c 7d 84 9d 3d 97 2e cf 3d
       -0.07048477 0.028441487 0.07691286 0.10116308
000130 64 01 54 3c 9f 32 26 3e f9 17 a6 3d c6 b5 cc bd
       0.012939785 0.16230248 0.08110041 -0.09995608
000140 e7 89 02 be 29 47 eb 3c 46 4b 3c be c1 30 4a 3e
       -0.12747918 0.028720455 -0.1838809 0.1974516
000150 13 59 84 bd 94 1e 77 bd 3a 98 cf bc ab bf 20 be
       -0.06462302 -0.060331896 -0.025341142 -0.15698116
000160 e6 1e dd 3c f6 3c 28 3c 1e 4a fd bd b7 4c 65 3c
       0.026992273 0.0102684405 -0.12367652 0.013995341
000170 73 fe a7 bc 53 56 bd bc 9f 39 1d bd bf f2 65 3e
       -0.020507073 -0.023112452 -0.03838503 0.22455882
000180 0a fd 14 3d 68 33 f9 3d f3 3f a1 bd 7f 18 9c 3d
       0.03637413 0.12168008 -0.078735255 0.0762186
000190 54 de a1 ba 44 42 ab bc f9 2f 6b bd 1a 71 08 3e
       -0.0012349584 -0.020905621 -0.057418797 0.13324395
0001a0 d8 cf 26 bd 26 78 1b 3e 6c e5 93 bd de 5e 6e bc
       -0.04072556 0.15182552 -0.07221493 -0.014548985
0001b0 05 36 c4 bc 04 01 c2 3d 59 9b b6 3d 49 c8 99 bd
       -0.02395154 0.0947285 0.08916349 -0.075089045
0001c0 99 68 56 3d 4e bb 52 be f3 ee b3 bb 88 ee a7 3a
       0.052345846 -0.20579264 -0.0054911315 0.0012812177
0001d0 29 4a b4 3c 74 6b 62 3e 40 11 d6 bc d5 b6 bf bd
       0.022008019 0.22111303 -0.026131272 -0.09361044
0001e0 82 85 c9 bd 3c a2 e9 bd e2 86 03 be 9d c7 92 3d
       -0.09839918 -0.11407897 -0.12844422 0.071669795
0001f0 bd 48 83 3c 9d ca ba 3d 4b dd 02 be 3d 3a 70 bc
       0.016025895 0.09120677 -0.12779729 -0.014662323
000200 8b 8d fa bd c2 e3 b9 bd 97 fb 66 3d 69 9d a8 bd
       -0.122340284 -0.090766445 0.05639228 -0.082331486
000210 08 75 99 bd 67 93 e0 3d 6d ee c2 bd 74 99 cf bd
       -0.07493025 0.10965615 -0.09518132 -0.10136691
000220 e7 46 9a be ad e1 a5 bc 43 2c 9a bc 1b 66 2a be
       -0.3013222 -0.020249212 -0.018819934 -0.16640513
000230 58 78 2c 3e c3 9f de 3d f8 94 0c be e0 64 9b bd
       0.16842782 0.10870316 -0.13728702 -0.075876
000240 0e e2 8b bb e1 5d da 3d 63 e5 43 bb 36 88 15 bd
       -0.004268891 0.10662437 -0.0029891364 -0.036506854
000250 84 b3 f9 bc dd b3 3a be 01 e6 10 bd 5d c3 9c 3d
       -0.030481108 -0.18232675 -0.0353756 0.0765445
000260 04 a2 55 bc 8d 2f 64 bd fc 07 e7 bd ef 8b b9 3d
       -0.013039116 -0.05570941 -0.1128082 0.09059893
000270 59 ae 95 bc b4 cb 01 3c 7f 7d f7 bc fb 4f ed 3d
       -0.018271612 0.007922102 -0.030211208 0.11587521
000280 2d 2d ba bd c1 14 fd 3d ce a5 02 bd 94 77 df 3d
       -0.09090648 0.12357474 -0.031896405 0.109114796
000290 0b df 45 3c 08 5f 6d bc ed 4e 3d 3d 80 74 8d bc
       0.012077103 -0.014487989 0.046217848 -0.017267466
0002a0 13 0f 31 bb c2 a6 0b 3c 41 c5 c3 3c bf 35 5a 3d
       -0.0027017042 0.008523645 0.023897769 0.053273913
0002b0 76 9d 3f bd f6 f4 1f be e2 29 31 3d d0 6d f8 bd
       -0.046781026 -0.15620789 0.043252833 -0.1213032
0002c0 03 c6 57 3c 23 3e fe bd 25 cd 9b bd 57 fd 04 3c
       0.013169768 -0.124141954 -0.076074876 0.008117042
0002d0 cc 41 29 3c f1 6c 5c 3d 94 af 44 bd 5b 29 0a bd
       0.010330629 0.053814832 -0.048019007 -0.033730846
0002e0 11 15 2d 3e 62 05 15 bd bc f2 76 3d 82 07 c4 bc
       0.16902567 -0.036382087 0.060290083 -0.023929361
0002f0 ec b0 b9 3d 34 ff ed bd 16 16 1a 3d 50 bb 21 3e
       0.09066948 -0.11620942 0.03761872 0.1579411
000300 21 91 87 bd 6a 50 c0 3c d3 3d 10 be 27 6b 24 bd
       -0.06619478 0.023475844 -0.14086084 -0.04014125
000310 a9 c6 15 3d f3 a6 b9 bc 99 d8 d5 3d 7c 52 03 3d
       0.03656641 -0.022662615 0.10441703 0.032061085
000320 ee 13 86 3d 7e 21 05 3e 16 2f 8a bd 16 23 e7 bd
       0.0654677 0.13001058 -0.06747262 -0.11285989
000330 db f5 66 bd 0e f6 a1 3d 1f 3e 21 bd 92 35 b8 3b
       -0.05638681 0.07908259 -0.039365884 0.0056216205
000340 33 0b d5 3c 5a b7 a6 bd e5 98 71 be 54 9b 01 bd
       0.026006317 -0.0814044 -0.23593481 -0.031642273
000350 47 19 93 be 71 fb 5d 3d 97 14 b5 bc 8d d7 89 bd
       -0.28730223 0.05419487 -0.022104545 -0.06730566
000360 5c 5c 4e bd 20 89 2b bd f3 d8 a6 3d 15 b2 80 bd
       -0.05038105 -0.04187882 0.081468485 -0.062839665
000370 27 dc 80 3c 3a 19 44 bd dc 5a 81 bd 62 57 1b be
       0.015729977 -0.04787562 -0.06316158 -0.15170053
000380 99 ba 06 bb fa 23 b1 3d 9c 14 ea 3c e0 11 a7 3c
       -0.0020557998 0.0864944 0.02857428 0.020394266
000390 ab b9 5f bd c3 a8 03 bd 75 6d 7e bc 37 65 b6 bc
       -0.054620426 -0.032143366 -0.015529026 -0.02226506
0003a0 46 b6 61 bd b6 3f 25 3d d0 92 da bb 6b 91 47 3e
       -0.05510547 0.040343963 -0.0066703334 0.19489066
0003b0 57 fa a0 3d 72 07 9c bd 05 41 d4 bd d0 4c 88 bc
       0.078602485 -0.076186076 -0.10363964 -0.01663819
0003c0 9e 99 e3 3d db 92 c9 3d d4 8e 17 be ee b2 af bd
       0.111132845 0.098424636 -0.14800578 -0.0857905
0003d0 08 ca 90 3d 1f f1 0e be be c6 f1 3c 16 51 a2 bc
       0.070697844 -0.13959168 0.029513713 -0.019814055
0003e0 b7 d0 38 bb bb ab 9d 3d 9e 00 0d 3e b4 6a 70 3d
       -0.0028200576 0.076987706 0.13769767 0.05869551
0003f0 f3 8b 10 3d c1 4f 53 be a7 af c7 3d 75 e3 05 3e
       0.035289716 -0.20635892 0.097503 0.13075049

network_body._body_endoder.seq_layers.2.bias f4 [128]
000000 64 eb 26 3a a9 d7 b6 bb 9f 7d 94 3a 67 d9 c1 bb
       0.00063674734 -0.005579908 0.0011328942 -0.005915809
000010 b2 8d 70 3b cb 3b d6 39 fc 26 88 3a ea b6 84 3b
       0.003670555 0.0004086181 0.0010387595 0.0040501254
000020 b7 ae 31 39 64 34 a8 ba 17 e7 dd 39 a1 da a1 bb
       0.00016945122 -0.0012832996 0.0004232458 -0.0049393927
000030 c4 dc ad 3b 85 36 b5 3a ea 1a 80 b9 ed c1 a9 bb
       0.0053058583 0.0013825452 -0.00024434115 -0.0051805885
000040 f1 48 11 3b f4 c4 3d 3b f0 55 1d 3a d1 20 a6 b9
       0.002216872 0.0028956505 0.00060018804 -0.00031686437
000050 60 62 e0 3a f6 9d f9 bb e0 90 72 ba c9 f3 be 3b
       0.0017119162 -0.0076177074 -0.00092531554 0.0058274013
000060 4d 8a ae 3b 47 c5 f1 3a 56 bc 48 3b 36 40 93 3b
       0.0053265453 0.0018445634 0.0030629835 0.0044937385
000070 41 28 5f bb 5f d1 b6 3b c2 b3 e7 ba 0f ca ca 3b
       -0.0034051093 0.005579158 -0.0017677473 0.006188638
000080 87 84 56 bb ae 8e 90 3a 47 41 d4 3a 35 55 9f bb
       -0.00327328 0.001102885 0.001619377 -0.0048624524
000090 1e 54 39 3b 71 21 8c ba 5c e5 19 3a 76 a0 1d ba
       0.0028278898 -0.0010691119 0.0005870664 -0.0006012985
0000a0 51 6e cc 3a 1b e4 0e bb 88 02 16 bb 1c 21 09 3c
       0.0015596842 -0.0021803442 -0.0022889692 0.00836971
0000b0 46 8e 81 3b 6e a6 4b 3a fe cd 13 ba df 19 af 3b
       0.003953728 0.00077686354 -0.00056383 0.0053436602
0000c0 62 e6 39 bb de e6 63 3a f0 4d 1d bb 1f 2d 57 3a
       -0.0028366079 0.00086937647 -0.0024002753 0.00082083227
0000d0 0c 47 f4 39 ab 2e 9b 3a 82 99 47 bb f6 bc b0 bb
       0.0004659224 0.001183947 -0.0030456488 -0.0053936196
0000e0 7b 10 87 3a cc 0c b3 bb 3b 3c 03 3b 73 46 83 3a
       0.0010304594 -0.005464172 0.0020024914 0.0010015502
0000f0 c2 fb 01 3b 40 68 a5 bb bd 69 dc 3a 4f 98 ff 38
       0.0019833897 -0.005047828 0.001681618 0.00012187717
000100 b4 7b e3 b8 db 51 98 bb 70 91 f6 ba 09 58 f2 3a
       -0.00010847245 -0.00464843 -0.0018811654 0.0018489371
000110 02 99 42 3a d2 2e 76 b9 35 f5 0b bb 39 a0 b4 38
       0.00074233126 -0.0002347783 -0.0021355872 8.612913e-05
000120 2e 28 f6 ba d5 d4 9c bb f8 3b 00 bb 54 13 26 3b
       -0.0018780285 -0.0047861137 -0.0019566994 0.002534111
000130 5d 80 00 bc ea 58 ac bb fb 80 c6 3a 8a e5 58 ba
       -0.007843104 -0.005259623 0.001514464 -0.000827395
000140 74 fc ba ba b4 c7 c4 ba 69 d7 4f bb 95 93 ab ba
       -0.0014265911 -0.001501313 -0.0031714088 -0.0013090248
000150 eb 46 0e 38 4d 2c 41 3b d0 58 69 3a 2a 23 3d 39
       3.3921486e-05 0.0029475868 0.0008901479 0.00018037544
000160 a6 e8 aa ba 1b 9a b6 b9 e2 fb df 38 74 e5 11 ba
       -0.0013039305 -0.00034828563 0.000106803855 -0.0005565502
000170 6a 66 2c bb 71 55 57 3b 94 6d b6 ba 7f 30 97 ba
       -0.002630616 0.0032857324 -0.0013918155 -0.0011534839
000180 7d 61 ee bb 1b eb ed b9 f3 71 c0 3a f5 b3 8c 3b
       -0.007274805 -0.0004537933 0.0014682397 0.0042939135
000190 b6 6e f6 ba a8 53 a0 b9 9d 9c 9c 3b bb 95 d2 b9
       -0.0018801305 -0.00030579907 0.004779412 -0.0004016588
0001a0 e5 73 47 ba 6c aa 02 3b 6d 25 c9 ba 98 83 a3 3b
       -0.0007608517 0.0019938005 -0.0015346237 0.0049900524
0001b0 48 aa d2 b8 49 f7 0f 3b 82 00 1a bb a3 0e 54 bb
       -0.00010045298 0.0021967462 -0.0023498838 -0.0032357357
0001c0 02 e8 b0 3b f0 6a 0c bb 5f 3c 58 bb 51 c9 4d 3a
       0.0053987512 -0.0021426044 -0.0032994968 0.0007850128
0001d0 4b a3 2e 3b 86 68 de ba 1e f0 cb ba fb 16 d7 ba
       0.0026647623 -0.0016968406 -0.0015559231 -0.0016410047
0001e0 ba b2 0a 3a f4 a3 c5 ba e0 a2 7f b9 fa 80 b5 3b
       0.00052909146 -0.0015078769 -0.00024379371 0.005539057
0001f0 7f 29 d4 39 55 c1 e9 3a 04 97 84 3a 70 f0 32 3b
       0.00040466708 0.0017834107 0.0010115807 0.0027303956

action_model._continuous_distribution.log_sigma f4 [1, 2]
000000 60 7a 7b bb 80 ce f5 ba
       -0.0038372502 -0.0018753558

action_model._continuous_distribution.mu.weight f4 [2, 128]
000000 dd d2 2b bc 09 49 cb bb 47 66 e7 bc ce e4 20 3c
       -0.010487285 -0.006203775 -0.028247012 0.009820176
000010 c6 ea 14 3d 22 00 ea ba 1c ee 15 3c f7 18 00 bd
       0.03635671 -0.0017852823 0.009151008 -0.03127381
000020 1b 2d 48 bb 9b d1 07 bd 9a b7 2e bc 82 65 92 3b
       -0.0030544463 -0.03315888 -0.010663891 0.004467667
000030 c3 2c 6f bc 5d b6 fa bc 32 e5 e0 39 e8 67 01 bd
       -0.014598074 -0.030604536 0.00042895373 -0.031593233
000040 ce f6 33 bc 72 7b 4c 3c d4 32 76 bc fc 0d 62 bb
       -0.010984136 0.0124806035 -0.015026767 -0.0034493199
000050 e0 00 bd 3b b3 34 2e bd 83 78 4d bc b6 25 a5 3c
       0.0057679266 -0.042530727 -0.012540939 0.020159584
000060 0f e0 f2 3c 95 77 3a 3d 82 59 59 bc 1e 29 ff 3c
       0.029647855 0.0455242 -0.013265969 0.031147536
000070 64 b9 bc 3a 24 7b 52 3c eb 51 12 bc 9c b5 60 bd
       0.0014398512 0.012846742 -0.008930664 -0.054860696
000080 32 45 55 39 f6 14 6b bc ea b7 ec 3c d3 da 27 3d
       0.0002033904 -0.014348259 0.02889629 0.04098017
000090 39 11 0b 3c b9 de 5e bc c8 bf c7 3b ff bd 13 bd
       0.008487993 -0.013602906 0.00609586 -0.036069866
0000a0 e5 b1 e5 3c 80 95 a9 b9 82 3d af 3b 95 8d 51 3c
       0.028038928 -0.00032345578 0.0053479085 0.012790103
0000b0 7c 0a 1e 3d c4 61 00 bd 00 27 8e 3a ca 73 49 3c
       0.038584217 -0.031343237 0.0010845363 0.012295673
0000c0 eb 9b be 3a f5 37 23 b9 06 cd 0c 3c 0b b1 ec 3c
       0.0014542317 -0.00015565737 0.008593803 0.028893014
0000d0 2e e2 15 bd 8f 78 4f bc 4c 5d be ba c4 7d 99 bc
       -0.036592655 -0.012663021 -0.0014523654 -0.018736728
0000e0 f8 ba 47 3c 04 ff d3 bc 13 ee ef 3c d2 ac 04 3d
       0.012190573 -0.025878437 0.029288327 0.032391377
0000f0 4d 6f d3 3c 8a 86 cb bc f2 46 f4 bb 1a 0e b8 bc
       0.025809908 -0.024844427 -0.0074547464 -0.022467662
000100 36 73 39 3c 40 a3 4c bd 33 fc 3f bb d9 af bd bb
       0.011318972 -0.049960375 -0.002929461 -0.005788785
000110 66 f2 8b 3a 90 27 89 bc c7 2b 2b bc 4f ae be bb
       0.0010677099 -0.016742498 -0.010447449 -0.005819119
000120 56 75 85 3b 2d 99 9e bc 69 c1 05 bc d6 f9 2d 3c
       0.0040728254 -0.01936015 -0.008163788 0.010618648
000130 40 9a 0e bc 2d ec 95 bc 18 dd 81 bc 98 bc c3 bb
       -0.008703768 -0.018301094 -0.015852496 -0.00597341
000140 12 2c ba 3b e3 2d 1b bc 1a af 4c bb ac 71 da bc
       0.005681523 -0.009471389 -0.0031232298 -0.026665531
000150 34 90 21 bb 51 f4 72 3c cb e4 12 3b 0e 7a 03 bd
       -0.0024652602 0.014828757 0.0022414203 -0.032098822
000160 b5 74 37 bc d6 93 0a 3b 3d f9 9d bc 80 e1 2d bd
       -0.011197259 0.0021145246 -0.019283885 -0.04245138
000170 ce 51 ef 38 ca 2a d0 bc 1e a3 d5 3c d5 7e 16 bc
       0.000114116454 -0.025411028 0.026078757 -0.009185513
000180 eb a5 28 bc 93 5d 3f bc 28 db a1 3c 56 6b c7 3b
       -0.010293464 -0.011680025 0.019757822 0.0060857935
000190 a6 b0 9f bb 64 33 73 bc b2 3a a4 3c 9d d4 ee bb
       -0.004873353 -0.014843795 0.02004752 -0.007288529
0001a0 11 c5 02 3d 3a da 03 bc 00 0d 87 3c c4 ca 9c bc
       0.03192622 -0.008047635 0.016485691 -0.019139655
0001b0 3f 47 12 bd 46 c9 30 3c 0c 52 95 bc 0f 1d df bb
       -0.035712477 0.010790175 -0.0182276 -0.006808884
0001c0 02 81 27 bc 11 8e 01 3c eb 72 55 bc 0e fa ff 3b
       -0.010223629 0.007907406 -0.013027887 0.0078117913
0001d0 17 f3 14 bc 9f 9c ef bb c2 f2 a6 bc 81 32 5b bc
       -0.00909116 -0.007312372 -0.020379428 -0.01337874
0001e0 08 4a 1d bc 17 5d ae bc 10 0f 18 3a 2c 67 c2 3c
       -0.00960017 -0.021284623 0.00058005843 0.023730837
0001f0 0c b8 32 bd 47 46 08 bc e7 b5 e9 3b 86 8f 90 3c
       -0.043632552 -0.008317537 0.00713228 0.017646562
000200 e6 4a 03 bd a9 89 9d bb 2f 0a 97 bc 2c c0 e8 3c
       -0.03205385 -0.00480767 -0.018437473 0.028411947
000210 42 91 8f bb df 12 1a bc 53 82 13 3d a0 bc b1 3c
       -0.0043813298 -0.009403913 0.03601296 0.021696389
000220 58 bb ac 3c 72 ee a0 bc a2 e9 3a bc e0 52 29 3d
       0.021085426 -0.01964495 -0.0114082415 0.0413388
000230 c1 fc 8e 3c d6 72 81 3c 3d 0a cc bb 4b b8 92 3b
       0.017454507 0.015801828 -0.0062268064 0.004477536
000240 79 a9 9b 3c df e7 e2 3c 51 74 8a 3c b7 e1 90 bc
       0.01900171 0.027698455 0.016901167 -0.017685754
000250 4b cf 44 3c 58 ed bc 3c cb 48 b1 ba b4 f6 d8 bc
       0.012012313 0.023062393 -0.0013525722 -0.026484825
000260 ad a7 94 bb c0 5d 43 3c a4 48 49 3c 04 05 44 3b
       -0.00453659 0.011924207 0.012285385 0.0029910216
000270 d9 49 ad 3c 34 18 7a bb 84 94 8e 3b 39 00 53 bb
       0.021153377 -0.00381614 0.0043512005 -0.0032196178
000280 2c 09 2c bc 77 5c 0c bc 80 89 7b 3c b3 6a 26 bc
       -0.010500234 -0.008566967 0.015352607 -0.010157275
000290 f2 7f 6a bc 2e c5 4b bc 96 be 85 bc c0 72 af bc
       -0.014312731 -0.012437148 -0.01632623 -0.021417022
0002a0 21 a6 46 3c 85 bc 7d bb d7 0d 85 bb 33 6b 0a 3c
       0.012124569 -0.0038717103 -0.0040604877 0.00844841
0002b0 38 a0 82 bc f1 83 bd 3b e7 84 e3 3b 98 d5 55 ba
       -0.015945539 0.005783551 0.0069433334 -0.0008157133
0002c0 7b b5 99 bc 57 28 68 3c ac 13 91 bc 03 b3 05 3d
       -0.018763294 0.014169774 -0.017709576 0.032641422
0002d0 1b 61 18 3d 19 02 00 3d f2 d2 26 bc 9e 78 a5 bc
       0.037201982 0.031252 -0.010182129 -0.020199116
0002e0 2e 24 f5 3c a4 ce 8a bc 80 fd c6 3c de 34 2f bc
       0.029924478 -0.016944237 0.0242908 -0.010693757
0002f0 f8 8f 10 bb 1d d2 d7 bb e6 e2 49 3d 23 28 d6 3b
       -0.0022058468 -0.0065863268 0.049288653 0.0065355464
000300 e5 bc ed bc c0 98 c2 bc df fc f1 bb 97 a7 e5 3c
       -0.029020736 -0.023754478 -0.007384881 0.028034015
000310 81 25 2e 3c f5 c6 92 bc cb 87 d8 bc 9b e6 ee 3b
       0.010629059 -0.017917136 -0.026431939 0.007290674
000320 70 3b 91 ba 51 a9 95 ba 67 65 2b bc 38 6b 6f 37
       -0.0011080336 -0.0011418258 -0.010461188 1.4270474e-05
000330 02 c2 fc 3b 05 06 e6 3b 1a 29 bf 3c 0c bd 29 bd
       0.007713557 0.0070197606 0.023335028 -0.041440055
000340 89 fc 6e b8 9d c4 24 bd 16 07 db 3b 12 83 35 bb
       -5.6978814e-05 -0.040226568 0.0066841943 -0.0027696532
000350 37 29 28 3c 0e 43 1f 3c f1 7e da 3b b3 9c 60 bc
       0.010263733 0.009720577 0.0066679646 -0.013709235
000360 c7 57 cc bb d2 1a 34 3c 73 f4 c5 bb a0 f0 b5 bc
       -0.00623605 0.010992723 -0.0060411035 -0.022209466
000370 fa 81 b5 3a 39 13 3e bc d3 19 77 bc e9 fb b7 bb
       0.001384794 -0.011601263 -0.015081841 -0.005614747
000380 34 89 61 bb 23 b1 1c 3c 78 1f ce bc 01 ec ab 3a
       -0.0034414055 0.009563717 -0.02516149 0.0013116599
000390 9c 5b 8c bb 31 12 14 bc 2d 63 6e bc 8a 2b 47 bd
       -0.0042833816 -0.00903754 -0.014550013 -0.048625506
0003a0 88 17 b4 bc b5 e6 43 3b e9 39 9e bb 64 e4 f0 3c
       -0.021983877 0.002989215 -0.004828681 0.02940578
0003b0 aa da 28 bc 46 5e 03 bc 39 6f e3 bc b4 aa 44 bc
       -0.01030604 -0.008018082 -0.027762996 -0.012003589
0003c0 6d ce 62 3b 4d 3a 2c bb a4 15 8f bc 2f 9c 07 3d
       0.0034607903 -0.0026279867 -0.017466374 0.033107933
0003d0 2c 96 ea bb cc 05 09 bc 0c dd ce bb da b5 5e 3c
       -0.007159015 -0.0083631985 -0.006312972 0.0135931615
0003e0 70 fb c8 39 cd 5e bd ba a4 bb 94 bc b6 dd 21 3a
       0.00038334308 -0.0014447808 -0.01815588 0.00061747
0003f0 56 f1 53 3c 52 9b ba bc 3a 72 0a 3b 20 42 e7 bb
       0.012935957 -0.02277914 0.0021125213 -0.0070574433

action_model._continuous_distribution.mu.bias f4 [2]
000000 24 08 3d 3a d1 fd aa 3a
       0.0007210991 0.0013045614

exp_avg f4 [128, 12]
000000 ab 80 7a 38 ab 80 fa 37 2f a4 17 b8 ab 80 fa b8
       5.9724476e-05 2.9862238e-05 -3.6154113e-05 -0.00011944895
000010 ab 80 fa 37 ab 80 fa b8 33 ae 49 38 33 ae c9 37
       2.9862238e-05 -0.00011944895 4.808437e-05 2.4042185e-05
000020 04 ad 4f b8 33 ae c9 b8 33 ae c9 37 33 ae c9 b8
       -4.951378e-05 -9.616874e-05 2.4042185e-05 -9.616874e-05
000030 ec 33 e1 38 ec 33 61 38 c1 7c 1a b9 ec 33 61 b9
       0.00010738507 5.3692536e-05 -0.00014733059 -0.00021477015
000040 ec 33 61 38 ec 33 61 b9 99 87 c6 38 99 87 46 38
       5.3692536e-05 -0.00021477015 9.466633e-05 4.7333164e-05
000050 22 9f 1e b9 99 87 46 b9 99 87 46 38 99 87 46 b9
       -0.00015127336 -0.00018933266 4.7333164e-05 -0.00018933266
000060 7d fc 84 36 7d fc 04 36 84 2f 99 36 7d fc 04 b7
       3.9633e-06 1.98165e-06 4.565287e-06 -7.9266e-06
000070 7d fc 04 36 7d fc 04 b7 5f 70 c8 36 5f 70 48 36
       1.98165e-06 -7.9266e-06 5.973546e-06 2.986773e-06
000080 5b 84 af 36 5f 70 48 b7 5f 70 48 36 5f 70 48 b7
       5.2308146e-06 -1.1947092e-05 2.986773e-06 -1.1947092e-05
000090 6f a7 77 b8 6f a7 f7 b7 30 0c ee 36 6f a7 f7 38
       -5.9045324e-05 -2.9522662e-05 7.0943715e-06 0.00011809065
0000a0 6f a7 f7 b7 6f a7 f7 38 3a 6e 74 b8 3a 6e f4 b7
       -2.9522662e-05 0.00011809065 -5.827679e-05 -2.9138395e-05
0000b0 c0 fd c5 37 3a 6e f4 38 3a 6e f4 b7 3a 6e f4 38
       2.3602392e-05 0.00011655358 -2.9138395e-05 0.00011655358
0000c0 62 ca 8a 37 62 ca 0a 37 8c 8c 2e b8 62 ca 0a b8
       1.6545124e-05 8.272562e-06 -4.1615727e-05 -3.3090248e-05
0000d0 62 ca 0a 37 62 ca 0a b8 fb 8d 89 37 fb 8d 09 37
       8.272562e-06 -3.3090248e-05 1.6397787e-05 8.198894e-06
0000e0 c1 a6 39 b8 fb 8d 09 b8 fb 8d 09 37 fb 8d 09 b8
       -4.426274e-05 -3.2795575e-05 8.198894e-06 -3.2795575e-05
0000f0 6b 81 58 b8 6b 81 d8 b7 16 8f e2 b8 6b 81 d8 38
       -5.1618943e-05 -2.5809471e-05 -0.000108031716 0.000103237886
000100 6b 81 d8 b7 6b 81 d8 38 68 f7 50 b8 68 f7 d0 b7
       -2.5809471e-05 0.000103237886 -4.982148e-05 -2.491074e-05
000110 6c fc 71 b8 68 f7 d0 38 68 f7 d0 b7 68 f7 d0 38
       -5.7693964e-05 9.964296e-05 -2.491074e-05 9.964296e-05
000120 01 4b 89 b7 01 4b 09 b7 76 55 d9 b6 01 4b 09 38
       -1.6366599e-05 -8.1832995e-06 -6.477053e-06 3.2733198e-05
000130 01 4b 09 b7 01 4b 09 38 e7 67 66 b7 e7 67 e6 b6
       -8.1832995e-06 3.2733198e-05 -1.373326e-05 -6.86663e-06
000140 f9 46 84 b6 e7 67 e6 37 e7 67 e6 b6 e7 67 e6 37
       -3.942169e-06 2.746652e-05 -6.86663e-06 2.746652e-05
000150 0e 06 b8 37 0e 06 38 37 94 5c 0a b9 0e 06 38 b8
       2.1937329e-05 1.0968664e-05 -0.00013195194 -4.3874657e-05
000160 0e 06 38 37 0e 06 38 b8 c2 9d 5c 37 c2 9d dc 36
       1.0968664e-05 -4.3874657e-05 1.3149753e-05 6.5748764e-06
000170 63 b5 aa b8 c2 9d dc b7 c2 9d dc 36 c2 9d dc b7
       -8.1400176e-05 -2.6299505e-05 6.5748764e-06 -2.6299505e-05
000180 c9 f3 c6 b6 c9 f3 46 b6 6a 6c 4e 37 c9 f3 46 37
       -5.92924e-06 -2.96462e-06 1.2303799e-05 1.185848e-05
000190 c9 f3 46 b6 c9 f3 46 37 70 3c ba b5 70 3c 3a b5
       -2.96462e-06 1.185848e-05 -1.387567e-06 -6.937835e-07
0001a0 55 e3 c0 36 70 3c 3a 36 70 3c 3a b5 70 3c 3a 36
       5.748511e-06 2.775134e-06 -6.937835e-07 2.775134e-06
0001b0 47 17 1b 39 47 17 9b 38 88 35 a7 b8 47 17 9b b9
       0.00014790623 7.395312e-05 -7.9731515e-05 -0.00029581247
0001c0 47 17 9b 38 47 17 9b b9 f6 54 18 39 f6 54 98 38
       7.395312e-05 -0.00029581247 0.000145275 7.26375e-05
0001d0 61 3b 0f b9 f6 54 98 b9 f6 54 98 38 f6 54 98 b9
       -0.00013659663 -0.00029055 7.26375e-05 -0.00029055
0001e0 f6 c7 2f b7 f6 c7 af b6 04 9f d5 37 f6 c7 af 37
       -1.047737e-05 -5.238685e-06 2.5465626e-05 2.095474e-05
0001f0 f6 c7 af b6 f6 c7 af 37 b5 b3 9b b6 b5 b3 1b b6
       -5.238685e-06 2.095474e-05 -4.6402806e-06 -2.3201403e-06
000200 2c 61 17 37 b5 b3 1b 37 b5 b3 1b b6 b5 b3 1b 37
       9.022926e-06 9.280561e-06 -2.3201403e-06 9.280561e-06
000210 c0 cb 9c b8 c0 cb 1c b8 fd 45 6f 37 c0 cb 1c 39
       -7.476611e-05 -3.7383055e-05 1.42618055e-05 0.00014953222
000220 c0 cb 1c b8 c0 cb 1c 39 a6 d2 8e b8 a6 d2 0e b8
       -3.7383055e-05 0.00014953222 -6.810324e-05 -3.405162e-05
000230 be b1 45 38 a6 d2 0e 39 a6 d2 0e b8 a6 d2 0e 39
       4.7133995e-05 0.00013620648 -3.405162e-05 0.00013620648
000240 95 6a 59 37 95 6a d9 36 f8 27 96 b7 95 6a d9 b7
       1.29590235e-05 6.4795117e-06 -1.7900005e-05 -2.5918047e-05
000250 95 6a d9 36 95 6a d9 b7 0f a0 4d 37 0f a0 cd 36
       6.4795117e-06 -2.5918047e-05 1.2256219e-05 6.1281094e-06
000260 ca 1a a2 b7 0f a0 cd b7 0f a0 cd 36 0f a0 cd b7
       -1.932438e-05 -2.4512437e-05 6.1281094e-06 -2.4512437e-05
000270 59 2f b1 b5 59 2f 31 b5 b8 12 e8 36 59 2f 31 36
       -1.3201308e-06 -6.600654e-07 6.916318e-06 2.6402615e-06
000280 59 2f 31 b5 59 2f 31 36 6b b7 a9 34 6b b7 29 34
       -6.600654e-07 2.6402615e-06 3.1612157e-07 1.5806079e-07
000290 d4 fa c4 b7 6b b7 29 b5 6b b7 29 34 6b b7 29 b5
       -2.3481822e-05 -6.3224314e-07 1.5806079e-07 -6.3224314e-07
0002a0 0c d6 1f b7 0c d6 9f b6 8c 3a 3e 37 0c d6 9f 37
       -9.526975e-06 -4.7634876e-06 1.1338514e-05 1.905395e-05
0002b0 0c d6 9f b6 0c d6 9f 37 74 82 1e b7 74 82 9e b6
       -4.7634876e-06 1.905395e-05 -9.447907e-06 -4.7239537e-06
0002c0 85 9b 60 37 74 82 9e 37 74 82 9e b6 74 82 9e 37
       1.338765e-05 1.8895815e-05 -4.7239537e-06 1.8895815e-05
0002d0 8c df 55 b8 8c df d5 b7 c5 fe c4 36 8c df d5 38
       -5.099135e-05 -2.5495676e-05 5.8709143e-06 0.0001019827
0002e0 8c df d5 b7 8c df d5 38 c7 18 5f b8 c7 18 df b7
       -2.5495676e-05 0.0001019827 -5.319042e-05 -2.659521e-05
0002f0 d7 8c 4b 38 c7 18 df 38 c7 18 df b7 c7 18 df 38
       4.853014e-05 0.00010638084 -2.659521e-05 0.00010638084
000300 57 56 fd b6 57 56 7d b6 60 d1 14 37 57 56 7d 37
       -7.550039e-06 -3.7750194e-06 8.870236e-06 1.5100078e-05
000310 57 56 7d b6 57 56 7d 37 05 a4 eb b6 05 a4 6b b6
       -3.7750194e-06 1.5100078e-05 -7.02264e-06 -3.51132e-06
000320 1b d3 70 37 05 a4 6b 37 05 a4 6b b6 05 a4 6b 37
       1.4354267e-05 1.404528e-05 -3.51132e-06 1.404528e-05
000330 2d 83 8c b8 2d 83 0c b8 27 20 88 b7 2d 83 0c 39
       -6.7001536e-05 -3.3500768e-05 -1.6227435e-05 0.00013400307
000340 2d 83 0c b8 2d 83 0c 39 99 95 8f b8 99 95 0f b8
       -3.3500768e-05 0.00013400307 -6.846636e-05 -3.423318e-05
000350 04 f3 f7 37 99 95 0f 39 99 95 0f b8 99 95 0f 39
       2.9557857e-05 0.00013693272 -3.423318e-05 0.00013693272
000360 eb a1 de b6 eb a1 5e b6 67 fe 8a b7 eb a1 5e 37
       -6.6349653e-06 -3.3174827e-06 -1.6569347e-05 1.3269931e-05
000370 eb a1 5e b6 eb a1 5e 37 d0 68 d9 b6 d0 68 59 b6
       -3.3174827e-06 1.3269931e-05 -6.4793057e-06 -3.2396529e-06
000380 09 77 59 b7 d0 68 59 37 d0 68 59 b6 d0 68 59 37
       -1.2961923e-05 1.29586115e-05 -3.2396529e-06 1.29586115e-05
000390 3d 81 3d 38 3d 81 bd 37 07 ef fd b6 3d 81 bd b8
       4.5181474e-05 2.2590737e-05 -7.567814e-06 -9.036295e-05
0003a0 3d 81 bd 37 3d 81 bd b8 a1 6a 42 38 a1 6a c2 37
       2.2590737e-05 -9.036295e-05 4.635251e-05 2.3176255e-05
0003b0 d3 52 20 b8 a1 6a c2 b8 a1 6a c2 37 a1 6a c2 b8
       -3.822411e-05 -9.270502e-05 2.3176255e-05 -9.270502e-05
0003c0 11 ad 3c b8 11 ad bc b7 58 52 68 38 11 ad bc 38
       -4.4983874e-05 -2.2491937e-05 5.53898e-05 8.996775e-05
0003d0 11 ad bc b7 11 ad bc 38 b3 f1 46 b8 b3 f1 c6 b7
       -2.2491937e-05 8.996775e-05 -4.743198e-05 -2.371599e-05
0003e0 75 ea a6 38 b3 f1 c6 38 b3 f1 c6 b7 b3 f1 c6 38
       7.959168e-05 9.486396e-05 -2.371599e-05 9.486396e-05
0003f0 fb 44 8f 38 fb 44 0f 38 7c 33 76 b8 fb 44 0f b9
       6.83162e-05 3.41581e-05 -5.869892e-05 -0.0001366324

exp_avg_sq f4 [128, 12]
000000 85 ff 21 31 85 ff 21 30 21 e5 c0 31 85 ff 21 32
       2.357383e-09 5.8934574e-10 5.6139844e-09 9.429532e-09
000010 85 ff 21 30 85 ff 21 32 37 22 23 31 37 22 23 30
       5.8934574e-10 9.429532e-09 2.373907e-09 5.9347677e-10
000020 56 ba c6 31 37 22 23 32 37 22 23 30 37 22 23 32
       5.7837424e-09 9.495628e-09 5.9347677e-10 9.495628e-09
000030 77 04 b4 31 77 04 b4 30 75 25 92 32 77 04 b4 32
       5.239197e-09 1.3097993e-09 1.701367e-08 2.0956788e-08
000040 77 04 b4 30 77 04 b4 32 a0 7c b4 31 a0 7c b4 30
       1.3097993e-09 2.0956788e-08 5.2528577e-09 1.3132144e-09
000050 cd 8d 93 32 a0 7c b4 32 a0 7c b4 30 a0 7c b4 32
       1.7177536e-08 2.101143e-08 1.3132144e-09 2.101143e-08
000060 a8 b9 b1 2d a8 b9 b1 2c e7 b8 3a 2e a8 b9 b1 2e
       2.0205018e-11 5.0512546e-12 4.245573e-11 8.082007e-11
000070 a8 b9 b1 2c a8 b9 b1 2e 63 37 ce 2d 63 37 ce 2c
       5.0512546e-12 8.082007e-11 2.3444085e-11 5.8610213e-12
000080 20 ad 46 2e 63 37 ce 2e 63 37 ce 2c 63 37 ce 2e
       4.5173754e-11 9.377634e-11 5.8610213e-12 9.377634e-11
000090 ea 17 c7 30 ea 17 c7 2f 47 ee 94 31 ea 17 c7 31
       1.4485952e-09 3.621488e-10 4.334456e-09 5.794381e-09
0000a0 ea 17 c7 2f ea 17 c7 31 32 9b c6 30 32 9b c6 2f
       3.621488e-10 5.794381e-09 1.4450505e-09 3.6126263e-10
0000b0 98 7e 97 31 32 9b c6 31 32 9b c6 2f 32 9b c6 31
       4.4090704e-09 5.780202e-09 3.6126263e-10 5.780202e-09
0000c0 26 d0 97 2f 26 d0 97 2e d2 d2 42 30 26 d0 97 30
       2.7614638e-10 6.9036596e-11 7.087638e-10 1.1045855e-09
0000d0 26 d0 97 2e 26 d0 97 30 a7 76 a8 2f a7 76 a8 2e
       6.9036596e-11 1.1045855e-09 3.064333e-10 7.6608324e-11
0000e0 6c 02 5d 30 a7 76 a8 30 a7 76 a8 2e a7 76 a8 30
       8.0402773e-10 1.2257332e-09 7.6608324e-11 1.2257332e-09
0000f0 58 82 c5 31 58 82 c5 30 50 f1 52 32 58 82 c5 32
       5.748273e-09 1.4370682e-09 1.2278477e-08 2.2993092e-08
000100 58 82 c5 30 58 82 c5 32 38 6d c3 31 38 6d c3 30
       1.4370682e-09 2.2993092e-08 5.6876637e-09 1.4219159e-09
000110 50 f1 5a 32 38 6d c3 32 38 6d c3 30 38 6d c3 32
       1.2744138e-08 2.2750655e-08 1.4219159e-09 2.2750655e-08
000120 bb 68 07 30 bb 68 07 2f 38 3a a1 30 bb 68 07 31
       4.9261545e-10 1.2315386e-10 1.1730839e-09 1.9704618e-09
000130 bb 68 07 2f bb 68 07 31 6f 6b 03 30 6f 6b 03 2f
       1.2315386e-10 1.9704618e-09 4.7810195e-10 1.1952549e-10
000140 fc 7a b8 30 6f 6b 03 31 6f 6b 03 2f 6f 6b 03 31
       1.3422716e-09 1.9124078e-09 1.1952549e-10 1.9124078e-09
000150 6f 9a b8 31 6f 9a b8 30 a5 8f 32 32 6f 9a b8 32
       5.372662e-09 1.3431655e-09 1.0393625e-08 2.1490647e-08
000160 6f 9a b8 30 6f 9a b8 32 31 16 ba 31 31 16 ba 30
       1.3431655e-09 2.1490647e-08 5.4158353e-09 1.3539588e-09
000170 7a bf 38 32 31 16 ba 32 31 16 ba 30 31 16 ba 32
       1.0753746e-08 2.1663341e-08 1.3539588e-09 2.1663341e-08
000180 10 bc f2 2e 10 bc f2 2d ba bc b1 2f 10 bc f2 2f
       1.10382925e-10 2.7595731e-11 3.233021e-10 4.415317e-10
000190 10 bc f2 2d 10 bc f2 2f 7b b7 3a 2f 7b b7 3a 2e
       2.7595731e-11 4.415317e-10 1.6981787e-10 4.2454467e-11
0001a0 68 b1 db 2f 7b b7 3a 30 7b b7 3a 2e 7b b7 3a 30
       3.9961923e-10 6.792715e-10 4.2454467e-11 6.792715e-10
0001b0 90 ee 4f 31 90 ee 4f 30 1b 75 c8 31 90 ee 4f 32
       3.0258072e-09 7.564518e-10 5.8340794e-09 1.2103229e-08
0001c0 90 ee 4f 30 90 ee 4f 32 67 aa 50 31 67 aa 50 30
       7.564518e-10 1.2103229e-08 3.0364846e-09 7.5912115e-10
0001d0 6e e0 db 31 67 aa 50 32 67 aa 50 30 67 aa 50 32
       6.3992536e-09 1.21459385e-08 7.5912115e-10 1.21459385e-08
0001e0 09 62 91 30 09 62 91 2f f1 a7 21 31 09 62 91 31
       1.0578002e-09 2.6445005e-10 2.3524047e-09 4.2312007e-09
0001f0 09 62 91 2f 09 62 91 31 58 fd 9e 30 58 fd 9e 2f
       2.6445005e-10 4.2312007e-09 1.1568018e-09 2.8920044e-10
000200 57 0c 30 31 58 fd 9e 31 58 fd 9e 2f 58 fd 9e 31
       2.5618385e-09 4.627207e-09 2.8920044e-10 4.627207e-09
000210 b2 b0 3b 31 b2 b0 3b 30 b1 a7 a1 31 b2 b0 3b 32
       2.7312521e-09 6.8281303e-10 4.704781e-09 1.09250085e-08
000220 b2 b0 3b 30 b2 b0 3b 32 7e 38 35 31 7e 38 35 30
       6.8281303e-10 1.09250085e-08 2.6371079e-09 6.5927697e-10
000230 80 42 b3 31 7e 38 35 32 7e 38 35 30 7e 38 35 32
       5.217146e-09 1.05484315e-08 6.5927697e-10 1.05484315e-08
000240 6c b0 80 2e 6c b0 80 2d 1a 65 49 2f 6c b0 80 2f
       5.852105e-11 1.4630262e-11 1.8316762e-10 2.340842e-10
000250 6c b0 80 2d 6c b0 80 2f c7 5f 86 2e c7 5f 86 2d
       1.4630262e-11 2.340842e-10 6.110628e-11 1.527657e-11
000260 a4 2c 5b 2f c7 5f 86 2f c7 5f 86 2d c7 5f 86 2f
       1.9933794e-10 2.4442512e-10 1.527657e-11 2.4442512e-10
000270 ef 81 eb 30 ef 81 eb 2f b7 5d 5e 31 ef 81 eb 31
       1.713543e-09 4.2838574e-10 3.2358523e-09 6.854172e-09
000280 ef 81 eb 2f ef 81 eb 31 ec 34 eb 30 ec 34 eb 2f
       4.2838574e-10 6.854172e-09 1.7113542e-09 4.2783854e-10
000290 d6 99 5d 31 ec 34 eb 31 ec 34 eb 2f ec 34 eb 31
       3.2247178e-09 6.8454167e-09 4.2783854e-10 6.8454167e-09
0002a0 ed 0b b5 2d ed 0b b5 2c 5e 90 b6 2e ed 0b b5 2e
       2.0582614e-11 5.1456534e-12 8.3020466e-11 8.2330455e-11
0002b0 ed 0b b5 2c ed 0b b5 2e 29 be b5 2d 29 be b5 2c
       5.1456534e-12 8.2330455e-11 2.0661766e-11 5.1654414e-12
0002c0 32 ad c0 2e 29 be b5 2e 29 be b5 2c 29 be b5 2e
       8.761915e-11 8.264706e-11 5.1654414e-12 8.264706e-11
0002d0 dd 27 9e 31 dd 27 9e 30 1f b3 79 32 dd 27 9e 32
       4.602937e-09 1.1507343e-09 1.4534435e-08 1.8411749e-08
0002e0 dd 27 9e 30 dd 27 9e 32 79 80 9d 31 79 80 9d 30
       1.1507343e-09 1.8411749e-08 4.583907e-09 1.1459768e-09
0002f0 70 c9 88 32 79 80 9d 32 79 80 9d 30 79 80 9d 32
       1.5924087e-08 1.8335628e-08 1.1459768e-09 1.8335628e-08
000300 15 14 46 2e 15 14 46 2d fd 8f 83 2e 15 14 46 2f
       4.5037824e-11 1.1259456e-11 5.982768e-11 1.801513e-10
000310 15 14 46 2d 15 14 46 2f 85 03 85 2e 85 03 85 2d
       1.1259456e-11 1.801513e-10 6.048765e-11 1.5121912e-11
000320 d7 2d 08 2f 85 03 85 2f 85 03 85 2d 85 03 85 2f
       1.2385414e-10 2.419506e-10 1.5121912e-11 2.419506e-10
000330 ee 6e af 30 ee 6e af 2f fd 77 4a 31 ee 6e af 31
       1.2764454e-09 3.1911135e-10 2.9463074e-09 5.1057816e-09
000340 ee 6e af 2f ee 6e af 31 8f 6f ae 30 8f 6f ae 2f
       3.1911135e-10 5.1057816e-09 1.2691873e-09 3.1729683e-10
000350 af e3 51 31 8f 6f ae 31 8f 6f ae 2f 8f 6f ae 31
       3.0542926e-09 5.0767492e-09 3.1729683e-10 5.0767492e-09
000360 8e 2a b1 2f 8e 2a b1 2e 42 f8 38 30 8e 2a b1 30
       3.222635e-10 8.056587e-11 6.7291606e-10 1.289054e-09
000370 8e 2a b1 2e 8e 2a b1 30 d2 2a b1 2f d2 2a b1 2e
       8.056587e-11 1.289054e-09 3.2226538e-10 8.0566345e-11
000380 33 81 32 30 d2 2a b1 30 d2 2a b1 2e d2 2a b1 30
       6.4939626e-10 1.2890615e-09 8.0566345e-11 1.2890615e-09
000390 b7 53 a6 30 b7 53 a6 2f aa d2 8e 31 b7 53 a6 31
       1.2101883e-09 3.0254707e-10 4.1566937e-09 4.840753e-09
0003a0 b7 53 a6 2f b7 53 a6 31 28 c9 a6 30 28 c9 a6 2f
       3.0254707e-10 4.840753e-09 1.2135262e-09 3.0338154e-10
0003b0 e8 2a 9b 31 28 c9 a6 31 28 c9 a6 2f 28 c9 a6 31
       4.5159716e-09 4.8541047e-09 3.0338154e-10 4.8541047e-09
0003c0 2c e1 d6 30 2c e1 d6 2f 3b e4 a1 31 2c e1 d6 31
       1.5634547e-09 3.9086367e-10 4.7116635e-09 6.253819e-09
0003d0 2c e1 d6 2f 2c e1 d6 31 bc e5 d4 30 bc e5 d4 2f
       3.9086367e-10 6.253819e-09 1.5490325e-09 3.8725811e-10
0003e0 67 af b2 31 bc e5 d4 31 bc e5 d4 2f bc e5 d4 31
       5.2004228e-09 6.19613e-09 3.8725811e-10 6.19613e-09
0003f0 58 a0 a6 30 58 a0 a6 2f e6 02 95 31 58 a0 a6 31
       1.2123662e-09 3.0309155e-10 4.3368003e-09 4.849465e-09

exp_avg f4 [128]
000000 31 ae 49 38 99 87 c6 38 59 70 c8 36 37 6e 74 b8
       4.8084363e-05 9.466633e-05 5.9735435e-06 -5.827678e-05
000010 fb 8d 89 37 64 f7 50 b8 e4 67 66 b7 b3 9d 5c 37
       1.6397787e-05 -4.9821465e-05 -1.3733257e-05 1.3149739e-05
000020 6b 3c ba b5 f5 54 18 39 9d b3 9b b6 a6 d2 8e b8
       -1.3875664e-06 0.00014527499 -4.6402697e-06 -6.810324e-05
000030 11 a0 4d 37 eb b7 a9 34 74 82 1e b7 c8 18 5f b8
       1.22562205e-05 3.161252e-07 -9.447907e-06 -5.3190422e-05
000040 03 a4 eb b6 98 95 8f b8 d0 68 d9 b6 a1 6a 42 38
       -7.0226392e-06 -6.8466354e-05 -6.4793057e-06 4.635251e-05
000050 b1 f1 46 b8 9f 2f 85 38 4d 14 fb 38 91 41 f5 b7
       -4.743197e-05 6.350804e-05 0.00011972394 -2.9236808e-05
000060 56 05 ab 36 cd af 6d b5 0c 0e db 36 69 04 75 b6
       5.0968183e-06 -8.8545204e-07 6.528344e-06 -3.6510412e-06
000070 6b 38 5a 37 d1 e9 36 39 9d b8 17 b8 f3 eb 09 b8
       1.3006948e-05 0.00017443976 -3.617314e-05 -3.288309e-05
000080 29 48 5f 38 0b bc 90 36 97 89 92 37 0d 40 1e 39
       5.3234548e-05 4.3134255e-06 1.7468627e-05 0.00015091915
000090 f6 cb e6 b7 88 88 8a b6 34 25 9d b7 99 8d 97 b5
       -2.7513113e-05 -4.128615e-06 -1.8733183e-05 -1.1291587e-06
0000a0 e5 f5 67 b8 de df e5 34 3b 83 a8 38 fa 9a bb 37
       -5.53037e-05 4.281746e-07 8.035308e-05 2.2364304e-05
0000b0 58 40 59 38 88 0c 2c b8 95 80 43 b7 70 c3 02 b8
       5.1796756e-05 -4.1019666e-05 -1.1652844e-05 -3.117643e-05
0000c0 14 17 d7 38 5e 3d 00 b8 85 76 fb b7 9f 41 fa b8
       0.000102562975 -3.057473e-05 -2.9976722e-05 -0.00011933152
0000d0 f1 a8 70 38 88 41 cb 38 a4 0e a7 b5 31 df 89 b7
       5.7377798e-05 9.6920005e-05 -1.2446731e-06 -1.6435604e-05
0000e0 50 12 23 38 0b 12 d1 b6 fd df 36 b8 d2 2e 19 b8
       3.8879283e-05 -6.230786e-06 -4.3600787e-05 -3.6521647e-05
0000f0 da 76 87 36 94 24 24 b8 30 51 b6 b8 28 55 62 38
       4.0371497e-06 -3.9134713e-05 -8.6935586e-05 5.3961907e-05
000100 91 08 b0 38 df c7 16 39 d9 a9 44 b8 1d 04 0b 38
       8.3939296e-05 0.00014379573 -4.6888224e-05 3.3144013e-05
000110 d1 88 31 38 bc bb dd b7 97 14 b2 b6 ce c7 6a b8
       4.232751e-05 -2.6432674e-05 -5.3072104e-06 -5.597603e-05
000120 9e 4c ca 38 8b 62 d7 38 d7 60 a4 37 b1 62 df b6
       9.646382e-05 0.00010270354 1.9595418e-05 -6.657407e-06
000130 f7 b4 37 39 8a 63 77 38 d4 3b 37 b7 0f eb e2 35
       0.00017519655 5.8982092e-05 -1.092158e-05 1.6906723e-06
000140 93 0d ba 39 db 3f 3f b5 8e 31 8f 35 5b e4 84 38
       0.00035486798 -7.1245967e-07 1.0668753e-06 6.336785e-05
000150 7b 92 86 36 19 ee 9c b7 5e f3 8b 37 0d 12 69 b7
       4.0105638e-06 -1.8707522e-05 1.6683418e-05 -1.3892085e-05
000160 65 0b 11 b6 d0 13 20 b8 5e f2 2c 36 31 9e b9 b8
       -2.1613316e-06 -3.8165424e-05 2.5771074e-06 -8.850953e-05
000170 c0 5f 2d 37 64 d7 0c 36 ce fc 48 38 e4 53 c1 38
       1.0333897e-05 2.0987e-06 4.791916e-05 9.218583e-05
000180 50 de 59 b7 43 06 6f b7 b1 de 1e 35 35 63 0e b8
       -1.2985969e-05 -1.4246968e-05 5.9183645e-07 -3.3947832e-05
000190 31 02 4e 37 4b f7 81 b5 48 86 57 b5 d0 1e c8 b6
       1.2279067e-05 -9.683221e-07 -8.0289146e-07 -5.9640515e-06
0001a0 f5 c5 e1 b6 97 45 01 39 9e b4 8d 38 19 fe 9c b8
       -6.7285678e-06 0.00012328323 6.7570465e-05 -7.485989e-05
0001b0 e3 58 a5 b6 37 4f 0a b8 f6 1a db b6 51 05 dc b7
       -4.927731e-06 -3.297554e-05 -6.5298473e-06 -2.622852e-05
0001c0 5e 64 c3 b8 cf 4d 2c b9 06 d2 d0 36 60 e8 6d 38
       -9.3170194e-05 -0.00016432184 6.223333e-06 5.672162e-05
0001d0 f7 75 86 b8 1f e2 e5 38 e1 e0 a8 b8 35 30 b3 b7
       -6.4115906e-05 0.00010961689 -8.052751e-05 -2.1360911e-05
0001e0 c1 75 31 38 7d fc cd b6 96 5b 1e b5 90 bc b8 b6
       4.2309755e-05 -6.1388696e-06 -5.899286e-07 -5.505579e-06
0001f0 c3 48 bc 38 36 1c db 37 3b 04 ef 38 77 97 bd b8
       8.9780915e-05 2.6119971e-05 0.00011397196 -9.040435e-05
