Lofty2024/results/MoveRandomPlayer/MoveToPlayer/MoveToPlayer-499960.onnx (onnx, 78290 bytes, 8 tensors)

network_body._body_endoder.seq_layers.0.weight f4 [128, 6]
000000 2e f6 c6 3e 40 6c 51 3e 88 5b cf 3e 4c 1b dd bd
       0.38859695 0.2045145 0.4049952 -0.10796222
000010 16 ba 59 be b3 24 55 3f 22 e4 05 3e da 22 2a bf
       -0.21262392 0.83259124 0.13075307 -0.6645943
000020 34 ec b0 3e 3b f4 c8 be 27 8b 67 be 42 70 30 3f
       0.3455521 -0.39248833 -0.22611676 0.6892129
000030 c2 ce b9 3e cf 29 56 3f 7a 6c ae be b9 25 21 bd
       0.36290556 0.83657545 -0.34067136 -0.039342616
000040 01 8a f8 bd bb 47 b5 be e3 20 3d 3f 89 f7 d4 bd
       -0.12135697 -0.35406289 0.73878306 -0.10398776
000050 1a 16 ac be 19 bd 05 3e 18 ef 55 be 0c dd cb 3e
       -0.33610612 0.13060416 -0.20891988 0.39817083
000060 86 ef a5 3e 58 4a 03 3f b3 5c 0f 3e 5a d5 a7 bd
       0.32409304 0.51285315 0.14000206 -0.081949905
000070 8e fa 2d 3e 9e 8d 8e be 46 30 c0 3e 72 b2 89 be
       0.1699011 -0.2784242 0.3753683 -0.26893955
000080 3d 44 3a bf 54 fc 0c 3d 76 29 15 be 2a 7c d5 be
       -0.72760373 0.034420326 -0.14566597 -0.41696292
000090 09 ff ec be 5a 97 9b 3e 26 68 ee be 8b 91 ff be
       -0.46288326 0.3038891 -0.46563834 -0.49915728
0000a0 ea 73 49 3f d4 94 7c 3d 8e 4c b5 3e a2 a2 c7 be
       0.78692496 0.06166537 0.3540997 -0.38991266
0000b0 b2 a3 d4 be a5 cb b5 3e 0a 2c fa 3e 3b 11 9c bd
       -0.4153114 0.3550693 0.48861724 -0.07620474
0000c0 7d 9f 29 bf b8 0c 23 3e c4 a0 64 3c a3 dc 43 bf
       -0.66258985 0.1592282 0.013954345 -0.7650854
0000d0 4d 68 74 3e 06 e7 09 3e c7 b1 31 be 4b 3a 5a bf
       0.23867913 0.13467035 -0.17352973 -0.852452
0000e0 fe e8 31 3f 8d c5 55 be de d7 fd be 4d f1 8a be
       0.6949614 -0.20876141 -0.49578756 -0.27137223
0000f0 32 a3 d1 3e ae ab 21 3e 40 9f 08 3b 3e d6 0d bf
       0.4094482 0.15788147 0.0020846874 -0.5540503
000100 e0 70 04 be 0e e9 14 bf b8 56 5b bf cd 94 d6 be
       -0.12933683 -0.58168113 -0.856792 -0.419104
000110 9b 08 92 3c 64 04 a8 3e f9 3c a5 3e 20 d2 06 3f
       0.017826369 0.3281585 0.3227308 0.52664375
000120 6a 24 e8 3d c3 68 4a 3e b2 ff 8c be df ab 9e 3e
       0.113350704 0.19766526 -0.2753883 0.30990502
000130 0b 19 bf 3e ea ba 9a 3b 5e 9b 30 3f 7b e8 d2 be
       0.37323794 0.004721989 0.6898707 -0.41192994
000140 aa 85 b6 3d 67 cf 27 3d 75 7c ae bd 17 d4 2c bf
       0.08912213 0.04096928 -0.08519832 -0.67511123
000150 2e 2f 94 be 17 ce 32 3d 3e b5 26 bf 07 5e 8c 3d
       -0.28942245 0.043653574 -0.65120304 0.06853872
000160 7c a9 28 3e 79 ce 21 be 72 b2 14 3c 97 1d 44 bf
       0.16470903 -0.1580142 0.009075748 -0.7660765
000170 4f 2d c0 be 82 34 4c 3e 0e 9e 8a be 4e 32 76 3e
       -0.37534568 0.19941905 -0.2707371 0.24042627
000180 06 b3 d3 3d fa 76 af 3d 70 ac 02 3f 4e 8e 9e be
       0.103368804 0.08567615 0.5104437 -0.30967945
000190 d3 1c 40 3e 40 f6 88 3e 25 b0 6c 3e 5a a9 69 bf
       0.18760996 0.26750374 0.23114069 -0.91274035
0001a0 a0 f9 b6 3d 9b 1b b0 be 10 63 82 be d3 7a 7a bc
       0.08934331 -0.3439606 -0.25466204 -0.015288073
0001b0 32 aa 8b 3e 4b 0c 35 bf aa e1 fb bd eb d1 6d be
       0.27278286 -0.7072188 -0.122989014 -0.23224609
0001c0 fb cb 8e be 33 8e f2 3e 20 0a e5 bc 7a 69 d5 bd
       -0.2789 0.47374114 -0.02795893 -0.10420509
0001d0 c7 1b bb be b2 5a 19 3e 56 fc d4 3e d9 93 39 3e
       -0.3654463 0.14976004 0.41598767 0.18122806
0001e0 d9 16 f4 be ad c6 be be d9 d4 04 be 9d 07 9e be
       -0.4767368 -0.37260953 -0.1297182 -0.30865183
0001f0 cf f6 fe 3c b5 b3 0e 3e 47 d0 ea 3e a3 31 4b 3f
       0.031123547 0.1393574 0.45862028 0.79372615
000200 da 2c ba 3e b5 b3 0d 3f 18 96 c1 bd a1 ce ad bc
       0.36362344 0.55352336 -0.09452456 -0.021216692
000210 61 12 16 3e 7f 86 5a 3e 91 aa 00 bf 11 26 d8 be
       0.14655448 0.21340369 -0.50260264 -0.42216542
000220 af 76 94 3e e0 80 95 be ca 50 c9 be 59 2c 83 be
       0.28996798 -0.29199886 -0.3931945 -0.25619772
000230 6f 95 38 3c cc 7c ce be 0c c4 bf be f5 0a ed be
       0.0112660965 -0.40329587 -0.3745426 -0.46297422
000240 dc 86 eb 3d ef fe e6 3d 19 4e 9a 3e 71 89 f7 3e
       0.11500332 0.112790935 0.3013771 0.48347047
000250 dc d2 4c bf 78 a2 e5 3e c7 0e d1 3d 3a 89 23 3d
       -0.80009246 0.44850516 0.10207897 0.03992579
000260 f4 37 e7 be a5 6e c7 be f4 54 f7 3e b1 0e 44 3e
       -0.45159876 -0.38951603 0.48307002 0.1914623
000270 30 7c f4 3d 20 0b 41 be 7d b1 6d 3d 48 be 2b bf
       0.119377494 -0.188519 0.058030594 -0.6708722
000280 01 cc 59 3f cf cd 3c 3f f0 32 cc 3e 24 27 9e bd
       0.8507691 0.7375154 0.39882612 -0.07722309
000290 ea ed 7b be 20 7f be 3e da 4f 02 3e 58 e9 b5 3e
       -0.24602476 0.37206364 0.12725773 0.3552959
0002a0 f7 ed 31 3f 60 fb d2 be 71 1a 82 be 69 7a 73 3e
       0.6950373 -0.4120741 -0.25410798 0.23777165
0002b0 ce b2 6a be a7 14 ad 3d 2e 56 2e 3f ac df 38 be
       -0.22919771 0.08451205 0.6810025 -0.18054074
0002c0 9c 4a 8b 3d 32 41 bc be 94 f0 8a bf 56 a7 ee 3e
       0.0680134 -0.3676849 -1.0854669 0.46612042
0002d0 9d b5 bd be 66 0d 04 bf 32 dc 60 bf c2 3b 30 3d
       -0.37052622 -0.51582944 -0.8783599 0.04302574
0002e0 53 ad 4c be 51 e7 08 bf 7c 69 1b 3f 26 6f c7 be
       -0.19987993 -0.5347796 0.6070783 -0.38951987
0002f0 11 55 7c 3e 86 95 39 3e 01 60 ac be 9f 9a 1f 3e
       0.24641825 0.18123445 -0.33666995 0.15586327
000300 f6 b3 9f 3d 71 b6 cb be c4 f7 50 3c 29 f8 aa 3e
       0.07797997 -0.3978763 0.012754384 0.33392456
000310 43 d8 19 bf 4c 48 98 3d e0 88 a0 3e a8 9c 2d 3e
       -0.60095614 0.074356645 0.31354427 0.16954291
000320 ee 10 a7 3e ce d4 64 3f 20 7b 96 be 2b b0 54 3e
       0.32630104 0.89387214 -0.29390812 0.20770328
000330 c7 36 b8 be 82 ee 7f bd 42 be e3 3e 86 62 25 3e
       -0.35979292 -0.06248332 0.44481093 0.16150865
000340 47 a0 82 3e 59 4b 90 3d e4 a0 2f bf d1 9f ea 3e
       0.25512907 0.070456214 -0.68604875 0.45825055
000350 b7 7d 46 be c7 40 a9 3d 90 75 a9 3e 73 5e fa bd
       -0.19383894 0.082643084 0.33097506 -0.12225046
000360 84 f2 23 ba 67 23 34 3e 61 63 09 3f 68 30 68 bc
       -0.0006254094 0.1759163 0.53667265 -0.014171697
000370 48 72 a1 be 62 19 2c bf 40 85 54 3e 93 c1 61 3e
       -0.31532502 -0.6722623 0.20753956 0.22046499
000380 9b 3d 8b 3e aa df 2f 3e 5a ec 17 3e 78 cc 14 bf
       0.2719544 0.17175165 0.14836255 -0.58124495
000390 fd f5 f3 be 4e e0 00 be 35 98 4a 3f 57 7b 63 3f
       -0.47648612 -0.12585565 0.791385 0.88860077
0003a0 2c 1d 80 3c e6 17 84 bd 7f 1a ca bd c4 84 e5 3e
       0.01563891 -0.06449871 -0.09868335 0.44827855
0003b0 1a b6 33 bf db 39 21 ba 4a 28 c8 3d 02 e8 90 3e
       -0.7019974 -0.0006150284 0.097733095 0.28302008
0003c0 f9 cd 0b 3f 56 76 87 3e 6a f9 21 bd 87 b9 ee 3e
       0.54611164 0.2645747 -0.0395445 0.4662592
0003d0 34 8f a6 3e fa 9f 7b 3d e9 c4 d6 be a2 d5 74 be
       0.3253113 0.061431862 -0.41947106 -0.2390962
0003e0 07 15 b4 3e 85 07 05 bf 0f fd f3 3d 52 62 cf 3e
       0.35172293 -0.519646 0.119135015 0.405047
0003f0 3c 6f 77 3f 88 c2 f1 3e 24 d3 1b be ed a1 ef 3d
       0.96654105 0.47218728 -0.15217263 0.11700807

network_body._body_endoder.seq_layers.0.bias f4 [128]
000000 36 4d a9 3c 64 a6 e8 3b 85 38 6c 3c e2 68 42 3c
       0.0206667 0.0070999134 0.014417772 0.011865826
000010 98 fe bb 3b 55 50 a8 3c 2c 19 8a bc a4 45 4b 3c
       0.005737137 0.020546118 -0.016857706 0.01240674
000020 74 11 04 bd 5c 0f d3 bc 48 78 f1 3b 14 b5 f5 3b
       -0.032243207 -0.02576416 0.007369075 0.007498393
000030 1d 61 5e ba d6 5b 7e bb 77 26 63 3c ee e2 17 3b
       -0.0008483099 -0.0038812063 0.013864151 0.0023176032
000040 d0 4a c6 3c df 85 87 3b 80 10 2e 3c 31 51 67 bc
       0.024205595 0.0041358317 0.010624051 -0.014118479
000050 cb 81 18 bd bb 9c 31 3c 53 a3 d3 3c c4 c6 db bc
       -0.037233155 0.01084059 0.025834715 -0.026828177
000060 c9 54 5e 39 31 f0 d5 3c fe 02 d0 3c 6d 24 e6 39
       0.00021203155 0.026115509 0.025392052 0.00043896158
000070 52 28 6a 3a ac 83 44 3b ac b8 ef 3b 83 60 74 3b
       0.00089324 0.002998571 0.007315716 0.003728897
000080 50 98 31 bd ac 46 1a 3c f7 93 72 3b 04 fd 82 3b
       -0.043358147 0.009416264 0.0037014463 0.003997447
000090 b4 4f 1a bd 31 1f 83 3c 3a 33 25 3c 05 5b 07 3d
       -0.037673667 0.016006084 0.010083014 0.033045787
0000a0 b6 88 6e 3c a2 c4 2b 3c b4 28 ef 3c ec 11 fa bb
       0.014558962 0.010483893 0.029194213 -0.007631531
0000b0 4a 6e 42 3c b2 cf 2d 3c da 96 c5 3c d6 5e 99 bb
       0.011867115 0.0106086 0.024119783 -0.004680495
0000c0 bf d7 4c 3c 4a 6a 03 3d 04 d0 74 3c b5 d4 9e bc
       0.01250261 0.032083787 0.014942173 -0.019388536
0000d0 ad 82 22 3c 72 31 fe ba d5 f8 08 3a 86 89 56 3c
       0.009918851 -0.0019393398 0.0005225067 0.013094312
0000e0 a2 39 da 3b b8 bd df 3b 54 59 0f 3d 06 e5 02 3c
       0.0066597024 0.006828036 0.0349973 0.007989174
0000f0 b9 80 88 3c dc 6a 5e 3b f0 c2 bd 3c 8a 17 04 3d
       0.016662942 0.0033938205 0.023164243 0.03224901
000100 2e 06 bf 3c 28 11 0a 3b 1c 05 4b 3d 3c 90 c3 3c
       0.023318376 0.0021067355 0.04956542 0.023872487
000110 d4 10 a9 bc 22 58 04 bd e6 c7 48 3c 90 e2 47 3d
       -0.020637907 -0.032310612 0.012254691 0.04880005
000120 19 fb 22 3c 95 29 ee 3c d3 76 9d 3c 2d bc 9c 3c
       0.009947562 0.029072562 0.019221699 0.019132698
000130 60 d0 94 bc e9 23 22 bc 9a bb 0a 3c 86 0a 19 3c
       -0.018165767 -0.009896257 0.008467579 0.009340888
000140 93 7e 1a 3c a0 c1 a0 3c 6c 83 e9 3c 53 e9 84 3c
       0.009429592 0.019623578 0.02850505 0.016224539
000150 ba f9 c4 3c 39 f7 78 b8 ee 7b 6e 3b c7 7e 60 bc
       0.02404486 -5.935805e-05 0.0036389786 -0.013702101
000160 2e 6e 40 3c 63 27 20 3d 91 d4 9f bb f0 d5 07 3c
       0.011745019 0.039100062 -0.004877635 0.008290753
000170 44 5f 0a bc 48 12 2b 3d 5a cf 9f 3c 9e 6d 8f 3c
       -0.008445565 0.04176548 0.019508053 0.017508324
000180 18 ec 5d 3c ae dc b5 3b 43 2c 1e bc 95 98 0a 3a
       0.013545059 0.0055499887 -0.0096541075 0.0005287019
000190 e3 e2 ca 3b 5e 91 0d 3d 45 d6 0b bd 2b 6e 6b 3c
       0.006191598 0.03456246 -0.03413989 0.014369528
0001a0 87 f6 67 3c 81 a2 ac 3c e1 c8 95 bc 70 90 f8 b9
       0.014157898 0.021073582 -0.018284263 -0.0004740986
0001b0 bf b4 54 bd 42 47 8b 3c c3 81 63 3c 91 95 e9 3c
       -0.051930185 0.017001752 0.013885918 0.028513702
0001c0 eb ec 15 3c c6 dc e2 3c 7b 7e 60 bc d3 2a 30 3b
       0.009150724 0.027693164 -0.01370203 0.0026880994
0001d0 fa 40 93 3b d3 53 29 3d e9 2f 2b bc ce 69 a7 3c
       0.00449383 0.041339707 -0.010448434 0.020436194
0001e0 74 1d eb bc 38 6d f5 3c ea c5 00 3c c4 e8 b9 3b
       -0.028700568 0.029959306 0.007859686 0.0056735
0001f0 57 75 98 3c e9 b2 55 bc b6 73 ff 3c 72 b4 90 bc
       0.01861064 -0.013043144 0.031183105 -0.017664168

network_body._body_endoder.seq_layers.2.weight f4 [128, 128]
000000 e6 b9 c2 bd 0b ae 11 3e 53 10 27 3e d9 db e0 bc
       -0.095081136 0.14226548 0.16314821 -0.027448582
000010 de 08 a9 3d 45 c5 92 bd bc b7 b5 bd fa 1a 41 3d
       0.082536444 -0.071665324 -0.08872935 0.047144867
000020 bd b8 ae bc e4 0a 09 3d 76 91 d9 bc be f5 9d 3c
       -0.021328324 0.03345765 -0.026558619 0.019282218
000030 d6 93 b9 3c da 63 d2 bb 79 3d 9f 3d 55 e6 b5 3d
       0.022653501 -0.0064205946 0.07775397 0.08881823
000040 4e 5b 8e 3d 2f 60 b5 3d 6c 48 67 bd fa d8 e2 3d
       0.06951009 0.08856236 -0.05646555 0.11076541
000050 e5 6d 4d bd bf f5 c2 3b 7f 2b 93 bd 2c 5a f0 bd
       -0.05015363 0.0059497054 -0.071860306 -0.11735949
000060 35 04 20 3e 9b fa d2 3d fb a7 16 be 5a c4 2f bd
       0.15626605 0.103017054 -0.14712517 -0.042911865
000070 48 30 95 bc eb 0e 12 3d d6 c5 bd 3d 57 07 20 bd
       -0.018211499 0.035658758 0.0926625 -0.0390695
000080 79 7c 6b bd e5 04 61 3d d6 9b 9e 3c 76 80 23 bd
       -0.057491753 0.05493631 0.019361418 -0.03991743
000090 ab f4 03 3d e1 0a 65 3c 79 53 6b 3d 10 f9 a6 3c
       0.032215755 0.0139796445 0.057452653 0.020382434
0000a0 d7 99 07 3e 96 a5 49 bd 65 6a 1b 3e ca 70 39 3d
       0.13242279 -0.04923018 0.15177305 0.04527358
0000b0 83 4f 96 bd 91 0c 99 3d 27 a5 28 3e b7 d8 ab 3d
       -0.073393844 0.074731 0.1646925 0.083909445
0000c0 76 20 3d bd 0b 81 0f bc 38 1f d7 3d 85 bc 7f 3c
       -0.046173535 -0.008758794 0.105040014 0.015608911
0000d0 1c 32 9f bc f5 89 9d bd 69 f6 9f 3e 24 b1 a4 bd
       -0.019433074 -0.07692329 0.31242684 -0.080415994
0000e0 8b ae 80 3c bb e1 f0 3d 08 42 58 bc 06 16 01 be
       0.015708229 0.11761805 -0.013199337 -0.12606058
0000f0 8c 50 be bd e9 d9 ee 3d 49 50 c2 3c 39 ad b6 bd
       -0.09292707 0.11662657 0.023719924 -0.08919758
000100 0e d4 5d bc 04 05 50 bd cc c6 6d be ce 61 e1 3c
       -0.013539327 -0.050786033 -0.23220366 0.027512457
000110 f9 25 53 3d fd d7 ca bd e8 8c 21 3d f2 93 c8 3d
       0.051549885 -0.09904478 0.03944102 0.09793843
000120 9d 10 c4 bd df 0a a8 bd b2 36 ba 3c ae a7 8c bd
       -0.09573481 -0.082051985 0.022731159 -0.0686792
000130 90 58 71 3d 88 8e b3 3d 30 f7 e6 bc 01 76 8f bd
       0.05892235 0.0876742 -0.02819404 -0.07004929
000140 b0 b2 b1 3c bb 6e 86 3d ab 0e 3f 3d 4e cd 45 be
       0.02169165 0.06564089 0.046644848 -0.19316599
000150 f9 54 0a 3e ef 1d e3 3d 75 0f 05 3e 72 b4 3f 3e
       0.13508977 0.11089694 0.12994178 0.18721178
000160 2c 0b be 3d da d0 ea bd e8 6d f4 bd ad d7 8f bd
       0.092794746 -0.114656165 -0.119350255 -0.07023559
000170 81 fa 8e bc ce df 43 3d 4d d6 af bd 49 7c ea 3d
       -0.017453434 0.04782086 -0.085857965 0.11449487
000180 ef bd 04 3d 26 1e 0c 3d 5a 29 bc bd c7 c7 77 3d
       0.032407697 0.03420844 -0.09187575 0.060493257
000190 05 3d ed ba bd eb f7 3d 11 11 c3 3a 8b c6 79 bd
       -0.001809985 0.121055104 0.0014882406 -0.06098036
0001a0 d8 8a 03 3e a8 91 63 3c 68 8f 50 bc 5c d6 2b bd
       0.12845933 0.013889708 -0.012729503 -0.041952476
0001b0 55 f0 34 3d bf c9 6e 3c e9 52 49 bd 3f 77 09 3e
       0.04417451 0.014574467 -0.049151335 0.13424395
0001c0 a2 f3 b4 3d 8a 45 f0 3b b5 24 de bd 4f 19 08 3e
       0.08835532 0.0073325085 -0.10846845 0.13290904
0001d0 48 0e cb bc c9 54 da bc 52 4f bb bd db c3 96 3c
       -0.024787083 -0.026651757 -0.091459885 0.018403938
0001e0 84 19 26 bc 33 95 ba bd 3e fb 01 3d d5 99 b1 bd
       -0.010137919 -0.09110489 0.031733744 -0.08671919
0001f0 cd fd 0e 3d 0d 3d 01 3e e7 1f 08 3e 49 1e ed bc
       0.034910012 0.12620945 0.1329342 -0.028945105
000200 a9 7f 52 3d 95 21 34 bd 35 4d f0 3c f2 9a 05 3e
       0.051391277 -0.04397734 0.02933369 0.13047388
000210 62 ee 86 3d a1 8b e3 3d d9 5e 16 bd 7d 79 e4 bc
       0.06588437 0.111106165 -0.036711548 -0.027889961
000220 a8 3e e7 bd 1e 03 93 bd 7a 61 11 3d 88 14 9a 3d
       -0.112912476 -0.07178329 0.03549335 0.07523447
000230 52 76 d7 3c 03 b7 15 3e f8 ca 1d 3d cd a9 fe bd
       0.026301537 0.14620595 0.038523644 -0.12434731
000240 90 2c 01 be cb ce b7 3d dd 59 45 3d ee 99 22 3d
       -0.12614655 0.089749895 0.048181403 0.03969758
000250 01 d8 4c 3c 74 ff 70 bd 54 ff bd bd ed 75 a9 bd
       0.012502671 -0.05883737 -0.092772156 -0.08274446
000260 53 c2 a1 bd a1 d9 b6 3d d7 19 7a 3d 6b a8 bd bb
       -0.078983925 0.08928228 0.0610598 -0.0057878993
000270 0e 5f 13 3d ce 40 07 3d 82 d4 f6 bd 68 4f 6d 3c
       0.035979323 0.033020787 -0.120522514 0.014484264
000280 5a 21 68 bd bc 17 81 bd 9b 2a ac bd e5 cb af 3d
       -0.05667243 -0.06303355 -0.08406564 0.08583812
000290 ea 2f c8 bd 7e f9 02 bb 71 58 1c 3c 07 6d 21 bd
       -0.09774764 -0.0019985135 0.00954257 -0.039410617
0002a0 80 94 0d 3e 66 2d 49 3d 6e ed da bd e4 d9 d1 3d
       0.1382618 0.04911556 -0.10689817 0.102466375
0002b0 b7 fb 94 bb 60 7f dd bc aa 71 9c bc e8 54 d6 3c
       -0.0045466083 -0.027038276 -0.019097168 0.026163533
0002c0 c8 a0 9f 3d 76 79 e0 bd 18 e3 1d 3e 7b b8 fb bc
       0.077943385 -0.10960667 0.1541866 -0.030727616
0002d0 91 35 13 3e fe 7b 8c bd 8e ab ce bd ba 2b a8 3d
       0.14375903 -0.06859587 -0.10091315 0.08211465
0002e0 04 6a e3 bd bb 6f 67 3c 18 69 92 bd 8f a5 a8 3d
       -0.11104205 0.01412576 -0.07148951 0.08234703
0002f0 43 76 64 3d e8 23 85 bc b4 05 c8 bd a4 80 e4 bd
       0.055776846 -0.016252473 -0.09766713 -0.11157349
000300 1c 67 24 3d 8d 9c ee 3d cb b8 5f 3c bd 65 d8 bc
       0.040137395 0.116509534 0.013654898 -0.0264157
000310 1c 05 a1 bd e0 34 b9 3d 6f 18 b9 3a 7f 28 cd bc
       -0.07862303 0.09043288 0.0014121662 -0.025043724
000320 0a f0 78 3c f2 d0 89 bd 23 8d e4 3d 52 4c 98 bd
       0.0151939485 -0.06729306 0.11159732 -0.07436432
000330 99 33 5d be d6 cc 71 3d 19 48 0d be ff 2e 68 3d
       -0.21601714 0.059033237 -0.13797034 0.056685444
000340 64 ab 8f bd e5 d6 4b 3e 07 b5 8e 3d 83 df a0 bd
       -0.07015112 0.19906195 0.06968122 -0.078551315
000350 55 d5 70 3e f4 c6 69 bd e2 35 ba bd ac d1 d5 3c
       0.2351888 -0.057074502 -0.090923086 0.026100956
000360 19 08 eb bd 5b c4 cd bd f0 09 27 be 09 42 58 3d
       -0.11476154 -0.100472175 -0.16312385 0.05279735
000370 4d d6 43 3e 79 1f bc bd e5 80 08 be 08 eb 55 be
       0.19124718 -0.091856904 -0.1333042 -0.20890439
000380 da 58 f9 3c 0f 60 38 bd 25 66 95 3b e7 3d 0e 3d
       0.030437876 -0.045013484 0.0045592957 0.034727003
000390 18 b6 ba 3d f6 4d 1f 3d be 36 ed bc 8f be 39 3e
       0.09116763 0.03889271 -0.028956767 0.18139099
0003a0 22 65 0d 3d a5 62 73 3c 42 f4 63 bd 46 36 2b 3e
       0.034520276 0.014855062 -0.055652864 0.16719922
0003b0 a6 84 94 bd c6 7c 3c bd c4 2b 08 bd 82 d0 0d bd
       -0.07251863 -0.04601743 -0.033244863 -0.034622677
0003c0 b5 8e 01 bd f2 14 64 bc dd 9c f9 bc dd 87 74 3d
       -0.031630237 -0.013921009 -0.030470306 0.05969988
0003d0 f1 87 1d be 3d 61 f1 bd ee 4c 00 3d 32 01 d6 bd
       -0.15383889 -0.11786125 0.031323366 -0.10449447
0003e0 b6 b8 1a bd a0 f3 10 be 5c cc 89 bd 9c 01 5e 3d
       -0.03777381 -0.14155436 -0.067284316 0.054200754
0003f0 c8 67 18 be c8 aa ac bb 71 f0 5a 3d 9c b8 88 bb
       -0.1488334 -0.005269382 0.05345196 -0.004172398

network_body._body_endoder.seq_layers.2.bias f4 [128]
000000 ca cf 4c 3c a3 3d 90 3c e6 9a 2d 3c 1c 0d 3b 3c
       0.012500713 0.017607516 0.010596013 0.0114167
000010 d0 a6 8b 3c 4a f9 00 3d ae 7a 11 3a f6 dd de ba
       0.017047316 0.03148774 0.0005549592 -0.0017003405
000020 4e bb bb 3c a4 25 c4 bb 97 ae 09 bb 76 d4 63 3c
       0.022916462 -0.0059859324 -0.0021008605 0.013905635
000030 e8 f5 7b 3c c8 73 bb 3b 80 db 0f bc 54 4c 18 bb
       0.015378453 0.0057205893 -0.00878036 -0.0023238854
000040 ab 24 52 3c f3 64 f1 bb 33 91 0b 3a 06 a9 90 3b
       0.012826125 -0.0073667704 0.00053240656 0.0044146804
000050 8d f3 88 3a 5f 4e 0f 3a e3 2c 44 3d f1 e2 5b bb
       0.001044856 0.00054666953 0.04789437 -0.0033552016
000060 a9 6f 28 3b 6d 3d f3 ba 8e 5a cd 3b 2c 14 0d 3d
       0.002570132 -0.0018557735 0.0062668985 0.034443066
000070 b1 47 38 3c 61 d2 48 bb 9c 4d 19 3c 3b 36 5a 3c
       0.011247561 -0.0030642974 0.009356882 0.013318594
000080 f4 1c 25 3c 39 43 79 bb 48 24 e1 ba 40 dd ee 3c
       0.010077704 -0.0038034453 -0.001717695 0.029158235
000090 ac d9 fb 3b c9 9d 87 3c d8 08 a8 3c f2 b6 c7 bb
       0.0076858606 0.01655473 0.02051203 -0.006094807
0000a0 c8 39 d6 bb ec 23 8b bb fd bf af b9 9e dc 5c 3c
       -0.00653765 -0.0042462256 -0.00033521643 0.013480334
0000b0 cf 19 e7 3c 43 03 8f bb 8e 05 9b bb 8e 3d b0 39
       0.028210549 -0.0043644025 -0.004730887 0.00033615198
0000c0 4f 92 43 3c de 76 32 3d 57 c6 71 bb 7b 7e 02 3c
       0.011936738 0.04357039 -0.0036891901 0.007964726
0000d0 5d f0 88 3c 3f 74 04 3a 63 32 8e 3b 18 6d b1 3c
       0.016716177 0.00050527224 0.0043395027 0.021658465
0000e0 3e 8f 36 3c 71 76 88 3b aa c4 5c 3a 6a 58 86 3b
       0.01114255 0.00416451 0.0008421639 0.0040998952
0000f0 75 f0 aa bb dd 50 86 bb e5 84 1b bb 38 95 0e 3d
       -0.005216653 -0.004098995 -0.0023730334 0.034810275
000100 f1 1c 33 3b 42 bb c0 3c 89 74 2a 3d 4a 6d ab 39
       0.0027330483 0.023526791 0.041615043 0.00032697088
000110 64 e3 08 3c e5 e0 a8 3c 3d 47 a4 ba cb b3 81 3c
       0.008354995 0.02061505 -0.0012533438 0.015832802
000120 f4 e4 24 3c 1a 3b 8d 3b 5e 05 95 3b 88 6a dc bb
       0.010064352 0.004310024 0.004547759 -0.0067265667
000130 25 cc 0d bb 5e 74 2f 3c df 22 51 bb d6 fa 97 bb
       -0.0021636572 0.010708896 -0.0031911654 -0.0046380563
000140 2f c0 e8 3c 12 ac b8 3a fe 58 fe 3c 5b b8 f1 3b
       0.028411953 0.0014089367 0.031048294 0.007376713
000150 f1 92 67 3c 23 d4 ab 3c ee 0c 63 bb dd 0b ec 3c
       0.014134155 0.020975178 -0.0034645158 0.02881425
000160 5d bb 2a bc b7 17 41 3c ee b8 74 bb d7 7b 10 3d
       -0.010420647 0.011785439 -0.0037341672 0.035274353
000170 3c 6a 2a 3c a5 9e dd 3c eb de 0f 3c 13 48 fc ba
       0.010401305 0.027053187 0.008781175 -0.0019247554
000180 43 88 ff b7 fd 60 dd ba 24 9b d9 3b b3 1d 97 3c
       -3.046182e-05 -0.0016889867 0.0066408087 0.018446779
000190 70 8d d2 bb 16 da e7 3c a7 0b b0 3b 27 a0 0b 3c
       -0.006425552 0.028302234 0.005372483 0.00852207
0001a0 c2 66 fa 3c 99 17 d2 bb 28 b8 aa 3c 6f 33 0f 3d
       0.030566577 -0.0064115045 0.020839766 0.03496116
0001b0 36 83 8a 3c d5 55 85 3c e8 13 4f 3b 25 6e 82 bb
       0.01690827 0.01627628 0.0031597558 -0.0039804154
0001c0 8b d2 70 3c fc 1e 23 3c ee 2f 88 3c 68 72 82 3c
       0.014698635 0.009956118 0.016624417 0.015923694
0001d0 a7 21 e0 3b 5f fd 42 3b c1 89 f6 3c d5 1a 04 3c
       0.006839949 0.0029753072 0.030094983 0.008063038
0001e0 eb 46 88 b9 47 d5 b5 bb 22 0d 13 3d 26 23 21 3d
       -0.0002599278 -0.0055491063 0.035901196 0.03934016
0001f0 a8 ad 7d 3c 79 8b f0 bb ef 22 43 3a bd 29 58 3b
       0.015483297 -0.007340845 0.0007443865 0.0032983862

action_model._continuous_distribution.log_sigma f4 [1, 2]
000000 57 0e a1 3c cf f6 aa bd
       0.019660158 -0.08347856

action_model._continuous_distribution.mu.weight f4 [2, 128]
000000 37 21 d4 bb 22 ec 9e bc 4f 6a 82 3c 9c 72 18 bc
       -0.006473686 -0.019399706 0.015919833 -0.009304669
000010 21 57 91 bc da cf 28 ba 68 b6 0e bc 4b c7 2f 3c
       -0.017741742 -0.00064396637 -0.008710481 0.0107286675
000020 ac 94 42 3c 76 be 8b bb d5 a9 a7 3c e1 81 15 bc
       0.011876266 -0.004264648 0.020466724 -0.009125204
000030 58 70 a7 3c aa fc 9c bc 26 d3 0a bc 6c 8a 05 bb
       0.020439312 -0.019163448 -0.008473193 -0.0020376695
000040 19 2a f5 bb 15 44 0f bc c0 1c 9f bc 32 03 9f bc
       -0.007481825 -0.008744259 -0.019422889 -0.019410703
000050 cc e7 1e 3c 6a af e7 3c 79 d2 9c 3c a3 a7 a0 3c
       0.009698819 0.028281886 0.01914333 0.019611185
000060 8b 0c ab bc be f3 69 bb 8b 03 c0 bc 95 c3 ab bb
       -0.020880004 -0.003569826 -0.02343919 -0.005241821
000070 2d cd 27 bc 83 88 55 3d d2 6c fa bb a0 cc a6 3c
       -0.010241789 0.05213214 -0.007642367 0.020361245
000080 1f f0 a9 3b 4d 02 d7 3c 0d a9 e6 3c 1f a0 41 3b
       0.0051860954 0.026246214 0.028156782 0.0029544902
000090 c7 58 af 3c 17 43 47 bb 07 24 66 3c 47 4d 33 bc
       0.021404637 -0.003040498 0.0140466755 -0.010943717
0000a0 37 53 09 3c c8 39 94 3c de 30 d6 3c 26 39 da 3b
       0.008381656 0.018093958 0.026146349 0.0066596447
0000b0 74 9d 19 bb 09 a1 91 3c a2 fa 5d 3a 0b 4e b8 3c
       -0.0023439797 0.017776983 0.0008467828 0.022498151
0000c0 48 8f 04 bd 84 92 92 3c 1a 06 f1 b9 14 f7 b2 bb
       -0.032363206 0.01789213 -0.00045971648 -0.005461583
0000d0 54 95 07 bd 36 20 64 3c 79 2d 10 3d 2e 91 e8 bb
       -0.033101395 0.013923695 0.035199616 -0.007097385
0000e0 1a c2 00 bd e9 41 e5 ba 35 e1 1b bd ed f9 c8 bc
       -0.03143511 -0.0017490956 -0.03805657 -0.024533236
0000f0 bd 94 9a 3b 03 23 f7 3c 84 1a 94 ba fc 22 b5 3a
       0.004717438 0.030168062 -0.0011299406 0.001381963
000100 5c ec ac bc d5 c7 63 3c 59 9f bf 3b 4c 6a 66 3c
       -0.021108799 0.013902624 0.005847853 0.014063429
000110 3e 05 33 bc f7 f5 12 bc 23 ea cf 3c 6b 61 e2 bb
       -0.010926543 -0.008969775 0.0253802 -0.006908586
000120 59 f0 53 3c 84 8d 09 bd b6 e6 22 bd 7c 64 bf 3c
       0.012935721 -0.033582225 -0.039770804 0.023363344
000130 da 26 7d 3c 83 24 a2 ba 55 20 16 bb 1f 6e 2b ba
       0.015451157 -0.00123705 -0.0022907455 -0.00065395416
000140 77 93 e5 3b 6c a2 af bc af fc bd 3c 8b 3c b5 bc
       0.0070061046 -0.021439753 0.023191778 -0.022123596
000150 32 5d cd bb ec 16 93 3c 4f 34 98 3c 4b 7d 0e 3c
       -0.0062672133 0.017955266 0.01857963 0.008696864
000160 99 7a c2 3c 8c f0 c7 bc a7 b5 31 3c 67 5c 0c 3c
       0.0237401 -0.024406694 0.010846532 0.008566952
000170 01 aa 0f bd 4e 60 1c bc ed 4d 0f 3b 0a 86 37 3d
       -0.035074238 -0.009544445 0.0021866516 0.044805564
000180 d4 30 2e 3d dc be 37 3c fd e5 63 ba 6d 1f b4 3c
       0.042527035 0.011214938 -0.0008693634 0.021987641
000190 a5 fe 14 3d 48 e0 fd 3c 24 72 1c 3c 02 6d a6 bb
       0.03637566 0.030990735 0.009548698 -0.0050789127
0001a0 eb 39 67 bb 9b 4b 01 3b ad 34 d8 bb af 24 ad 3c
       -0.0035282325 0.0019728902 -0.0065980763 0.021135656
0001b0 6c 22 5a 3b 4a 2f 05 bd 02 12 0e bd d8 57 ee 3c
       0.0033284677 -0.0325158 -0.034685142 0.029094622
0001c0 b2 6d 6a 3b 41 b0 da 3a f6 79 65 bc 21 fc be bb
       0.003577095 0.0016684608 -0.014006129 -0.005828396
0001d0 77 d6 8c bc 99 03 ca bc cd 14 44 bb 08 df 51 bd
       -0.017192109 -0.024659919 -0.0029919625 -0.05123809
0001e0 98 76 59 39 f3 f4 c5 3c 04 01 03 3c ef 45 ed ba
       0.00020738912 0.024164652 0.007995848 -0.0018102507
0001f0 9a 4d b8 3a a2 09 07 3c 1c 20 de bc 31 05 25 bd
       0.0014061213 0.008242043 -0.02711492 -0.040288154
000200 63 bb 1d 3d 23 40 67 3d 99 04 8e 3d 03 3f 7d 3d
       0.038508784 0.05645765 0.06934471 0.06182767
000210 6f 4c 03 3d 3b 01 7c bd f1 f0 7e 3c 8e 78 91 bc
       0.032055315 -0.06152461 0.015560375 -0.01775768
000220 a3 82 4f bd 62 fc 9a 3c f0 75 b1 3c 81 82 1b bd
       -0.050661694 0.018919174 0.021662682 -0.037966255
000230 e7 2e 76 3d 65 3d 8d 3c 6f ec 0a 3c 95 f2 8b bb
       0.060103323 0.01724119 0.008479222 -0.0042708614
000240 6f 3f 0e 3d 59 94 09 3a ec 0b 3c 3c 34 30 94 bc
       0.034728464 0.0005248241 0.011477452 -0.018089391
000250 96 8e 09 3d 36 7a 18 bd 69 a2 48 bd 6e d0 ec bc
       0.033583246 -0.037225924 -0.04898301 -0.02890798
000260 50 2b 8b bb 68 c2 aa bb 0f d7 df bc 34 76 91 bd
       -0.0042471066 -0.0052111633 -0.027324228 -0.071026236
000270 1b b2 54 3d 2c 1f 75 ba b0 b5 cd 3c b5 d4 75 3d
       0.051927667 -0.0009350653 0.02511105 0.060017306
000280 d1 40 4e 3d aa db aa bc 44 03 ff bc 86 6c 99 3d
       0.050354782 -0.020856697 -0.031129487 0.07491402
000290 b9 49 0b bd d1 bd 21 bd 32 a8 94 bd ee 6b a6 ba
       -0.034005854 -0.039487664 -0.07258643 -0.001269696
0002a0 b7 a1 5d 3c fb 0b 86 b7 90 b0 95 3c 00 b7 f4 3c
       0.013527325 -1.5979624e-05 0.018272668 0.029872417
0002b0 59 85 27 3d a7 54 1d bc 85 8c f8 ba 62 04 0b bd
       0.040898655 -0.009602702 -0.0018962777 -0.033939727
0002c0 af d0 f5 3c 1b 9d 92 bd f5 6f ed bb 58 c2 10 3d
       0.030006735 -0.07158872 -0.0072460123 0.03534159
0002d0 49 c4 48 3d bd 57 cb 3c 40 ac c4 bc 37 de 7d 3d
       0.049015317 0.02482211 -0.024007916 0.0619795
0002e0 27 08 21 3d a4 f8 25 3d 70 31 13 bc 84 4f c0 bc
       0.039314415 0.040520325 -0.008983955 -0.023475416
0002f0 eb 44 84 3c a2 c3 4e 3b ee 9e 19 bc fb a3 4c bd
       0.016146144 0.0031549712 -0.009376271 -0.04996107
000300 ed 9b 9b bc 44 95 45 bd ac 01 81 bd 3f 06 b0 3c
       -0.01899525 -0.048238054 -0.06299147 0.021487353
000310 a6 cc 1b bd 90 97 8b 3d f4 fa 15 bc 14 a7 16 3d
       -0.038036965 0.06816018 -0.00915407 0.036780432
000320 48 90 fd bc 08 f6 a5 bc 7a ba 09 3c 38 df f9 3b
       -0.030952588 -0.020258918 0.008406276 0.0076254867
000330 37 9d 95 3c f4 8d 21 3d 03 6f b2 bc 86 f3 5e bc
       0.018263442 0.039442018 -0.02178145 -0.013607865
000340 83 67 37 bd ba b9 36 bc 44 87 c1 bd 44 29 d1 3c
       -0.04477645 -0.011152679 -0.09449628 0.025532372
000350 49 5c 1e bd 39 42 90 3d a2 27 ba bc 93 b1 93 bd
       -0.03866223 0.07043881 -0.022723977 -0.07211604
000360 8b 6b 98 3b 13 8f 38 3d b8 2d 03 bc 5a 4a 54 bd
       0.004651492 0.04505832 -0.008006506 -0.05182872
000370 b4 e9 02 3d 79 60 4e 3d 6c 91 a5 3c 1f 61 2c bc
       0.031961158 0.050384972 0.020210944 -0.010521202
000380 d0 13 4a 3d 01 a4 a8 bc cc 1c c5 3c a4 2a 75 3d
       0.0493353 -0.020586016 0.024061583 0.05985512
000390 2c c7 47 3a ae 32 84 bd b8 b3 8c 3d 5e 95 f0 3b
       0.00076209265 -0.06454979 0.06870216 0.0073420247
0003a0 56 34 14 3d 0d 78 9c 3b 90 0f a0 bd 5c 7b b3 bd
       0.036182724 0.0047750534 -0.07815468 -0.08763763
0003b0 03 03 48 3d d1 85 38 3d c5 b6 e0 bb 1f d1 07 bc
       0.048830997 0.045049492 -0.0068577253 -0.008289604
0003c0 98 4e 76 bd 41 c6 2a 3d b1 2b db 3c bb 0c 27 bd
       -0.060133547 0.041692976 0.026754232 -0.040783625
0003d0 13 a7 c2 3c 91 8e f9 3c 22 c1 13 3d fc 71 ae 3c
       0.023761308 0.030463489 0.036072858 0.021294586
0003e0 d6 ef b6 3c 52 80 30 bc 4b a3 a0 bd fc ea aa bd
       0.02233116 -0.010772781 -0.07843646 -0.08345601
0003f0 42 41 51 bd 39 45 19 bc fc 85 e4 3c 77 d4 a4 bc
       -0.051087625 -0.009354883 0.02789592 -0.020120842

action_model._continuous_distribution.mu.bias f4 [2]
000000 c0 52 a7 bb 09 77 a2 ba
       -0.0051063 -0.0012395094

action_model._discrete_distribution.branches.0.weight f4 [1, 128]
000000 c1 b1 1e bc 42 1f 36 bc b4 50 38 3c fa 4a 53 3b
       -0.0096859345 -0.011115851 0.01124971 0.0032240734
000010 00 62 78 bc fb 48 87 3b 37 e7 fe bb 0f 9c ee 39
       -0.015160084 0.004128573 -0.007779028 0.0004551117
000020 ac 75 08 3c 3b 3d ca 3b 7f 02 1f 3c bd 70 cb bc
       0.008328836 0.00617185 0.009705185 -0.024834031
000030 1d ea aa 3a dd b6 ab bb 5a 6c 6a ba f6 f6 ac 3b
       0.0013039742 -0.005240305 -0.0008942537 0.0052784635
000040 dd de ed b9 23 25 41 bb 38 0d e0 3a c2 fa 42 3b
       -0.0004537021 -0.0029471598 0.0017093783 0.0029751514
000050 0d a4 f8 39 d3 c8 fa bb 2b 2e 9f bb ed 9d f5 bb
       0.00047424473 -0.0076533346 -0.0048577986 -0.007495633
000060 6f f9 5d 3b eb c9 1c bc a1 3b 9f bc a5 bb 2b bc
       0.0033870598 -0.009569625 -0.019437613 -0.01048175
000070 a4 83 8c bb 53 c2 82 3c 23 78 39 3b 2d 50 8b ba
       -0.0042881537 0.015961802 0.0028300367 -0.0010628753
000080 df de 0a bc 97 4c 0e bb c8 4c 23 3c 23 9a 80 bb
       -0.008475988 -0.0021713132 0.009967037 -0.0039246245
000090 f3 56 bb 3b a6 88 90 38 92 20 60 bc b3 00 78 3c
       0.0057171523 6.891908e-05 -0.01367964 0.015136885
0000a0 51 d4 ae bb 32 d6 e5 bb 5b c8 2c 38 c8 53 45 3b
       -0.0053353687 -0.0070140595 4.119459e-05 0.0030109752
0000b0 8f 42 82 bc 5f 14 ea ba 6a ca 10 ba 67 e3 ab bb
       -0.015900878 -0.0017858854 -0.0005523326 -0.0052456143
0000c0 93 e9 55 bb eb 3e 19 3c eb fa d6 3a 7f 34 09 3c
       -0.0032640442 0.00935338 0.0016401684 0.008374332
0000d0 ae 76 02 bb b7 1f 72 3b 1e 9d 97 3b d7 f4 be ba
       -0.0019907164 0.0036945173 0.004626884 -0.0014568818
0000e0 f7 5c 6c 39 5f 5d 5b 3c 4f c4 45 bc df ca 00 bc
       0.00022541346 0.013388961 -0.012070729 -0.007860868
0000f0 ce 91 21 3c 1b e4 20 bc c2 4f 95 3c cb a6 4e bb
       0.009861423 -0.00982001 0.018226508 -0.0031532522
000100 eb e3 9f bc cc ea b2 ba cf d5 14 bc 8f bb aa bb
       -0.01951786 -0.0013650297 -0.009084179 -0.005210347
000110 bb d8 91 bb db f4 3b 3c f0 13 32 3b 37 5d c8 bb
       -0.004450885 0.011471952 0.0027172528 -0.0061146277
000120 77 a0 8b 3b 78 9b e3 3c 06 c4 15 bc cb 80 09 3c
       0.0042610723 0.027784094 -0.009140974 0.008392523
000130 8a b3 e2 3a f5 ff 57 bb 87 df bb 3b 64 2d 17 bc
       0.0017295938 -0.0032958959 0.0057334336 -0.009227131
000140 0d c3 35 bc a9 5c 2b 3b 32 20 8b bb 77 32 12 3c
       -0.011093867 0.002614776 -0.0042457813 0.008923165
000150 db 0f 01 bc 13 f4 9b bb 4a 86 4e 3c 60 65 2c 3b
       -0.007877315 -0.0047593205 0.012605259 0.0026305541
000160 cd 6a 7b 3b a5 da e8 bb 0d 14 6d 3b 02 d6 88 bc
       0.0038363219 -0.0071061426 0.0036175281 -0.01670361
000170 a4 ba 9f 3b 8f be 25 bc 75 57 85 3c 42 df 05 3c
       0.004874544 -0.0101162335 0.016277054 0.008170905
000180 c2 2e a4 bb 08 01 89 ba 1c e0 a2 3b 9b 31 e6 3a
       -0.005010457 -0.0010452578 0.0049705636 0.0017562391
000190 72 94 da bb 62 10 63 bc f0 90 67 bc f1 55 99 3b
       -0.006670528 -0.013858886 -0.014133677 0.0046794345
0001a0 f3 f7 70 3b 18 46 38 bb bd 49 07 3c 57 ea 31 3b
       0.0036768883 -0.002811795 0.008257327 0.0027147734
0001b0 c4 26 3d ba f3 c1 3e bc d3 6f 93 bb 06 ec 27 bc
       -0.00072155544 -0.011642921 -0.0044994145 -0.0102491435
0001c0 e7 cc 3c 3c 45 9f f8 3a c0 fb 3c 3c 3f b3 84 ba
       0.011523462 0.0018968364 0.011534631 -0.001012422
0001d0 2f 68 b6 3b 82 17 e5 3b 22 ca 80 bc 03 31 9d 3b
       0.005566619 0.0069913277 -0.015721384 0.0047971024
0001e0 03 38 a2 3b ed f6 77 bb 71 a7 3b bc 7f fc f2 39
       0.004950525 -0.0037836388 -0.011453495 0.0004634596
0001f0 e7 6b f9 ba 4b 93 45 3b d2 af 22 3c 03 83 0c bc
       -0.001902935 0.0030147608 0.009929614 -0.0085761575
