Lofty2024/results/Test15/MoveToPlayer.onnx (onnx, 77717 bytes, 6 tensors)

network_body._body_endoder.seq_layers.0.weight f4 [128, 12]
00000000: ee36 89be 92b1 31be ba67 ba3e 126e e5bc
00000010: aea0 78be 33d7 a83d 0a62 21bf 192a f0be
00000020: b951 4bbe 4831 da3d 1574 ddbb fa81 f3be
00000030: e55e a73e 4f1d 4dbe 42d3 543a 7bc1 903e
00000040: e553 303e 0a74 213f c668 82be 2cd5 0abf
00000050: 237a 9dbe 7df9 20be 2b8b af3e 6658 30be
00000060: ecb5 653e ab8b 2f3d 40ce 203f ee83 27be
00000070: 64ad 10be d457 113d 8edd 073d 014e a83e
00000080: 6916 da3d 0eb2 733d 6a73 9cbe 89dc eabd
00000090: 887a c33e 852d 5bbd c6f8 0b3b 8ed1 3abe
000000a0: b580 9c3d 1cca f23d a501 133d 0cdd 1ebe
000000b0: 85da 023e 76d0 3a3e ee46 44bd ce96 17be
000000c0: 281a f7be b52d 613f 51dd f33e ac4a d9be
000000d0: bf8f 86be f47f 05be 56f2 553e 7b08 c7be
000000e0: d823 1bbe f658 233e 7ef7 fcbd 67e6 8f3e
000000f0: f8bc d23e a04c 8b3d 847b c13e dd13 413e
00000100: 76b3 9d3c e0d9 1abf 4c1a 563e ad51 13bf
00000110: 79a4 fe3c dfe9 36bc 80c3 f8bd a6e6 803e
00000120: 1f53 53bd a661 e3be 4f16 a8bd 5eef 7fbd
00000130: 59b3 b0be 2b8f d13e 5027 d5be 497a 7abe
00000140: 1828 e9be 9c12 9f3d e349 3f3e b30a 45be
00000150: 1e71 c4be 0f37 163e 7247 d6bd 6640 65bd
00000160: 98ef a63b a177 aa3e 8eee d23e 44dd aebe
00000170: 4f58 0cbb 2aba 14bf 19e4 f13e bafb 433e
00000180: 9edd e5bd f45a d33e 78db 533e 2cdd 7abd
00000190: d17e 9b3e 3e51 ae3b aee8 9ebe 6548 20bf
000001a0: 7611 41be dcf5 c33d 97dd 903d 90b0 d43a
000001b0: b0bd 5d3e 2f6f 25be 3f98 f73d bbcb 9cbe
000001c0: 2ec5 993e c9da d4be 23a1 a9bb a7b0 ed3d
000001d0: b929 1c3e d9d3 be3e 82e7 80be a3dd 5e3d
000001e0: fa54 4f3e 9900 293e 4236 88be 5e97 a7bd
000001f0: 5a4d 3e3e bd6f e6bd 34a1 bc3e c309 b93e
00000200: 7fe8 d3be 0454 043e fdca cc3d 3936 1abe
00000210: 2bdd 663e c931 1abe 3210 d23e 5bfe 8b3e
00000220: 28aa 913e b7c4 46bd bc52 033f 15fe 67bd
00000230: 6b17 163e 6b43 95be 841c 3fbe 7102 c23e
00000240: 2eb0 2ebd 681d a1be ce2b c7be 4019 573e
00000250: 8b92 72be 98fe a6bd e660 4abe b51f ffbe
00000260: c1b1 0abf 5de8 2abe e9c1 e8bd f965 27be
00000270: 584b e13e bc46 72be 5953 0cbe 7c64 ec3d
00000280: c146 e0bd 8477 c4be b4cf a6bc 8c59 f1bd
00000290: 6795 2fbe 48bc e83d a0c8 4d3f b624 d8bd
000002a0: f032 773e 8e43 1a3d f597 893e 17b6 913e
000002b0: 31ea 073d 4ff0 663e 0ef6 02be 2d91 023e
000002c0: 6870 773e 88d6 aabd 5dc5 ac3e 96f4 0ebd
000002d0: ff5c d6bb 99cc b8bc 6743 17bf a93c 3d3e
000002e0: e164 6a3e ceff 28bd dc7e 89bd f3a1 1dbe
000002f0: 95a6 023f 5c66 78bc a494 8c3e aca3 79be
00000300: dc75 e0be e04d 89be 27c8 ffbe 0af9 9bbe
00000310: 11bc 623e 1aee a4be bd89 d53d df76 b0be
00000320: 5427 f5be 800b 54be 7d62 b0be 2aae cc3c
00000330: e87b c8be 0c3e b6bc 35d3 8bbe e68f bcbd
00000340: bd7f 783e 1437 cb3d 3946 463e fd81 d8be
00000350: 70d0 17bd bf10 bb3b 2084 28bf 1dcd abbd
00000360: 30d3 f8bd 88a2 1ebf 919c 0f3f 6b50 cb3e
00000370: 373f 4b3e d8d2 6d3e 7fcf 963e b4fb babe
00000380: 79f1 a43d ba30 073f 4b9b babc f856 083c
00000390: cbb0 a33b 5e53 d6bd da4f 94be 515a 5d3e
000003a0: 493f a3bd 2f7c e0bd 76f0 b13e 6da0 b0be
000003b0: 3367 1c3e 51f0 ae3e 385c 7abd 8040 cf3d
000003c0: e66e 0b3e 5477 313e 9296 a83c 2563 3bbe
000003d0: 086e b23e 2a46 b23e 8896 99be bfa2 57bd
000003e0: 3c19 d3bd 02fe 9ebd 822d 94bc aea9 823e
000003f0: dd93 34be 66df e93d 7dd6 4d3e e0cd 293e
-0.2679972 -0.17352894 0.36407262 -0.028006587 -0.24280044 0.08244171 -0.6304022 -0.46907118
-0.19855393 0.10653931 -0.006758223 -0.47560102 0.32689586 -0.20030712 0.0008118638 0.28272614
0.17219503 0.63067687 -0.2547056 -0.54231524 -0.30757245 -0.15720172 0.34285864 -0.17221221
0.22432679 0.042857807 0.6281471 -0.16358921 -0.14128643 0.03548415 0.033170275 0.32872012
0.10648806 0.059495978 -0.30556804 -0.11467845 0.3817942 -0.053510208 0.0021357997 -0.18244001
0.076417364 0.118549556 0.03589024 -0.1551401 0.12778671 0.18243584 -0.047919206 -0.14803621
-0.48262143 0.8796037 0.4762979 -0.42439783 -0.26281545 -0.13037091 0.20893225 -0.38873658
-0.15150392 0.15951905 -0.12351893 0.2810547 0.41159797 0.068017244 0.37789547 0.18855233
0.019250613 -0.604887 0.20908469 -0.575465 0.031084286 -0.011164158 -0.12146664 0.2517597
-0.051592942 -0.44410437 -0.0820738 -0.062484138 -0.3451183 0.4092954 -0.41631556 -0.2446071
-0.45538402 0.07767221 0.1868053 -0.19242363 -0.38367552 0.1466944 -0.10462846 -0.05596962
0.00509448 0.33294395 0.41197628 -0.34153187 -0.002141494 -0.58096564 0.47244337 0.19138995
-0.11223911 0.4128033 0.2068919 -0.061246082 0.3037019 0.0053197434 -0.31036896 -0.62610465
-0.18854317 0.09568378 0.07073515 0.0016226936 0.21654391 -0.16155694 0.120895855 -0.30624184
0.3003325 -0.4157317 -0.0051766797 0.116059594 0.15250291 0.37271002 -0.25176626 0.054410588
0.2024726 0.16504134 -0.26603895 -0.08183168 0.18584195 -0.11251781 0.36841738 0.3614026
-0.41388318 0.12922674 0.099996544 -0.15059747 0.22545306 -0.15058054 0.4102798 0.27342495
0.2845013 -0.048527446 0.5129812 -0.056638796 0.14657371 -0.29152998 -0.18663222 0.37892488
-0.042648487 -0.31467748 -0.38900608 0.21005726 -0.23688714 -0.08154029 -0.19763526 -0.49828878
-0.5417748 -0.16690202 -0.113651104 -0.16347493 0.44002795 -0.23659796 -0.1370367 0.115426034
-0.10950995 -0.38372433 -0.020362712 -0.11784658 -0.17146836 0.11364037 0.80384254 -0.10553877
0.24140525 0.03766208 0.26873747 0.28459236 0.033182327 0.22552608 -0.12789175 0.12750693
0.24163973 -0.083417 0.33744326 -0.034901224 -0.0065418477 -0.022558497 -0.5908722 0.18480171
0.22890045 -0.04125958 -0.0671365 -0.1539381 0.51035434 -0.015161123 0.27457154 -0.24378842
-0.4383992 -0.26817226 -0.49957392 -0.3046344 0.22142054 -0.32212907 0.10426662 -0.3446569
-0.47881567 -0.20707512 -0.3445014 0.024985392 -0.39157033 -0.022246383 -0.27309576 -0.09207134
0.24267478 0.09922615 0.19362725 -0.42286673 -0.037064016 0.0057087834 -0.65826607 -0.08388732
-0.12149656 -0.61966753 0.56098276 0.39709792 0.19848333 0.23224962 0.29455182 -0.3652016
0.0805387 0.52808726 -0.022779128 0.008321516 0.0049954406 -0.1046512 -0.28967172 0.21616484
-0.07971055 -0.10961186 0.3475377 -0.34497395 0.15273742 0.34167722 -0.061123103 0.10119724
0.13616523 0.17330676 0.02057961 -0.1829954 0.34849572 0.34819156 -0.2999766 -0.05264544
-0.103075475 -0.07763292 -0.018088106 0.2552008 -0.1763453 0.11419563 0.20101352 0.16582441

network_body._body_endoder.seq_layers.0.bias f4 [128]
00000000: 0000 0000 0000 0000 0000 0000 0000 0000
00000010: 0000 0000 0000 0000 0000 0000 0000 0000
00000020: 0000 0000 0000 0000 0000 0000 0000 0000
00000030: 0000 0000 0000 0000 0000 0000 0000 0000
00000040: 0000 0000 0000 0000 0000 0000 0000 0000
00000050: 0000 0000 0000 0000 0000 0000 0000 0000
00000060: 0000 0000 0000 0000 0000 0000 0000 0000
00000070: 0000 0000 0000 0000 0000 0000 0000 0000
00000080: 0000 0000 0000 0000 0000 0000 0000 0000
00000090: 0000 0000 0000 0000 0000 0000 0000 0000
000000a0: 0000 0000 0000 0000 0000 0000 0000 0000
000000b0: 0000 0000 0000 0000 0000 0000 0000 0000
000000c0: 0000 0000 0000 0000 0000 0000 0000 0000
000000d0: 0000 0000 0000 0000 0000 0000 0000 0000
000000e0: 0000 0000 0000 0000 0000 0000 0000 0000
000000f0: 0000 0000 0000 0000 0000 0000 0000 0000
00000100: 0000 0000 0000 0000 0000 0000 0000 0000
00000110: 0000 0000 0000 0000 0000 0000 0000 0000
00000120: 0000 0000 0000 0000 0000 0000 0000 0000
00000130: 0000 0000 0000 0000 0000 0000 0000 0000
00000140: 0000 0000 0000 0000 0000 0000 0000 0000
00000150: 0000 0000 0000 0000 0000 0000 0000 0000
00000160: 0000 0000 0000 0000 0000 0000 0000 0000
00000170: 0000 0000 0000 0000 0000 0000 0000 0000
00000180: 0000 0000 0000 0000 0000 0000 0000 0000
00000190: 0000 0000 0000 0000 0000 0000 0000 0000
000001a0: 0000 0000 0000 0000 0000 0000 0000 0000
000001b0: 0000 0000 0000 0000 0000 0000 0000 0000
000001c0: 0000 0000 0000 0000 0000 0000 0000 0000
000001d0: 0000 0000 0000 0000 0000 0000 0000 0000
000001e0: 0000 0000 0000 0000 0000 0000 0000 0000
000001f0: 0000 0000 0000 0000 0000 0000 0000 0000
0.0 0.0 0.0 0.0 0.0 0.0 0.0 0.0
0.0 0.0 0.0 0.0 0.0 0.0 0.0 0.0
0.0 0.0 0.0 0.0 0.0 0.0 0.0 0.0
0.0 0.0 0.0 0.0 0.0 0.0 0.0 0.0
0.0 0.0 0.0 0.0 0.0 0.0 0.0 0.0
0.0 0.0 0.0 0.0 0.0 0.0 0.0 0.0
0.0 0.0 0.0 0.0 0.0 0.0 0.0 0.0
0.0 0.0 0.0 0.0 0.0 0.0 0.0 0.0
0.0 0.0 0.0 0.0 0.0 0.0 0.0 0.0
0.0 0.0 0.0 0.0 0.0 0.0 0.0 0.0
0.0 0.0 0.0 0.0 0.0 0.0 0.0 0.0
0.0 0.0 0.0 0.0 0.0 0.0 0.0 0.0
0.0 0.0 0.0 0.0 0.0 0.0 0.0 0.0
0.0 0.0 0.0 0.0 0.0 0.0 0.0 0.0
0.0 0.0 0.0 0.0 0.0 0.0 0.0 0.0
0.0 0.0 0.0 0.0 0.0 0.0 0.0 0.0

network_body._body_endoder.seq_layers.2.weight f4 [128, 128]
00000000: 10fe 5ebd 10c7 523c bffb dcbd d564 8a3e
00000010: 309c 80bc dd21 4b3e 293b a03d 6dc9 d03b
00000020: b7bc 343d 3b20 1bbe defa 18bd b2f0 83bb
00000030: 3bf4 1b3e 5ce9 80bd 4734 05bc a88e 44be
00000040: 90c9 8ebd 527c 2c3e 4564 933d 10e9 c63d
00000050: dadb e63d f173 183d 96de c3bc ac8c 8a3c
00000060: ef0a d0bc c184 a1bd d35a c73c a74f 213e
00000070: 3000 8c3e 93ba 213e b8e5 7cbd 6e03 12be
00000080: 1e19 c5bd 13ed 12be 26d5 b13d e74a a23b
00000090: 7bb2 91bd 12ee 053e c015 bb3c 7a0e a7bc
000000a0: 4861 85bd bd5a 333c 0dee 90bd d449 443d
000000b0: dbd2 923c 0748 073b 7dfa 36bd 7b1e c6bc
000000c0: 44f2 103d 2a4f 403b 6e1b ae3c 6dd3 2c3e
000000d0: 8bdd 2dbd 3c66 d9bd c49a d33c f5fd acbc
000000e0: 95da d43c 4090 333e c8ec 03bd 53fa ffbd
000000f0: b9b8 81bc 04aa ad3d a9ba 0ebd 904d d3bd
00000100: 18bd 8cbc fa4c 95bc ed52 b23d efe3 4ebd
00000110: b0f4 96bc 6316 8ebd 5cb7 28bd d307 7f3b
00000120: 5b7f 13bd cdae 1c3d 75e3 e0bd 957f b83d
00000130: cfdb a33d 048f abbd 5ee1 da3d f97e fdbd
00000140: 2448 1bbe 0548 a3bd 690f b4bc 163c 8d3d
00000150: 95d0 07bb 0e19 5abc 0869 543d 6730 4c3d
00000160: 1f4b 283e 6bb3 52be d117 f8bb c766 813d
00000170: 4a4b dcbd 46db 0d3d f804 8e3c 0707 7a3d
00000180: a863 553d 100f 8a3d 4143 9a3d 8bd8 a6bd
00000190: 7dd3 92bc f61d ef3d edb8 17bd 37f4 16bd
000001a0: cdbe 333d e4b2 013d 726a fb3d 0c86 bf3d
000001b0: c777 3ebd e69a 423d 86a8 183c 2fc6 13be
000001c0: 75e7 82bc 9f44 eabd 7e13 27bc eaae b63d
000001d0: 06a7 083d 3ecf e33d d233 a8bc ed52 e8bd
000001e0: 9677 203e db11 603d 88f5 74bd 81a0 e1bd
000001f0: 8b2e a03b c587 1abd 2540 e83d f562 0cbd
00000200: 1f7e c3bc 36a9 793d a49e 00be 1b19 3f3d
00000210: 638e 35bd c6a0 1c3c d060 10bd 88f7 d13c
00000220: 41ac 8a3d 9109 ecbc d678 683c 2368 983d
00000230: 2a69 2ebc a922 c83d 895d b63c 8d95 7e3a
00000240: f87b ebbd b2a5 98bd 2753 cebd 695e 733d
00000250: e707 2e3e 165a d33d aff6 87bd ca25 01bb
00000260: 30cc 853d 5063 07bb 7d92 f63d 0105 4cbe
00000270: 19d1 b83c 9761 71bd 5468 1b3e fc48 13be
00000280: 681f a0bb 43dc dd3b 7c86 e3bd 71da 0a3d
00000290: a9c7 853d 468b 723d 3a20 bd3d db75 0bbe
000002a0: 459b 40bd e4a1 b7bc 8a1d 4abd d308 a3bd
000002b0: 1d2b bd3d af57 fdbc 07fa d53d 21f6 07bd
000002c0: 295b 4dbc 6820 8abc 24e7 8ebb 2952 80bd
000002d0: 7520 c03b b57a 503c 7b04 c73d 2141 edbc
000002e0: 50cc fb3c d328 9e3a 6f70 90bd f167 113d
000002f0: 6739 df3c 36ce 3c3c 28db 3dbd 9894 d3bd
00000300: 33ef b23d 9c47 a2bd 195f acbc 9cde b6bc
00000310: 2c4b 81bd 6bb5 4abe 2d90 8d3d 5af1 58bd
00000320: 1e6b b03c acce 543d 37c9 853d 24fc 3c3c
00000330: 1011 bd3c e26c 75bd e563 aa3c a4af 1fbd
00000340: 2951 933d ad95 25be 3d75 043e a2cc a83d
00000350: 068c b1bd 89a7 b2bd a4bb 323d 1951 2abe
00000360: 5c48 79bd 60ec 473d 9dcf 073e 5e4c db3b
00000370: 070d ff3d ffe6 02bd 761d 95ba c3af d23c
00000380: 589c ea3c 36f4 8d3d 82b5 5a3c 6bec b9bc
00000390: 2842 1c3e 10a7 d63c 779a 013d 90c1 3f3e
000003a0: c751 56be 832e ee3d a40e bd3d 95b7 a7bd
000003b0: f717 2bbe 04b7 853d 2975 a63d 9c60 b63d
000003c0: e89d 623d 808d aa3d 87f4 e6bc e671 a2bd
000003d0: 7d40 db3d 0251 b33b f1bf f4bd cc6c c33c
000003e0: 5486 933c 0cb9 82bd 6fea c83d 85dd 4f3d
000003f0: 0c37 af3c 0245 ae3d 70e2 593d 7ce1 9ebd
-0.05444151 0.012864843 -0.10790204 0.27030054 -0.015699476 0.19837137 0.07823784 0.006371668
0.044125285 -0.15149014 -0.03734862 -0.004026496 0.15229885 -0.0629451 -0.00813014 -0.19195044
-0.06972039 0.168443 0.07196859 0.09712422 0.11272402 0.037219945 -0.023909848 0.01691278
-0.025395839 -0.07886649 0.0243353 0.15753041 0.27343893 0.15793829 -0.061742514 -0.14259121
-0.09623931 -0.14348249 0.08683233 0.0049527767 -0.071141206 0.13079098 0.02283752 -0.020392645
-0.065126956 0.010946927 -0.070766546 0.04792197 0.01792281 0.0020642297 -0.044672478 -0.024184456
0.035387293 0.002934406 0.021253314 0.16877528 -0.042447608 -0.10615203 0.025830634 -0.02111719
0.025983134 0.17535496 -0.032208234 -0.124989174 -0.015835153 0.084796935 -0.03484598 -0.10317528
-0.01718001 -0.018225182 0.08707223 -0.050510343 -0.018427223 -0.06937864 -0.04119049 0.0038914576
-0.036010128 0.03825264 -0.10980884 0.09008709 0.080009095 -0.083768874 0.10687517 -0.12377734
-0.15164238 -0.07972721 -0.021980004 0.06896226 -0.002072369 -0.013311638 0.051857978 0.049850848
0.16434906 -0.20576255 -0.0075711985 0.06318431 -0.10756548 0.034632944 0.017336354 0.061041858
0.052096993 0.06741154 0.07532359 -0.08146771 -0.017923111 0.116756365 -0.037041593 -0.036853995
0.043883134 0.031664744 0.12276162 0.09351739 -0.046500947 0.047511004 0.009317523 -0.1443107
-0.015979508 -0.1143887 -0.010197518 0.08920081 0.03336241 0.11123513 -0.020532522 -0.11343942
0.15670618 0.05470453 -0.05980447 -0.11016942 0.004888361 -0.037727136 0.113403596 -0.03427406
-0.02386385 0.060952388 -0.12560517 0.0466548 -0.044325244 0.009559816 -0.035248578 0.025630727
0.06771136 -0.028813155 0.014188966 0.074417375 -0.01064519 0.09772236 0.022261398 0.0009711616
-0.114982545 -0.07453479 -0.10074454 0.05941621 0.16995202 0.10319917 -0.06638848 -0.0019706362
0.06533086 -0.002065856 0.12039659 -0.19923784 0.022560643 -0.05893096 0.15176517 -0.1438331
-0.0048865564 0.006770642 -0.11109635 0.03389973 0.06532223 0.059214853 0.09234662 -0.13619177
-0.047023077 -0.022416063 -0.049344577 -0.079606675 0.09236739 -0.0309256 0.104480796 -0.03319371
-0.012533941 -0.016861156 -0.00436105 -0.06265671 0.005863244 0.012724568 0.097176515 -0.02896172
0.030737072 0.001206661 -0.07052695 0.035499517 0.027249051 0.011523774 -0.04635158 -0.103310764
0.0873703 -0.07923815 -0.02104144 -0.022322945 -0.06313166 -0.19795768 0.06912265 -0.052964546
0.021535452 0.05195491 0.06532519 0.011534724 0.023079425 -0.059918292 0.020799587 -0.038985863
0.071932144 -0.16170378 0.12935348 0.082421556 -0.086692855 -0.08723361 0.04363598 -0.16632499
-0.060860023 0.04880941 0.13262792 0.0066924533 0.12453657 -0.031958576 -0.0011376578 0.025718575
0.028639004 0.06931345 0.013348939 -0.02269574 0.15259612 0.026202708 0.03164145 0.18726182
-0.20929633 0.11629965 0.09231308 -0.08189312 -0.1670836 0.06529048 0.08127815 0.089051455
0.055326372 0.0832777 -0.028192772 -0.07931881 0.107056595 0.0054723034 -0.119506724 0.02385559
0.018008389 -0.06382951 0.0981034 0.050748367 0.021388553 0.08509256 0.053194463 -0.077578515

action_model._continuous_distribution.log_sigma f4 [1, 2]
00000000: 0000 0000 0000 0000
0.0 0.0

action_model._continuous_distribution.mu.weight f4 [2, 128]
00000000: f3ee d0ba b571 68bc 90d9 dcbb 5d12 a1bb
00000010: bb9d cd3c bf21 febb 6fb0 2fbc 12ca 1fbc
00000020: 5b7d 8fb9 76c8 243c bbda 9d3a 8174 3dbb
00000030: 500c e5bc 4a8d 823c afaf a0bc de65 083d
00000040: 6d0c 6d3c 5330 9fbb 9d59 bebb 1e20 aaba
00000050: 17c4 d73a 4ee4 193c 1700 4bbc 900c a7bc
00000060: f1c0 c6bb 0a99 563b 4bbb bb3c e9ed 01bd
00000070: 42f4 ff3c 1ff2 c43a a52c 8d3b b7e2 b1bc
00000080: c38d a2bc 8528 563c 7563 813c d401 30bc
00000090: 5278 ba3c 11ea 3f3c c0fc 6ebc cfdb 1d3c
000000a0: 29ed 88bb 13bb 77bc 909c 70b9 c581 dcbc
000000b0: fc7b cc3c 4ffc 7f3c 8ac7 433c abfa 953c
000000c0: 9d12 8fbc ac94 11bc 58dd 06bc 1783 8b3c
000000d0: 7d6d 803c 7844 27ba 48b9 36bd 8587 97bb
000000e0: de7c 113a 93f4 72bb b2a4 75bc 4b4a 033d
000000f0: 5b9b 42bc 92a3 93bc ca4a b7bc eb7e 43bb
00000100: 2daf 2b3c 3075 f6bb 435c 753b dac4 283a
00000110: 6d89 cebc 4397 fc3c 1d38 26bc afcd f03b
00000120: 4ef9 20bc 03e0 483c 49e3 84bc c7c6 3dbc
00000130: bf66 debb 90d9 2c3a 73e9 54bc e473 83bc
00000140: 17fa 503c f687 29bd 7e61 133c 1a4a 25bd
00000150: c850 973c 5eac 30bc 27f9 8d3b 5794 ebba
00000160: 1540 8b3b 7630 1bbc 50ec 51ba c06e b4bc
00000170: c019 a7bc fc3a 8d3c 2fb6 533c 6e5b 21bc
00000180: fb54 7dbc 5b1f aabc b34d a9bb 6b9f 413b
00000190: d05c eabb f278 31bc b3c5 bb3b bd7d d0bb
000001a0: c350 a23c 18e8 363a 5b68 0cbb 6860 893c
000001b0: 80c3 423c fd7b 603c 9d01 0abc 9df0 0d3b
000001c0: 4759 98bc eb8c 663c eba5 24bc 019d bfbb
000001d0: c0ce 513c a303 52bc 08ce c6bb e3f1 65bc
000001e0: 54dc 03bc 0076 98bb 11dc 2e3c db2a a3bc
000001f0: 42ae a0bc f810 0bbd 7a4c 983b 5e7d b4bc
00000200: 37d1 633c 7a57 e5bc ba72 b1ba 454c 3bba
00000210: d8eb 223c 07e2 883b 4385 dcbc af4e 6e3b
00000220: 88a6 d03b cfac 38bc f664 2bbc 3b48 b9bc
00000230: 339b 95bb 0d61 09bd fb66 94bb a4f1 1ebb
00000240: 8f19 183c 5a09 ef3c 0852 b13b 8a27 8b3b
00000250: d74b 71bc d9c0 973b e82d 07bb 5750 50bc
00000260: be3f 4a3c 039d d8bb bd6b 75bc 936d e1bb
00000270: fff3 9ebc 803e d1bc bb64 153c 1a5f d53c
00000280: 07ee 873c c236 95bb b552 aebc 10b3 d13c
00000290: 2c01 a03b 60fb 9a3b 8445 3dbd f52f 0f3c
000002a0: d40c 98bc 7080 5d3c 2cec c83c b318 713b
000002b0: a836 d83c bbf9 ddbb 3935 32bb 9b67 8f38
000002c0: 7f1a ffbc 60d6 523c 2f97 d63b 68cb c73b
000002d0: 0bbe 56ba 6211 193c 6ee6 a13b f310 023d
000002e0: 108a 203c 3d9b 0a3c 73fc 0ebd c00d 2d3c
000002f0: 8aa7 12bd 56c1 41bb 2bb9 d33c 6618 443c
00000300: ed96 febb 5d93 55bc cb7f 9dbc 8760 d6ba
00000310: 65ed ec3b e8a7 c63a 6307 7e3c 9fed b53b
00000320: d1cb 2fbc cb62 a5bc 475c 8bbc fe2f 233c
00000330: e3df acbb a345 d73b 35c6 26bc f25a 7abc
00000340: dd0d dc3a e110 24bc 3802 ad3c a1d4 1c3d
00000350: 9f99 103c 7dba 673b ecec aa3c 6c75 403c
00000360: d16a 47bb c283 28bb 143e 8e3c bb27 583c
00000370: 6642 babc a72c 813b 6449 3cbc c899 06bc
00000380: a3cc eabb 5dae 57bc 5b37 58bb 3b6a b2bb
00000390: aec9 883b c33e 3d3a 238d 95ba 7ddd 2e3b
000003a0: fa57 9e3c a5d2 cd3c 0a55 6e3c 4dbb 1e3c
000003b0: 276d f8bc c030 dd3c af0e 4bba 7b12 0b3c
000003c0: bf5e 74bc b098 713c 88ec 993c 6f70 22bd
000003d0: d0fe 3ebc 02e0 57bb 383c d039 8dd8 0fbc
000003e0: fb36 7d3c ca4f 733b 406d dabb f9e8 203c
000003f0: ab1f bcbb b92f 1f3d 65cc be3c 751a e03b
-0.0015940353 -0.014187266 -0.0067398027 -0.004915519 0.025099626 -0.0077554877 -0.010723217 -0.009752767
-0.00027368483 0.010057559 0.0012043336 -0.0028908553 -0.027959973 0.015936513 -0.019615022 0.033300273
0.014468295 -0.0048580556 -0.0058090226 -0.0012979542 0.0016461638 0.009392811 -0.012390158 -0.020391732
-0.006065481 0.0032745027 0.022916457 -0.03172103 0.0312444 0.0015025771 0.0043083006 -0.021714551
-0.019842988 0.013071184 0.015794495 -0.010742623 0.022762451 0.011713521 -0.0145866275 0.009634926
-0.0041786623 -0.015120286 -0.00022946508 -0.026917348 0.024961464 0.01562412 0.011949429 0.018308004
-0.01746493 -0.008885544 -0.008231483 0.017030282 0.015677208 -0.0006380747 -0.04461029 -0.0046243095
0.00055499177 -0.0037072047 -0.01499288 0.032053273 -0.01187786 -0.018022332 -0.02237453 -0.0029830288
0.010478777 -0.007521294 0.0037439025 0.00064380246 -0.025212014 0.030833846 -0.010145214 0.007348738
-0.009825064 0.01226044 -0.01622166 -0.011583037 -0.0067871506 0.00065936986 -0.012995112 -0.016046472
0.012754939 -0.041389428 0.008995412 -0.040353872 0.018471137 -0.010783283 0.00433268 -0.0017973286
0.0042495825 -0.009472003 -0.00080079306 -0.022025466 -0.02039802 0.01724004 0.012921854 -0.009848459
-0.015462155 -0.020766905 -0.005166733 0.0029544483 -0.0071521774 -0.010832058 0.0057303547 -0.0063626454
0.0198139 0.00069773337 -0.0021424505 0.016769603 0.011887431 0.013701436 -0.008423236 0.002165831
-0.018597258 0.014071683 -0.010049324 -0.0058475737 0.012805641 -0.01281825 -0.0060670413 -0.014034721
-0.008048136 -0.0046527386 0.010672585 -0.019917896 -0.019614343 -0.03395173 0.0046477886 -0.022032436
0.013904861 -0.027995814 -0.001353822 -0.0007144849 0.009943925 0.004177335 -0.026919013 0.0036362817
0.0063675083 -0.0112716695 -0.010461083 -0.02261745 -0.0045656203 -0.03353982 -0.004528878 -0.0024252916
0.009283437 0.029179264 0.00541139 0.004246657 -0.014727554 0.0046311435 -0.0020626727 -0.012714467
0.012344299 -0.006610514 -0.0149793 -0.0068795173 -0.019403456 -0.025542498 0.009118254 0.026046325
0.016592992 -0.004553647 -0.021279672 0.025598079 0.004882952 0.0047296733 -0.046208873 0.008739461
-0.018560804 0.013519391 0.024526678 0.0036788404 0.02639325 -0.006774155 -0.0027192368 6.8380694e-05
-0.031140564 0.012868494 0.006548784 0.006097246 -0.0008191771 0.009342523 0.0049407994 0.031754445
0.009798542 0.008459863 -0.034908723 0.01056236 -0.03580431 -0.00295647 0.02584513 0.011968708
-0.0077694566 -0.013035622 -0.019225975 -0.0016355672 0.007230448 0.0015156241 0.015504691 0.0055520083
-0.010729746 -0.02018871 -0.017011775 0.009960173 -0.005275713 0.0065695806 -0.010179092 -0.015280472
0.00167888 -0.01001379 0.021119222 0.038288716 0.008825689 0.0035358958 0.020864926 0.011746746
-0.0030428658 -0.00257133 0.017363586 0.013193066 -0.02273674 0.0039420906 -0.011492107 -0.008215375
-0.007165508 -0.01316413 -0.0032991979 -0.0054447926 0.0041744327 0.000721913 -0.001140986 0.002668231
0.01932906 0.025124857 0.014546642 0.009688211 -0.030325485 0.027000785 -0.00077460235 0.008488293
-0.014915167 0.014745876 0.018789545 -0.039658006 -0.011657432 -0.0032939916 0.00039717718 -0.008779657
0.015455003 0.0037126415 -0.0066658556 0.00982117 -0.00574108 0.03886387 0.023290822 0.0068390914

action_model._continuous_distribution.mu.bias f4 [2]
00000000: 0000 0000 0000 0000
0.0 0.0
