Lofty2024/results/MoveToPointNew/MoveToPoint.onnx (onnx, 82283 bytes, 6 tensors)

network_body._body_endoder.seq_layers.0.weight f4 [128, 12]
00000000: 3a4f dfbe becd 743e e21d ea3c 277e bcbe
00000010: caa9 a53e f4f0 16bc 37ad cebe a670 a5bd
00000020: 696c a53e a30e a8be 44cc c7bd 0bea 1abe
00000030: 40e5 59be 4c64 253e 4a70 203f cfb8 f33c
00000040: 39b4 ffbd f240 253d a346 c2be b27d aebd
00000050: 6026 a13d 2855 b43d 3500 853e 2315 04bb
00000060: a7b3 4dbd 474d e83d a520 40bf 658b 13be
00000070: 8959 4abe 0c4f 93be fab0 d5be cbfc a8be
00000080: 225e b8be ce81 d73d 01e6 7ebd 1386 663e
00000090: aea7 85be 7f60 1ebe fd94 343e f8ac 24bf
000000a0: 7184 203e 88ad 4ebe eadd 533e 9709 f73d
000000b0: 5f6a 56be 73c8 39be 491c 1b3e b412 963d
000000c0: f2ef 4d3e 4169 33be d1f1 a03e 4e17 833d
000000d0: 5f7a 06be 7f1d 80be 493d 513e 0c6f d9be
000000e0: b049 85bd 7a11 1d3e 0980 c8bd 236e c43d
000000f0: 9c56 13be 00ce 56bf e2bd b1be 13de 21be
00000100: 5065 09be 3f27 b4bd 61c7 6d3d 6617 5ebd
00000110: d011 fbbc 09c5 1cbe 422e e2bc cc15 5abe
00000120: ed3c 853e 76b6 b43e 1376 a1bc d920 ed3e
00000130: 54f3 d83d c2d4 17bf be14 3bbe 913c 46be
00000140: 4f21 d73e dc85 2cbe cd18 a43d a9d9 883e
00000150: 33b8 e53d 61c6 debe 8c9f 7cbe 9f86 133e
00000160: 2210 7e3e 18c1 79be 7620 7a3e 42e2 80be
00000170: 259c 4c3c 8bb5 32bd ebdd 593e 4e37 0a3f
00000180: 3447 bbbd 966d 8a3e 2a58 ad3e af9d 603e
00000190: e991 4d3d b631 983e 0edf b0be 0baa 15be
000001a0: 8145 17be 3c46 3fbd 82e5 7e3d be58 18be
000001b0: e9c9 913c 4f9a 31be 4c10 3c3e 8ffa d2bd
000001c0: 4fa1 b8be 23cc 563c 934f 0f3f 3e6f 91be
000001d0: 4206 a9be 07ad c8bd 30a8 eb3c 545c 183e
000001e0: 8236 623e 0bab ce3d 691c cbbe a390 a0be
000001f0: 357b 873d d7ba 063f 94ca e4be f43d 4a3e
00000200: 12b1 0dbe aea1 b4be 9c8f f13d a102 873e
00000210: 95d9 943e a443 bbbd d8ab 5e3e 003d 083d
00000220: 02b9 fabc 1bf9 853e 76f4 493e e6aa 38be
00000230: 2248 663d dd26 293e d637 10bf 5a63 b0be
00000240: c4fc 8d3e e46b 1e3e cfb6 bf3b eca4 8ebe
00000250: 62d3 a3be 22e2 1ebf 8b22 3a3e 7795 ab3d
00000260: 64ab a0be 5450 8d3d e7a6 45bd 3d5b 603e
00000270: ca11 c83c e4bc 373d 8f74 af3e f6c4 cdbe
00000280: 18bf 043e eba6 b83b 1068 19be 7d61 28bf
00000290: 3293 c1bd 03a6 b63d de6e 50be a836 5e3e
000002a0: 48f2 04bf 7670 15bf bbd0 8d3d 2ee6 763d
000002b0: 182a 113c dd78 1c3f 5ce8 473f 5c7c 46bd
000002c0: 801b 1abe f326 5abe fe9a 743e 8699 953e
000002d0: 23eb 4ebe 3e74 f33c 2c2c 5c3e 0b74 95bb
000002e0: ec20 cfbe 3ad4 72be c1ca 0c3f b094 98bd
000002f0: 62fc a2be 1d18 f63d cd81 a4be df3a 68be
00000300: 3a85 1b3e c0f8 873e b80b 8a3e 9f0c 043f
00000310: 54dd 113f 4794 5c3e 043e 87be 6d92 c7bc
00000320: f68d 9abe 3c64 783e 8187 833e 6bb2 db3e
00000330: ffb1 0dbe 19ea 523e f4af a4be 25c9 52be
00000340: 5f12 7f3e e4f0 473e a0a2 c03e fcd9 0bbd
00000350: aff6 d93e ec3b 84be ce5f b33e 174a f6bd
00000360: 6faf 2b3e c734 93bd 3df6 87be c43c 2ebc
00000370: b4ea 84be 91a9 883d ea5d 693e c338 0abe
00000380: 6fec 83be 56a4 923d 27a5 a93e 93a2 aa3e
00000390: 6481 22bf 2ce0 813e ca5d 0d3f 6377 f53e
000003a0: 7779 c63d 1a10 f53c aab2 203e 04ea 333e
000003b0: 5275 e4bc 6a0a 363e 0e52 d93e e79d 0f3e
000003c0: e590 5d3e 4c18 77be c024 d6be 0f0b 2ebe
000003d0: 38e2 fc3e bc96 e13e 8043 653d 4e7f 30bd
000003e0: 16fc 8cbd 8058 1d3e 8f4f 033e 9add 013a
000003f0: 8e5c 57be a614 26be 0be5 f83e 625c b03a
-0.43615133 0.2390661 0.028578702 -0.36814997 0.323561 -0.009212721 -0.40366527 -0.080781266
0.32309273 -0.32823667 -0.097557575 -0.15128343 -0.21278858 0.16151541 0.6267134 0.02975121
-0.124855466 0.04034514 -0.37944517 -0.08520068 0.078686476 0.08805305 0.2597672 -0.00201542
-0.050220158 0.113428645 -0.7504981 -0.14408644 -0.19760717 -0.28771245 -0.41736585 -0.33005366
-0.36009318 0.10522805 -0.062231068 0.22512083 -0.26104492 -0.15466498 0.1763496 -0.6432643
0.15675522 -0.20183384 0.20690122 0.12062376 -0.20939015 -0.18142872 0.15147509 0.07327786
0.20111063 -0.1752062 0.3143449 0.064009294 -0.13132618 -0.25022504 0.20433535 -0.42467535
-0.065081954 0.15338698 -0.09790046 0.095913194 -0.14388508 -0.8390808 -0.34715182 -0.15807371
-0.13417554 -0.08796548 0.05805147 -0.054221533 -0.030648142 -0.15309538 -0.027609948 -0.21297377
0.26023045 0.35295457 -0.019709622 0.46314123 0.10593286 -0.5930902 -0.18269631 -0.19359042
0.420176 -0.16847938 0.08012543 0.26728562 0.11216774 -0.43510726 -0.24670237 0.14406823
0.24810842 -0.24390066 0.24426445 -0.2517262 0.0124884 -0.043630164 0.21276061 0.5399064
-0.0914444 0.27036732 0.33856326 0.21935152 0.05018798 0.29725426 -0.34545177 -0.14615647
-0.14772607 -0.04669784 0.062230594 -0.14877602 0.017796474 -0.1734402 0.18365592 -0.103016965
-0.3606057 0.013110193 0.55980796 -0.28405184 -0.33012587 -0.09798627 0.028766721 0.1487897
0.22091106 0.100912176 -0.39670113 -0.3136035 0.06615297 0.52628845 -0.44685805 0.19750196
-0.13837078 -0.35279602 0.117949694 0.26369193 0.29072252 -0.09143761 0.2174524 0.0332613
-0.030605797 0.26166615 0.1972216 -0.18033943 0.056221135 0.16518731 -0.563352 -0.344508
0.27731907 0.15470845 0.00585065 -0.278602 -0.3199721 -0.620638 0.1817724 0.083781175
-0.3138076 0.06900087 -0.048254874 0.21909805 0.024422545 0.044857875 0.34268615 -0.40189332
0.12963521 0.0056351325 -0.14981103 -0.65773755 -0.094519034 0.08918383 -0.20354792 0.21700537
-0.5193219 -0.58374727 0.06924578 0.06027811 0.008860134 0.6112192 0.7808893 -0.048458442
-0.15049553 -0.2130392 0.2388725 0.29218692 -0.20206885 0.029718515 0.21501225 -0.0045609525
-0.40454805 -0.2371377 0.5499688 -0.07450235 -0.31833178 0.12016318 -0.3213028 -0.22678708
0.1518754 0.2655697 0.26962066 0.5158176 0.56978345 0.21540938 -0.26414502 -0.024361813
-0.30186433 0.24256986 0.2568932 0.4290956 -0.13837431 0.20597114 -0.32165492 -0.20584543
0.24909352 0.19525486 0.37624073 -0.034143433 0.42571017 -0.25826967 0.3503403 -0.1202585
0.16766141 -0.07187801 -0.26555052 -0.010634605 -0.25960314 0.06672967 0.22789732 -0.13498215
-0.25766322 0.07160251 0.33133814 0.3332716 -0.63478684 0.25366342 0.55221236 0.47942647
0.09691136 0.029914904 0.15693155 0.17569739 -0.027887974 0.1777741 0.42445415 0.14025079
0.21637304 -0.24130362 -0.41824913 -0.16996406 0.4939134 0.44060314 0.055972576 -0.043090157
-0.06884019 0.15365791 0.12823318 0.00049539807 -0.210314 -0.16218814 0.48612246 0.0013455267

network_body._body_endoder.seq_layers.0.bias f4 [128]
00000000: c462 c13d e448 2f3e df8f 143d 95c8 943c
00000010: 3d22 3bbd 5001 80bd bf54 f13d 71a6 16bd
00000020: 8661 a73d 7fd1 21bd eb74 153b b904 77bd
00000030: 380b e4bd c795 21bd 2b3c 8b3b ecc8 5f3a
00000040: 21c2 933d bfc8 223d 8236 053d 1e97 883d
00000050: ccb1 b0bc 7a50 24bd 9119 9e3b 7030 4dbc
00000060: 9b7a 0d3c cb9e 083d 6ce3 813d a138 18bd
00000070: 85ff 2b3d b5b1 033c 2f27 263d fae0 c5bd
00000080: c7e1 eebc 567b 70bd e533 283c 7113 89bd
00000090: bf8f 9c3d e5ab c73c 1c4c 2f3d 10ee 813d
000000a0: 5f4c 2bbb 4724 e8bd fce4 7b3c c7f1 a53c
000000b0: 2c47 4bbd f79d 97bd 7fe0 83bd a1c3 27bb
000000c0: a087 393d 7b62 f93c bbd8 2abc c2de e03c
000000d0: 1a7d 213b 7fe9 263d 156e d63d 472b b33d
000000e0: 422d 8abd 47cf fcbc 5ac2 f2bc b57d a73c
000000f0: f98b bcbb 75de 343d 0f13 113c 7949 9d3b
00000100: 9dd9 78bd 1e7e 8a3c 3e0e 793c 8701 183c
00000110: 0fe4 a9bc 6dc6 323d b9f3 cb3d bd8f 953d
00000120: 8b3e df3d 848d 55bd 20ca c23d e76e bc3b
00000130: 1d45 14bd 4c3a 94bb acf4 403d 0c06 1ebc
00000140: 1f68 783d cac5 e03d 3e30 60bd 6f54 5a3c
00000150: 1fd5 ba3c 4d92 063d 432a 0b3e 8417 aa3d
00000160: 7df7 88ba d13e dd3c b077 673d 9bce c23c
00000170: ab3d 8d3d 55cb 993c ce20 93bb ee0c adbd
00000180: e485 cc3c 05fb 8e3d fa5b bb3d 7a3e 653d
00000190: 2869 c03d 6088 653d b1b3 6f3d 19c9 a5bc
000001a0: 4039 023d bf97 843d fff6 bb3d b566 203d
000001b0: e208 1c3c 6be0 653d 7391 4e3d 3291 933d
000001c0: 9dae 493d 3fb5 2b3d 3861 073d ac95 f0bc
000001d0: b09f a63d 4613 9a3c 1490 023c 7846 533d
000001e0: 5b9b 503d d92d d0bc 0122 883d 9d1d 903d
000001f0: c8fa 003c a08a 0c3d e04c a13c f440 65bc
0.09442666 0.1711765 0.03627002 0.018162051 -0.04568695 -0.0625025 0.11783742 -0.036779825
0.08172898 -0.03950643 0.0022805284 -0.06030724 -0.11134952 -0.03944948 0.004249116 0.00085367146
0.072147615 0.039742228 0.032522686 0.06669448 -0.021569155 -0.04011581 0.004824825 -0.012523755
0.008635188 0.03335456 0.063422054 -0.03716338 0.04199173 0.008037974 0.040564712 -0.096620515
-0.029160393 -0.058711372 0.010266279 -0.06693161 0.07644605 0.024373958 0.042797193 0.06344235
-0.002613805 -0.11335044 0.015374418 0.02025689 -0.04962842 -0.07403176 -0.064393036 -0.0025598782
0.045295358 0.030442467 -0.010427649 0.02744997 0.0024641217 0.040750023 0.10470215 0.08748489
-0.067469135 -0.030860556 -0.02963369 0.020445684 -0.0057539907 0.044157464 0.008854642 0.0048000184
-0.060754407 0.01690584 0.0152011495 0.009277708 -0.02073863 0.043646265 0.09958596 0.073028065
0.10900601 -0.052136913 0.095112085 0.0057505253 -0.036198724 -0.004523551 0.047108337 -0.009644996
0.060646173 0.10975225 -0.054733507 0.013325795 0.022806702 0.032854367 0.1359034 0.083052665
-0.0010449734 0.027007492 0.056510627 0.023780158 0.06896528 0.018773714 -0.0044899946 -0.08449732
0.024966188 0.06981472 0.091484025 0.055967785 0.09395057 0.05603826 0.058520976 -0.020237492
0.03179288 0.06474256 0.0917797 0.03916045 0.009523602 0.056122225 0.05043168 0.07205428
0.04923879 0.041920897 0.0330517 -0.029368244 0.08135927 0.018808018 0.007968921 0.051580876
0.05092941 -0.025412487 0.06647111 0.07036898 0.007872291 0.03431189 0.019689977 -0.013992537

network_body._body_endoder.seq_layers.2.weight f4 [128, 128]
00000000: 17f3 a93d 191a 24be 8331 28bc 22c1 693d
00000010: 70dd 1fbd 55df 93bc 11b1 d73d a946 24bd
00000020: 80ec 43be 4931 b0bd f23d 0f3d f7a4 a0bb
00000030: d904 2fbd 6aa5 99bd 2c92 9bbd ae99 b93d
00000040: f7ac 57bd 756a 07be 2926 6c3d 05cd 58ba
00000050: 4759 a9bc 020a 963d 3a14 eabd 0831 223e
00000060: bdb2 16bc 172d 083d cdfc 28be 872b 68bd
00000070: 517a 25bd d10b 8b3c f916 80bd 6dbd 3dbb
00000080: 230b 393d eb69 a13b 98f1 ce3c fff5 9cbd
00000090: 7b3f b93d c43a 893d f4eb 81bc cb0e fd3d
000000a0: 8b6a 82bd d922 ab3c f4af 0e3e 48ab 9a3b
000000b0: c5d5 80bd 1040 be3c 4383 033e 4b06 3f3e
000000c0: e2dc 0e3d e3d5 0b3e f030 76bc c715 253e
000000d0: b710 e5bd 786e 793d e0b9 51bd 3e46 3fbd
000000e0: 8eb7 36bd a27e 6a3e e502 d8bd 74b9 053d
000000f0: 197a 293c 9154 063e 88de c83c 110c c1bd
00000100: 6437 2d3d 17fe 973a a2ec 06bd 97f6 e33d
00000110: 0ff5 103e d233 003e a0d8 1d3d 76e3 9c3d
00000120: 30c7 a63d 88be 4ebd 0b77 8cbd 135f d7bd
00000130: d93f a23c 3a1c 793d d2ac 573d dafe b6bc
00000140: dab9 e53d a022 bfbd 5f8b 09be 510f a83d
00000150: 5cf6 953d aa46 60bd 01e4 48be 3ba4 753d
00000160: 2863 293e d6b8 e5bd ee5e 91bc b74b 893d
00000170: 477d ecbb 1a63 ae3c 7ab5 94bd f1bf 6cbd
00000180: 71da f73c 8091 6abd 32a3 7bbd 7d77 bebd
00000190: 21da 34be 6de9 f03d 214c b2bc f09b bb3d
000001a0: a23c 26be 3074 1fbe c4ac 12be f3c5 fcbd
000001b0: 2127 bbbd 8427 823e 2e25 f13c 4ec3 0b3d
000001c0: c1a3 98bd 8b6c 96bd 0b8c f43d 199b 033e
000001d0: 57de e1bc 7657 ce3d c520 95bc bf5f 273d
000001e0: d27b 24bc 082d b8bd b393 69bc 0e52 49be
000001f0: 66bc 3dbd 5837 443d ccc6 59bd f1b8 0cbd
00000200: 99ea 03bc 39cd 94bd d088 1dbe baad 27bc
00000210: 74ab de3a 0a11 183d 721f ae3d ab34 c0bd
00000220: 1854 903d 8005 e9bc 96e4 4c3e d64a a2bc
00000230: bf19 2a3d 5dd8 14bd 3e79 c5bd 027f 11be
00000240: 30a4 d4bc b0dd b23c 9391 43bd 9c7a 69be
00000250: bbe5 023e 0cc4 1ebd 9fab 663d 97fe 98bc
00000260: 67ec bb3b 0341 10be d71d 71bd cfda 383d
00000270: fcc0 35bd ecaf ca3d 26e8 63bd 9568 793c
00000280: f3c4 1fbd 878e 4cbd fc5f 4f3d f45c 8fbd
00000290: 630f b7bd 96f5 3dbc 0076 143d 8fe5 debd
000002a0: 34a1 063d af44 c63d 600d cbbc 8d91 793d
000002b0: 1590 fa3c c828 98bc ac08 513e 3ba2 61bc
000002c0: c9e3 7e3d 82b6 5cbd ad83 ccba 8b69 7dbe
000002d0: 87b5 a5bc 29c5 27be 3a10 8bbc bba1 71bd
000002e0: 22db efbd e74e c53d 5b61 03be cc1a 253e
000002f0: d6f3 2a3d 2251 9fbd 75d0 58bc 3edf 013e
00000300: a696 2f3c 174f cf3d da86 cbbd 6ece 28bc
00000310: 831b 93bd e0f9 36be c6d3 42be f22b 92bd
00000320: b902 febc 8a7f d7bd 1a25 283e 20b5 4bbe
00000330: 80f1 cd3c e96c ddbd 451d 7ebc f59b 5bbd
00000340: 0407 16be 9892 5ebe b0e7 0ebe 6bca 22bd
00000350: 0f1b 1ebe f084 2c3e 51cb ecbc b5d9 9cbc
00000360: e458 adbd 7091 413d 3b1a cabd 9101 e23d
00000370: 46d2 13be 0180 223e 3f71 3a3d 1433 103e
00000380: de7e 8ebd 553a 413d 234a de3c b0fa 103d
00000390: 7af6 55be fd22 f1bb 9025 9c3d be0f 513e
000003a0: a888 26bd c7c0 5bbe 9551 e7bc b78a 3b3e
000003b0: 3305 9c3d 01c8 5d3c f873 eebd 18a2 c13c
000003c0: b0c0 fa3c 8e67 8e3c 2d58 513d 225c 67bd
000003d0: 13b9 b5bd cee6 3dbe edc5 4b3c a283 743e
000003e0: 4959 10be 2d98 b7bd 7ea1 3fbd 1810 8e3d
000003f0: 361b 73bd a869 19bd a084 363d 3bc8 5e3d
0.08298319 -0.1602558 -0.010265711 0.05706895 -0.03902954 -0.018050829 0.105318196 -0.04010645
-0.19133186 -0.086031504 0.034971185 -0.004902478 -0.042729232 -0.07502253 -0.075962394 0.09062515
-0.052655187 -0.13224204 0.05765358 -0.00082702964 -0.020672454 0.073261276 -0.11429639 0.15839016
-0.009197888 0.033246126 -0.16502686 -0.056682136 -0.040399853 0.016973408 -0.06254382 -0.0028952018
0.045176636 0.0049259565 0.025261685 -0.076641075 0.09045311 0.06700662 -0.015859582 0.12356337
-0.06367978 0.02089064 0.13934308 0.0047201253 -0.06290773 0.023223907 0.12843041 0.18654744
0.03487862 0.1365581 -0.015026316 0.16121589 -0.11184829 0.060896367 -0.051202655 -0.046697848
-0.044608645 0.22899869 -0.10547427 0.032647565 0.010344052 0.13118197 0.024520174 -0.094261296
0.042289153 0.001159611 -0.032940514 0.11131018 0.14155982 0.12519768 0.038536668 0.07660572
0.08143461 -0.050474674 -0.06858643 -0.10516181 0.019805836 0.060817935 0.05265505 -0.02233832
0.11217089 -0.09332776 -0.13432072 0.082060464 0.0732238 -0.05475489 -0.19618227 0.059971076
0.16541731 -0.11216895 -0.017745461 0.067038946 -0.0072170827 0.02128749 -0.072611764 -0.057800237
0.030255528 -0.057267666 -0.061434932 -0.09300134 -0.17661335 0.117632724 -0.021764817 0.09160602
-0.16234067 -0.15571666 -0.14323717 -0.12342443 -0.091383226 0.25420773 0.029436674 0.034121804
-0.074531086 -0.07344922 0.119407736 0.12852134 -0.02757184 0.100752756 -0.018204102 0.040862795
-0.010039287 -0.08992964 -0.014256406 -0.19660208 -0.04632225 0.047904342 -0.053168103 -0.03435606
-0.008051538 -0.072657056 -0.15384221 -0.010234291 0.0016988353 0.037125625 0.085020915 -0.093850456
0.070472896 -0.028445005 0.20009074 -0.019811075 0.04152846 -0.036339153 -0.09642266 -0.14208606
-0.025957197 0.021834224 -0.047746252 -0.22800678 0.12782948 -0.038761184 0.056316014 -0.018676085
0.0057349685 -0.140873 -0.058866348 0.045130547 -0.044373497 0.09896836 -0.055641316 0.015222688
-0.039006185 -0.049940612 0.050628647 -0.07000151 -0.08938482 -0.011594197 0.036245346 -0.108836286
0.03286858 0.09681069 -0.024786651 0.060929824 0.030586282 -0.018574134 0.20413464 -0.013771589
0.06222895 -0.05388499 -0.0015603207 -0.24747293 -0.02022816 -0.16383804 -0.01697551 -0.05899213
-0.11711718 0.0963419 -0.12830107 0.16123503 0.041736446 -0.07779147 -0.013233294 0.12682816
0.01071707 0.10122507 -0.0993783 -0.010303123 -0.07182982 -0.17868757 -0.19026098 -0.07137288
-0.031007158 -0.10522373 0.16420403 -0.19893312 0.02513957 -0.108117886 -0.015509908 -0.05361553
-0.14651114 -0.21735609 -0.1395557 -0.039743822 -0.1544001 0.16847587 -0.028905543 -0.01914678
-0.0846422 0.04725784 -0.09868284 0.11035455 -0.14435682 0.15869142 0.045518156 0.14081985
-0.06957792 0.04717477 0.02713496 0.035395324 -0.20894805 -0.0073589073 0.07624352 0.20416161
-0.04065767 -0.21460257 -0.028237144 0.18314634 0.07618179 0.013536454 -0.11643213 0.023636863
0.030609459 0.017383363 0.05110948 -0.05648435 -0.08873191 -0.18545076 0.012437326 0.23878339
-0.1409656 -0.08964572 -0.04678487 0.069366634 -0.059352122 -0.037454277 0.044560075 0.054390173

network_body._body_endoder.seq_layers.2.bias f4 [128]
00000000: 494a 8cbc 4cb3 07bb 5f43 c5bc d64f 273d
00000010: a6a4 d73c 4987 13bd 5db0 5a3c b806 8dbc
00000020: a164 93bc 3954 d03c 7372 0cbb c012 85bc
00000030: 1991 873c 1f81 8c3a e846 0e3c 91a3 1a3d
00000040: 0675 9b3d b4c6 793d 6cee f6bc e748 283d
00000050: 05a6 153d b463 4dbb 5b26 853c 3336 00bd
00000060: 7d71 eabc 1063 afbc 6dc1 f6bc bc2d d73c
00000070: eadb 0dbc 1ca4 afbb a850 a63a 534d 0abd
00000080: 18dd bf3b 8371 b0bc f4ed 7b3c 3188 d0bc
00000090: 8382 98bc dae2 14bc cdc9 9b3c c97c b83c
000000a0: cba6 a4bc 7bb9 05bd f42f acbc 3d13 543c
000000b0: 7533 253c e6f2 2abb d490 013d 0671 34bb
000000c0: 9511 053c 0f75 d33b facb 1bbc 2c8b dbbc
000000d0: 59f6 5b3d c6a7 53bd 96aa 76ba 2dd0 0bbd
000000e0: deaa debc ab8f 87bc 5ec7 f0bc bb46 833d
000000f0: 1db0 f1bc 4eb9 08bd 635d b4bc 0e34 17bc
00000100: ce46 bdbb 6506 bfbc d066 2c3d eb63 ff3b
00000110: 14c6 183d 1291 84bc 8183 08bd 799f 59bc
00000120: d808 62bc ac70 633d 137a cbbc 66be 5a3c
00000130: 861c c13a 61e3 eebb 3c4b ba3c 044e 8f3d
00000140: c44b 39bc 8afe 2d3d 2f12 cbbb 8b3e 08bc
00000150: a8e0 143d c180 efbc 756e 603d f4a8 e0bc
00000160: a291 823b 4ebb 8c3c 471e 283c 53f9 c9bb
00000170: e7df 733d 64da e83a fde8 43bc 1474 7dbc
00000180: 0cac 4d3b 4058 e23c a2df d9bc 32ad d9bc
00000190: b79c 083d 0cb9 4abd d05f 093d e9e5 d6bc
000001a0: 75ba 1cbd 9ec1 c5ba 8734 c73d 91cf 2cbd
000001b0: 4ad1 ebbc 432a 823b e4e9 3dbc 5561 a23c
000001c0: 4599 83bc 1542 033d b439 81bc 3e2c 1d3d
000001d0: aa57 963d f922 913d d435 7bb8 5f79 913c
000001e0: 3fd1 aebb 9a38 80bb 28d7 f7bb 915e 6c3c
000001f0: bf7f babc e16b 9fbc 21ce ceb9 4205 91bc
-0.017125266 -0.0020706234 -0.024079977 0.04084762 0.026323628 -0.03601769 0.013347712 -0.017215118
-0.01799232 0.025430785 -0.0021430522 -0.016244292 0.01654868 0.0010719633 0.008683898 0.037753645
0.0759068 0.060980514 -0.030142985 0.04108515 0.03653528 -0.0031339945 0.01625364 -0.03130169
-0.028618569 -0.021409541 -0.03012153 0.026266925 -0.008658389 -0.0053601395 0.0012688832 -0.03376515
0.005855214 -0.021538502 0.015376557 -0.025455566 -0.01861692 -0.009087289 0.019017125 0.02252044
-0.020099064 -0.03264759 -0.02101896 0.01294404 0.010083069 -0.002608472 0.03163226 -0.0027533188
0.008121868 0.0064531635 -0.009509081 -0.02679976 0.053701732 -0.051673673 -0.00094095746 -0.03413408
-0.027181085 -0.016547998 -0.02939194 0.06409975 -0.029502923 -0.033379845 -0.022017187 -0.009228719
-0.005776263 -0.023318479 0.042090237 0.0077938936 0.037298277 -0.016182456 -0.033328537 -0.01328265
-0.013796054 0.055527374 -0.024838483 0.013351059 0.0014733232 -0.0072902893 0.022740953 0.06997302
-0.011309568 0.042479075 -0.006197236 -0.008315693 0.03634706 -0.0292362 0.05479284 -0.027424313
0.003984646 0.017179158 0.010261125 -0.006163755 0.0595397 0.0017765281 -0.011957404 -0.01546957
0.0031383066 0.027629972 -0.026595894 -0.026571844 0.03335258 -0.04949288 0.03353864 -0.026232677
-0.038263757 -0.001508761 0.09726816 -0.04219014 -0.02878632 0.003972323 -0.011591408 0.019821802
-0.016064296 0.032045443 -0.015774585 0.03837227 0.07340939 0.07086749 -5.9893195e-05 0.01775807
-0.0053350027 -0.0039129974 -0.0075634904 0.014426843 -0.022765992 -0.01946062 -0.0003944496 -0.017702702

action_model._discrete_distribution.branches.0.weight f4 [9, 128]
00000000: 8fc7 da3b 6ae9 9fba 34a7 1bbc ff80 eaba
00000010: b770 113b 0f2c 3b3b 5fe3 dabc 72bd 583b
00000020: 703c ffba 4b77 333a c289 533c 3762 b5bb
00000030: b787 543c 4051 5d3b afd0 fbb9 2244 17bc
00000040: 23ef eeb5 f9c9 1ab9 bdd4 20bb 7277 243b
00000050: f287 85bc c34c 14bb 6ba2 d4ba 5fde 5639
00000060: e9dd b73b 9bc2 793c c26f 9b3b ff05 963b
00000070: 30b5 1fbb e90a 07bc 1f7e 8eba 8bc4 993c
00000080: 7556 e43b 634c de3b 67af 53bc 2321 19bb
00000090: 672d 2b3b 753d f53c d57e 9bb9 ae60 aa3b
000000a0: 0a99 9d3b f89a e5bb 295b 283c 1b17 c9ba
000000b0: c550 1f3c d9f9 b4bb eb16 1e3c f5d3 92bb
000000c0: 4a72 193a ce7d 83bb 5ba8 cd3c 538c 12bb
000000d0: 2548 be3a 0ce3 353c cf78 1ebb dcf8 2e3a
000000e0: eb06 d43b 58a5 263c c8a8 15bc 579d 7d3c
000000f0: 9b3e 8dbc c873 70bc 38aa 523b 0bb4 bdba
00000100: 8c0e 9639 0215 b0bb 1722 293c 339e e93b
00000110: dd6b fabb f938 a3bb 3a15 54ba 6220 5138
00000120: f81f 87bb fe0d 2fbc 49a5 12bc 89ec 36bc
00000130: 2814 e73a b369 f53b e2f8 c83c a803 dbbb
00000140: bad9 6f3c 857b 0b3c 634f 07bc d3a3 fbbb
00000150: 9578 563a ea16 533c 0c45 c0bc d747 b03a
00000160: c320 103b dfa4 0d3c 0c29 bbba 5d6c 0abc
00000170: 6eca ac3b dd45 483c ca31 533c 40b1 4f3c
00000180: 224f 013c 2716 4f3c 3bc9 a8bc 7bfe fc3a
00000190: 8b90 debb 2fd3 1cbc 17e6 98bb b8bf 593c
000001a0: 0a5e 2f3a cfbd f6ba 36b3 bd3a 97d2 4dbb
000001b0: 2f16 62bb 0c69 38bb 94ba c63b 533a c93a
000001c0: b742 8b3a e1a2 a23c efe0 f23b 495f a93c
000001d0: ba22 653c dfbd 07bc ae54 bd3b df48 b93b
000001e0: 61c8 33bc cdee 6b3b fb5a 863a 166d 9b3c
000001f0: 8fff 29bc f6cd 17bb 27fe 02bc 77e9 dc3b
00000200: 055f db3a c73f 6139 77b5 793c 4f4b 9c3c
00000210: 6596 42bc 07c9 0bbd d266 7bba a868 d73b
00000220: bae3 2cbc bfc6 cbba ff68 bc3b 97e4 0abb
00000230: 35fd e63a bacd 5b3c 7f37 393b b91a 063c
00000240: cb8e 8c3b 5523 2c3c 86d1 223c 5c2b 2dbb
00000250: 1db6 8f3a e78f d6bb 3bf8 703b 6e73 383b
00000260: c742 e4ba 8336 acbb 636f 223b c794 883b
00000270: f525 d43b 4f64 25ba a745 3f3b 2795 b13b
00000280: b761 843b c748 45bb 85a2 f73b effa e9b9
00000290: cb1c 2fbb ab99 263c 58c4 91bb 5d22 4c3c
000002a0: f7d1 6c3b a806 f73b fbce 19bb d32f 4a3c
000002b0: 2f0d 853c decf a5bb 5892 07bc 6887 e1bb
000002c0: 8b74 24bb 877b 6abc d099 ca3c 72dc 0abb
000002d0: 3580 793b 7ef2 a3ba 5395 26bc d1d8 243a
000002e0: 7a5e 2d3c 6629 c5ba 16ae 2f3c 27c6 5b3c
000002f0: c742 dabb 85d8 043c f8c4 193c 2f23 b33b
00000300: 3723 99bb 0799 5cbc b62e c83b dcd7 133c
00000310: e752 69bb dd14 983b 1269 13bc 8f75 2abb
00000320: 5012 27bc 18be b8bc a267 c9bb ad10 e73a
00000330: 17f5 a7b9 6be0 923b c70a 16bc 0d00 fbbb
00000340: 898a 4bbc f8ff e53b cb5f 633b d7a6 15bc
00000350: db99 fcbb a508 05bc 68ea 8e3c b2bf 7fbb
00000360: ff41 b13a bffe 36bc e74c 463c 82ad 2ebc
00000370: 6d86 1c3c 20e6 1d3c 5fe9 8fb9 7166 35bc
00000380: 4b75 b13b 42fd ff3b 9bc2 473c d1c7 43bb
00000390: 7dc7 01bc 6b81 52bb 2a49 8e3b 9385 3e3c
000003a0: 91cb 8abc cfe7 293b 4b87 7a3b 5148 393c
000003b0: 7d5d ecba cd5f 60bb aeeb af3b c8d1 4cbb
000003c0: 660e 12bc 8534 383b 8bdb f6ba e022 5d3b
000003d0: c668 433b 9ebb 8abb a20b bbb9 087f 43bc
000003e0: 69a1 06bc 8014 793b 20db 86bb 57dd 5cbb
000003f0: bf23 11bb 9217 f6bb aa2e 5339 abaf 92bb
0.0066766213 -0.00122003 -0.009500314 -0.0017891227 0.0022192427 0.0028560197 -0.026719747 0.0033071903
-0.0019472968 0.0006846084 0.012911262 -0.0055353898 0.01297181 0.0033770353 -0.00048029932 -0.009232553
-1.780198e-06 -0.00014761825 -0.0024540864 0.002509561 -0.016300175 -0.0022628761 -0.0016222721 0.0002049147
0.0056111705 0.015244151 0.004743547 0.0045783515 -0.002436947 -0.008242347 -0.0010871327 0.018770477
0.0069683143 0.0067840084 -0.012920237 -0.0023365698 0.0026119591 0.029936532 -0.000296584 0.0051995134
0.0048095034 -0.007006999 0.0102756405 -0.0015341969 0.009723847 -0.005522948 0.009649019 -0.0044808337
0.0005853517 -0.0040128 0.025104692 -0.0022361472 0.001451735 0.0111014955 -0.0024180894 0.0006674656
0.0064705512 0.010171257 -0.009134479 0.015479407 -0.017241767 -0.014676042 0.0032144915 -0.0014473213
0.00028621068 -0.005373598 0.010323069 0.0071294545 -0.007642253 -0.004981157 -0.0008090321 4.9859642e-05
-0.004123684 -0.010684488 -0.00895054 -0.011164793 0.0017629908 0.007489407 0.02453274 -0.0066837855
0.014639312 0.008513336 -0.008258673 -0.0076794415 0.000818142 0.012883881 -0.023470424 0.0013449144
0.0021992184 0.008645265 -0.0014279201 -0.008448687 0.005273155 0.012223688 0.012890289 0.012676537
0.007892402 0.012639559 -0.020603767 0.0019301915 -0.006792133 -0.0095718345 -0.0046661007 0.013290338
0.0006689733 -0.0018824878 0.0014472965 -0.003140604 -0.0034498086 -0.0028138785 0.0060647223 0.0015352465
0.0010624741 0.019853057 0.007412068 0.020675318 0.01398533 -0.008285015 0.005777917 0.005654439
-0.010973067 0.003600049 0.0010250503 0.018972915 -0.010375871 -0.0023163534 -0.007995165 0.0067416984
0.0016736692 0.00021481431 0.0152410185 0.019078879 -0.011876677 -0.03412726 -0.00095902116 0.0065737553
-0.010552341 -0.0015546902 0.005749821 -0.002119338 0.0017623069 0.013415748 0.0028261838 0.008185082
0.004289483 0.010506471 0.00993765 -0.002642355 0.0010964308 -0.006547916 0.003676905 0.0028144973
-0.0017414921 -0.0052555217 0.002478563 0.0041681263 0.0064742514 -0.00063091976 0.0029185803 0.0054193917
0.004039969 -0.0030103193 0.0075572156 -0.00044628183 -0.0026720043 0.010168473 -0.004448455 0.012459365
0.003613589 0.0075386353 -0.0023469317 0.012340504 0.016241638 -0.00506018 -0.008274637 -0.0068825968
-0.002509388 -0.014311678 0.024731547 -0.0021188525 0.0038070802 -0.0012508181 -0.010167438 0.00062884117
0.010581607 -0.0015042245 0.010722658 0.013413942 -0.0066607925 0.008108263 0.00938534 0.0054668407
-0.0046733874 -0.013464219 0.006109084 0.009023633 -0.0035602392 0.004641159 -0.008997219 -0.0026010012
-0.010197237 -0.022551581 -0.006146387 0.0017628871 -0.00032035328 0.004482319 -0.009157843 -0.007659918
-0.012423166 0.0070190392 0.0034694548 -0.009134016 -0.0077087707 -0.008119737 0.017445758 -0.0039024171
0.0013523697 -0.011169135 0.012103296 -0.010661485 0.009553534 0.009637386 -0.0002744896 -0.011071787
0.0054155937 0.007812173 0.012192394 -0.0029873739 -0.007921097 -0.0032120596 0.004342218 0.011628526
-0.016942771 0.0025925522 0.0038227614 0.0113087455 -0.0018033233 -0.003423679 0.0053686714 -0.003125297
-0.008914566 0.0028107476 -0.001883374 0.003374271 0.0029817089 -0.0042337915 -0.00035676087 -0.011932142
-0.008217194 0.0038006604 -0.004115477 -0.0033701265 -0.002214655 -0.007510134 0.00020139912 -0.0044765077

action_model._discrete_distribution.branches.0.bias f4 [9]
00000000: 0000 0000 0000 0000 0000 0000 0000 0000
00000010: 0000 0000 1458 253b aed5 12bd 9d18 503d
00000020: 3e94 0dbd
0.0 0.0 0.0 0.0 0.0 0.00252295 -0.035848312 0.050804723
-0.034565203
