Lofty2024/results/EnemyAI/MoveToPlayer/checkpoint.pt (torch, 445410 bytes, 39 tensors)

network_body._body_endoder.seq_layers.0.weight f4 [128, 6]
-0.15735306 0.38269916 -0.37733743 0.924687 0.4340566 -0.6995224 0.14973421 -0.03570741
-0.008156025 0.34330425 -0.21337365 0.5805557 -0.40762722 -0.51464033 -0.14201462 0.41529378
-0.51161903 0.1641342 0.003749383 0.2602522 0.18128617 -0.20644006 -0.14402588 0.09283364
-0.28874633 0.47987023 -0.1911871 -0.18047853 0.37912813 0.11474254 0.5692781 -0.563632
-0.9837185 0.28520405 0.5511874 0.25896367 0.0998509 -0.21497342 -0.11817185 -0.43127075
0.28687504 -0.040649388 0.37826544 -0.10775859 0.11435955 -0.25486863 0.18381704 -0.30717477
0.6691025 -0.4529837 0.70702446 0.17383213 0.20876516 0.7863505 0.54352486 -0.07972541
-0.26642808 0.12091189 -0.31580204 -0.9506194 0.97123355 0.01346858 -0.040078778 -0.82186925
0.5638954 0.21755217 0.31872067 -0.6217175 -0.35107234 0.22728355 -0.41230884 -0.5564558
-0.2498177 -0.46338663 0.8289114 -0.19676313 0.14986956 -0.6375646 0.08239159 1.4446015
-0.39402378 -0.23819861 -0.11376385 0.34311184 0.3361706 -1.1909118 0.034918673 -0.022188276
-0.41097075 -0.69519067 -0.26430434 0.19658683 -0.005901471 0.04393437 -0.30409214 -0.52773094
0.17863886 -0.3029729 -0.060399145 0.47735703 -0.21919097 0.438768 -0.04340701 -0.41576952
0.46801427 -0.18764405 -0.39963937 0.35424215 0.14571767 -0.10897634 -0.16905136 0.66717464
0.13081102 0.10627288 -0.6972167 -0.26366514 -0.6738401 0.22743982 0.39798716 -0.39899793
0.057568483 0.29268038 -0.21120848 -0.036623113 0.021697156 -0.11322316 -0.095746495 -0.21509713
0.16800669 0.2951629 -0.3998625 0.054619186 -0.16655901 0.10562585 -0.25420544 -0.18314178
1.0332255 -0.4172823 0.50249696 -0.76076734 -0.02084379 -0.18140304 -0.41875714 -0.27455506
0.26162043 0.71025366 -0.17017606 -0.10696153 -0.30231693 0.33369866 0.2502927 0.3439727
0.36673674 -0.34208515 0.014416037 0.14741996 -0.28102618 -0.18242525 0.8305366 -0.2987893
0.023760984 -0.6557034 0.6774586 -0.03411306 0.42132694 0.4221478 -0.17860633 0.14438234
-0.5207637 -0.22055525 0.4457913 0.23025152 -0.7257261 -0.6935736 -0.3453843 0.11652091
-0.17468067 0.21752776 0.48132807 0.47185746 -0.18529306 0.74450296 -0.5925399 -0.8767086
-0.095963135 1.0083734 -0.3303778 -0.020757506 -0.16647841 0.6553434 -0.5394517 0.2532452
-0.54734 -0.19419897 -0.15783298 -0.36694515 -0.4267805 0.27418134 0.45324785 -0.27983397
-0.7086585 0.39389578 -0.4871714 -0.30771866 0.7262487 0.0024582674 0.30990487 -0.10834924
0.08047275 -0.30737007 -0.26508668 0.27909642 -0.18877488 0.62743336 -1.0692629 0.22673915
0.13135308 1.5817541 0.24515428 -0.32373902 -0.04909212 0.08601502 -0.4226237 -0.8090408
0.22228265 0.2162985 -0.022003274 -0.33479607 0.4324121 0.3560359 0.0410311 0.16482332
-0.11514594 -0.14638719 0.4183348 -0.00294023 0.05433325 0.35941374 -0.32022628 -0.21589722
-0.24901557 -0.29809067 -0.07310878 0.49072304 0.14089161 0.4811919 0.7080911 -0.282162
0.23060015 0.21789648 0.16533537 0.050795227 -0.26557866 -0.18237424 0.18519437 -0.11208399
00000000: 2921 21be 25f1 c33e 5f32 c1be 4ab8 6c3f
00000010: ab3c de3e e613 33bf ed53 193e ef41 12bd
00000020: d9a0 05bc 93c5 af3e 9f7e 5abe 4c9f 143f
00000030: 84b4 d0be 78bf 03bf 486c 11be 63a1 d43e
00000040: 77f9 02bf cc12 283e 35b8 753b c73f 853e
00000050: 15a3 393e 0665 53be 857b 13be 901f be3d
00000060: 8fd6 93be 8db1 f53e 8dc6 43be 5dcf 38be
00000070: 151d c23e 23fe ea3d 36bc 113f 304a 10bf
00000080: fad4 7bbf 4406 923e 9e1a 0d3f e396 843e
00000090: a17e cc3d fe21 5cbe 1504 f2bd 85cf dcbe
000000a0: 49e1 923e f97f 26bd 02ac c13e 89b0 dcbd
000000b0: 5735 ea3d 247e 82be 893a 3c3e 0346 9dbe
000000c0: 4d4a 2b3f 7bed e7be 8eff 343f 0d01 323e
000000d0: 89c6 553e 444e 493f 7224 0b3f 1347 a3bd
000000e0: 4369 88be a7a0 f73d ceb0 a1be cb5b 73bf
000000f0: c3a2 783f 52ab 5c3c a529 24bd 0666 52bf
00000100: 735b 103f ffc5 5e3e 5b2f a33e e128 1fbf
00000110: c1bf b3be 05bd 683e 251a d3be e373 0ebf
00000120: 36d0 7fbe 0341 edbe 8a33 543f 467c 49be
00000130: 6877 193e 6f37 23bf ecbc a83d b4e8 b83f
00000140: 7cbd c9be 56ea 73be 05fd e8bd 5bac af3e
00000150: 8e1e ac3e cc6f 98bf e206 0f3d 30c4 b5bc
00000160: c26a d2be 04f8 31bf e652 87be 0f4e 493e
00000170: 2061 c1bb 87f4 333d f7b1 9bbe 6019 07bf
00000180: 1bed 363e 441f 9bbe 1865 77bd 2468 f43e
00000190: 9973 60be 33a6 e03e 8dcb 31bd bedf d4be
000001a0: 919f ef3e c325 40be 889d ccbe 3a5f b53e
000001b0: 0337 153e fd2e dfbd cd1b 2dbe f5cb 2a3f
000001c0: 53f3 053e 99a5 d93d cb7c 32bf 1eff 86be
000001d0: c980 2cbf fce5 683e f9c4 cb3e 7549 ccbe
000001e0: eecc 6b3d 34da 953e 0947 58be 1e02 16bd
000001f0: 3cbe b13c 8be1 e7bd bd16 c4bd 6c42 5cbe
00000200: f209 2c3e 971f 973e c7ba ccbe 5eb8 5f3d
00000210: 728e 2abe 5e52 d83d 3727 82be 8589 3bbe
00000220: bc40 843f 07a6 d5be a4a3 003f a6c1 42bf
00000230: 99c0 aabc b8c1 39be 5667 d6be 7b92 8cbe
00000240: 1df3 853e 2fd3 353f a242 2ebe a60e dbbd
00000250: 49c9 9abe 8dda aa3e 5d26 803e 311d b03e
00000260: ebc4 bb3e c925 afbe 3e31 6c3c 42f5 163e
00000270: aae2 8fbe afcd 3abe 0c9e 543f e9fa 98be
00000280: 65a6 c23c 2edc 27bf ed6d 2d3f 23ba 0bbd
00000290: 2ab8 d73e c223 d83e 94e4 36be f7d8 133e
000002a0: c550 05bf 3cd9 61be c23e e43e 0ec7 6b3e
000002b0: 30c9 39bf 0a8e 31bf 36d6 b0be 84a2 ee3d
000002c0: 7ddf 32be 99bf 5e3e a270 f63e 4d97 f13e
000002d0: 77bd 3dbe bf97 3e3f b2b0 17bf fa6f 60bf
000002e0: 5288 c4bd 6112 813f 4727 a9be a50b aabc
000002f0: 5179 2abe 96c4 273f 8219 0abf 5ba9 813e
00000300: 791e 0cbf 18dc 46be f89e 21be 3ce0 bbbe
00000310: f982 dabe 7f61 8c3e 1a10 e83e 6646 8fbe
00000320: a56a 35bf b5ac c93e 886e f9be 4d8d 9dbe
00000330: 6feb 393f e21a 213b daab 9e3e 35e6 ddbd
00000340: e6ce a43d 9c5f 9dbe 71b9 87be bae5 8e3e
00000350: 344e 41be 799f 203f 9bdd 88bf 4f2e 683e
00000360: 6c81 063e eb76 ca3f b909 7b3e 1fc1 a5be
00000370: d214 49bd a528 b03d 2262 d8be 4c1d 4fbf
00000380: 109e 633e 5b7d 5d3e 3640 b4bc 646a abbe
00000390: 1e65 dd3e 564a b63e 3a10 283d 72c7 283e
000003a0: a2d1 ebbd 86e6 15be fb2f d63e e0b0 40bb
000003b0: 8b8c 5e3d 1405 b83e b3f4 a3be 2914 5dbe
000003c0: f0fd 7ebe 579f 98be 0eba 95bd 0d40 fb3e
000003d0: e445 103e c95e f63e 7545 353f 8a77 90be
000003e0: 7222 6c3e 4120 5f3e ad4d 293e a80e 503d
000003f0: edf9 87be 50c0 3abe 98a3 3d3e 4a8c e5bd

network_body._body_endoder.seq_layers.0.bias f4 [128]
8.15576e-05 0.0018602501 0.00053270423 -0.000502028 0.00058760965 0.0010046649 0.0016675805 0.0027044462
-0.0012299792 0.0029505584 -0.0016185878 -0.00048134947 0.0020905107 1.1360957e-05 8.835481e-05 -0.0005111842
0.00079418963 0.0013613957 -0.00043051597 -0.0011679428 -0.0006020366 0.0015285165 -0.0031463993 -0.0041977908
0.0033517452 0.0004818872 -0.0029748657 -0.0027484454 -0.0010330031 -7.228869e-05 -0.00039699284 0.00061439996
-0.00029769703 -0.00094295334 0.0023471967 0.00094684167 -0.004893224 -0.0012553148 0.0008688306 -0.0002792429
-0.0019739072 0.0031296378 0.0011005391 -0.002415223 0.001471752 -0.0007318274 -0.0012143562 1.1439287e-05
-0.0007200431 -0.00026125083 0.0015003588 -0.002575748 0.0003994607 0.0024045734 -0.0007062888 -0.00015107467
0.003097472 -0.0014021922 -0.003829717 0.00034244513 -0.0003579112 0.0024417946 -0.0011677324 0.0012516777
-0.004604553 -0.001627013 -0.0012986832 0.00075762125 0.00100533 0.001021465 -0.0016624501 -4.2210922e-05
-0.0022086992 0.0007542541 0.0018696534 0.006197655 -0.00084698683 0.0014103174 0.001131522 0.0035312583
-0.0010407978 -0.00081463245 -0.00024080198 0.000668627 0.0032799814 0.0023680269 0.0017410752 -0.00020806266
0.004204396 0.0017125179 0.0016291846 -0.0020980246 -0.00051791716 -0.003136314 -0.00028176597 -0.000774982
-0.00069379364 -0.00088119984 -0.0026473808 0.0018535492 -0.0008173763 -0.0008738918 -0.0008508957 -0.0007235679
0.002258288 0.0013742921 0.00023044625 0.0030528202 -9.006445e-05 -0.0034222612 0.000560791 0.0005088313
-0.0015778875 -0.0037811839 -0.00044564228 -0.0013493886 1.1699027e-05 0.0013018936 -0.0010492635 0.0014193607
-0.0016379664 -0.0010530782 -0.00020761423 -0.00032025194 0.0011343342 0.00022140253 -0.002303712 -0.0030342015
00000000: e709 ab38 a3d3 f33a 2da5 0b3a 879a 03ba
00000010: d109 1a3a f6ae 833a b792 da3a 143d 313b
00000020: 4137 a1ba 285e 413b cb26 d4ba a25d fcb9
00000030: f300 093b f09a 3e37 214b b938 fe00 06ba
00000040: 2a31 503a dc70 b23a e0b6 e1b9 a815 99ba
00000050: fed1 1dba 8158 c83a d233 4ebb 9f8d 89bb
00000060: f4a8 5b3b cea5 fc39 f7f5 42bb 431f 34bb
00000070: d565 87ba b299 97b8 7a23 d0b9 af0f 213a
00000080: 3814 9cb9 8730 77ba 6dd3 193b 7835 783a
00000090: 5757 a0bb 6089 a4ba 3cc2 633a 5967 92b9
000000a0: ab5c 01bb 9c1a 4d3b f73f 903a b848 1ebb
000000b0: cde7 c03a 1bd8 3fba 082b 9fba 5deb 3f37
000000c0: 46c1 3cba 7ef8 88b9 b0a7 c43a e1cd 28bb
000000d0: b56e d139 0c96 1d3b 3d26 39ba cc69 1eb9
000000e0: f5fe 4a3b c3c9 b7ba fdfb 7abb 358a b339
000000f0: 07a6 bbb9 8406 203b 990e 99ba 560f a43a
00000100: cae1 96bb 7f41 d5ba 9438 aaba 1a9b 463a
00000110: 47c5 833a aee2 853a 92e6 d9ba a20b 31b8
00000120: d3bf 10bb 23b9 453a 280f f53a b315 cb3b
00000130: 5308 5eba 66da b83a 944f 943a af6c 673b
00000140: 616b 88ba 0f8d 55ba ca7f 7cb9 cc46 2f3a
00000150: f5f4 563b e630 1b3b ca34 e43a 652b 5ab9
00000160: 08c5 893b 9176 e03a 5d8a d53a 037f 09bb
00000170: d5c4 07ba 9e8a 4dbb fdb9 93b9 2928 4bba
00000180: b4df 35ba 5200 67ba ae7f 2dbb caf2 f23a
00000190: 3245 56ba e315 65ba a50e 5fba d2ad 3dba
000001a0: c9ff 133b 9721 b43a f2a3 7139 d311 483b
000001b0: fce0 bcb8 0448 60bb 0c02 133a 1763 053a
000001c0: 1ed1 ceba bdcd 77bb 18a5 e9b9 f8dd b0ba
000001d0: f046 4437 4da4 aa3a 7187 89ba d809 ba3a
000001e0: 08b1 d6ba 7107 8aba 05b3 59b9 7de7 a7b9
000001f0: f1ad 943a 4a28 6839 e0f9 16bb 74d9 46bb

network_body._body_endoder.seq_layers.2.weight f4 [128, 128]
0.06255304 0.07283767 -0.017012585 -0.11920063 0.008510378 0.111663714 -0.12169158 0.09274393
0.07290244 0.047834698 0.019663025 0.07814025 0.0071019656 0.17071073 -0.032146942 -0.06616066
0.0018853206 -0.07005367 -0.123377 -0.08341911 0.1080123 -0.012307836 -0.12499897 -0.022399163
-0.06923227 0.04353458 0.123047836 0.042671304 0.081390224 -0.09468717 -0.010628194 -0.047689747
0.032777842 -0.07126382 0.08486588 0.12658072 0.11699132 -0.072536305 0.10006629 0.16028316
0.015617163 -0.13094033 -0.052289687 -0.01101513 -0.05977204 -0.042545293 0.034551498 0.17499575
0.031206492 -0.10842466 -0.28221822 -0.024341656 -0.052673697 0.05091855 0.15372533 0.06540128
-0.12709138 -0.035109907 -0.06549565 -0.029135983 0.072989106 -0.15283893 0.059523713 -0.0894249
-0.026075631 -0.042251084 0.06091049 0.012329522 0.014873775 0.13064264 0.05282825 0.050653495
-0.051951747 -0.114382766 -0.04121053 0.028874269 -0.043055866 -0.03763235 -0.033252932 -0.0348315
0.02307093 0.10846451 0.046015218 0.009663564 -0.13975036 0.07302258 -0.10292486 0.0021771346
-0.06389223 -0.07053992 0.0993266 -0.008842225 0.1779155 0.090921886 -0.0100983 -0.10555048
-0.16686544 0.044233073 0.10172796 0.065031506 0.1985956 0.02194956 -0.06474765 0.14496446
0.112452604 -0.009696837 0.16240458 -0.024419833 0.022690233 0.013664287 -0.10061144 -0.023222528
-0.04181204 -0.01907756 -0.014283779 -0.03611571 0.06929269 -0.0785821 0.0011067737 -0.08657843
0.06072733 -0.008267466 -0.2266517 0.028557094 0.17222466 -0.024894623 -0.08542631 -0.06856059
0.08281564 0.06385529 -0.016549893 0.106657326 -0.07956622 0.04537404 -0.09742899 -0.051162433
-0.024630146 -0.17782778 -0.051457133 -0.06070689 0.13010396 0.08948717 -0.11328539 0.013799747
0.0026888356 0.043262344 0.028943842 0.079159655 0.036710303 0.011413005 0.06941638 0.03819347
0.064276524 0.037235815 0.007988575 0.17965429 0.26266697 0.11157523 -0.09584926 -0.01604627
0.052288037 0.12762359 -0.03785988 0.13418129 0.12592146 -0.036694154 -0.09576598 -0.0074085807
0.0012734341 -0.08678301 -0.09857226 0.00659661 0.07759452 0.086035006 -0.042694435 0.008961584
-0.09897099 -0.0063426807 0.0064832415 0.1767277 -0.047234826 0.034439214 -0.17189094 -0.024338746
-0.15795378 0.11274118 -0.03803752 -0.058613602 -0.022530813 -0.16643375 0.0602381 0.044264928
0.14445369 -0.076883525 0.06724094 0.04013059 0.0034433191 -0.008174589 0.0467083 -0.04539304
-0.05682733 0.032442566 0.13827719 -0.06071244 -0.08905524 0.0523853 0.11857016 -0.02213835
-0.11618962 -0.11652291 0.07262169 0.09965275 0.078672364 -0.04589809 -0.023595195 -0.0758898
-0.09840472 0.08139529 0.06058719 0.26071265 0.01927944 0.024289494 0.003340689 -0.049609855
-0.022658791 0.018292557 0.021518046 -0.010090858 0.1148399 0.0005454455 -0.04028093 -0.19958861
0.09798864 -0.05498919 0.06273807 0.0272788 -0.057590008 0.04184319 -0.16532688 0.036706407
-0.15766636 -0.11911209 -0.108545534 0.10389227 -0.12762135 -0.1176208 0.18722549 -0.021502616
-0.14915739 0.17940712 0.017034346 0.02296454 0.017902533 0.027229704 0.008884618 0.081342764
00000000: cf1b 803d eb2b 953d fa5d 8bbc 761f f4bd
00000010: 1d6f 0b3c f2af e43d 6f39 f9bd 88f0 bd3d
00000020: e04d 953d 51ee 433d 5a14 a13c ff07 a03d
00000030: 9bb7 e83b cbce 2e3e 83ac 03bd 3d7f 87bd
00000040: dd1c f73a 4c78 8fbd 15ad fcbd a3d7 aabd
00000050: 8e35 dd3d cea6 49bc 76ff ffbd 737e b7bc
00000060: a6c9 8dbd 5151 323d 8100 fc3d 1bc8 2e3d
00000070: ebaf a63d 59eb c1bd e021 2ebc 5356 43bd
00000080: 0f42 063d c4f2 91bd 2ace ad3d 609e 013e
00000090: 2599 ef3d ea8d 94bd 8eef cc3d 4521 243e
000000a0: 21df 7f3c 3915 06be b62d 56bd ce78 34bc
000000b0: 87d3 74bd f943 2ebd df85 0d3d 1632 333e
000000c0: c2a4 ff3c c00d debd e87e 90be 2768 c7bc
000000d0: 60c0 57bd f88f 503d 2c6a 1d3e 1bf1 853d
000000e0: 3e24 02be 68cf 0fbd 9522 86bd 96ae eebc
000000f0: 507b 953d cf81 1cbe 23cf 733d 6724 b7bd
00000100: 909c d5bc 790f 2dbd 477d 793d c301 4a3c
00000110: 22b1 733c 2fc7 053e 6f62 583d 0a7a 4f3d
00000120: 5bcb 54bd 8341 eabd 5fcc 28bd bb89 ec3c
00000130: 595b 30bd 6124 1abd 3a34 08bd 7aab 0ebd
00000140: 3fff bc3c a422 de3d 747a 3c3d ed53 1e3c
00000150: b81a 0fbe dd8c 953d 45ca d2bd 42ae 0e3b
00000160: eed9 82bd 3c77 90bd bf6b cb3d fbde 10bc
00000170: 7b2f 363e 4135 ba3d 5773 25bc da2a d8bd
00000180: c6de 2abe bd2d 353d c056 d03d 3d2f 853d
00000190: a55c 4b3e 90cf b33c 6a9a 84bd 9071 143e
000001a0: 8d4d e63d 7bdf 1ebc 634d 263e 1a0c c8bc
000001b0: dee0 b93c 2ce0 5f3c 5f0d cebd 2c3d bebc
000001c0: 1a43 2bbd 8b48 9cbc 8306 6abc 11ee 13bd
000001d0: 53e9 8d3d a7ef a0bd 2a11 913a 0850 b1bd
000001e0: 39bd 783d 4474 07bc 6217 68be 91f0 e93c
000001f0: a95b 303e cfef cbbc fdf3 aebd 7f69 8cbd
00000200: 3f9b a93d 90c6 823d a493 87bc 286f da3d
00000210: 9df3 a2bd 21da 393d da88 c7bd b38f 51bd
00000220: 29c5 c9bc 7c18 36be b7c4 52bd caa7 78bd
00000230: f939 053e 0d45 b73d 2c02 e8bd 5618 623c
00000240: 2d37 303b db33 313d a31b ed3c 751e a23d
00000250: 8b5d 163d 9dfd 3a3c 2d2a 8e3d c270 1c3d
00000260: 69a3 833d 9584 183d 83e2 023c 4bf7 373e
00000270: 497c 863e 8e81 e43d 9e4c c4bd 7873 83bc
00000280: fb2b 563d c2af 023e f612 1bbd d266 093e
00000290: 8ef1 003e 9c4c 16bd f420 c4bd aec3 f2bb
000002a0: 5ce9 a63a 4abb b1bd 41e0 c9bd 6028 d83b
000002b0: e0e9 9e3d 1f33 b03d 5ce0 2ebd 9cd3 123c
000002c0: 4db1 cabd 43d6 cfbb 5f71 d43b 1bf8 343e
000002d0: 4e79 41bd 2210 0d3d 2e04 30be 0d62 c7bc
000002e0: a3be 21be d9e4 e63d 3bcd 1bbd d114 70bd
000002f0: 8a92 b8bc 9c6d 2abe 3abc 763d 244f 353d
00000300: abeb 133e 1c75 9dbd 9eb5 893d f95f 243d
00000310: 4fa9 613b b6ee 05bc 3451 3f3d 0dee 39bd
00000320: c6c3 68bd 7fe2 043d 8998 0d3e 9cad 78bd
00000330: 9862 b6bd f891 563d e9d4 f23d 7c5b b5bc
00000340: d3f4 edbd 90a3 eebd aeba 943d be16 cc3d
00000350: fa1e a13d a3ff 3bbd b64a c1bc 1d6c 9bbd
00000360: 6a88 c9bd 93b2 a63d 462a 783d 217c 853e
00000370: ebef 9d3c c3fa c63c 76ef 5a3b b433 4bbd
00000380: ee9e b9bc 46da 953c 9d46 b03c 2054 25bc
00000390: 2e31 eb3d 3afc 0e3a 9efd 24bd f560 4cbe
000003a0: 45ae c83d 583c 61bd d17c 803d ca77 df3c
000003b0: 80e3 6bbd c463 2b3d 734b 29be 7559 163d
000003c0: 4a73 21be 0af1 f3bd 1f4d debd 78c5 d43d
000003d0: 2caf 02be 2de3 f0bd 0ab8 3f3e 4126 b0bc
000003e0: b7bc 18be 80b6 373e 9d8b 8b3c 2220 bc3c
000003f0: 55a8 923c d410 df3c ca90 113c 0997 a63d

network_body._body_endoder.seq_layers.2.bias f4 [128]
7.3472016e-05 -0.0017260087 0.00030800048 0.0012221079 0.002290916 0.00314092 -0.0032109423 -0.0031752572
-0.0008439042 -0.0035073608 -0.00059480214 0.0017133398 0.0019644953 -0.0011843079 -0.0035768813 0.00023611762
-0.00023599193 -0.00014525816 0.0029747179 0.0011215607 0.0018199685 0.0014063014 -0.0018932093 0.00041643446
-0.0029280055 -0.0019231883 -0.0027241977 -0.001258442 -0.0040215435 0.0030488314 -0.002011606 -0.0009806759
0.00017610936 -0.0012017754 0.0014617621 0.0015031487 0.00037491714 -0.0017569602 0.0024316486 0.0021364365
0.00081801537 0.0031481101 0.0011907083 -0.0013867724 0.0028360656 -0.001236652 0.0020286043 -0.0008222194
0.002428089 0.0016075394 0.0011664979 0.0020949892 0.003617802 0.00037853903 -0.0008400042 0.0009975994
-0.0015000782 -0.0021037094 -0.00065899774 -0.00068440917 -0.0017014445 0.0018798672 -0.0023413338 0.0009052722
-0.0003815422 0.0012843149 0.0032247887 0.0011544965 0.0030991153 -0.004001662 0.00010437377 0.001636938
-0.0010787032 0.0029063392 0.00026625738 -0.0010085767 0.00014780293 -0.00025951047 -0.0010907379 -0.003190238
-0.0011649635 -0.0015583647 0.00016797305 0.00034659842 -0.0022255569 0.0022446443 -7.6657365e-05 0.002710799
-0.0034304904 0.00031260596 0.0024177716 0.0009558594 -0.0027338183 -0.0016441686 -0.003183708 -0.0016677984
9.286287e-05 -0.00092377816 0.00017656953 -0.0016673238 -0.0032486073 0.003219309 -0.0019830926 0.00019593131
-0.0010415339 -0.0012746516 0.0011085456 0.00082906516 0.001393103 -0.0007883978 -0.0036954777 -0.0011414185
-0.0007430914 0.0015217336 0.0010278035 0.00076812337 0.00096399 -0.002285182 0.002758202 0.0005955234
-0.00118858 -0.0015830321 0.003228601 -0.0010098737 -0.00070999213 -0.003505425 -0.0013790803 -0.0029495016
00000000: fd14 9a38 3e3b e2ba 207b a139 232f a03a
00000010: 3123 163b e5d7 4d3b ac6e 52bb fa17 50bb
00000020: 7439 5dba c0db 65bb 7fec 1bba 2592 e03a
00000030: c3be 003b c73a 9bba 1c6a 6abb 5796 7739
00000040: 9a74 77b9 7150 18b9 7cf3 423b 5501 933a
00000050: 028c ee3a a553 b83a 9025 f8ba e354 da39
00000060: c8e3 3fbb 7e13 fcba 7488 32bb 4ef2 a4ba
00000070: 27c7 83bb e7ce 473b 26d5 03bb 068a 80ba
00000080: ffa9 3839 e484 9dba 9998 bf3a 4d05 c53a
00000090: 8790 c439 cd49 e6ba 4b5c 1f3b 7503 0c3b
000000a0: 1570 563a 8650 4e3b 8a11 9c3a 5cc4 b5ba
000000b0: 49dd 393b 2817 a2ba 55f2 043b 368a 57ba
000000c0: 9320 1f3b 12b4 d23a 2de5 983a 164c 093b
000000d0: a518 6d3b a676 c639 ba33 5cba e2c1 823a
000000e0: 469e c4ba 63de 09bb 97c0 2cba ec69 33ba
000000f0: 0103 dfba e065 f63a 1071 19bb ca4f 6d3a
00000100: ba09 c8b9 7556 a83a fa56 533b 7952 973a
00000110: 871a 4b3b 6020 83bb 3ee3 da38 868e d63a
00000120: 4663 8dba 4878 3e3b 7698 8b39 3832 84ba
00000130: 8cfb 1a39 e80e 88b9 17f7 8eba 5013 51bb
00000140: b0b1 98ba 0b42 ccba ec21 3039 a7b7 b539
00000150: a6da 11bb e21a 133b 1cc3 a0b8 a9a7 313b
00000160: 14d2 60bb 43e5 a339 7a73 1e3b a392 7a3a
00000170: dc29 33bb 2581 d7ba c2a5 50bb 079a daba
00000180: 60bf c238 b429 72ba 8625 3939 1a8a daba
00000190: 96e6 54bb 0bfb 523b c6f6 01bb e972 4d39
000001a0: 1484 88ba 3612 a7ba 9e4c 913a 9f55 593a
000001b0: c898 b63a 7bac 4eba d42f 72bb a69b 95ba
000001c0: 05cc 42ba e874 c73a 5db7 863a e35b 493a
000001d0: 46b4 7c3a fec2 15bb f3c2 343b e61c 1c3a
000001e0: 20ca 9bba be7d cfba f096 533b bd5d 84ba
000001f0: c41e 3aba 46bb 65bb 42c2 b4ba 6d4c 41bb

action_model._continuous_distribution.log_sigma f4 [1, 2]
0.0008523026 -0.0037030035
00000000: 0f6d 5f3a 17ae 72bb

action_model._continuous_distribution.mu.weight f4 [2, 128]
0.02271726 -0.004296937 -0.020628659 0.039978176 -0.018765753 0.031348366 0.011761836 0.015156065
0.002694486 0.009638126 0.014475546 -0.0049468963 0.0107684815 0.013685502 0.0063679195 -0.019048449
-0.004932195 0.0070462544 0.005940527 -0.01830407 0.0037506218 -0.0050269356 0.0061918595 -0.016959673
0.015513489 -0.0058668484 0.0040486017 -0.011666191 0.009988609 -0.024245884 0.006041766 -0.016462874
-0.021834765 -0.019546587 0.0026950787 0.03164694 0.0116158705 0.0011678602 -0.031817798 -0.021098312
0.011324777 0.0004934493 0.013521324 -0.01577096 -0.0048980536 -0.033659473 -0.038396716 0.013494953
0.0057435594 0.020182688 -0.013670054 0.0019711826 -0.0058565363 -0.016680215 0.010716024 -0.018974276
0.0149566 0.0038459562 -0.025237437 -0.024395641 0.019526502 -0.00186077 0.023618024 0.008916865
-0.05000637 -0.02009115 0.0225119 0.015502971 -0.020621812 0.0021246637 -0.044143584 -0.003888561
0.0075702323 -0.0006767651 -0.012157101 0.010872306 0.01683123 0.02774984 0.008345393 0.0016807521
0.029139178 -0.008311664 0.0020288548 -0.012193639 0.040098377 -0.0018108655 0.028534638 -0.0004399798
-0.00049920427 -0.009454988 -0.009399896 0.00601891 -0.0152448295 0.011868078 0.023194645 -0.0104381405
-0.023775242 0.017229076 0.019636003 0.0066439905 0.0105983 -0.0030108087 0.019215927 -0.021032754
0.040166363 0.027616888 0.010367797 -0.009152201 0.0059823263 -0.02211394 -0.007604854 -0.0014338905
-0.03207654 -0.010034746 -0.017931955 -0.00034759013 -0.011153325 0.010294913 -0.0024146845 -0.016671723
0.041367903 0.03318273 -0.0059471135 -0.011733566 -0.0225101 0.005673116 -0.017456062 0.0075334525
0.012443592 -0.010053713 -0.006336121 0.028702375 -0.0024753793 0.008029746 -0.011010244 -0.009863561
-0.006364291 -0.0074808844 -0.0056004124 0.0091612665 0.019362764 0.0012302122 -0.0040087686 -0.0020914038
-0.00250202 0.0032782515 0.006648545 0.017509166 0.027744954 0.0007428346 -0.003930329 -0.004912019
-0.013311903 -0.016488262 -0.014070041 -0.029497055 -0.040456306 0.012678534 -0.01760425 -0.0115257185
0.003095584 -0.017702537 0.009671087 -0.00067915383 0.014977686 -0.027847337 0.007632342 0.008697435
0.022196235 0.027708746 0.0303908 -0.04217902 0.026961552 -0.036863133 0.036390573 -0.012656237
0.022995565 0.037428424 0.007710414 0.0015784735 0.020829258 -0.0022882982 -0.016635451 0.028950602
-0.0018679438 -0.032626715 -0.023687368 -0.0149964625 -0.018333359 0.0055399705 0.002206912 0.0125945015
-0.01363351 0.0016186704 0.016507016 0.00050605595 0.01642024 -0.033678982 -0.022343293 0.0019310443
-0.012023512 0.015022504 0.017960114 -0.0012357584 -0.0026455459 -0.0031688802 -0.015363115 -0.0035653638
-0.025762673 -0.015863517 0.001697936 0.0024935706 -0.0006021544 0.022909204 0.007845321 0.0005853148
-0.00546555 0.0026701845 0.0045010857 0.015939342 -0.028194746 -0.0054545845 -0.03231996 -0.04179788
-0.0003715544 -0.003627306 0.0033845357 -0.0219394 -0.006114267 0.007465082 -0.0025844863 0.014477107
0.007991946 -0.013678359 0.0151277 0.009323681 0.013643447 -0.02494477 -0.02000417 -0.0012998143
-0.024419194 0.0113457935 0.0069821086 0.00045438606 -0.00044691245 -0.036131352 0.030237606 0.0015334835
-0.0005338537 0.0037441885 0.037440717 -0.011402738 -0.017104985 -0.011148139 -0.022542095 -0.0033577261
00000000: 8c19 ba3c 52cd 8cbb 6ffd a8bc 28c0 233d
00000010: a3ba 99bc 2567 003d b7b4 403c 2551 783c
00000020: f995 303b 3be9 1d3c d72a 6d3c 9319 a2bb
00000030: 496e 303c 2839 603c fba9 d03b 7e0b 9cbc
00000040: 409e a1bb 44e4 e63b c1a8 c23b 6bf2 95bc
00000050: fecc 753b feb8 a4bb 15e5 ca3b 03ef 8abc
00000060: 4a2c 7e3c b13e c0bb 22aa 843b 8d23 3fbc
00000070: 43a7 233c 4e9f c6bc 02fa c53b 26dd 86bc
00000080: d2de b2bc 2a20 a0bc eb9f 303b 39a0 013d
00000090: 7e50 3e3c e312 993a 6153 02bd 5ed6 acbc
000000a0: 8f8b 393c d25a 013a 8b88 5d3c 1a32 81bc
000000b0: da7f a0bb 84de 09bd e045 1dbd ef19 5d3c
000000c0: 7834 bc3b 2a56 a53c 5df8 5fbc f52e 013b
000000d0: 30e8 bfbb f2a4 88bc 4392 2f3c f16f 9bbc
000000e0: 870c 753c 700c 7c3b bebe cebc 5ed9 c7bc
000000f0: 0bf6 9f3c 15e5 f3ba 967a c13c 0b18 123c
00000100: 7bd3 4cbd 3296 a4bc e06a b83c 2c00 7e3c
00000110: 13ef a8bc f13d 0b3b e7cf 34bd 3ad7 7ebb
00000120: b60f f83b f068 31ba 942e 47bc c221 323c
00000130: a6e1 893c a253 e33c 1ebb 083c af4c dc3a
00000140: 49b5 ee3c a52d 08bc 89f6 043b d4c7 47bc
00000150: 323e 243d 905a edba 79c1 e93c 17ad e6b9
00000160: 08dd 02ba 18e9 1abc 0502 1abc 473a c53b
00000170: 73c5 79bc 5472 423c b202 be3c bc04 2bbc
00000180: 4cc4 c2bc fe23 8d3c afdb a03c d5b5 d93b
00000190: 7ea4 2d3c fd50 45bb b86a 9d3c e24c acbc
000001a0: 7c85 243d d03c e23c b1dd 293c 1df3 15bc
000001b0: 6407 c43b 4b28 b5bc 2432 f9bb 62f1 bbba
000001c0: b162 03bd c668 24bc 09e6 92bc c23c b6b9
000001d0: 70bc 36bc ffab 283c af3f 1ebb 2393 88bc
000001e0: 6471 293d 9dea 073d 01e0 c2bb 253e 40bc
000001f0: 1a67 b8bc 8ce5 b93b 0400 8fbc 2edb f63b
00000200: 35e0 4b3c 54b8 24bc 3c9f cfbb 3e21 eb3c
00000210: f939 22bb 328f 033c 4f64 34bc c69a 21bc
00000220: 8b8b d0bb 3522 f5bb aa83 b7bb 2319 163c
00000230: a99e 9e3c 123f a13a fd5b 83bb ef0f 09bb
00000240: eef8 23bb efd7 563b 0adc d93b 626f 8f3c
00000250: 6349 e33c c9ba 423a fdc9 80bb 00f5 a0bb
00000260: 2b1a 5abc 6412 87bc 0786 66bc cfa3 f1bc
00000270: 83b5 25bd a0b9 4f3c ca36 90bc 5ed6 3cbc
00000280: 48df 4a3b e904 91bc 7b73 1e3c 3e09 32ba
00000290: f864 753c 1920 e4bc ba18 fa3b b07f 0e3c
000002a0: e1d4 b53c 74fd e23c 21f6 f83c e8c3 2cbd
000002b0: 79de dc3c ccfd 16bd 480e 153d 1b5c 4fbc
000002c0: 3261 bc3c 8c4e 193d a4a7 fc3b c8e4 ce3a
000002d0: 1fa2 aa3c 46f7 15bb 1247 88bc d029 ed3c
000002e0: cbd5 f4ba 97a3 05bd 030c c2bc b9b3 75bc
000002f0: d72f 96bc a488 b53b d7a1 103b 2b59 4e3c
00000300: 165f 5fbc 9129 d43a b939 873c d7a8 043a
00000310: bd83 863c f9f2 09bd 4809 b7bc 181b fd3a
00000320: 44fe 44bc f320 763c 1721 933c 2cf9 a1ba
00000330: e560 2dbb fdac 4fbb 93b5 7bbc e1a8 69bb
00000340: 3e0c d3bc 35f4 81bc 478d de3a 2c6b 233b
00000350: e6d9 1dba 15ac bb3c a989 003c d06f 193a
00000360: 5b18 b3bb 43fe 2e3b d87d 933b 3993 823c
00000370: abf8 e6bc 5fbc b2bb ef61 04bd 4134 2bbd
00000380: 30cd c2b9 19b8 6dbb 16cf 5d3b 42ba b3bc
00000390: 305a c8bb a69d f43b 7c60 29bb 6331 6d3c
000003a0: a7f0 023c 321b 60bc 2cda 773c 5ac2 183c
000003b0: c488 5f3c f958 ccbc c9df a3bc 885e aaba
000003c0: c30a c8bc b5e3 393c 2cca e43b aa3a ee39
000003d0: 934f eab9 78fe 13bd dbb4 f73c 2bff c83a
000003e0: 51f2 0bba 0f61 753b 705b 193d 8dd2 3abc
000003f0: c11f 8cbc afa6 36bc 33aa b8bc 4c0d 5cbb

action_model._continuous_distribution.mu.bias f4 [2]
-0.0007986352 0.002830823
00000000: 805b 51ba 5485 393b

action_model._discrete_distribution.branches.0.weight f4 [1, 128]
-0.017345155 0.026846915 0.010086128 -0.0050123627 0.0040852022 -0.0066088918 0.009931357 0.015630608
0.0041391584 -0.0023666758 -0.007113936 -0.0030511485 -0.011344941 0.0055840123 0.007572145 0.014967277
-0.0044206693 0.013437509 -0.008132248 -0.016723838 -0.014349468 -0.0022256856 -0.0009983386 0.0052405684
0.01518271 0.008137663 0.00833796 -0.00040006908 0.0061400374 0.005789436 0.0106951175 -0.0023516412
0.007064351 0.01589533 -0.0029731467 -0.01349812 -0.0049253735 0.0017299617 -0.0025780168 0.0038299698
-0.008022431 -0.0034873565 -0.015503505 0.008634406 -0.0054098894 -0.00614233 0.009346877 -0.0005968986
-0.0066239447 0.004716907 -0.0086956825 -0.010480477 -0.0061701965 0.0023681496 -0.0021304607 -0.013035788
-0.012349606 0.0046945326 -0.006619233 -0.020540845 0.0070093097 0.0033661523 -0.027513502 0.0006637511
-0.014902243 0.017075894 0.004894309 -0.0025534562 -0.014100969 0.005315419 0.0031413247 -0.00079570984
-0.008478777 -0.012405458 0.0008884134 -0.006682578 0.003431171 0.015185862 0.00037365805 0.0005489864
0.006978179 -0.009148053 -0.0014300407 0.0074176462 0.00039278745 5.2444473e-05 -0.00042347724 0.016172206
0.00030306503 -0.012595275 -0.013283657 0.015386827 0.0026954578 -0.009664561 0.004917494 -0.009398557
0.010562538 0.0041806134 0.0025985392 0.01071285 -0.0030780898 -0.011906408 0.009204398 0.010799433
0.0009373419 0.014112345 0.005078571 -0.011314873 0.0035712128 0.01239969 0.0074843443 0.00915477
-0.0047212737 0.0032720105 0.0012726057 0.008522767 -0.017390871 0.016253043 0.011894369 0.0029455055
-0.011630147 -0.0030060585 -0.009892027 0.013501192 0.0015420394 -0.010343264 0.015867958 -0.0002840232
00000000: 6d17 8ebc 10ee db3c 4940 253c bf3e a4bb
00000010: 29dd 853b 678f d8bb 21b7 223c c30b 803c
00000020: c7a1 873b 3b1a 1bbb 051c e9bb c7f5 47bb
00000030: 22e0 39bc 17fa b63b c21f f83b 4f39 753c
00000040: 43db 90bb ff28 5c3c 1f3d 05bc 6e00 89bc
00000050: 081a 6bbc cfdc 11bb afda 82ba 13b9 ab3b
00000060: e7c0 783c d553 053c f09b 083c 5dc0 d1b9
00000070: 5e32 c93b 4fb5 bd3b 933a 2f3c fe1d 1abb
00000080: 127c e73b ec36 823c 20d9 42bb 3827 5dbc
00000090: 0765 a1bb e2bf e23a f2f3 28bb 3b00 7b3b
000000a0: 8470 03bc 228c 64bb 6a02 7ebc 5377 0d3c
000000b0: 7145 b1bb 9945 c9bb a523 193c 3079 1cba
000000c0: ad0d d9bb 4990 9a3b 5678 0ebc 4eb6 2bbc
000000d0: 5c2f cabb f532 1b3b 339f 0bbb 0f94 55bc
000000e0: 0056 4abc 98d4 993b 27e6 d8bb 4645 a8bc
000000f0: 5aae e53b aa9a 5c3b ff63 e1bc 95ff 2d3a
00000100: 8a28 74bc bfe2 8b3c 7160 a03b e357 27bb
00000110: c007 67bc f72c ae3b afde 4d3b 2f97 50ba
00000120: 91ea 0abc 4340 4bbc 6ae4 683a 87f9 dabb
00000130: 7fdd 603b 1fce 783c 89e7 c339 dbe9 0f3a
00000140: 35a9 e43b b7e1 15bc 3470 bbba ba0f f33b
00000150: 0aef cd39 d3f7 5b38 2706 deb9 937b 843c
00000160: b3e4 9e39 6a5c 4ebc b2a3 59bc 0819 7c3c
00000170: 47a6 303b 1b58 1ebc ee22 a13b 68fc 19bc
00000180: 7f0e 2d3c 87fd 883b 414c 2a3b f384 2f3c
00000190: c7b9 49bb 1813 43bc 0bce 163c 1bf0 303c
000001a0: f3b7 753a 7737 673c 246a a63b 0462 39bc
000001b0: 020b 6a3b 1228 4b3c 3b3f f53b e3fd 153c
000001c0: eab4 9abb 3a6f 563b 90cd a63a 13a3 0b3c
000001d0: 4d77 8ebc 1a25 853c 99e0 423c 6209 413b
000001e0: 5f8c 3ebc 4b01 45bb 2b12 22bc 1b34 5d3c
000001f0: 421e ca3a cb76 29bc 85fd 813c f3e8 94b9

exp_avg f4 [128, 6]
0.00027734548 -1.662892e-05 0.00018929243 -4.7994192e-05 -1.662892e-05 -1.6367133e-06 8.9731775e-06 -1.5432297e-06
1.7597738e-05 -7.688178e-07 -1.5432298e-06 6.787127e-06 0.0001234329 -1.0151207e-05 9.421645e-05 -2.1778316e-05
-1.0151207e-05 2.5148152e-06 5.822047e-06 -2.2063047e-07 -1.8906793e-06 -4.5041872e-07 -2.2063506e-07 -4.245768e-06
0.000100464036 -7.773197e-06 7.4232266e-05 -1.9879795e-05 -7.773197e-06 -5.255937e-07 0.00020959624 -2.5638301e-05
0.00017584737 -4.8315713e-05 -2.5638306e-05 -2.4244036e-06 -4.0578114e-05 -4.627671e-06 -4.0155555e-06 6.3688235e-06
-4.627671e-06 1.3828822e-05 -5.303577e-05 -6.8411473e-06 -4.6246314e-06 9.179834e-06 -6.8411373e-06 2.9366538e-07
1.2767954e-06 1.4196507e-07 -9.2280857e-07 -6.070461e-06 1.4196507e-07 -6.987176e-06 -2.8976181e-05 -2.1071078e-06
1.7129852e-06 1.7253153e-05 -2.1070996e-06 9.049592e-06 7.5223343e-06 9.4468e-07 -7.8229044e-07 -1.1278428e-08
9.4468e-07 -2.6428934e-05 4.6590343e-05 -4.0453056e-06 2.5293077e-05 -1.7182163e-05 -4.0453106e-06 3.0950866e-06
-2.0265074e-05 4.413786e-07 -1.19863125e-05 -2.2437428e-07 4.413786e-07 4.543838e-06 -0.00029195138 1.7271623e-05
-0.00019875816 4.0780407e-05 1.7271635e-05 -4.810937e-07 -2.069971e-05 -1.1301424e-06 2.0788325e-06 5.772297e-06
-1.1301424e-06 9.662226e-06 -0.00035497505 2.6214911e-05 -0.0002510753 5.900072e-05 2.6214917e-05 -1.1115348e-05
-5.569734e-06 -9.85242e-08 -2.4799265e-06 -4.944279e-07 -9.85242e-08 2.1745634e-06 -1.639453e-05 -6.6814e-07
-9.0432795e-06 3.3265176e-06 -6.681416e-07 -1.2770868e-06 -3.7586597e-05 4.4833546e-06 -2.2359001e-05 1.18913285e-05
4.4833546e-06 -5.890316e-07 -0.00029586058 2.0372492e-05 -0.00021667712 4.636414e-05 2.0372498e-05 -9.571952e-06
0.000119731056 -5.628676e-06 7.480518e-05 -2.3155228e-05 -5.628676e-06 -3.8357616e-06 0.00011294006 -1.1362678e-05
8.19391e-05 -2.7445334e-05 -1.136267e-05 8.922366e-06 7.714923e-06 1.17787595e-05 -1.812651e-05 1.0775864e-05
1.17787595e-05 -1.29261e-05 2.6309897e-05 2.898131e-06 1.1220723e-05 -7.002876e-06 2.8981315e-06 -9.925402e-06
-7.0676692e-06 -4.778554e-06 6.2936447e-06 2.4091737e-06 -4.778554e-06 2.4505594e-06 -1.0367987e-05 1.0193264e-06
6.0882365e-07 -4.3155416e-07 1.0193236e-06 8.064147e-06 1.5896943e-05 1.5926921e-06 -1.692372e-06 -8.587626e-06
1.5926921e-06 -9.720679e-06 2.8826693e-05 5.217117e-06 -2.0902282e-06 -1.0944082e-06 5.217112e-06 -1.4685515e-05
4.4961092e-05 -1.4549603e-06 2.8596547e-05 -2.2845786e-06 -1.4549603e-06 -1.4362193e-06 4.563781e-05 -8.8847955e-06
5.29167e-05 -2.3986351e-05 -8.88481e-06 -2.7807112e-06 -0.0001768882 1.2811086e-05 -0.00013166411 2.3810817e-05
1.2811086e-05 -2.9229852e-06 0.00014743846 -1.0736827e-05 0.00010250384 -2.5811405e-05 -1.07368205e-05 7.289546e-06
-0.0002549348 1.684137e-05 -0.0001964485 4.6117555e-05 1.684137e-05 -8.699066e-07 -0.00046546062 3.585843e-05
-0.00034218808 8.8871086e-05 3.5858422e-05 -5.8993114e-06 -1.7196633e-05 -9.230961e-07 -2.5076142e-07 8.412638e-06
-9.230961e-07 -3.130259e-06 0.0002737517 -2.110202e-05 0.00020313729 -4.1445935e-05 -2.1102005e-05 8.7970775e-06
5.0714792e-05 1.0282695e-05 9.658216e-06 -4.1026788e-06 1.0282695e-05 -3.0397072e-05 -8.08952e-05 5.411844e-06
-5.9874936e-05 1.1169749e-05 5.4118445e-06 -1.5700008e-06 -1.12997295e-05 1.2030735e-06 9.256023e-06 1.643631e-05
1.2030735e-06 6.80156e-06 1.2901423e-06 -1.6691985e-06 -6.181808e-06 -1.5334213e-05 -1.6691957e-06 -2.6107832e-06
-0.00017020857 1.3535999e-05 -0.00012734845 2.5360074e-05 1.3535999e-05 -2.9238363e-06 -3.0489171e-05 -4.692484e-06
4.652098e-07 7.882984e-06 -4.692483e-06 1.8756878e-05 6.212541e-05 -5.200886e-06 4.399063e-05 -4.291608e-06
00000000: ae68 9139 557e 8bb7 cd7c 4639 5f4d 49b8
00000010: 557e 8bb7 0aad dbb5 818b 1637 f820 cfb5
00000020: db9e 9337 c260 4eb5 f920 cfb5 fabc e336
00000030: c46d 0139 1a4f 2ab7 1296 c538 94b0 b6b7
00000040: 1a4f 2ab7 32c4 2836 015b c336 71e6 6cb4
00000050: 3fc3 fdb5 14d1 f1b4 b4e7 6cb4 df76 8eb6
00000060: 38b0 d238 a069 02b7 25ad 9b38 89c3 a6b7
00000070: a069 02b7 8616 0db5 10c7 5b39 d511 d7b7
00000080: ab63 3839 9aa6 4ab8 d811 d7b7 f0b2 22b6
00000090: 6b32 2ab8 6447 9bb6 5cbd 86b6 c7b3 d536
000000a0: 6447 9bb6 5702 6837 b972 5eb8 028d e5b6
000000b0: 482d 9bb6 1603 1a37 ec8c e5b6 10a9 9d34
000000c0: 5b5e ab35 106f 1834 ecb6 77b5 ddb0 cbb6
000000d0: 106f 1834 6373 eab6 e011 f3b7 d667 0db6
000000e0: b9e9 e535 ddba 9037 b267 0db6 b4d3 1737
000000f0: 5c68 fc36 ea95 7d35 97fe 51b5 0dc3 41b2
00000100: ea95 7d35 b4b3 ddb7 006a 4338 e9bc 87b6
00000110: 782c d437 6a22 90b7 f4bc 87b6 2fb5 4f36
00000120: eafe a9b7 9df6 ec34 d218 49b7 88eb 70b4
00000130: 9df6 ec34 4577 9836 0d11 99b9 87e2 9037
00000140: bd69 50b9 a10b 2b38 8ee2 9037 8224 01b5
00000150: 4aa4 adb7 66af 97b5 1282 0b36 a7af c136
00000160: 66af 97b5 f21a 2237 f21b bab9 18e8 db37
00000170: c2a2 83b9 8a77 7738 1be8 db37 0e7c 3ab7
00000180: a7e3 bab6 4094 d3b3 d06c 26b6 d4b8 04b5
00000190: 4094 d3b3 b7ee 1136 fc86 89b7 3b5a 33b5
000001a0: 97b8 17b7 233d 5f36 575a 33b5 5e68 abb5
000001b0: 4da6 1db8 b96f 9636 978f bbb7 de80 4737
000001c0: b96f 9636 f11d 1eb5 bc1d 9bb9 98e5 aa37
000001d0: d233 63b9 1e77 4238 9be5 aa37 3997 20b7
000001e0: 1f18 fb38 f5dd bcb6 bae0 9c38 793d c2b7
000001f0: f5dd bcb6 f1b4 80b6 3cda ec38 55a2 3eb7
00000200: b8d6 ab38 683a e6b7 4ca2 3eb7 45b1 1537
00000210: 586f 0137 639d 4537 620e 98b7 fcc9 3437
00000220: 639d 4537 2ddd 58b7 13b4 dc37 837d 4236
00000230: a340 3c37 3ffa eab6 857d 4236 4785 26b7
00000240: d126 edb6 7757 a0b6 ff2d d336 4aad 2136
00000250: 7757 a0b6 4a74 2436 2af2 2db7 cacf 8835
00000260: 0b6e 2335 5ab0 e7b4 b1cf 8835 3f4b 0737
00000270: 6d5a 8537 7cc4 d535 7625 e3b5 9313 10b7
00000280: 7cc4 d535 0016 23b7 dad0 f137 b20e af36
00000290: d945 0cb6 94e3 92b5 a70e af36 cf61 76b7
000002a0: 9b94 3c38 0e48 c3b5 9ee2 ef37 c350 19b6
000002b0: 0e48 c3b5 1fc4 c0b5 3a6b 3f38 e80f 15b7
000002c0: e0f2 5d38 4c36 c9b7 f80f 15b7 419c 3ab6
000002d0: 117b 39b9 32ef 5637 510f 0ab9 57bd c737
000002e0: 32ef 5637 8128 44b6 b699 1a39 5222 34b7
000002f0: 54f7 d638 9285 d8b7 4b22 34b7 b998 f436
00000300: c5a8 85b9 9146 8d37 befd 4db9 596e 4138
00000310: 9146 8d37 8783 69b5 1109 f4b9 b266 1638
00000320: b567 b3b9 4d60 ba38 b066 1638 b3f2 c5b6
00000330: 7d41 90b7 aeca 77b5 63a0 86b4 0124 0d37
00000340: aeca 77b5 7111 52b6 5586 8f39 3e04 b1b7
00000350: 4001 5539 3cd6 2db8 3604 b1b7 2997 1337
00000360: 98b6 5438 d783 2c37 b909 2237 bea9 89b6
00000370: d783 2c37 37fd feb7 48a6 a9b8 6397 b536
00000380: 3922 7bb8 b565 3b37 6497 b536 d1b8 d2b5
00000390: f893 3db7 4a79 a135 514a 1b37 b5e0 8937
000003a0: 4a79 a135 f538 e436 f428 ad35 3909 e0b5
000003b0: 546d cfb6 f9a1 80b7 2109 e0b5 ea34 2fb6
000003c0: 047a 32b9 ac18 6337 d788 05b9 58bc d437
000003d0: ac18 6337 2037 44b6 ffc2 ffb7 2174 9db6
000003e0: f3c1 f934 2941 0437 1f74 9db6 1758 9d37
000003f0: 5349 8238 4583 aeb6 9482 3838 a200 90b6

exp_avg_sq f4 [128, 6]
2.481467e-08 1.8136212e-10 1.4342394e-08 5.013389e-10 1.8136212e-10 2.0919422e-10 4.4212575e-10 2.5270851e-11
2.0071865e-10 1.0620653e-10 2.5270851e-11 3.491743e-11 1.4281011e-08 5.833393e-11 7.986888e-09 2.2917884e-10
5.833393e-11 3.1826063e-12 1.8819578e-10 1.4930859e-11 1.8543448e-12 1.8003732e-10 1.4930862e-11 5.1895037e-11
1.2575023e-08 5.934089e-11 7.174913e-09 2.3280665e-10 5.934089e-11 1.1435974e-11 7.266264e-08 4.7706855e-10
4.0231825e-08 2.1173578e-09 4.7706833e-10 4.4843942e-10 1.7118654e-09 1.0287179e-10 2.422149e-10 6.593197e-10
1.0287179e-10 4.5652573e-10 2.0368727e-09 1.6962105e-10 3.8721602e-11 1.3050321e-09 1.6962097e-10 7.3296363e-10
3.3171202e-10 3.1162285e-11 1.1911497e-12 1.8648053e-10 3.1162285e-11 7.9230046e-11 5.54837e-10 7.359593e-11
5.0501162e-11 3.2706732e-10 7.359593e-11 3.3463554e-10 2.2996312e-09 1.6621776e-10 6.355956e-13 1.257873e-09
1.6621776e-10 8.4568624e-10 6.006666e-10 3.09683e-11 3.379151e-10 1.2325511e-10 3.09683e-11 1.4028777e-10
1.0490065e-10 5.1261695e-12 5.5579805e-11 1.7329636e-11 5.1261695e-12 1.9438857e-11 2.557556e-08 2.1654006e-10
1.496337e-08 7.453601e-10 2.1654013e-10 1.9249152e-10 8.383499e-10 4.8494996e-11 1.0363146e-10 4.8156873e-10
4.8494996e-11 3.126181e-10 3.2685186e-08 2.57558e-10 1.8746018e-08 9.334942e-10 2.5755806e-10 3.4464134e-10
1.4781558e-11 1.172468e-12 7.579138e-12 4.807214e-12 1.172468e-12 1.5713799e-12 1.0164327e-10 4.25291e-12
3.597148e-11 3.4096014e-11 4.2529114e-12 1.3926917e-11 3.5182907e-10 2.8792383e-11 1.7078848e-10 1.1675588e-10
2.8792383e-11 7.03962e-11 1.9002984e-08 9.135493e-11 1.07391385e-08 3.8290268e-10 9.1354896e-11 5.2032628e-11
2.6420455e-09 4.4033048e-11 1.6586681e-09 1.1424908e-10 4.4033048e-11 9.4836444e-11 4.05715e-09 3.4574076e-11
2.2800568e-09 1.6898259e-10 3.4574055e-11 5.7871465e-11 2.3163837e-08 1.2893588e-10 1.1356523e-08 9.480625e-10
1.2893588e-10 2.6975921e-10 1.345312e-10 1.0865819e-11 4.8695423e-11 7.56868e-11 1.08658195e-11 6.315015e-11
3.500943e-10 1.5507054e-11 4.6105352e-11 1.6439829e-10 1.5507054e-11 5.248339e-11 3.3667796e-10 2.7624363e-11
4.9334915e-11 1.2657474e-10 2.7624366e-11 8.6433936e-11 2.274066e-10 2.2744334e-11 3.2043767e-11 1.00951164e-10
2.2744334e-11 1.263929e-10 6.834424e-10 6.158708e-11 2.5703857e-12 2.434783e-10 6.158709e-11 2.4814642e-10
1.8241351e-09 8.470231e-12 9.857052e-10 3.7549894e-11 8.470231e-12 8.332147e-12 1.4160022e-07 6.523342e-10
7.998352e-08 2.678999e-09 6.5233424e-10 3.6894675e-11 9.072995e-09 4.0884882e-11 5.259219e-09 1.4871289e-10
4.0884882e-11 8.377206e-12 7.68302e-09 4.678047e-11 4.258739e-09 2.2739421e-10 4.6780475e-11 4.0983203e-11
4.782363e-08 1.834489e-10 2.6821372e-08 8.3931856e-10 1.834489e-10 8.21048e-12 7.279841e-08 4.8282783e-10
4.1633946e-08 2.0361859e-09 4.828276e-10 4.866142e-10 3.3388514e-10 2.365441e-11 3.1333248e-13 2.2213169e-10
2.365441e-11 9.72472e-11 2.628523e-08 1.2034179e-10 1.487622e-08 4.8992893e-10 1.2034183e-10 2.3326903e-11
7.191939e-10 6.730794e-11 6.55517e-11 3.0028574e-10 6.730794e-11 3.6490452e-10 1.2404194e-09 1.06162214e-11
7.3887724e-10 5.1159507e-11 1.0616222e-11 2.50761e-11 1.3494519e-09 1.0097622e-10 5.7421044e-11 5.364245e-10
1.0097622e-10 4.2139606e-10 7.318654e-10 5.9997375e-11 3.2359324e-11 2.7977504e-10 5.999737e-11 2.709714e-10
6.6975607e-09 3.4370642e-11 3.773248e-09 1.5842982e-10 3.4370642e-11 8.6923906e-12 6.3581007e-10 6.728001e-11
3.1521096e-12 2.7453834e-10 6.728e-11 2.7576527e-10 3.3677616e-09 1.9109117e-11 1.8875215e-09 1.0097886e-10
00000000: 0928 d532 e668 472f 8466 7632 97ce 0930
00000010: e668 472f f002 662f ab0f f32f e648 de2d
00000020: 47b1 5c2f f68c e92e e648 de2d 8891 192e
00000030: 8d58 7532 1547 802e b436 0932 1cfc 7b2f
00000040: 1547 802e bdf4 5f2c 67ec 4e2f 4e55 832d
00000050: e87c 022c 00f4 452f 5055 832d 9e3c 642e
00000060: 8909 5832 f47d 822e 3487 f631 3ff9 7f2f
00000070: f47d 822e 0c2f 492d b50a 9c33 b722 0330
00000080: 5ccb 2c33 f480 1131 b322 0330 3d88 f62f
00000090: e946 eb30 ab37 e22e b728 852f 803b 3530
000000a0: ab37 e22e 49fa fa2f 0bf9 0b31 1580 3a2f
000000b0: a64c 2a2e bc5c b330 0f80 3a2f bb79 4930
000000c0: 515c b62f 9d0d 092e b1a3 a72b 9a09 4d2f
000000d0: 9d0d 092e 8d3a ae2e 2f83 1830 d3d6 a12e
000000e0: 411b 5e2e a2ce b32f d3d6 a12e c4f7 b72f
000000f0: 8a07 1e31 24c2 362f 7de7 322b 79e1 ac30
00000100: 24c2 362f e175 6830 281c 2530 3533 082e
00000110: 53c5 b92f 3b85 072f 3533 082e 7f3f 1a2f
00000120: d1ad e62e 6e5c b42c 4c71 742e df6e 982d
00000130: 6e5c b42c 6afc aa2d 40b1 db32 9c16 6e2f
00000140: cc88 8032 0ee2 4c30 a116 6e2f 8ca5 532f
00000150: a171 6630 8348 552e 53e3 e32e 635f 0430
00000160: 8348 552e 16dd ab2f be61 0c33 1198 8d2f
00000170: ee06 a132 684c 8030 1398 8d2f f577 bd2f
00000180: 1c05 822d 9d02 a52b 6755 052d 8923 a92c
00000190: 9d02 a52b ed26 dd2b 1384 df2e cfa2 952c
000001a0: 4934 1e2e b3f4 152e d2a2 952c 4201 752d
000001b0: 8a6b c12f af42 fd2d afc8 3b2f dc5f 002f
000001c0: af42 fd2d 8acd 9a2e 013c a332 41e4 c82e
000001d0: 3b7f 3832 c380 d22f 3ce4 c82e 88d7 642e
000001e0: 5b8f 3531 cea8 412e 32f7 e330 843c fb2e
000001f0: cea8 412e 2c8c d02e 1267 8b31 f30e 182e
00000200: 2faf 1c31 5fcc 392f ed0e 182e 7a85 7e2e
00000210: d1f9 c632 39c4 0d2f 841a 4332 fc4c 8230
00000220: 39c4 0d2f 3c4d 942f 2beb 132f 4c27 3f2d
00000230: 2c2a 562e e16f a62e 4d27 3f2d 60de 8a2e
00000240: 6477 c02f c866 882d 03c6 4a2e 01c2 342f
00000250: c866 882d 0bd3 662e 3617 b92f 89fc f22d
00000260: 2dfa 582e 9f2b 0b2f 8bfc f22d fb11 be2e
00000270: 4409 7a2f b00f c82d 13ee 0c2e 74fe dd2e
00000280: b00f c82d 70f8 0a2f fcdc 3b30 726e 872e
00000290: f4df 342c 86da 852f 736e 872e 816b 882f
000002a0: 0cb5 fa30 8702 152d 6b79 8730 6c25 252e
000002b0: 8702 152d a794 122d c60a 1834 f04f 3330
000002c0: 68c3 ab33 7319 3831 f14f 3330 b643 222e
000002d0: 74df 1b32 49d0 332e 94b4 b431 f582 232f
000002e0: 49d0 332e 955f 132d 48fe 0332 20be 4d2e
000002f0: 4454 9231 c805 7a2f 22be 4d2e fc3e 342e
00000300: a366 4d33 46b4 492f d264 e632 cbb5 6630
00000310: 46b4 492f b770 102d 5955 9c33 fdb7 0430
00000320: 02d1 3233 f6ec 0b31 f9b7 0430 6ec2 0530
00000330: 288e b72f ff10 d02d f863 b02a 833c 742f
00000340: ff10 d02d 4fd9 d52e d5c9 e132 3451 042f
00000350: 4f92 7f32 afab 0630 3751 042f 842f cd2d
00000360: c6b0 4530 0003 942e 5426 902e 7615 a52f
00000370: 0003 942e bf9b c82f 617b aa30 36c3 3a2d
00000380: dd19 4b30 7c00 612e 37c3 3a2d 5b92 dc2d
00000390: 9e77 b930 8f0c de2e 598a 7c2e 8573 1330
000003a0: 8f0c de2e 39aa e72f 732c 4930 85ef 832e
000003b0: 5c51 0e2e d6ce 992f 84ef 832e d6f7 942f
000003c0: 5e20 e631 e729 172e d7a5 8131 0832 2e2f
000003d0: e729 172e 0ceb 182d 28c5 2e30 47f3 932e
000003e0: 5ccf 5d2c d6ed 962f 46f3 932e 839a 972f
000003f0: 4a6e 6731 e815 a82d a1b5 0131 0b0e de2e

exp_avg f4 [128]
-3.325788e-05 -3.086453e-06 -2.0302416e-05 -4.4125537e-07 -1.554639e-05 -5.1276576e-05 -9.2553155e-06 -1.3682278e-05
2.8394925e-07 -4.2142133e-06 1.889353e-06 -8.090619e-06 8.8275e-07 3.454322e-05 -2.260299e-06 5.2429845e-05
-1.9704703e-07 -1.3362823e-06 8.966713e-06 4.074499e-05 -1.1257345e-05 -2.2725351e-05 2.3557497e-05 5.796263e-06
-9.557113e-06 2.0386685e-06 3.185397e-06 1.0434241e-05 -2.9099192e-06 -1.7769595e-05 2.5622168e-05 -2.1473663e-05
3.3682743e-05 7.171688e-05 -1.8461808e-06 -4.2204014e-05 2.0565398e-05 1.0823692e-05 2.4061346e-06 -3.3384047e-06
2.7071985e-05 -9.3849685e-06 -1.0401783e-05 -1.5127209e-06 1.3342146e-06 6.459791e-05 -1.2018833e-06 -6.725969e-06
5.580602e-05 4.364641e-05 -5.0426706e-06 8.723967e-07 2.1436115e-05 -1.3691497e-05 -4.752728e-06 -3.1191885e-05
-7.403127e-06 4.9181876e-05 1.8260618e-05 -3.0869833e-05 4.3332202e-05 -1.066336e-05 5.2327896e-06 -7.3587516e-06
1.1817807e-05 -5.0173794e-06 -2.2206729e-07 -4.778922e-07 -5.1940307e-05 -5.903511e-05 -3.6564137e-07 -4.0375915e-05
8.302498e-06 -3.3973165e-06 -1.9551218e-05 -9.024016e-06 3.6706453e-05 2.070926e-06 -8.574875e-08 -2.1712422e-05
1.4336291e-06 2.219371e-05 9.4346915e-06 -3.2107828e-06 -7.2427306e-06 -2.8561003e-06 -2.9217428e-05 -3.2731418e-06
-7.64161e-06 3.1963461e-06 3.6564686e-06 -1.1272296e-06 7.795385e-07 4.2739237e-05 -2.256754e-05 -6.8047157e-06
6.5656735e-05 2.091988e-05 1.5757503e-05 8.63511e-08 -1.525206e-05 1.1542821e-05 5.1746338e-05 7.4797e-06
-3.5961361e-06 -2.3375464e-05 -4.07176e-05 -5.7002176e-06 1.1591865e-06 8.601691e-06 1.4388808e-06 -4.060048e-06
3.3721053e-06 1.1600793e-05 -3.1824788e-05 3.19445e-05 -1.7946395e-05 -3.6192525e-06 5.710519e-05 7.3234094e-07
5.463532e-06 -1.857235e-06 -3.4642308e-05 -1.2176249e-06 -5.4952184e-06 -4.056058e-05 2.7178073e-06 3.2767632e-06
00000000: 607e 0bb8 dc20 4fb6 1b4f aab7 ade5 ecb4
00000010: 9e69 82b7 ce11 57b8 4747 1bb7 f08c 65b7
00000020: b071 9834 d167 8db6 ad95 fd35 f2bc 07b7
00000030: 1ef6 6c35 80e2 1038 a4af 17b6 1ee8 5b38
00000040: e093 53b4 4f5a b3b5 bd6f 1637 9ae5 2a38
00000050: eedd 3cb7 52a2 beb7 579d c537 857d c236
00000060: 7d57 20b7 0fd0 0836 b4c4 5536 b90e 2f37
00000070: 0848 43b6 ea0f 95b7 30ef d637 5722 b4b7
00000080: 9246 0d38 b566 9638 4aca f7b5 3704 31b8
00000090: db83 ac37 6797 3537 1479 2136 5b09 60b6
000000a0: a518 e337 2274 1db7 5183 2eb7 b208 cbb5
000000b0: 4413 b335 bd78 8738 6550 a1b5 a2af e1b6
000000c0: 4211 6a38 fa10 3738 3634 a9b6 a52e 6a35
000000d0: b5d1 b337 88b4 65b7 9f79 9fb6 08d4 02b8
000000e0: 6068 f8b6 a348 4e38 612e 9937 3b7a 01b8
000000f0: 99bf 3538 c8e6 32b7 5295 af36 32eb f6b6
00000100: 1845 4637 f65a a8b6 6471 6eb4 8048 00b5
00000110: 7bda 59b8 779c 77b8 5e4d c4b4 4f59 29b8
00000120: f54a 0b37 74fd 63b6 ec01 a4b7 db65 17b7
00000130: 41f5 1938 3dfa 0a36 e024 b8b3 1223 b6b7
00000140: 1f6b c035 a12c ba37 b149 1e37 d478 57b6
00000150: 9506 f3b6 6eab 3fb6 f317 f5b7 26a8 5bb6
00000160: 7734 00b7 cf80 5636 a761 7536 504b 97b5
00000170: 7a41 5135 e842 3338 6c4f bdb7 1054 e4b6
00000180: 31b1 8938 1a7d af37 fb2e 8437 0570 b933
00000190: 19e3 7fb7 0aa8 4137 350a 5938 22fa fa36
000001a0: 2655 71b6 6d16 c4b7 31c8 2ab8 7f44 bfb6
000001b0: 5895 9b35 fb4f 1037 911f c135 8c3b 88b6
000001c0: 544c 6236 07a1 4237 9b7b 05b8 25fc 0538
000001d0: 978b 96b7 49e2 72b6 3b84 6f38 1696 4435
000001e0: 6253 b736 1c46 f9b5 e54c 11b8 466d a3b5
000001f0: 9163 b8b6 971f 2ab8 9363 3636 5de6 5b36

exp_avg_sq f4 [128]
7.254481e-10 1.0108342e-10 2.3333582e-10 5.972347e-11 2.3736382e-10 1.908275e-09 4.1148698e-10 6.784841e-10
1.2464914e-10 2.943838e-10 6.648707e-10 1.2387316e-10 2.0504674e-11 8.6615976e-10 1.9397994e-10 1.0302321e-09
4.6898735e-12 1.7011646e-11 1.1516952e-10 3.6541983e-10 1.7613222e-10 1.3829621e-10 5.1574384e-10 4.3463285e-11
6.2028244e-11 1.10497445e-10 9.097741e-11 2.4634828e-10 3.3880922e-11 2.6093372e-09 1.635395e-10 1.8712196e-10
7.3379586e-10 1.9313104e-09 9.4617675e-11 4.813668e-10 2.6923175e-10 4.246489e-11 4.0390483e-10 2.3998956e-10
1.3748254e-10 2.6912e-10 7.643655e-11 1.998481e-10 5.1077136e-11 1.348307e-09 1.0938916e-11 1.0895385e-09
1.6771537e-09 5.485318e-10 2.8445424e-10 9.01305e-11 7.936374e-10 5.1251753e-10 9.512237e-10 4.5098442e-10
1.3521989e-10 2.2734012e-09 7.402679e-10 3.1297456e-10 8.4248797e-10 5.1243565e-10 1.5935708e-11 6.017775e-10
3.8545233e-11 7.744393e-10 1.0893496e-10 6.260488e-10 1.1191507e-09 1.6091386e-09 3.9955733e-11 5.770153e-10
1.0164483e-10 4.589345e-11 1.136291e-10 3.397163e-11 1.5554955e-09 2.5310616e-11 4.0780462e-10 1.738338e-10
3.211065e-11 5.5717986e-10 2.080091e-10 1.6245433e-10 1.5643707e-10 1.3432652e-10 4.1432968e-10 8.403599e-11
7.252537e-11 9.935148e-11 7.857381e-11 1.302632e-10 1.3834907e-10 5.293381e-10 2.0637037e-10 3.6085243e-10
1.5914562e-09 3.0387415e-10 2.12489e-09 1.2311048e-11 1.1537299e-09 1.6276231e-09 1.7955029e-09 3.7178255e-10
2.428426e-10 5.989695e-10 8.0294016e-10 1.896986e-10 6.3677685e-10 3.0989422e-10 2.736103e-10 9.645514e-10
1.4119138e-11 2.2782663e-10 6.4787803e-10 2.78079e-10 2.5527913e-10 1.2397038e-10 7.5381035e-10 1.1446926e-09
4.0791884e-11 2.93337e-11 6.82015e-10 1.2365242e-10 5.345415e-10 9.526729e-10 1.3869066e-10 2.391954e-11
00000000: df68 4730 e848 de2e 1947 802f 5355 832e
00000010: fd7d 822f bb22 0331 a537 e22f 1380 3a30
00000020: 9d0d 092f d6d6 a12f 1ec2 3630 3233 082f
00000030: 6c5c b42d 9316 6e30 8048 552f 1298 8d30
00000040: a002 a52c d2a2 952d ad42 fd2e 45e4 c82f
00000050: d0a8 412f ec0e 182f 3fc4 0d30 4f27 3f2e
00000060: cc66 882e 88fc f22e bb0f c82e 706e 872f
00000070: 8702 152e f24f 3331 47d0 332f 26be 4d2f
00000080: 4bb4 4930 f9b7 0431 0411 d02e 2d51 0430
00000090: 0003 942f 37c3 3a2e 8d0c de2f 87ef 832f
000000a0: e529 172f 46f3 932f f415 a82e 3dbc 5b2f
000000b0: bea3 602e 564f b930 7f70 402d babe 9530
000000c0: 9a81 e630 7ec7 1630 6061 9c2f f632 c62e
000000d0: 4427 5a30 37e1 0c30 35bc 8230 6aee f72f
000000e0: 04ad 142f 193a 1c31 b97b 4b30 410f ac2f
000000f0: d294 6730 74db 0c30 062c 8c2d 546a 2530
00000100: 1386 292e 52e0 5430 ee8c ef2e 4516 2c30
00000110: 9dd0 9930 8828 dd30 28ba 2f2e d89b 1e30
00000120: f484 df2e 6ed7 492e 7fdf f92e a868 152e
00000130: 22c9 d530 71a2 de2d 6631 e02f dd21 3f2f
00000140: 6139 0d2e 0c28 1930 5bb5 642f d49e 322f
00000150: 1f01 2c2f 8eb1 132f b8c7 e32f 0fcc b82e
00000160: 277c 9f2e e979 da2e 1fc9 ac2e d539 0f2f
00000170: cd1d 182f db80 1130 18e8 622f 7761 c62f
00000180: 63ba da30 7c0e a72f 7605 1231 0894 582d
00000190: 4391 9e30 e6b2 df30 a4c5 f630 be63 cc2f
000001a0: 0f81 852f bba4 2430 e4b5 5c30 6993 502f
000001b0: 3009 2f30 bc5d aa2f 3a6b 962f 2391 8430
000001c0: f262 782d 7f7f 7a2f 5d16 3230 24e0 982f
000001d0: 5857 8c2f 8f4e 082f b034 4f30 4a53 9d30
000001e0: 9467 332e cf02 012e 8a78 3b30 10f5 072f
000001f0: 04ef 1230 33ef 8230 f37d 182f 0466 d22d
