Lofty2024/results/MoveToNearPlayer/MoveToPoint/MoveToPoint-500042.pt (torch, 470074 bytes, 33 tensors)

network_body._body_endoder.seq_layers.0.weight f4 [128, 12]
0	0x3c35cc0c	0.011096012
1	0xbea235eb	-0.3168176
2	0x3f2e9e6d	0.6821049
3	0xbde3d329	-0.1112426
4	0xbdc4acd4	-0.09603277
5	0xbed7066d	-0.4199709
6	0x3e894dbb	0.26817116
7	0xbeb2e3ce	-0.34939426
8	0xbeaec7d9	-0.34136847
9	0xbf0c04a5	-0.54694587
10	0x3e955f34	0.29174197
11	0xbe0fbcaa	-0.14036813
12	0x3ec306f3	0.3809124
13	0xbe2b13f3	-0.16706829
14	0xbe46dec9	-0.19420923
15	0xbdc29ed8	-0.09502953
16	0xbdd0e491	-0.101998456
17	0xbe7a77f7	-0.24459825
18	0xbd513529	-0.051076088
19	0xbe2f2770	-0.17104888
20	0xbf0f1672	-0.55893624
21	0xbd1c586a	-0.038170256
22	0x3db23889	0.087021895
23	0x3def381b	0.11680623
24	0x3f09e430	0.5386381
25	0x3e50915c	0.2036795
26	0xbe3b6934	-0.1830185
27	0xbdbab3eb	-0.09116348
28	0x3df486c6	0.119397685
29	0xbd15a4bd	-0.03653406
30	0xbdf8d3fe	-0.12149809
31	0x3eaa7fd1	0.3330064
32	0xbeb8ac75	-0.36069074
33	0x3e22c16c	0.15894097
34	0xbded56d7	-0.11588829
35	0xbe688a97	-0.22709118
36	0xbb4f43b1	-0.003162604
37	0x3e9df2a4	0.30849183
38	0xbc657d0d	-0.014006865
39	0x3e0ca02a	0.13732973
40	0xbd3e5859	-0.046470974
41	0x3eb81d9c	0.3596009
42	0x3d858a28	0.06520492
43	0x3cd5d3a8	0.026101902
44	0xbded2a5f	-0.11580347
45	0xbeeb0880	-0.45904922
46	0x3d76f93d	0.060296286
47	0x3e68d867	0.22738801
48	0x3f132eef	0.5749349
49	0xbe8f9f32	-0.28051144
50	0xbec7a070	-0.38989592
51	0xbe8b37db	-0.27191052
52	0xbcf6cd89	-0.030127304
53	0x3de1ddcc	0.110286325
54	0x3f102482	0.56305707
55	0x3ed40e9f	0.41417405
56	0x3efdb5ee	0.49552864
57	0xbea0e657	-0.31425735
58	0xbda8a6a6	-0.08234911
59	0x3e2cb0b8	0.16864288
60	0xbf3bb55c	-0.7332361
61	0x3eb6da08	0.3571322
62	0x3e58d6d5	0.21175702
63	0xbec853b0	-0.39126348
64	0x3e8b75c7	0.27238294
65	0xbd075bf7	-0.03304669
66	0x3ead0255	0.33790842
67	0xbee45684	-0.44597256
68	0x3ea7ffe9	0.3281243
69	0x3e8186b8	0.25298095
70	0xbee4df8a	-0.44701797
71	0xbf0c857a	-0.5489117
72	0x3df78ba6	0.12087183
73	0xbe7df401	-0.24800111
74	0x3e5abf94	0.21362144
75	0xbe454f4e	-0.19268534
76	0xbec2ba14	-0.3803259
77	0x3e7a868a	0.24465385
78	0xbe913404	-0.28359997
79	0xbd22e429	-0.03976837
80	0x3ed13047	0.40857145
81	0x3e0b5505	0.13606651
82	0x3e8d0206	0.27540606
83	0x3d9af238	0.07565731
84	0x3e2d634c	0.1693241
85	0x3b582757	0.0032982433
86	0x3d85602b	0.06512483
87	0xbe1b4838	-0.15164268
88	0xbe6d81a8	-0.23193991
89	0x3f0d3047	0.5515179
90	0x3dbb1324	0.0913451
91	0x3e869371	0.26284364
92	0x3ea7666b	0.32695326
93	0x3c528bba	0.012850696
94	0x3e0864e7	0.13319741
95	0x3f28bdcc	0.6591461
96	0x3d88cec0	0.066800594
97	0xbf0274fa	-0.5095974
98	0xbe3df634	-0.1855095
99	0x3de963ab	0.11395963
100	0xbe33880a	-0.17532364
101	0xbca5433a	-0.020173658
102	0x3e3dcf19	0.18536033
103	0xbed186fe	-0.40923303
104	0x3e5f82c5	0.21827228
105	0xbdca3e91	-0.09875215
106	0x3c7a55d5	0.015279253
107	0xbf0e2413	-0.55523795
108	0x3d96b41e	0.073585734
109	0x3ef5eda3	0.48032865
110	0xbdf51774	-0.11967364
111	0x3e854b1d	0.2603387
112	0x3f152f74	0.5827553
113	0x3ee141e8	0.43995595
114	0x3e0c015e	0.13672397
115	0x3e87dd83	0.26536188
116	0x3e2bbedd	0.16772027
117	0xbeac7645	-0.33683982
118	0x3cf85e1b	0.03031831
119	0x3ebeafeb	0.3724359
120	0x3caeade1	0.021323146
121	0x3e1e302a	0.1544806
122	0x3da0e5af	0.07856309
123	0xbe973632	-0.29533535
124	0x3d985682	0.07438375
125	0xbe17dc0c	-0.14830035
126	0xbed7a05b	-0.4211453
127	0x3eadd495	0.3395125
128	0x3d8ed56d	0.069743015
129	0x3dbad3a2	0.09122397
130	0x3e46e00c	0.19421405
131	0xbda0e4f1	-0.07856167
132	0xbeaca1d6	-0.3371722
133	0xbe501de0	-0.20323896
134	0xbef0c31e	-0.47023863
135	0xbe4455f1	-0.19173409
136	0x3e483f18	0.19555318
137	0x3eddf888	0.43353677
138	0x3f533232	0.82498467
139	0x3e22a088	0.1588155
140	0xbdf27b6a	-0.118399456
141	0x3c6ef3ba	0.014584476
142	0x3c145af0	0.009054884
143	0x3e416234	0.18885118
144	0xbd21e752	-0.039527245
145	0x3e7d375c	0.24728149
146	0x3d90607f	0.07049655
147	0xbe1126a4	-0.14174896
148	0xbe0e730d	-0.13911076
149	0x3df6c282	0.12048818
150	0x3d44eb55	0.048075993
151	0x3e489ef5	0.19591887
152	0xbd260e94	-0.040541247
153	0x3d88cddc	0.066798896
154	0x3e3ab324	0.18232399
155	0x3f344701	0.70420843
156	0x3df380a9	0.11889774
157	0xbdb60883	-0.08888342
158	0xbdf5b98b	-0.1199828
159	0xbf5bd40f	-0.8587045
160	0xbea7c934	-0.32770693
161	0x3c947198	0.018120572
162	0xbc7b5a05	-0.015341287
163	0xbef75c9a	-0.48312837
164	0xbf3666fe	-0.71250904
165	0xbdd22cb0	-0.1026243
166	0xbe9e256e	-0.30887932
167	0x3bc04a97	0.005868267
168	0x3e40d90d	0.18832798
169	0xbe1f7962	-0.15573648
170	0x3e2b8748	0.16750824
171	0x3dcb2bce	0.099204645
172	0xbdd23edb	-0.10265895
173	0x3c8e0758	0.017337486
174	0xbe3c7080	-0.1840229
175	0xbccc09c2	-0.024906997
176	0x3ea35b45	0.3190557
177	0x3dec0e79	0.11526198
178	0x3e0bd436	0.13655171
179	0xbe06ab69	-0.13151325
180	0x3f06aafc	0.5260465
181	0x3daafab4	0.08348599
182	0xbdee9985	-0.11650375
183	0xbe121727	-0.14266644
184	0xbdb5d366	-0.08878212
185	0x3d05d33c	0.032672152
186	0x3d67efc3	0.05662514
187	0x3e64e3c0	0.22352505
188	0x3eae1ed8	0.34007907
189	0x3f393360	0.7234402
190	0x3ea0aa8b	0.31380114
191	0xbe1f0d90	-0.15532517
192	0xbd571057	-0.052505817
193	0xbe8bc799	-0.27300718
194	0xbd900491	-0.07032121
195	0x3df06d90	0.117396474
196	0xbd9adc1e	-0.07561515
197	0xbf355927	-0.7083916
198	0x3d41756c	0.047231123
199	0xbec2761b	-0.37980732
200	0xbe20cab3	-0.15702324
201	0x3f05e11e	0.52296627
202	0xbe70ce03	-0.23516087
203	0x3e1f9b2b	0.15586536
204	0x3db3ea85	0.087849654
205	0xbd2828c2	-0.041054495
206	0x3e899b58	0.2687633
207	0xbd6cec97	-0.057842817
208	0xbcd93a2f	-0.026517002
209	0x3c8b825c	0.017029934
210	0x3e1a9b90	0.15098405
211	0x3f05fa31	0.52334887
212	0xbd468f81	-0.0484767
213	0xbeb904ef	-0.36136577
214	0x3e27e2c2	0.16395095
215	0xbe49154c	-0.1963703
216	0x3e8afbef	0.27145335
217	0x3d34bf67	0.044127848
218	0x3e458e25	0.19292505
219	0x3da4bbdc	0.08043644
220	0x3d80b5a9	0.06284649
221	0xbe428807	-0.18997203
222	0x3ecd3cac	0.4008535
223	0x3e8a3262	0.26991564
224	0xbe1b54ad	-0.1516902
225	0xbdf708d5	-0.120622315
226	0xbcaee4ac	-0.021349274
227	0x3e40c8f8	0.18826663
228	0xbea365e3	-0.3191367
229	0x3f28093c	0.6563909
230	0xbe899b8b	-0.26876482
231	0xbf23f373	-0.6404335
232	0x3dca1fe0	0.09869361
233	0xbf4280a4	-0.7597754
234	0xbd167efc	-0.036742195
235	0x3e1345fe	0.14382169
236	0xbecd25b5	-0.4006783
237	0xbecb758c	-0.3973812
238	0x3e8a1036	0.26965493
239	0x3e8f8725	0.28032795
240	0x3df93ab3	0.12169399
241	0x3e39052c	0.18068379
242	0xbe54ec93	-0.20793371
243	0x3f08612c	0.5327327
244	0x3e943269	0.2894471
245	0x3eeef7df	0.46673486
246	0x3e9fe183	0.3122674
247	0xbe8aa938	-0.2708223
248	0x3ec0dca6	0.3766834
249	0xbe09eba0	-0.1346879
250	0x3ae06975	0.0017121272
251	0x3e99d93f	0.30048558
252	0xbe0796a9	-0.13241066
253	0xbeb120e1	-0.34595397
254	0xbeaa43a0	-0.3325472
255	0xbd20eaa0	-0.039286256

network_body._body_endoder.seq_layers.0.bias f4 [128]
0	0x3bb8cddd	0.005639775
1	0xbca9338b	-0.02065446
2	0x3d20b004	0.03923036
3	0x3c35fbfe	0.011107443
4	0x3cbf976b	0.023387631
5	0x3b8c97ab	0.004290541
6	0xbc8e2eb0	-0.017356247
7	0x3b8afb4c	0.0042413827
8	0x3b4caf22	0.0031232317
9	0xbb9e1ee7	-0.004825461
10	0x3c350d7a	0.011050576
11	0x3d175fc1	0.036956552
12	0x3cf40d66	0.029791545
13	0xbcc23417	-0.023706479
14	0xbc8142ec	-0.015778981
15	0x3cdfb086	0.027305853
16	0x3c20d4f1	0.009816394
17	0xb9a31b6a	-0.00031110208
18	0x3c4d717f	0.012539267
19	0x3ca09bca	0.019605536
20	0x3c9a5759	0.018840479
21	0x3d1389f1	0.036020223
22	0xbcaef6eb	-0.021357974
23	0x3cc51d05	0.02406169
24	0xbc6a7dc5	-0.014312212
25	0x3d36eb52	0.044658013
26	0xbca72b98	-0.02040653
27	0xbb8bf89a	-0.004271579
28	0xbbb093ea	-0.0053887265
29	0x3c73703d	0.014858303
30	0x3c944011	0.018096955
31	0xbb811c73	-0.003940159
32	0xbc357aec	-0.01107667
33	0xbc052bb1	-0.008128093
34	0x3a51b9af	0.00080003863
35	0x3b59871c	0.0033192104
36	0x3c99dd75	0.018782357
37	0xbc6c6b4c	-0.014429878
38	0xbb803f0c	-0.003913766
39	0x3c9164f4	0.017748334
40	0x3cbf966b	0.023387155
41	0x3c7fd586	0.015614873
42	0xbcc745a5	-0.024325201
43	0xbbc6de04	-0.006068947
44	0x3c669bbd	0.014075217
45	0xbc6ee655	-0.014581283
46	0x3c49d39a	0.012318516
47	0xbb0ea3a4	-0.0021765018
48	0x3c904dbb	0.01761519
49	0x3c85d25d	0.01633566
50	0x3c818653	0.015811121
51	0x3c493c8c	0.012282502
52	0x3c823e3b	0.015898814
53	0xbc9d9763	-0.019237226
54	0x3c71842d	0.014740986
55	0x3cd65cfd	0.026167387
56	0xbb8a1108	-0.004213456
57	0x3d4cc719	0.04999456
58	0xbc46643e	-0.012108861
59	0xbc843cd7	-0.016142292
60	0x3c84edc9	0.016226666
61	0x3c026c4f	0.007960393
62	0x3ba311a9	0.0049764705
63	0xbb571dde	-0.0032824199
64	0xbc7ad5ed	-0.015309793
65	0xbc437155	-0.011928876
66	0x3ccc648f	0.024950294
67	0xbb9bf64e	-0.0047595864
68	0xbcd644ba	-0.026155818
69	0x3c1631f0	0.009167179
70	0x3ca999e8	0.020703271
71	0x3c9e6dd3	0.019339478
72	0x3c152476	0.009102931
73	0x3c3c4c23	0.011492762
74	0xbc80f6c1	-0.015742661
75	0x3c177731	0.009244726
76	0xbcd96629	-0.026537972
77	0x3c96e751	0.018420847
78	0x3c8561c3	0.016281968
79	0xbbcc34d4	-0.0062318835
80	0x3ccba395	0.024858275
81	0x3ca56ae0	0.020192564
82	0xbb6a736a	-0.0035774359
83	0x3c441578	0.011968009
84	0xbc467ab8	-0.012114219
85	0xbc294383	-0.010331037
86	0xbbbf346a	-0.0058351057
87	0xb9a5f0d5	-0.00031650686
88	0xbc86c269	-0.016450124
89	0x3c359e25	0.011085068
90	0x3ca04f4e	0.019569065
91	0xbca18932	-0.01971874
92	0x3cdf9cf1	0.027296515
93	0xbb5699cc	-0.0032745479
94	0xbd00e6f2	-0.031470247
95	0x3ccf20c4	0.025284179
96	0x3cc22db8	0.023703441
97	0xbce8cffc	-0.028419487
98	0xbb03990c	-0.0020080237
99	0x3ab81edb	0.0014047282
100	0x3cb80f31	0.022468181
101	0xbc4d8f8b	-0.01254643
102	0x3cb41be3	0.021985954
103	0xbb2bfecb	-0.0026244398
104	0x3c024ee5	0.00795338
105	0x3c931c79	0.017957913
106	0x3bbbc30c	0.0057300385
107	0x3cc43b61	0.023954095
108	0x3c47b59a	0.012189293
109	0xbbbc934d	-0.0057548643
110	0x3c24be04	0.010055069
111	0xbcd51d72	-0.026015017
112	0x3c14db3f	0.0090854755
113	0xbab37c11	-0.0013693591
114	0xbbbf0b3a	-0.0058301957
115	0x3cdbdd5f	0.026838956
116	0xbc669f67	-0.01407609
117	0x3b8515da	0.004061443
118	0x3cbec7f8	0.023288712
119	0xbb8495de	-0.004046186
120	0x3c88b02b	0.016685566
121	0x3c2cd714	0.0105493255
122	0xbbb77479	-0.0055986014
123	0x3d2602d9	0.04053006
124	0x3cb11940	0.021618485
125	0x3b68561e	0.003545172
126	0x3c64c56f	0.013963087
127	0x3c35ebf6	0.011103621

network_body._body_endoder.seq_layers.2.weight f4 [128, 128]
0	0x3df96948	0.12178284
1	0x3cdfa00d	0.027297998
2	0x3e0f4672	0.13991717
3	0x3d9ea7e9	0.0774687
4	0x3a93e63c	0.0011283825
5	0x3d628224	0.055299893
6	0x3e1cd3ef	0.15315221
7	0xbcb6005e	-0.022216972
8	0x3cbc1dff	0.022963522
9	0x3dd2b4cf	0.10288393
10	0xbe4c7cff	-0.19969557
11	0xbc26ab33	-0.010172653
12	0x3d90bb40	0.07066965
13	0x3b099efa	0.0020999298
14	0xbd09a49a	-0.033604242
15	0x3c8013a6	0.01563437
16	0xbd253c0f	-0.04034048
17	0x3e0fffa2	0.1406236
18	0x3d495d4f	0.04916125
19	0xbd090208	-0.033449203
20	0xbd13e9ab	-0.036111515
21	0x3cdec3ea	0.027193028
22	0xbde9ed13	-0.114221714
23	0xbe3c93fd	-0.18415828
24	0xba7d31c6	-0.0009658601
25	0x3da0df59	0.078551
26	0x3e065056	0.13116583
27	0xbd62c66e	-0.05536502
28	0xbe212327	-0.15736066
29	0x3dda0809	0.10646064
30	0x3d8e7d1c	0.069574565
31	0x3da53c83	0.08068182
32	0xbd650ab1	-0.0559184
33	0x3b75288b	0.0037408199
34	0xbcf9279e	-0.030414399
35	0xbd332c0f	-0.04374319
36	0x3d9640e3	0.07336595
37	0xbd81dd9f	-0.06341099
38	0x3dce04c9	0.100595064
39	0xbde003f3	-0.10938253
40	0xbd99140e	-0.07474528
41	0xbcde9f9e	-0.02717572
42	0xb98341a1	-0.00025035164
43	0xbc0707c8	-0.008241601
44	0x3d8dd0c8	0.069245875
45	0x3d756b0e	0.05991655
46	0x3d6931d1	0.056932274
47	0xbdba1617	-0.090862446
48	0xbd5959ae	-0.05306404
49	0xbd51a477	-0.051182237
50	0xbe045b16	-0.12925372
51	0xbdf2e0a2	-0.118592516
52	0xbe153ace	-0.14573213
53	0xbdd977c8	-0.106185496
54	0xbc53f93f	-0.012937843
55	0x3c8b465f	0.017001329
56	0xbddc2924	-0.107500345
57	0xbccdf65c	-0.025141887
58	0xbd7dc097	-0.061951246
59	0x3d7d61a4	0.061860695
60	0x3cdb0128	0.02673395
61	0x3ca7d3b3	0.020486688
62	0x3e0fd808	0.14047253
63	0xbcb71e65	-0.02235336
64	0xbdb277c9	-0.087142535
65	0x3e1a309f	0.1505761
66	0xbdf9aeaa	-0.12191518
67	0x3d6009c6	0.05469682
68	0x3d0a1f5b	0.03372131
69	0x3d4fd8f8	0.050744027
70	0xbe0ad705	-0.13558586
71	0xbd8ed660	-0.069744825
72	0x3dbde1b0	0.09271562
73	0xbde223ef	-0.1104201
74	0x3dc7d599	0.097575374
75	0xbdec2ffa	-0.11532588
76	0x3e078fd6	0.13238463
77	0xbb8e0c97	-0.004334997
78	0xbd41ed76	-0.0473456
79	0x3ca4c68b	0.020114204
80	0xbdb39b9b	-0.08769914
81	0x3e3f678a	0.18691841
82	0x3c6bb620	0.014386684
83	0x3dd624a4	0.104562074
84	0x3de1753b	0.11008688
85	0xbb05e401	-0.002043009
86	0x3ca9b7a4	0.02071745
87	0x3d804c50	0.062645555
88	0xbda391c2	-0.079867855
89	0x3deaa13a	0.11456533
90	0x3c81913a	0.01581632
91	0x3d8a6953	0.0675837
92	0x3cd9aef1	0.026572676
93	0x3c82525e	0.015908416
94	0xbd24103e	-0.040054552
95	0xbd4916e9	-0.049094114
96	0x3db30de1	0.087428816
97	0xbb3e6487	-0.0029051618
98	0x3dbe3a94	0.09288517
99	0x3d691c0d	0.056911517
100	0x3d145c57	0.036220875
101	0x3dae33f3	0.08506002
102	0x3dced327	0.10098868
103	0x3b95bf5f	0.0045699324
104	0xbb3157ce	-0.0027060392
105	0x3d913d3a	0.07091756
106	0x3c722cb4	0.014781166
107	0x3d703759	0.058646534
108	0x3de6119a	0.11233826
109	0x3daedd3a	0.08538289
110	0x3db1ad69	0.086756535
111	0xbd01f8c7	-0.031731393
112	0xbdf65aac	-0.12029013
113	0x3dab51b7	0.08365195
114	0x3dead542	0.11466457
115	0x3dd0e77e	0.10200404
116	0xbd21b90f	-0.039483126
117	0xbd7f4bec	-0.062328264
118	0x3cf8cf6a	0.03037234
119	0x3b6dcde7	0.0036286057
120	0xbb9e0a84	-0.004823031
121	0xbcac69a9	-0.021046476
122	0xbdcef270	-0.10104835
123	0xbd60c31a	-0.054873563
124	0xbde66c1e	-0.112510905
125	0xbdce25ff	-0.10065841
126	0xbd925a34	-0.07146111
127	0x3dedc158	0.11609143
128	0xbd5aab5e	-0.053386085
129	0x3c973a1e	0.01846033
130	0xbca00f0f	-0.01953843
131	0xbd93bd8b	-0.07213887
132	0x3e42644a	0.1898357
133	0xbc61ab33	-0.013773727
134	0xbc82985a	-0.015941788
135	0xbdd2cbe9	-0.10292799
136	0xbb82160a	-0.0039699124
137	0x3e00c0a1	0.12573482
138	0x3c11841b	0.008881594
139	0xbe2732de	-0.16327998
140	0x3d37c443	0.044864904
141	0x3d6d97ab	0.05800597
142	0xbe1ff7b9	-0.15621842
143	0xbd7dacc3	-0.061932337
144	0xbda7d4f3	-0.08194914
145	0xbc130bbe	-0.0089749675
146	0xbdb92ac1	-0.09041358
147	0xbe0d5020	-0.13800097
148	0x3d3d5486	0.046223186
149	0x3de0a5ca	0.10969122
150	0xbd577668	-0.052603155
151	0xbd5ffc97	-0.054684248
152	0xbc901cc0	-0.017591834
153	0xbc1d7361	-0.009610028
154	0x3cf3fd51	0.029783877
155	0x3dac6c3e	0.08419083
156	0x3b85597a	0.0040695043
157	0xbc74f8e7	-0.014951921
158	0xbdbf10d3	-0.09329381
159	0xbd32e1bc	-0.04367231
160	0xbdd7227b	-0.105046235
161	0xbc66cd4a	-0.014087031
162	0x3ddc5ab9	0.107594915
163	0xbe12e7a4	-0.14346176
164	0x3e0d6b23	0.138104
165	0xbc82834d	-0.01593175
166	0xbd067a03	-0.032831203
167	0xbcedc715	-0.029025594
168	0x3df3ccc5	0.11904291
169	0x3d009aeb	0.03139774
170	0x3deda956	0.11604564
171	0x3cfe6e86	0.031058561
172	0xbb06a00d	-0.0020542175
173	0x3dcfbb8b	0.10143193
174	0xbc481df3	-0.012214172
175	0xbd02fd06	-0.031979583
176	0x3d3902f2	0.045168824
177	0xbcfd3a36	-0.030911546
178	0x3d8f40cf	0.06994783
179	0xbc842f69	-0.016135888
180	0x3e893f20	0.26805973
181	0x3d97649c	0.073922366
182	0x3d0892f8	0.033343285
183	0xbd8746dc	-0.06605312
184	0xbc971aca	-0.018445391
185	0x3da147ec	0.07875046
186	0xbcc52ef3	-0.024070239
187	0x3d47cd46	0.04877975
188	0x3e2ba4a0	0.16762018
189	0x3d6ead09	0.058270488
190	0x3d54bbeb	0.051937025
191	0xbbe8a43f	-0.007099658
192	0xbde7ec8b	-0.11324414
193	0xbdaf0985	-0.085467376
194	0xbe0c17a2	-0.1368089
195	0x3d004446	0.03131511
196	0xbd9df548	-0.07712799
197	0x3d6103fc	0.05493544
198	0x3d96d081	0.07363988
199	0xbd19adf6	-0.037519418
200	0x3cd3fe13	0.025877988
201	0x3d407586	0.04698708
202	0xbe136ca4	-0.14396912
203	0x3e176a9d	0.14786763
204	0xbb9fcae5	-0.004876482
205	0xbd55c3c1	-0.05218864
206	0x3d6cc7ae	0.057807617
207	0x3decece9	0.115686245
208	0xbda3142a	-0.0796283
209	0x3c01c346	0.007920092
210	0x3d5dbc1e	0.05413448
211	0xbe565b59	-0.20933284
212	0xbe1d6085	-0.1536885
213	0xbd41e23f	-0.047334906
214	0xbdbe5e99	-0.09295387
215	0xbe0691d5	-0.13141568
216	0xbe340034	-0.17578202
217	0x3df58d6f	0.11989867
218	0x3d974094	0.07385364
219	0x3df61d2a	0.12017281
220	0x3e19eeed	0.15032549
221	0xbc386495	-0.011254449
222	0xbc0d6024	-0.008628879
223	0x3daa6065	0.08319167
224	0x3e21841a	0.15773049
225	0xbcffeac1	-0.03123987
226	0x3dc33a0c	0.09532556
227	0xbd6b99e5	-0.057519812
228	0x3e03c231	0.12867047
229	0xbd18f88d	-0.03734641
230	0x3cf778f1	0.030209037
231	0x3c78fc19	0.0151968235
232	0x3d1bd9a4	0.038049355
233	0xbd01001d	-0.03149425
234	0xbd8cdf14	-0.06878486
235	0xbdc87fc6	-0.09789996
236	0x3ce8037f	0.02832198
237	0x3d3f6c34	0.04673405
238	0x3e77744b	0.24165456
239	0xbd47b2b0	-0.048754394
240	0x3ce85ef1	0.028365584
241	0xbcff73f6	-0.031183224
242	0x3d33ac69	0.043865595
243	0xbd93a62c	-0.07209429
244	0x3d3be0b2	0.045868583
245	0xbd637cc3	-0.055538904
246	0xbdc75f96	-0.097350284
247	0xbd42cc4d	-0.047558118
248	0x3db77f23	0.08959796
249	0xbd72ff3d	-0.059325445
250	0xbd93cb5f	-0.07216524
251	0xbddae5e6	-0.10688381
252	0xbd21cba2	-0.03950084
253	0x3d4ea446	0.050449632
254	0x3ca4b905	0.020107755
255	0xbbc58a7b	-0.006028471

network_body._body_endoder.seq_layers.2.bias f4 [128]
0	0x3c83396a	0.016018588
1	0x3c83ea9c	0.016103081
2	0xbc886e1f	-0.016654072
3	0xb97b9ced	-0.00023995685
4	0x3cb0eb74	0.021596648
5	0xbbc08983	-0.0058757677
6	0xbc5bbfdc	-0.013412442
7	0x3be5c11b	0.0070115454
8	0x3ae6fc91	0.0017622878
9	0x3a2ccbd4	0.0006591652
10	0xbbdbccae	-0.0067077493
11	0x3bb655e0	0.0055644363
12	0xba4f64ba	-0.0007911433
13	0x3aef4813	0.0018255733
14	0xbc923779	-0.017848717
15	0x3c9f9eda	0.019484926
16	0x3c4d935c	0.01254734
17	0xbbb00d69	-0.0053726924
18	0x3abd8329	0.0014458644
19	0xbc490e9c	-0.01227155
20	0xbbfd2a84	-0.0077260155
21	0xb9e4ed8c	-0.00043664535
22	0x3c17346c	0.009228807
23	0x3ae45708	0.0017420957
24	0xbb5e81c4	-0.0033951858
25	0x3c858bf6	0.01630209
26	0xbb60ef97	-0.0034322494
27	0xbafdd85c	-0.0019366848
28	0x3cdd5622	0.02701861
29	0x3b8ffbaa	0.0043940144
30	0x3c965920	0.018353045
31	0x3c8a385e	0.016872581
32	0x3cfe520f	0.031044988
33	0xbc0db06a	-0.008648017
34	0x37e3f6a8	2.7175367e-05
35	0x3c223dbb	0.009902413
36	0x3c6f55e7	0.014607883
37	0x3b673e56	0.0035284958
38	0xbc24e858	-0.010065161
39	0x3c776bc4	0.015101377
40	0xbc294d21	-0.01033333
41	0x3cc1f89f	0.023678122
42	0x3ab49940	0.0013778582
43	0x3c5e9c22	0.01358703
44	0x3c3e5bbf	0.011618554
45	0x3c95f0d6	0.018303316
46	0x3c7c30ba	0.015392477
47	0x3c8c19d5	0.017102161
48	0x3bc2f0f3	0.0059491335
49	0x3ca10f33	0.019660568
50	0x3c620da7	0.0137972
51	0x3c70e566	0.01470313
52	0xb8061f86	-3.1977448e-05
53	0x3c759cdc	0.0149910115
54	0xb98fa1e5	-0.00027395706
55	0xbc93ec90	-0.018057138
56	0xb99f8d72	-0.00030432228
57	0xbbed2455	-0.007236997
58	0x3a93f148	0.0011287117
59	0x3c2bae73	0.010478604
60	0xbb171823	-0.0023055158
61	0x3c5c1934	0.013433743
62	0x3ba2fcef	0.0049739997
63	0x3ac9639d	0.001536477
64	0x3c93fe85	0.0180657
65	0x3bcdc699	0.006279778
66	0x3a95c2d2	0.0011425859
67	0xbc8c2c2d	-0.017110908
68	0x3c3de70b	0.0115907295
69	0x3c21bc12	0.0098715
70	0xbbd6e1bf	-0.0065576728
71	0x3ca13bf1	0.019681903
72	0xbc6e5e0f	-0.0145487925
73	0x3b2bf1b5	0.0026236598
74	0x3cc47cf0	0.023985356
75	0x3cc2df2d	0.02378806
76	0xbc1d5eaf	-0.009605094
77	0x3bc1a19b	0.0059091575
78	0x3b9ae155	0.0047265687
79	0xba8b9fb6	-0.0010652456
80	0x39452565	0.00018801315
81	0x3b9bac23	0.004750745
82	0x3b375228	0.0027972553
83	0x3bb1c11b	0.0054246313
84	0x3c1d9cf6	0.009619942
85	0x3c32b860	0.010908216
86	0xba439837	-0.00074613414
87	0xbb812632	-0.003941321
88	0x3c312cb2	0.010813879
89	0xbbf972ce	-0.0076125627
90	0x3c09834f	0.008393123
91	0xbc8abb18	-0.016934916
92	0xbb872d38	-0.0041252635
93	0x3bfa3939	0.007636216
94	0x3b0cef85	0.002150507
95	0x3cc6205a	0.024185348
96	0x3c90d10c	0.017677806
97	0x3cbcf9f4	0.023068406
98	0x3bbe1f2a	0.005802055
99	0xbc1da1f9	-0.009621137
100	0xbc9cc3b5	-0.01913629
101	0xbc818088	-0.015808359
102	0x3cc1ff45	0.023681292
103	0xbb347ce5	-0.0027540263
104	0xbc0d5ff7	-0.008628837
105	0xbc7ac93e	-0.015306769
106	0x3c982500	0.01857233
107	0xbc20230a	-0.009773979
108	0xbab6075d	-0.0013887692
109	0x3c175f46	0.009239024
110	0x3bc80ca6	0.0061050234
111	0xbc48eb15	-0.012263079
112	0xbbc16057	-0.005901377
113	0x3c192132	0.009346293
114	0x3b7a4212	0.0038186354
115	0x3c12f30f	0.0089690825
116	0xbc908256	-0.017640274
117	0xba2f4fcc	-0.0006687611
118	0xba856df2	-0.0010179861
119	0xbc93a6d3	-0.018023884
120	0xbc81fd63	-0.015867895
121	0xbc3a93d4	-0.011387784
122	0x3b614231	0.0034371729
123	0x3c5d2132	0.013496684
124	0xbbe73fdd	-0.0070571736
125	0x3c5f4642	0.013627591
126	0xbc554cb7	-0.0130187785
127	0x3c818835	0.015812019

action_model._discrete_distribution.branches.0.weight f4 [9, 128]
0	0x3c9289f9	0.017888056
1	0x3c9ec208	0.01937963
2	0xbca18703	-0.019717699
3	0x3c00182c	0.007818263
4	0x3c0a1c1a	0.0084295515
5	0xbbf14865	-0.0073633664
6	0xbb9575d3	-0.004561165
7	0x3bcca434	0.0062451605
8	0x3c5f23df	0.013619392
9	0x3b87e264	0.004146861
10	0xbc31c13d	-0.010849294
11	0x3c4d5a82	0.012533786
12	0x3c1ce076	0.009575
13	0xbbf84439	-0.007576492
14	0xbc2640e1	-0.010147304
15	0x3c313d37	0.010817817
16	0xbbb2ff2a	-0.005462547
17	0xbbf4b594	-0.007467935
18	0x3cb73770	0.022365302
19	0x3bb91c92	0.005649158
20	0xbc37e450	-0.011223868
21	0xbb9a1a1b	-0.004702819
22	0xbc0c25e9	-0.00855396
23	0x3c0ae2dc	0.008476939
24	0x3c458076	0.012054553
25	0xbbd89462	-0.0066094855
26	0x3b9d7fe2	0.0048065046
27	0x3b078f54	0.0020684795
28	0x3c242afe	0.010020016
29	0xbc859483	-0.016306167
30	0x3ad00053	0.0015869237
31	0x3c27ac5b	0.010233964
32	0x3bf40403	0.0074467673
33	0xbc8e4496	-0.017366689
34	0x3c296a9d	0.01034036
35	0x3c7b1426	0.015324628
36	0x3ba7e9fb	0.005124328
37	0x3b0fcdcf	0.002194274
38	0xbca6a93f	-0.020344375
39	0x3c0193e9	0.0079088
40	0x3b0296c8	0.0019926298
41	0x3c02dd56	0.007987341
42	0xba1a9f7f	-0.00058984006
43	0x391ce81b	0.00014963785
44	0x3c61f0ca	0.013790319
45	0x3c1cdf4c	0.0095747225
46	0x3cc918a2	0.024547879
47	0x3bc894cb	0.006121253
48	0x3bffbd1e	0.007804527
49	0x3b6fdcce	0.0036600116
50	0x3c70b165	0.014690732
51	0x3c5a7fd0	0.013336137
52	0x3a3d4fe8	0.0007221685
53	0x3ba3b4f8	0.0049959384
54	0x3c4ab264	0.012371633
55	0x3c0e5399	0.008686923
56	0x3b8dfcb3	0.0043331026
57	0x3c57fe8a	0.013183245
58	0x3aa337ca	0.001245254
59	0xbc2081fd	-0.009796617
60	0xbb8891a0	-0.0041677505
61	0x3c8aa93b	0.016926399
62	0xbc79cf30	-0.015247151
63	0x3b513577	0.0031922737
64	0xba862344	-0.0010233899
65	0x3a0b4646	0.0005312901
66	0x3a917e01	0.0011100174
67	0x3b2bbc7e	0.002620488
68	0x3bc623c5	0.0060467445
69	0xbc64c48e	-0.013962878
70	0x3c2a7b93	0.010405439
71	0x3c83b05f	0.016075311
72	0xbc439934	-0.011938382
73	0x3b69bc86	0.0035665347
74	0x3ab0ada7	0.0013479487
75	0x3c96b9f9	0.018399226
76	0xbc95ec6f	-0.018301217
77	0x3b5ea6db	0.0033973965
78	0xb97ede21	-0.00024306077
79	0xbb6c18b9	-0.0036025478
80	0xbacb99fc	-0.0015533562
81	0xbbad899f	-0.0052959467
82	0xbc02a12d	-0.007972998
83	0xbc1148da	-0.008867467
84	0x3c66704f	0.014064862
85	0x3b5cb645	0.0033677977
86	0x3876053d	5.865585e-05
87	0xbbcdc7e7	-0.0062799337
88	0x3c27a30d	0.010231745
89	0xbc9df1c7	-0.019280327
90	0x3c914be3	0.01773638
91	0xbc47fc02	-0.012206079
92	0x3b2518b2	0.0025191722
93	0xbc1055a0	-0.008809477
94	0xbc53e687	-0.01293338
95	0x3c128951	0.008943872
96	0x3d104a5b	0.03522716
97	0x3b8d17e3	0.004305826
98	0x3cd62ae2	0.026143495
99	0xbcab18a1	-0.020885767
100	0x3bfe66c6	0.0077637164
101	0xbc863aa7	-0.01638539
102	0x3b8228ad	0.003972134
103	0xbb29b932	-0.0025897739
104	0xbbea3961	-0.0071479534
105	0xbb6d5a4e	-0.0036217156
106	0x3b8e8d3d	0.004350333
107	0xbc4016a8	-0.011724152
108	0x3c3873f9	0.011258119
109	0x3c6e8011	0.014556901
110	0x3cc7d4f3	0.024393534
111	0xbc8889e1	-0.016667308
112	0x3c9aba07	0.018887533
113	0x3c61e072	0.013786422
114	0x3b6b4af1	0.0035902823
115	0xbb467c50	-0.0030286498
116	0x3bf7e523	0.007565157
117	0x3bc730b2	0.006078803
118	0x3b6fec8d	0.00366095
119	0xbbf20e73	-0.0073869764
120	0xbc422689	-0.011850008
121	0x3b86db84	0.004115524
122	0x3c7f85d8	0.015595876
123	0x3aabd828	0.0013110684
124	0x3b5b21fc	0.0033437004
125	0x3bd4ed83	0.00649804
126	0xbc8d336a	-0.01723643
127	0xbb75c13d	-0.0037499212
128	0xbced673a	-0.028979886
129	0xbc8e52ff	-0.01737356
130	0x3c7e5c36	0.0155249145
131	0xbc64286c	-0.013925653
132	0xbd00def5	-0.03146263
133	0xbc2ce26a	-0.010552028
134	0x3c9242f4	0.017854191
135	0xba83fa11	-0.0010069032
136	0xbbbd54d1	-0.005777933
137	0x3c2d9589	0.010594734
138	0xbc2d7971	-0.010588036
139	0xbcd16e1b	-0.025565198
140	0xbb0c340f	-0.0021393334
141	0x3be2d22e	0.006922028
142	0x3c47483b	0.012163217
143	0xbc46802a	-0.012115518
144	0xbc12a323	-0.008950028
145	0x3b2c2dce	0.002627242
146	0x3ba88c84	0.005143704
147	0x3c51eaf5	0.012812366
148	0x3bbcbd30	0.0057598576
149	0xbb7e2915	-0.003878181
150	0xbc6b88c5	-0.01437587
151	0xbc820d91	-0.01587561
152	0x3bff7f65	0.007797169
153	0xbc84c779	-0.016208397
154	0x3bd23e12	0.0064160908
155	0x3a996ff7	0.0011706342
156	0xbd15805a	-0.03649936
157	0x3bb39eea	0.0054815905
158	0x3c893c3e	0.016752359
159	0xbcccbe0c	-0.024992965
160	0xbd1ae1cb	-0.03781299
161	0xbb031c7c	-0.0020005992
162	0x3bbb0063	0.005706833
163	0x3bb9c6e3	0.005669461
164	0xbc01800c	-0.007904064
165	0xbc61eb96	-0.013789078
166	0xbc76b251	-0.015057162
167	0x3c2741a9	0.010208526
168	0x3befd566	0.0073191402
169	0xbc30f618	-0.010800861
170	0x3b585c21	0.0033013897
171	0x3ca6675c	0.020312957
172	0xbace514a	-0.0015740779
173	0xb8ece434	-0.00011295863
174	0xbc4f6525	-0.012658392
175	0xbce73dc0	-0.028227687
176	0x3c9a88d6	0.018864077
177	0xbcd51930	-0.026012987
178	0xbd0ee1fb	-0.03488348
179	0xbc8ddbf6	-0.0173168
180	0x3be8dac9	0.0071061593
181	0xbca18e7b	-0.01972126
182	0x3b90d86e	0.0044203317
183	0x3c86c0c5	0.016449342
184	0x3bab90bc	0.0052357595
185	0x3c26d531	0.010182665
186	0xbc401887	-0.011724598
187	0xbc40b98e	-0.01176299
188	0x3c819988	0.01582028
189	0xbcbd93d7	-0.023141785
190	0x3c5b1a00	0.013372898
191	0x3cadc188	0.021210447
192	0x39f5bd93	0.00046871285
193	0x3bfc3097	0.007696222
194	0x3c030a1c	0.007998016
195	0x3c7ddfd8	0.015495263
196	0xbc1ac0fd	-0.009445426
197	0x3c8a3844	0.016872533
198	0x3c4b6732	0.01241474
199	0xbae6d0b4	-0.0017609806
200	0x3ca36f28	0.019950464
201	0xbc1785fe	-0.009248255
202	0xbbcb8294	-0.0062106345
203	0xbcfb0133	-0.03064022
204	0x3c2a2b7e	0.010386346
205	0xbc2dba3f	-0.010603487
206	0x3cbc9d87	0.023024334
207	0xbc2b23b7	-0.010445527
208	0x3c8bcdf3	0.017065978
209	0xbb22da1c	-0.0024849242
210	0xbbda7cf4	-0.0066677276
211	0x39908cc1	0.0002757069
212	0x3aa7c845	0.0012800774
213	0xbb0b6c46	-0.0021274253
214	0xbc46f186	-0.012142545
215	0xbc759f70	-0.014991626
216	0xbaef911a	-0.0018277497
217	0x3c666f08	0.014064558
218	0xbbe1e073	-0.0068932115
219	0x3c0323e5	0.008004163
220	0x3b3276c5	0.0027231437
221	0xbccd493d	-0.025059337
222	0x3bf7156f	0.007540397
223	0xbbd2a687	-0.006428543
224	0xbc232d1d	-0.009959486
225	0xbccb65a2	-0.024828736
226	0xbca6986e	-0.020336356
227	0x3c17fc24	0.009276424
228	0xb894b3d3	-7.090685e-05
229	0x3c3f593d	0.011678991
230	0xbcdc011b	-0.026855996
231	0x3b7b011e	0.0038300226
232	0x3baa9ec5	0.005206915
233	0xbb27888f	-0.0025563573
234	0xbcf0f757	-0.029414816
235	0xba843fdd	-0.0010089834
236	0x3c11cc81	0.008898855
237	0x3b3c52d5	0.0028735895
238	0xbbf55528	-0.007486958
239	0x3c5dc867	0.013536549
240	0xbbf397de	-0.0074338755
241	0xbb839dd7	-0.0040166187
242	0xbc094fd6	-0.008380851
243	0xbc124bda	-0.008929217
244	0x3bf508c0	0.0074778497
245	0xbba16bf4	-0.004926199
246	0x3c07bb9b	0.008284475
247	0x3c8583be	0.016298171
248	0x3c4acd1d	0.012378004
249	0x3c1c902d	0.009555859
250	0xbb85bba7	-0.004081208
251	0xbcb09c5f	-0.021558939
252	0xbc224323	-0.009903702
253	0x3a75ad9c	0.0009371878
254	0xbbe15cea	-0.0068775313
255	0xbceb1047	-0.028694285

action_model._discrete_distribution.branches.0.bias f4 [9]
0	0x3c2782da	0.010224069
1	0xbc3add78	-0.011405341
2	0xbc3f6e4f	-0.011684014
3	0xbab1541d	-0.0013529096
4	0xbbd20228	-0.0064089485
5	0x3b043ad5	0.0020176668
6	0x3b18f131	0.002333712
7	0x3b00888c	0.0019612638
8	0xbb196cbe	-0.0023410763

exp_avg f4 [128, 12]
0	0x3841286b	4.6052428e-05
1	0x3645a8af	2.9453474e-06
2	0xb75de6df	-1.322638e-05
3	0xb745a8af	-1.178139e-05
4	0x3645a8af	2.9453474e-06
5	0x00000000	0.0
6	0x38a3b03b	7.805271e-05
7	0x369c92da	4.666258e-06
8	0xb3e9d2c0	-1.0888243e-07
9	0xb79c92da	-1.8665032e-05
10	0x369c92da	4.666258e-06
11	0x00000000	0.0
12	0x39179a15	0.00014457882
13	0x371e5194	9.436528e-06
14	0x38303569	4.2011412e-05
15	0xb81e5194	-3.774611e-05
16	0x371e5194	9.436528e-06
17	0x00000000	0.0
18	0x391276ba	0.00013967874
19	0x3717bcab	9.044229e-06
20	0x38208916	3.8274644e-05
21	0xb817bcab	-3.6176916e-05
22	0x3717bcab	9.044229e-06
23	0x00000000	0.0
24	0xb8d08a50	-9.9439756e-05
25	0xb6c0a7cc	-5.74158e-06
26	0xb89e9774	-7.5622374e-05
27	0x37c0a7cc	2.296632e-05
28	0xb6c0a7cc	-5.74158e-06
29	0x00000000	0.0
30	0xb8bbf7d2	-8.963015e-05
31	0xb6a9e4de	-5.063236e-06
32	0xb896357f	-7.162522e-05
33	0x37a9e4de	2.0252945e-05
34	0xb6a9e4de	-5.063236e-06
35	0x00000000	0.0
36	0xb9613686	-0.00021477984
37	0xb7917098	-1.7337778e-05
38	0xb90966f5	-0.00013103693
39	0x38917098	6.935111e-05
40	0xb7917098	-1.7337778e-05
41	0x00000000	0.0
42	0xb98f250b	-0.00027302685
43	0xb7bde3b2	-2.2636585e-05
44	0xb929ee6c	-0.00016205915
45	0x38bde3b2	9.054634e-05
46	0xb7bde3b2	-2.2636585e-05
47	0x00000000	0.0
48	0xb91b9125	-0.00014836022
49	0xb73899eb	-1.10030915e-05
50	0xb8f25799	-0.000115557756
51	0x383899eb	4.4012366e-05
52	0xb73899eb	-1.10030915e-05
53	0x00000000	0.0
54	0xb985992d	-0.00025481862
55	0xb7ad311b	-2.0646074e-05
56	0xb934e6dc	-0.0001725214
57	0x38ad311b	8.2584294e-05
58	0xb7ad311b	-2.0646074e-05
59	0x00000000	0.0
60	0x38de6e68	0.0001060635
61	0x3706906f	8.020651e-06
62	0x38ae8729	8.322142e-05
63	0xb806906f	-3.2082604e-05
64	0x3706906f	8.020651e-06
65	0x00000000	0.0
66	0x39da9f96	0.000416991
67	0x380813eb	3.2443477e-05
68	0x397dbb67	0.00024197773
69	0xb90813eb	-0.0001297739
70	0x380813eb	3.2443477e-05
71	0x00000000	0.0
72	0x39a85f4f	0.00032114467
73	0x37c17a08	2.3064218e-05
74	0x394e7bc3	0.00019691796
75	0xb8c17a08	-9.225687e-05
76	0x37c17a08	2.3064218e-05
77	0x00000000	0.0
78	0x39ace4d3	0.00032976884
79	0x37c79f41	2.3796807e-05
80	0x3952bce3	0.00020097526
81	0xb8c79f41	-9.518723e-05
82	0x37c79f41	2.3796807e-05
83	0x00000000	0.0
84	0xb9f51e81	-0.0004675277
85	0xb80e317f	-3.3901535e-05
86	0xb9791548	-0.00023754418
87	0x390e317f	0.00013560614
88	0xb80e317f	-3.3901535e-05
89	0x00000000	0.0
90	0xba330dfc	-0.0006830392
91	0xb8576bfc	-5.1360563e-05
92	0xb9b559d1	-0.0003458993
93	0x39576bfc	0.00020544225
94	0xb8576bfc	-5.1360563e-05
95	0x00000000	0.0
96	0xb904c82a	-0.00012663068
97	0xb702e1c2	-7.801167e-06
98	0xb8810c28	-6.1534636e-05
99	0x3802e1c2	3.120467e-05
100	0xb702e1c2	-7.801167e-06
101	0x00000000	0.0
102	0xb93f0158	-0.0001821568
103	0xb74a1fdb	-1.2047555e-05
104	0xb8bab1b9	-8.9022746e-05
105	0x384a1fdb	4.819022e-05
106	0xb74a1fdb	-1.2047555e-05
107	0x00000000	0.0
108	0xb8d6f131	-0.000102492406
109	0xb71cd980	-9.348965e-06
110	0xb8a687db	-7.940802e-05
111	0x381cd980	3.739586e-05
112	0xb71cd980	-9.348965e-06
113	0x00000000	0.0
114	0xb9283c59	-0.0001604421
115	0xb772afd4	-1.4465262e-05
116	0xb8e8efc3	-0.00011107281
117	0x3872afd4	5.786105e-05
118	0xb772afd4	-1.4465262e-05
119	0x00000000	0.0
120	0x36012555	1.9244228e-06
121	0x3325a17d	3.856393e-08
122	0xb6a6a840	-4.9667724e-06
123	0xb425a17d	-1.5425572e-07
124	0x3325a17d	3.856393e-08
125	0x00000000	0.0
126	0x36c31114	5.813441e-06
127	0x348e6a89	2.6527076e-07
128	0xb646a137	-2.9598139e-06
129	0xb58e6a89	-1.061083e-06
130	0x348e6a89	2.6527076e-07
131	0x00000000	0.0
132	0xb98d8190	-0.00026990147
133	0xb7a014a6	-1.9083102e-05
134	0xb94663f4	-0.00018919987
135	0x38a014a6	7.6332406e-05
136	0xb7a014a6	-1.9083102e-05
137	0x00000000	0.0
138	0xb9863655	-0.00025598952
139	0xb79d278d	-1.8734276e-05
140	0xb9420b3d	-0.00018505468
141	0x389d278d	7.49371e-05
142	0xb79d278d	-1.8734276e-05
143	0x00000000	0.0
144	0xb8a6114c	-7.9187186e-05
145	0xb6de4bbe	-6.624933e-06
146	0xb8ae9708	-8.325098e-05
147	0x37de4bbe	2.6499732e-05
148	0xb6de4bbe	-6.624933e-06
149	0x00000000	0.0
150	0xb83a94a8	-4.4484303e-05
151	0xb698399f	-4.536661e-06
152	0xb88f4abe	-6.832693e-05
153	0x3798399f	1.8146644e-05
154	0xb698399f	-4.536661e-06
155	0x00000000	0.0
156	0xb7c54e20	-2.352061e-05
157	0xb5f387f1	-1.8144475e-06
158	0xb6ed4802	-7.071533e-06
159	0x36f387f1	7.25779e-06
160	0xb5f387f1	-1.8144475e-06
161	0x00000000	0.0
162	0xb7f3b4c0	-2.9052026e-05
163	0xb613b7dc	-2.2011727e-06
164	0xb71cbf08	-9.3428025e-06
165	0x3713b7dc	8.804691e-06
166	0xb613b7dc	-2.2011727e-06
167	0x00000000	0.0
168	0xb6aed26f	-5.210102e-06
169	0x34f3d4ac	4.5417016e-07
170	0x379e9737	1.8905483e-05
171	0xb5f3d4ac	-1.8166807e-06
172	0x34f3d4ac	4.5417016e-07
173	0x00000000	0.0
174	0xb840cb77	-4.596586e-05
175	0xb60ba232	-2.0807024e-06
176	0xb5a87e84	-1.2553796e-06
177	0x370ba232	8.32281e-06
178	0xb60ba232	-2.0807024e-06
179	0x00000000	0.0
180	0xb9e087f4	-0.00042825902
181	0xb7de4da9	-2.6500626e-05
182	0xb989ac5e	-0.000262591
183	0x38de4da9	0.0001060025
184	0xb7de4da9	-2.6500626e-05
185	0x00000000	0.0
186	0xba2c1511	-0.00065644184
187	0xb83aeefa	-4.456842e-05
188	0xb9c738d2	-0.00037998572
189	0x393aeefa	0.00017827368
190	0xb83aeefa	-4.456842e-05
191	0x00000000	0.0
192	0x35a8722f	1.2550207e-06
193	0x346e5a91	2.2198425e-07
194	0xb66074c0	-3.3446559e-06
195	0xb56e5a91	-8.87937e-07
196	0x346e5a91	2.2198425e-07
197	0x00000000	0.0
198	0xb6cce8e7	-6.106787e-06
199	0xb4d6897c	-3.996064e-07
200	0xb6f9ac96	-7.44087e-06
201	0x35d6897c	1.5984256e-06
202	0xb4d6897c	-3.996064e-07
203	0x00000000	0.0
204	0xb9a1eb5e	-0.00030883675
205	0xb7cdd4ea	-2.453705e-05
206	0xb9281be5	-0.0001603212
207	0x38cdd4ea	9.81482e-05
208	0xb7cdd4ea	-2.453705e-05
209	0x00000000	0.0
210	0xb9aca1d7	-0.00032926977
211	0xb7dcfc0b	-2.634341e-05
212	0xb9331682	-0.00017079155
213	0x38dcfc0b	0.00010537364
214	0xb7dcfc0b	-2.634341e-05
215	0x00000000	0.0
216	0x391cc97f	0.00014952382
217	0x376feaa3	1.4300141e-05
218	0x381bf2c8	3.7180987e-05
219	0xb86feaa3	-5.7200563e-05
220	0x376feaa3	1.4300141e-05
221	0x00000000	0.0
222	0x38828f42	6.225567e-05
223	0x36de9734	6.633718e-06
224	0xb719e6b0	-9.173222e-06
225	0xb7de9734	-2.6534872e-05
226	0x36de9734	6.633718e-06
227	0x00000000	0.0
228	0xb8630774	-5.412796e-05
229	0xb68d6694	-4.214069e-06
230	0xb7dc5ca1	-2.6269177e-05
231	0x378d6694	1.6856276e-05
232	0xb68d6694	-4.214069e-06
233	0x00000000	0.0
234	0xb6d6a74b	-6.3971725e-06
235	0xb4304928	-1.6417891e-07
236	0xb621b578	-2.4096498e-06
237	0x35304928	6.5671566e-07
238	0xb4304928	-1.6417891e-07
239	0x00000000	0.0
240	0x36d7697b	6.419779e-06
241	0x35aaf3bd	1.2736924e-06
242	0xb85d6eb1	-5.2793595e-05
243	0xb6aaf3bd	-5.0947697e-06
244	0x35aaf3bd	1.2736924e-06
245	0x00000000	0.0
246	0xb7e0a4e4	-2.6779664e-05
247	0xb62a3fd2	-2.5369122e-06
248	0xb89ae49b	-7.385873e-05
249	0x372a3fd2	1.0147649e-05
250	0xb62a3fd2	-2.5369122e-06
251	0x00000000	0.0
252	0x38e83234	0.00011071973
253	0x3719dee7	9.171409e-06
254	0x3853b6fe	5.0476745e-05
255	0xb819dee7	-3.6685637e-05

exp_avg_sq f4 [128, 12]
0	0x37871b20	1.6105885e-05
1	0x31ca5948	5.889124e-09
2	0x373d6ba1	1.1290337e-05
3	0x33ca5948	9.422598e-08
4	0x31ca5948	5.889124e-09
5	0x00000000	0.0
6	0x37895ae5	1.6373999e-05
7	0x31eeffb9	6.955784e-09
8	0x373e80fa	1.1354912e-05
9	0x33eeffb9	1.1129254e-07
10	0x31eeffb9	6.955784e-09
11	0x00000000	0.0
12	0x3504a9a0	4.942067e-07
13	0x30d7c576	1.5699431e-09
14	0x33b33a48	8.345938e-08
15	0x32d7c576	2.5119089e-08
16	0x30d7c576	1.5699431e-09
17	0x00000000	0.0
18	0x35081bc6	5.0704364e-07
19	0x30d9e1c2	1.5852992e-09
20	0x33b1fc5e	8.28811e-08
21	0x32d9e1c2	2.5364788e-08
22	0x30d9e1c2	1.5852992e-09
23	0x00000000	0.0
24	0x365384b3	3.1518691e-06
25	0x31799664	3.6319756e-09
26	0x359422ff	1.1037044e-06
27	0x33799664	5.811161e-08
28	0x31799664	3.6319756e-09
29	0x00000000	0.0
30	0x36541e78	3.1608197e-06
31	0x317a17fd	3.6393424e-09
32	0x35942b88	1.1039529e-06
33	0x337a17fd	5.8229478e-08
34	0x317a17fd	3.6393424e-09
35	0x00000000	0.0
36	0x349a53b9	2.8745652e-07
37	0x30e6bd48	1.67885e-09
38	0x33a6fb9b	7.775744e-08
39	0x32e6bd48	2.68616e-08
40	0x30e6bd48	1.67885e-09
41	0x00000000	0.0
42	0x34b2c9c6	3.3301893e-07
43	0x31057c7d	1.942481e-09
44	0x33bf3055	8.902922e-08
45	0x33057c7d	3.1079697e-08
46	0x31057c7d	1.942481e-09
47	0x00000000	0.0
48	0x368fa057	4.280398e-06
49	0x3200955d	7.484542e-09
50	0x36385e56	2.7473047e-06
51	0x3400955d	1.1975267e-07
52	0x3200955d	7.484542e-09
53	0x00000000	0.0
54	0x36975bf7	4.510857e-06
55	0x3217e7a0	8.842022e-09
56	0x363c52d6	2.80624e-06
57	0x3417e7a0	1.4147236e-07
58	0x3217e7a0	8.842022e-09
59	0x00000000	0.0
60	0x3871b3ba	5.762626e-05
61	0x3126133d	2.4167115e-09
62	0x386142a6	5.370625e-05
63	0x3326133d	3.8667384e-08
64	0x3126133d	2.4167115e-09
65	0x00000000	0.0
66	0x387497e5	5.8315596e-05
67	0x31d7bea7	6.278998e-09
68	0x38621309	5.3900327e-05
69	0x33d7bea7	1.0046397e-07
70	0x31d7bea7	6.278998e-09
71	0x00000000	0.0
72	0x370467d9	7.891992e-06
73	0x32088473	7.946357e-09
74	0x365ca023	3.2875766e-06
75	0x34088473	1.2714172e-07
76	0x32088473	7.946357e-09
77	0x00000000	0.0
78	0x3704487f	7.884692e-06
79	0x3208c71e	7.961516e-09
80	0x365d46a2	3.297268e-06
81	0x3408c71e	1.2738425e-07
82	0x3208c71e	7.961516e-09
83	0x00000000	0.0
84	0x3789507b	1.636915e-05
85	0x32108f73	8.41452e-09
86	0x370d06f2	8.405872e-06
87	0x34108f73	1.3463232e-07
88	0x32108f73	8.41452e-09
89	0x00000000	0.0
90	0x378b45f0	1.6602658e-05
91	0x322b4311	9.968759e-09
92	0x370df5cb	8.461483e-06
93	0x342b4311	1.5950015e-07
94	0x322b4311	9.968759e-09
95	0x00000000	0.0
96	0x3729f4d8	1.0130192e-05
97	0x3162f5fe	3.3027159e-09
98	0x36bbc100	5.5955024e-06
99	0x3362f5fe	5.2843454e-08
100	0x3162f5fe	3.3027159e-09
101	0x00000000	0.0
102	0x372a6155	1.01554515e-05
103	0x316f9778	3.4865177e-09
104	0x36bbc7d1	5.596296e-06
105	0x336f9778	5.5784284e-08
106	0x316f9778	3.4865177e-09
107	0x00000000	0.0
108	0x358d232b	1.0515554e-06
109	0x314a78e5	2.946359e-09
110	0x355686c6	7.9917334e-07
111	0x334a78e5	4.7141743e-08
112	0x314a78e5	2.946359e-09
113	0x00000000	0.0
114	0x359a7a69	1.150952e-06
115	0x3178383b	3.6120713e-09
116	0x355c99a7	8.217998e-07
117	0x3378383b	5.779314e-08
118	0x3178383b	3.6120713e-09
119	0x00000000	0.0
120	0x326f24d4	1.3920005e-08
121	0x2f83deb0	2.398699e-10
122	0x33ac37d4	8.019529e-08
123	0x3183deb0	3.8379184e-09
124	0x2f83deb0	2.398699e-10
125	0x00000000	0.0
126	0x32764f49	1.4337112e-08
127	0x2f85bbfe	2.4326136e-10
128	0x33ae16cf	8.106655e-08
129	0x3185bbfe	3.8921817e-09
130	0x2f85bbfe	2.4326136e-10
131	0x00000000	0.0
132	0x36c2b9a0	5.80326e-06
133	0x3269e002	1.36133185e-08
134	0x35fb4355	1.8720553e-06
135	0x3469e002	2.178131e-07
136	0x3269e002	1.36133185e-08
137	0x00000000	0.0
138	0x36cad2f3	6.044627e-06
139	0x3281de4f	1.511867e-08
140	0x3601f5b4	1.9365516e-06
141	0x3481de4f	2.4189873e-07
142	0x3281de4f	1.511867e-08
143	0x00000000	0.0
144	0x35299edc	6.3188577e-07
145	0x3100ae4b	1.8725526e-09
146	0x34851762	2.4790194e-07
147	0x3300ae4b	2.996084e-08
148	0x3100ae4b	1.8725526e-09
149	0x00000000	0.0
150	0x3538c2f3	6.882903e-07
151	0x3116fc84	2.1971411e-09
152	0x348dd3b5	2.6417334e-07
153	0x3316fc84	3.5154258e-08
154	0x3116fc84	2.1971411e-09
155	0x00000000	0.0
156	0x333a8ec4	4.3436344e-08
157	0x2f98c8f1	2.7791416e-10
158	0x31ed9dd3	6.9155504e-09
159	0x3198c8f1	4.4466266e-09
160	0x2f98c8f1	2.7791416e-10
161	0x00000000	0.0
162	0x333c9ab4	4.3912863e-08
163	0x2f997bcb	2.7918498e-10
164	0x31e9d94d	6.8058967e-09
165	0x31997bcb	4.4669597e-09
166	0x2f997bcb	2.7918498e-10
167	0x00000000	0.0
168	0x3709c634	8.211984e-06
169	0x31284588	2.4486742e-09
170	0x36b06b1f	5.2576793e-06
171	0x33284588	3.9178786e-08
172	0x31284588	2.4486742e-09
173	0x00000000	0.0
174	0x370a9783	8.260718e-06
175	0x31319bb5	2.58454e-09
176	0x36b0d8f0	5.2704636e-06
177	0x33319bb5	4.135264e-08
178	0x31319bb5	2.58454e-09
179	0x00000000	0.0
180	0x38371635	4.3651282e-05
181	0x330f2504	3.3328448e-08
182	0x37ec4a57	2.816801e-05
183	0x350f2504	5.3325516e-07
184	0x330f2504	3.3328448e-08
185	0x00000000	0.0
186	0x3837f0c3	4.3854827e-05
187	0x33159df2	3.4835416e-08
188	0x37ec9c6c	2.8206232e-05
189	0x35159df2	5.5736666e-07
190	0x33159df2	3.4835416e-08
191	0x00000000	0.0
192	0x31eb5a37	6.8496564e-09
193	0x2e445c3c	4.464716e-11
194	0x310478d9	1.9277222e-09
195	0x30445c3c	7.143546e-10
196	0x2e445c3c	4.464716e-11
197	0x00000000	0.0
198	0x32004b0d	7.467645e-09
199	0x2e505447	4.7368578e-11
200	0x311078d6	2.1023445e-09
201	0x30505447	7.5789724e-10
202	0x2e505447	4.7368578e-11
203	0x00000000	0.0
204	0x366657d4	3.4323793e-06
205	0x3138c931	2.6889888e-09
206	0x36114797	2.1648355e-06
207	0x3338c931	4.302382e-08
208	0x3138c931	2.6889888e-09
209	0x00000000	0.0
210	0x366743b9	3.4461102e-06
211	0x313a13bb	2.7077778e-09
212	0x3611ae96	2.1708306e-06
213	0x333a13bb	4.3324444e-08
214	0x313a13bb	2.7077778e-09
215	0x00000000	0.0
216	0x3683111d	3.9060965e-06
217	0x3211f02b	8.494719e-09
218	0x36021f7b	1.9389834e-06
219	0x3411f02b	1.359155e-07
220	0x3211f02b	8.494719e-09
221	0x00000000	0.0
222	0x3688b478	4.074125e-06
223	0x32218327	9.401254e-09
224	0x36057e9a	1.9892236e-06
225	0x34218327	1.5042006e-07
226	0x32218327	9.401254e-09
227	0x00000000	0.0
228	0x324a9680	1.1792167e-08
229	0x2f23c176	1.4893495e-10
230	0x319b7148	4.5239723e-09
231	0x3123c176	2.3829592e-09
232	0x2f23c176	1.4893495e-10
233	0x00000000	0.0
234	0x33024466	3.033019e-08
235	0x2f9866c1	2.772165e-10
236	0x321daf83	9.1785095e-09
237	0x319866c1	4.435464e-09
238	0x2f9866c1	2.772165e-10
239	0x00000000	0.0
240	0x368a006d	4.11277e-06
241	0x326e499f	1.3870163e-08
242	0x3626c975	2.485319e-06
243	0x346e499f	2.219226e-07
244	0x326e499f	1.3870163e-08
245	0x00000000	0.0
246	0x36934be3	4.3897758e-06
247	0x32837a4f	1.5306027e-08
248	0x362d8ed4	2.5862146e-06
249	0x34837a4f	2.4489643e-07
250	0x32837a4f	1.5306027e-08
251	0x00000000	0.0
252	0x34bad4a2	3.479991e-07
253	0x311aff56	2.2555091e-09
254	0x33bcf224	8.798477e-08
255	0x331aff56	3.6088146e-08

exp_avg f4 [128]
0	0x371c92d5	9.332512e-06
1	0x3797bcad	1.8088462e-05
2	0xb729e4df	-1.0126473e-05
3	0xb83de3b3	-4.5273173e-05
4	0xb82d3120	-4.1292165e-05
5	0x388813eb	6.488695e-05
6	0x38479f41	4.7593614e-05
7	0xb8d76bfc	-0.000102721126
8	0xb7ca1fdb	-2.409511e-05
9	0xb7f2afd3	-2.8930523e-05
10	0x350e6a90	5.305419e-07
11	0xb81d278c	-3.7468548e-05
12	0xb71839a2	-9.073325e-06
13	0xb693b7db	-4.402345e-06
14	0xb68ba234	-4.1614057e-06
15	0xb8baeefa	-8.913684e-05
16	0xb5568975	-7.992124e-07
17	0xb85cfc0c	-5.2686824e-05
18	0x375e972b	1.3267428e-05
19	0xb4b04918	-3.2835737e-07
20	0xb6aa3fbc	-5.0738145e-06
21	0x383cc4dd	4.5006036e-05
22	0x36e3ff9a	6.794883e-06
23	0x35aaddb4	1.2730511e-06
24	0xb4ba2489	-3.4671783e-07
25	0xb841b123	-4.6179757e-05
26	0x34e856c6	4.3276503e-07
27	0xb70517c7	-7.932954e-06
28	0x36a2968a	4.8455013e-06
29	0xb86829c9	-5.5352026e-05
30	0xb2c4dbca	-2.2917352e-08
31	0x37807f85	1.531817e-05
32	0xb6101a74	-2.147307e-06
33	0xb630f8ff	-2.6370979e-06
34	0x37a90c47	2.0152087e-05
35	0xb838d12a	-4.4063818e-05
36	0xb8330eff	-4.2690892e-05
37	0x3746bd65	1.18458165e-05
38	0x37a42139	1.9565794e-05
39	0xb6490340	-2.9953226e-06
40	0xb768f5d8	-1.3885518e-05
41	0xb7143105	-8.832901e-06
42	0x384df6a5	4.9105514e-05
43	0x3729e438	1.0126321e-05
44	0x34afd9b7	3.2754699e-07
45	0xb63bb9fb	-2.7973426e-06
46	0xb6018784	-1.9301378e-06
47	0xb5b813a6	-1.3714787e-06
48	0xb809feda	-3.2900694e-05
49	0x36aa8497	5.0818303e-06
50	0x381c91c3	3.732905e-05
51	0x34f660b0	4.589142e-07
52	0x359fb2bd	1.1898443e-06
53	0x37b96876	2.2102362e-05
54	0xb79d2198	-1.8731502e-05
55	0x3662eeff	3.3815738e-06
56	0xb5dd5a31	-1.6492032e-06
57	0xb738d035	-1.1015732e-05
58	0x384e969e	4.92545e-05
59	0x34859816	2.4883838e-07
60	0x374d53f9	1.2238504e-05
61	0xb7c14971	-2.3041592e-05
62	0xb6237d08	-2.436167e-06
63	0xb83bf480	-4.4811983e-05
64	0xb60a5cef	-2.0617697e-06
65	0xb60694db	-2.0054201e-06
66	0xb7ecff84	-2.8252376e-05
67	0x364d89f5	3.0627682e-06
68	0x340b47eb	1.2971547e-07
69	0xb6c0bd1d	-5.7440616e-06
70	0x36c53e3b	5.878302e-06
71	0xb7b0af98	-2.1062602e-05
72	0x383241e9	4.249989e-05
73	0xb812bc92	-3.4984732e-05
74	0x34c9e4fa	3.760577e-07
75	0x37e0a2fa	2.6778773e-05
76	0x3704142c	7.87251e-06
77	0xb89ecc67	-7.5721e-05
78	0xb818f45e	-3.646721e-05
79	0x3652731d	3.1359443e-06
80	0xb69e13db	-4.7110784e-06
81	0xb76324d9	-1.3538834e-05
82	0xb76127f7	-1.342035e-05
83	0xb7019cfc	-7.72555e-06
84	0x387df7a9	6.0550552e-05
85	0x37b67bdd	2.1753769e-05
86	0x35d5099c	1.5872533e-06
87	0xb656bedb	-3.1999577e-06
88	0x385b899e	5.2341835e-05
89	0x35147436	5.5303406e-07
90	0xb82eb098	-4.16493e-05
91	0x35ac7b3b	1.2850863e-06
92	0xb8032e8c	-3.1276184e-05
93	0x355148b5	7.796437e-07
94	0xb51153dc	-5.413874e-07
95	0xb7f160aa	-2.8774451e-05
96	0xb8370d3f	-4.3642936e-05
97	0x37eea095	2.8446588e-05
98	0x35ce7a68	1.5383821e-06
99	0x38812ac1	6.159163e-05
100	0xb8ac608b	-8.219582e-05
101	0x3621ec07	2.4128256e-06
102	0xb81ac991	-3.6904185e-05
103	0xb72bfe83	-1.0251652e-05
104	0x3750e29b	1.2450527e-05
105	0x37eaa4ac	2.7971655e-05
106	0x379b7f15	1.8536617e-05
107	0xb8820572	-6.199897e-05
108	0xb8683825	-5.53654e-05
109	0x3601a047	1.9315792e-06
110	0xb7bfbf76	-2.285813e-05
111	0x380d9197	3.375261e-05
112	0x380d80ad	3.373686e-05
113	0xb630d6b3	-2.6351015e-06
114	0x35f56b3c	1.8285132e-06
115	0xb8901673	-6.8706366e-05
116	0xb51b3d48	-5.7831176e-07
117	0x38367781	4.3503478e-05
118	0x36f3ceda	7.266045e-06
119	0xb3faef7e	-1.16850956e-07
120	0xb7f01c5a	-2.8623432e-05
121	0x36274a37	2.4928138e-06
122	0x373617aa	1.0853555e-05
123	0x36b5f304	5.422511e-06
124	0x36d265c5	6.2703352e-06
125	0x34efbeb2	4.4655968e-07
126	0xb6d627eb	-6.382344e-06
127	0x372c2305	1.02601525e-05

exp_avg_sq f4 [128]
0	0x32eeffb9	2.7823136e-08
1	0x31d9e1c3	6.3411973e-09
2	0x327a17fd	1.45573695e-08
3	0x32057c7e	7.769925e-09
4	0x3317e7a0	3.536809e-08
5	0x32d7bea6	2.5115991e-08
6	0x3308c71e	3.1846064e-08
7	0x332b4312	3.987504e-08
8	0x326f977a	1.3946073e-08
9	0x3278383a	1.4448284e-08
10	0x3085bbfd	9.730453e-10
11	0x3381de4f	6.047468e-08
12	0x3216fc83	8.788564e-09
13	0x30997bce	1.1167403e-09
14	0x32319bb4	1.0338159e-08
15	0x34159df4	1.393417e-07
16	0x2f505446	1.894743e-10
17	0x323a13ba	1.083111e-08
18	0x33218328	3.760502e-08
19	0x309866bf	1.1088658e-09
20	0x33837a4f	6.122411e-08
21	0x32ac34d6	2.0047462e-08
22	0x316e138f	3.4644676e-09
23	0x2f67c072	2.1077698e-10
24	0x2eabd335	7.8136976e-11
25	0x328dd792	1.651259e-08
26	0x2f7cb77b	2.2984452e-10
27	0x33be855f	8.8718245e-08
28	0x3143ce37	2.8493454e-09
29	0x3321365f	3.7535184e-08
30	0x2fb1d74e	3.2349096e-10
31	0x32dc2a8f	2.5630724e-08
32	0x302ddf51	6.3254385e-10
33	0x2f3565df	1.6498046e-10
34	0x3202644b	7.5898e-09
35	0x333b6de9	4.3639293e-08
36	0x34064076	1.2503173e-07
37	0x324dca97	1.1978634e-08
38	0x31831478	3.814929e-09
39	0x2eb94662	8.4253285e-11
40	0x31dfe1bb	6.5158168e-09
41	0x2f980ad8	2.7656344e-10
42	0x330e0081	3.306241e-08
43	0x3202fa53	7.623913e-09
44	0x2ed2801d	9.572452e-11
45	0x2fdf5892	4.0626397e-10
46	0x2f9f194b	2.8939903e-10
47	0x2f56149a	1.9470506e-10
48	0x328d6b32	1.6463307e-08
49	0x314395a1	2.8461289e-09
50	0x324cd0a3	1.1921801e-08
51	0x30443b16	7.138835e-10
52	0x2ec5b418	8.990514e-11
53	0x33010196	3.0036595e-08
54	0x31c08e35	5.6041025e-09
55	0x31840f69	3.8434576e-09
56	0x300f985c	5.223961e-10
57	0x316a61a6	3.4106988e-09
58	0x3354b7f6	4.9527408e-08
59	0x2e1c50bd	3.5542003e-11
60	0x30c2b412	1.4166537e-09
61	0x32e81cdb	2.7021477e-08
62	0x2ecc5c2f	9.293221e-11
63	0x332d7820	4.0388954e-08
64	0x2f929f36	2.6670371e-10
65	0x300d4396	5.1391547e-10
66	0x337a09dc	5.8216628e-08
67	0x3090cffd	1.0536493e-09
68	0x305bfb38	8.002874e-10
69	0x329d7e00	1.8334504e-08
70	0x309a3f4d	1.1222966e-09
71	0x3323ef35	3.8168952e-08
72	0x32d68ac8	2.497599e-08
73	0x32be3da7	2.2146947e-08
74	0x2ed43729	9.650442e-11
75	0x3385a7af	6.2237966e-08
76	0x315b2638	3.189042e-09
77	0x33a34ca5	7.6042205e-08
78	0x3222334e	9.441306e-09
79	0x32690588	1.3563643e-08
80	0x2fc9f053	3.6732448e-10
81	0x32fd7104	2.950447e-08
82	0x3281d733	1.5115438e-08
83	0x307d918c	9.22477e-10
84	0x339192e5	6.7788086e-08
85	0x317cdef2	3.6797556e-09
86	0x308a2e10	1.0053913e-09
87	0x30aa3bce	1.2386125e-09
88	0x32c79319	2.3233541e-08
89	0x2f054e45	1.2124086e-10
90	0x331e427f	3.684772e-08
91	0x2f024a75	1.1849884e-10
92	0x332a5c4e	3.966516e-08
93	0x2ebab870	8.4910634e-11
94	0x2ecc4b4c	9.2902214e-11
95	0x3303e51b	3.0709185e-08
96	0x347501a1	2.2817996e-07
97	0x32586135	1.2594957e-08
98	0x2ff1441e	4.3886045e-10
99	0x326c5bfb	1.3757922e-08
100	0x337189bc	5.6237454e-08
101	0x2fa9b66a	3.0870534e-10
102	0x322edf73	1.01789395e-08
103	0x3215e8ae	8.725847e-09
104	0x3213e3a3	8.608285e-09
105	0x31bd7b2c	5.514627e-09
106	0x31dc8391	6.4178e-09
107	0x332ec1ec	4.0688903e-08
108	0x333547e2	4.2207724e-08
109	0x3007b93c	4.937595e-10
110	0x3377566c	5.758777e-08
111	0x3237f3da	1.0707447e-08
112	0x31cd65a9	5.9778427e-09
113	0x30868b0e	9.789305e-10
114	0x307a8f38	9.1152996e-10
115	0x32908ea8	1.6828679e-08
116	0x2f328ef5	1.6239794e-10
117	0x32db7b74	2.5551095e-08
118	0x3089a23e	1.0014174e-09
119	0x2ea5a741	7.5330416e-11
120	0x3280331a	1.49244e-08
121	0x2f45b9df	1.798308e-10
122	0x312d819d	2.524849e-09
123	0x32f31308	2.8297578e-08
124	0x32aa6feb	1.9841499e-08
125	0x2e5ce025	5.022129e-11
126	0x2fa5e0a3	3.017294e-10
127	0x32a618bd	1.9336193e-08
