Lofty2024/results/MoveToPlayerNew4/MoveToPoint/MoveToPoint-53475.onnx (onnx, 89178 bytes, 9 tensors)

discrete_act_size_vector f4 [1, 2]
0	0x41100000	9.0
1	0x41100000	9.0

network_body._body_endoder.seq_layers.0.weight f4 [128, 12]
0	0xbf0c994b	-0.54921407
1	0x3dbc7a62	0.0920303
2	0xbe1a496e	-0.15067074
3	0xbe9fd09e	-0.3121385
4	0x3cae2aff	0.021260737
5	0xbe6db410	-0.2321322
6	0xbe7933b6	-0.24336132
7	0xbdd1ff4c	-0.10253772
8	0xbc1de641	-0.009637416
9	0xbd6aac11	-0.057293
10	0x3d6652a1	0.056231145
11	0x3cd9dee6	0.026595544
12	0xbec4ffca	-0.38476402
13	0xbeabf160	-0.33582592
14	0xbead1ccb	-0.3381103
15	0xbeff722b	-0.4989179
16	0x3d458bf1	0.04822916
17	0x3bbaa0f6	0.0056954576
18	0x3f0cdcce	0.5502442
19	0x3e9abc7a	0.3022192
20	0x3c8d3ebb	0.017241826
21	0xbe31401a	-0.17309609
22	0xbd0ebf3e	-0.03485035
23	0xbe5018c6	-0.2032195
24	0x3e91b1e1	0.28456023
25	0x3de4b41e	0.11167167
26	0x3caecc5f	0.021337686
27	0xbe71d59a	-0.23616639
28	0x3e4381cb	0.19092481
29	0xbd1b58d1	-0.0379265
30	0xbf3c537d	-0.73564893
31	0xbe846313	-0.25856838
32	0xbef2a698	-0.47392726
33	0x3e3e7c39	0.18602075
34	0x3e193bed	0.14964266
35	0xbeb49d68	-0.3527634
36	0x3e4368a8	0.19082892
37	0x3e073bf7	0.13206469
38	0xbe0ea908	-0.13931668
39	0x3eb8b040	0.36071968
40	0xbe764e92	-0.2405341
41	0xbe959066	-0.2921173
42	0xbcd35327	-0.025796486
43	0x3dc3b38b	0.095557295
44	0xbe28763a	-0.1645135
45	0x3e1904c7	0.14943229
46	0xbe2e2f62	-0.17010263
47	0xbd92c634	-0.071667105
48	0xbefea273	-0.49733314
49	0xbef2aec6	-0.47398967
50	0xbcbb107d	-0.02283501
51	0x3e2cc7ff	0.16873167
52	0xbe748b40	-0.23881245
53	0x3dc4f0ae	0.096162185
54	0x3e7e674c	0.24844092
55	0x3e68be9d	0.22728963
56	0x3e47b7fb	0.19503777
57	0x3e70b9a0	0.2350831
58	0xbe1029ed	-0.14078493
59	0x3eb10b4a	0.34578925
60	0xbd1dbc9c	-0.03850995
61	0xbf0e9a22	-0.5570394
62	0x3b009bf2	0.00196242
63	0x3dd64e7e	0.1046419
64	0x3e73226d	0.23743601
65	0x3e8b44b9	0.2720087
66	0x3ef09731	0.4699035
67	0xbc9b61c5	-0.018967519
68	0xbe92db85	-0.28683105
69	0x3c637bb1	0.013884471
70	0x3ee7e5a8	0.452924
71	0xbdffda53	-0.12492814
72	0xbdfdbad0	-0.12389147
73	0xbed4591d	-0.41474238
74	0xbe7a8841	-0.24466039
75	0xbdb18a8b	-0.08669003
76	0x3de8fdde	0.11376546
77	0xbed978b1	-0.42474893
78	0xbd7d5ab1	-0.06185407
79	0x3f04d1a4	0.51882386
80	0x3e837b54	0.2568003
81	0x3c831317	0.016000314
82	0x3e90caea	0.2827981
83	0xbca3ca40	-0.019993901
84	0x3eacaf67	0.3372757
85	0x3e8b5883	0.27215967
86	0xbe002d71	-0.12517335
87	0x3d0edf4b	0.034880918
88	0xbe5451ac	-0.2073428
89	0xbe875cd1	-0.26438
90	0x3dbe00ab	0.09277471
91	0x3d91752a	0.071024254
92	0x3e71f6b8	0.23629272
93	0x3c907240	0.017632604
94	0xbda57440	-0.080788136
95	0x3f00bc9e	0.50287807
96	0xbcbccf6b	-0.023048123
97	0x3e0d1160	0.1377616
98	0xb9f4164b	-0.00046555916
99	0xbf29b454	-0.66290784
100	0x3eda7d00	0.42673492
101	0x3e6dd6db	0.23226492
102	0xbebaf920	-0.36518192
103	0x3ee0e352	0.43923432
104	0xbded1a61	-0.11577297
105	0x3e5f3fdc	0.21801704
106	0xbe99e89c	-0.3006028
107	0x3f01efc1	0.5075646
108	0x3eca51df	0.39515588
109	0x3e200beb	0.15629546
110	0xbece846e	-0.4033541
111	0xbe5a782f	-0.21334909
112	0xbdcafc30	-0.09911382
113	0x3e640bea	0.2227017
114	0x3cd2d30d	0.025735402
115	0x3e891832	0.26776272
116	0xbd85cdcd	-0.06533394
117	0x3c53e4e1	0.012932987
118	0x3e086809	0.13320936
119	0xbe3b6d8d	-0.18303509
120	0xbe2d8306	-0.16944513
121	0xbe926070	-0.285892
122	0x3deb3662	0.11484982
123	0xbe2f5aaa	-0.1712443
124	0xbeb246fc	-0.34819782
125	0xbac0f2dd	-0.0014720816
126	0x3eb4c16d	0.35303822
127	0x3c16ed27	0.009211815
128	0xbce67d48	-0.02813591
129	0x3e846a8c	0.2586254
130	0x3e32d036	0.17462239
131	0x3c7b3abe	0.015333829
132	0x3e1a984e	0.15097162
133	0x3cd8982c	0.026439749
134	0xbdf9e366	-0.12201576
135	0x3d9e43fa	0.07727809
136	0xbd839ace	-0.06426011
137	0xbe217393	-0.15766744
138	0xbf2c9737	-0.67418236
139	0xbe8a0a7c	-0.26961124
140	0x3ed88644	0.42289937
141	0x3e39aa10	0.1813128
142	0x3dfb6065	0.12274245
143	0x3d723fe9	0.05914298
144	0x3e72d5f2	0.23714426
145	0xbe4ae6a2	-0.19814542
146	0x3ce038ad	0.027370775
147	0x3e8cc494	0.27493727
148	0xbe3fdc4c	-0.1873638
149	0xbe9add07	-0.30246755
150	0x3c97f1c6	0.018547904
151	0x3eda3861	0.4262114
152	0xbe32a99b	-0.17447512
153	0xbed1a889	-0.40948895
154	0xbe3f0ed4	-0.18658
155	0xbe43c36a	-0.19117513
156	0xbd88c732	-0.066786185
157	0x3e9c950e	0.3058247
158	0xbd30cd67	-0.043164637
159	0x3e46ad50	0.19402051
160	0xbe81c50f	-0.25345656
161	0x3e4d0bcd	0.20024033
162	0xbf19de43	-0.6010477
163	0xbe609fde	-0.21935984
164	0x3d1ff3a8	0.039050728
165	0x3e8fbb27	0.28072473
166	0x3e9a344e	0.3011803
167	0xbdf830f8	-0.12118715
168	0xbee73946	-0.45160884
169	0xbe98a42b	-0.2981275
170	0xbecea63f	-0.4036121
171	0xbdb90e47	-0.09035926
172	0xbea6619b	-0.32496342
173	0x3e22488c	0.15847987
174	0x3dcca800	0.09992981
175	0x3d6f229d	0.05838262
176	0xbf0b2b4e	-0.5436295
177	0x3d469463	0.048481356
178	0xbd5dcb23	-0.054148804
179	0x3af51b1c	0.0018700096
180	0x3e65135e	0.22370669
181	0x3e277f8c	0.16357249
182	0x3e496efd	0.19671245
183	0x3e90af9c	0.2825898
184	0x3ea28d60	0.31748486
185	0xbebad904	-0.36493695
186	0xbee1b015	-0.44079652
187	0x3ce3dc2e	0.02781495
188	0xbf2a2550	-0.66463184
189	0x3e17fa05	0.14841469
190	0x3ea0fc93	0.314427
191	0xbef6a8e1	-0.4817572
192	0x3df459e3	0.11931207
193	0x3e38396b	0.17990653
194	0xbf27a621	-0.6548787
195	0x3e5e0a45	0.21683605
196	0x3f3c8902	0.7364656
197	0xbd596d0b	-0.053082507
198	0xbd38e8a0	-0.045143723
199	0x3e650266	0.22364196
200	0x3e8100b4	0.2519585
201	0xbe5f32c6	-0.21796712
202	0xbd28f94e	-0.04125338
203	0xbe10dc5a	-0.14146557
204	0xbdd3284a	-0.10310419
205	0xbef11187	-0.47083685
206	0x3dc57c8f	0.09642898
207	0x3c959732	0.018260572
208	0x3c6e3076	0.014537921
209	0x3ebac93a	0.3648165
210	0x3d3b81a1	0.04577792
211	0xbdc62097	-0.09674185
212	0x3ecb2e03	0.39683542
213	0x3dbf8956	0.093523666
214	0x3ee9cfc7	0.45666334
215	0xbef2937c	-0.47378147
216	0x3df5a8b3	0.119950674
217	0xbd3eddf4	-0.04659839
218	0xbe522f6e	-0.20525905
219	0x3e05e783	0.13076596
220	0x3ea9c473	0.3315769
221	0xbd832d59	-0.06405134
222	0x3f21b49d	0.6316622
223	0x3bdfafad	0.006826362
224	0xbd6ea81b	-0.058265787
225	0xbd4f8add	-0.05066954
226	0xbe892d62	-0.26792437
227	0x3d15951c	0.036519155
228	0x3e91adc0	0.28452873
229	0xbe2e076c	-0.16995019
230	0xbbc6a7e5	-0.006062495
231	0xbd476992	-0.048684664
232	0x3d8dae2f	0.069179885
233	0xbed8de30	-0.42357016
234	0x3db5a175	0.08868686
235	0x3ca89030	0.020576566
236	0x3e2e3951	0.17014052
237	0xbe6f1278	-0.23346889
238	0xbdd791db	-0.105258666
239	0x3ece1a95	0.40254655
240	0xbbb6df09	-0.005580787
241	0xbefb9758	-0.49138904
242	0x3e9c96bb	0.30583748
243	0x3e72f771	0.23727204
244	0x3ef69de5	0.4816734
245	0xbe27667c	-0.16347688
246	0x3e565479	0.20930661
247	0xbe004fe5	-0.12530477
248	0xbe08c3c5	-0.1335593
249	0x3de6af70	0.11263931
250	0xbf1522e4	-0.58256364
251	0xbcc680f2	-0.024231408
252	0x3e5e24d8	0.21693742
253	0x3e0cd8f9	0.13754643
254	0x3e9a113e	0.3009128
255	0xbf04279a	-0.5162293

network_body._body_endoder.seq_layers.0.bias f4 [128]
0	0xbcbce6bc	-0.023059241
1	0x3d7342b4	0.059389785
2	0xbc2fd86d	-0.010732752
3	0xbd6ee6e8	-0.058325678
4	0xbd0f502f	-0.03498858
5	0xbb633880	-0.0034671128
6	0xbbf0473f	-0.007332712
7	0xbb39c6cf	-0.002834726
8	0xbc42c9ca	-0.011888931
9	0x3d8728ea	0.065996006
10	0xbd0d19c5	-0.034448404
11	0x3d4669e2	0.04844082
12	0xbd186a15	-0.037210543
13	0x3d18178f	0.037131842
14	0xbbb1e429	-0.00542881
15	0xbd9e5556	-0.0773112
16	0x3cf94c0a	0.030431766
17	0xbc90ba3b	-0.017666927
18	0x3d16abd0	0.036784947
19	0xbc43ece6	-0.011958336
20	0xbd521b3c	-0.051295504
21	0x3c2d91bf	0.010593831
22	0xbbd82de0	-0.0065972656
23	0xbd845731	-0.06461943
24	0x3c77df80	0.01512897
25	0xbd4a52de	-0.049395435
26	0x3cb3d91e	0.021954115
27	0x3d92be27	0.07165175
28	0xbd1c003a	-0.038086154
29	0x3c86051a	0.016359854
30	0x3cf33625	0.029688904
31	0xbc8ed4c0	-0.017435431
32	0xbd47dfb9	-0.048797343
33	0x3d0f11fa	0.034929253
34	0xbd573584	-0.05254127
35	0xbd0b7e26	-0.03405585
36	0xbd9c1dfe	-0.07622908
37	0xbd2b7d9a	-0.04186783
38	0x3ca05f29	0.019576626
39	0x3cb38d26	0.02191789
40	0xbd06f386	-0.032947086
41	0xbc3cd131	-0.0115244845
42	0x3c3438d9	0.010999882
43	0x3cd4a64f	0.025958208
44	0xbcace20f	-0.021103887
45	0xbd0f0b40	-0.03492284
46	0x3c8e87a6	0.017398667
47	0xbc7bb644	-0.01536328
48	0x3b95b894	0.0045691226
49	0xbb8486fb	-0.0040444112
50	0xbd457562	-0.048207648
51	0xbceb8e02	-0.028754238
52	0xbd02ba62	-0.03191603
53	0xbdcb7096	-0.099335834
54	0xbd217be6	-0.0394248
55	0x3d08732d	0.033312965
56	0x3b41808f	0.002952609
57	0x3d1b3800	0.037895203
58	0xbad0f3dd	-0.0015941818
59	0xbb324093	-0.0027199134
60	0x3d470e1c	0.04859744
61	0x3d3c02c7	0.045901086
62	0xbcd45fd7	-0.025924606
63	0xbc6a03ff	-0.014283179
64	0xbd15e6ae	-0.036596946
65	0xbcb1968b	-0.02167823
66	0xbc093244	-0.008373801
67	0x3d11fef3	0.03564353
68	0xbc0e9437	-0.008702329
69	0xbcc01afd	-0.023450369
70	0xbd0b398c	-0.033990428
71	0xbd49e367	-0.049289133
72	0x3d796ef8	0.060896844
73	0x3c0a4276	0.008438697
74	0x3c5faef4	0.013652552
75	0xbd225946	-0.03963592
76	0xbb32f621	-0.0027307349
77	0xbd6d0fa1	-0.057876233
78	0xbd83ae94	-0.064297825
79	0xbcbac23b	-0.022797694
80	0xbd2b016b	-0.0417494
81	0x3d1a1328	0.037615925
82	0xbcef6226	-0.029221606
83	0xbd270c3d	-0.040783156
84	0x3c2d9faa	0.010597149
85	0xbd1575f2	-0.036489435
86	0xbb81509f	-0.0039463784
87	0xbd5d75cf	-0.05406743
88	0xbba9f01b	-0.0051860935
89	0x3cc4641a	0.023973513
90	0xbc287366	-0.010281419
91	0x3c0955a8	0.008382238
92	0xbcfa112c	-0.030525766
93	0xbcfaba39	-0.030606376
94	0x3c8444f4	0.01614616
95	0xbd96508f	-0.07339584
96	0xbcf09946	-0.029369961
97	0xbd37781d	-0.044792283
98	0xbd80acb3	-0.0628294
99	0xbc4d8b7a	-0.012545461
100	0xbd609577	-0.05483004
101	0xbc8aa6c6	-0.016925227
102	0xbd6a60bc	-0.05722116
103	0xbc80d2e9	-0.01572557
104	0x3c8f39ea	0.01748367
105	0x3bd308cc	0.0064402577
106	0x3b9d92f4	0.004808778
107	0xbd1f30f4	-0.038865045
108	0x3dd32ca9	0.103112526
109	0xbc9db930	-0.019253343
110	0xbd8f7366	-0.070044324
111	0x3d184148	0.037171632
112	0x3cfa3970	0.030544966
113	0xbca5ecbf	-0.02025449
114	0x3b2aa72a	0.002603958
115	0xbd0cf10d	-0.03440957
116	0xbd3d1afa	-0.046168305
117	0xbd82fff7	-0.06396478
118	0x3cb39ad1	0.021924408
119	0xbd53e8a2	-0.051735528
120	0x3c137d84	0.009002093
121	0xbbb3c5b6	-0.0054862155
122	0x3cad95df	0.021189628
123	0xbd812c2f	-0.063072555
124	0xbc9cc945	-0.019138942
125	0xbcd36f8e	-0.02581003
126	0xbb445dc3	-0.0029963113
127	0xbd257bcb	-0.04040126

network_body._body_endoder.seq_layers.2.weight f4 [128, 128]
0	0xbd25f20d	-0.04051404
1	0x3e9bd404	0.30435193
2	0xbddeabc2	-0.10872604
3	0x3d424e63	0.047438037
4	0x3d021c5f	0.031765338
5	0xbcfe4144	-0.03103698
6	0xbdcbe293	-0.09955325
7	0xbc5fc332	-0.013657378
8	0x3cc56f2c	0.024100862
9	0x3e4f5dcd	0.20250626
10	0xbd1b692a	-0.03794209
11	0x3d2c157f	0.042012688
12	0xbe18b5ac	-0.14913052
13	0xbcc79ebb	-0.02436768
14	0x3db030b4	0.086030394
15	0xbd1866d0	-0.037207425
16	0x3d553a78	0.052057713
17	0xbd422b54	-0.047404602
18	0x3df9e46a	0.1220177
19	0x3d659ed6	0.05605968
20	0x3df3922d	0.11893115
21	0xbdfe5e4b	-0.12420329
22	0x3dad7e8f	0.08471405
23	0x3b6fc6d3	0.0036587014
24	0xbde0c5a4	-0.10975197
25	0x3d9f8105	0.077882804
26	0x3d13b798	0.03606376
27	0x3e2aa5c3	0.16664796
28	0xbe33da4e	-0.17563745
29	0x3d53e342	0.0517304
30	0x3e068f2d	0.13140555
31	0x3cc9d349	0.024636881
32	0x3da20633	0.07911339
33	0xbe07bb4c	-0.13255042
34	0x3e0f2ee9	0.13982739
35	0xbd930208	-0.07178122
36	0xbd1fa653	-0.03897698
37	0x3ca4d4bc	0.02012097
38	0xbc7784d5	-0.015107353
39	0x3da06751	0.07832206
40	0xbe1d5b8b	-0.15366952
41	0xbe176da3	-0.14787917
42	0x3d022634	0.031774715
43	0x3daeb42e	0.0853046
44	0xbe196979	-0.14981641
45	0x3db02956	0.08601634
46	0xbdad5eda	-0.08465357
47	0xbe78ec9c	-0.2430901
48	0xbdb168ee	-0.08662592
49	0x3c0eefd1	0.008724169
50	0xbd8ce3aa	-0.06879361
51	0x3d7e6257	0.062105503
52	0x3cb8a8ac	0.022541367
53	0xbc69c974	-0.014269222
54	0x3d418c53	0.047252964
55	0x3e1903ff	0.1494293
56	0x3d891b3c	0.06694648
57	0xbdf87896	-0.12132375
58	0xbdc510e2	-0.09622361
59	0xbe760eae	-0.24029037
60	0x3b73cd89	0.0037201366
61	0x3e1153c4	0.1419211
62	0x3c57e1e6	0.013176417
63	0xbe124779	-0.14285077
64	0x3ce6e5a7	0.028185679
65	0xbe0ababc	-0.13547796
66	0xbe7910e4	-0.2432285
67	0x3d362ac8	0.044474393
68	0xbd04e6f0	-0.0324468
69	0xbcc7bace	-0.024381068
70	0xbd1179d2	-0.035516568
71	0x3ca074ef	0.019587008
72	0x3e6dca7b	0.23221771
73	0x3db6971f	0.08915543
74	0x3e1c7a92	0.15281132
75	0xbd96aca6	-0.07357149
76	0x3d896d67	0.0671032
77	0xbbcfb9ac	-0.0063392725
78	0xbc793cc3	-0.015212241
79	0xbd617050	-0.05503875
80	0xbd732c1c	-0.059368238
81	0x3d63d75c	0.055625305
82	0xbcd405c7	-0.025881661
83	0xbe1120f8	-0.14172733
84	0xbd80863a	-0.06275602
85	0xbd402539	-0.0469105
86	0x3d0e3f1c	0.034728155
87	0x3dc4a370	0.09601486
88	0xbdb21388	-0.086951315
89	0x3d1d06de	0.038336627
90	0xbc4fd996	-0.012686154
91	0xbcf50a34	-0.029912092
92	0xbd98ee17	-0.07467287
93	0x3cd7b9a5	0.02633364
94	0x3c3489b6	0.011019161
95	0xbdb38d97	-0.087672405
96	0xbda4e446	-0.08051352
97	0xbc631a14	-0.013861198
98	0xbd1d067a	-0.038336255
99	0x3db40e93	0.08791842
100	0x3d873201	0.06601334
101	0x3dbfb3a9	0.09360439
102	0xbdb4f020	-0.08834863
103	0xbd1083a3	-0.03528179
104	0xbe219eca	-0.1578323
105	0xbd058a04	-0.032602325
106	0xbc9ba0be	-0.018997546
107	0xbd91fc33	-0.07128181
108	0xbe011916	-0.12607226
109	0x3bf5df32	0.0075034136
110	0x3cec4afc	0.02884435
111	0x3d6de7b0	0.058082283
112	0x3dd51a0c	0.10405359
113	0x3db65fbc	0.08904979
114	0xbe2ee529	-0.17079605
115	0xbe0f50d3	-0.13995676
116	0xbc79f519	-0.01525619
117	0xbd1e7f87	-0.03869584
118	0x3d0fc41e	0.03509914
119	0xbbd68083	-0.0065460815
120	0x3e299599	0.16560973
121	0x3d8589a6	0.06520395
122	0x3ba442bd	0.0050128386
123	0xbd1da2e5	-0.038485426
124	0xbd1f1dd1	-0.038846795
125	0xbd8072fb	-0.06271931
126	0xbe0f852f	-0.1401565
127	0xbd100d34	-0.03516884
128	0x3d6b5af7	0.057459798
129	0x3c26532c	0.010151666
130	0x3c962545	0.018328318
131	0x3d40a3ca	0.0470312
132	0xbcd380ac	-0.025818191
133	0xbb90648c	-0.0044065174
134	0x3ceece27	0.029151035
135	0x3d0bb912	0.034112044
136	0x3d6976d9	0.056998108
137	0x3dd4eb73	0.10396471
138	0xbe0cfe18	-0.13768804
139	0x3e08bc91	0.13353182
140	0xbdceecb4	-0.10103741
141	0x3ceabb2d	0.028653705
142	0x3d800f5f	0.06252932
143	0xbc50464b	-0.012712072
144	0x3cc968aa	0.02458604
145	0x3d49d8c4	0.04927899
146	0xbdc8ed2c	-0.09810862
147	0xbcc7b4a4	-0.024378128
148	0x3deb2a5f	0.11482691
149	0x3de9a5dc	0.11408588
150	0x3e022a45	0.12711437
151	0xbd28a34d	-0.04117136
152	0x3d8f334b	0.06992205
153	0x3d094586	0.03351357
154	0x3e283696	0.16427073
155	0xbd3186fc	-0.04334162
156	0xbdeb4885	-0.114884414
157	0xbe16ab5a	-0.14713803
158	0xbd4da7f4	-0.050209
159	0x3e3ff368	0.18745196
160	0x3db4e1e4	0.08832148
161	0x3e0aa1ae	0.13538238
162	0x3d1aca47	0.037790563
163	0xbd4ac06f	-0.049499925
164	0x3cc48954	0.023991264
165	0xbc159492	-0.00912966
166	0x3dd4075e	0.10352968
167	0xbe70b3bf	-0.23506068
168	0xbdf140fc	-0.11779973
169	0xbdc465ea	-0.09589751
170	0x3b9480e9	0.004531969
171	0x3c184f4c	0.00929625
172	0x3d3c0a11	0.045908038
173	0xbdecf4f9	-0.11570162
174	0x3e279cf7	0.16368471
175	0x3e769db0	0.2408359
176	0xbe05375a	-0.13009396
177	0x3d63fecd	0.05566292
178	0x3dab3ae2	0.083608404
179	0xbc986619	-0.018603371
180	0xbe309ee5	-0.17248113
181	0xbcc1cfd7	-0.023658676
182	0xbd4d042f	-0.050052818
183	0x3db2f187	0.08737474
184	0xbe3247bf	-0.17410181
185	0xbe244672	-0.16042498
186	0x3e270e51	0.16314055
187	0xbca7b6c7	-0.020472897
188	0x3d3eca87	0.046579864
189	0xbdaec117	-0.08532923
190	0x3d9097c8	0.070602
191	0x3dddcdaf	0.10830247
192	0xbd5718f5	-0.052514035
193	0x3da5ee35	0.08102075
194	0xbd3a54a3	-0.045490872
195	0xbd729716	-0.059226118
196	0x3debde14	0.115169674
197	0x3d9d1626	0.0767024
198	0xbc991a44	-0.018689282
199	0x3d101572	0.0351767
200	0x3e2920bc	0.16516393
201	0x3d5be422	0.05368436
202	0x3d522f8f	0.051314887
203	0xbd4f3e09	-0.05059627
204	0x3e3ffedc	0.18749565
205	0xbcb59664	-0.022166438
206	0xbdbb34e8	-0.091409504
207	0x3d58f37f	0.05296659
208	0x3c455d9a	0.012046242
209	0x3d46c7c1	0.048530344
210	0xbe4ba99a	-0.19888917
211	0xbd2aa9ca	-0.04166583
212	0x3d9f987e	0.077927575
213	0xbd0f9d86	-0.035062335
214	0x3de01c73	0.10942926
215	0x3cf7d60f	0.030253438
216	0x3e0fa014	0.14025909
217	0xbe122eb7	-0.14275633
218	0x3c52f77d	0.012876389
219	0xbddd9ba4	-0.10820702
220	0x3de6ca03	0.112689994
221	0x3d167822	0.03673566
222	0x3d44fc68	0.048092276
223	0xbcdd631a	-0.027024794
224	0xbd6cae70	-0.057783544
225	0xbe10ccce	-0.14140627
226	0x3be529a6	0.0069934903
227	0xbdb3d782	-0.08781339
228	0x3e0154a7	0.12629949
229	0x3d29da5c	0.04146801
230	0x389b14ec	7.394873e-05
231	0x3d93b818	0.072128475
232	0xbdbee2df	-0.09320616
233	0x3da1de86	0.07903771
234	0x3d35e2b1	0.044405643
235	0x3d2ac5e1	0.04169262
236	0x3dac920f	0.08426296
237	0x3bf830db	0.0075741834
238	0xbd722d24	-0.05912508
239	0x3d7188e1	0.05896843
240	0x3d9fe4b3	0.07807293
241	0xbd416638	-0.047216624
242	0x3d9db029	0.076996155
243	0xbd885dc4	-0.066585094
244	0x3d73083c	0.059334025
245	0xbde25eaa	-0.11053212
246	0xbd52c0f8	-0.05145356
247	0xbd84138b	-0.0644904
248	0x3ca38f14	0.019965686
249	0xbdd1db17	-0.10246866
250	0xbcab527c	-0.020913355
251	0xbc054d8c	-0.008136164
252	0x3d260de5	0.040540595
253	0x3d800686	0.06251244
254	0x3d562364	0.052279845
255	0x3be91cf8	0.007114049

network_body._body_endoder.seq_layers.2.bias f4 [128]
0	0x3c33d628	0.010976352
1	0xbce8941a	-0.028390933
2	0xb9eaa29e	-0.00044753117
3	0x3bd1d192	0.0064031566
4	0xbce296cd	-0.027659798
5	0xbd9c0b4d	-0.07619343
6	0xbce5d498	-0.028055474
7	0x3d0fa101	0.035065655
8	0x3b42d0f1	0.002972659
9	0xbc953051	-0.018211516
10	0xbc81f603	-0.015864378
11	0xbd192165	-0.037385363
12	0xbcfcb36d	-0.030847276
13	0x3d2dba40	0.04241395
14	0xbd07e78c	-0.033179805
15	0x3b8624eb	0.0040937564
16	0x3b0e7f76	0.0021743453
17	0xbd7e520b	-0.06208996
18	0x3cbc9a32	0.023022745
19	0xbc9267e6	-0.017871808
20	0x3c4aa659	0.012368762
21	0xbbfb3bfb	-0.0076670623
22	0xbd2437f3	-0.04009242
23	0xbbb99316	-0.005663286
24	0xbca5b16f	-0.020226208
25	0xbd0cdef7	-0.034392323
26	0x3c008f5a	0.007846678
27	0xbbde3ce3	-0.0067821606
28	0xbcef62b3	-0.029221868
29	0xbc317b25	-0.010832583
30	0xbaf09bdd	-0.0018356998
31	0xbd0072b2	-0.031359382
32	0x3bc35bec	0.0059618857
33	0xbd225259	-0.039629314
34	0xbd31b7dd	-0.043388236
35	0x3d03f4c9	0.032215867
36	0xbd0c159a	-0.03420029
37	0x3ad9e613	0.0016624354
38	0xbc6acb2c	-0.0143306665
39	0xbb837cd6	-0.0040126843
40	0x3c330c7a	0.010928268
41	0xbd478fec	-0.04872124
42	0xbd4464b4	-0.0479476
43	0x3d27b0e7	0.04094019
44	0x3d61f3d9	0.055164192
45	0xbc9009b3	-0.01758275
46	0xbcb0ad0c	-0.02156689
47	0xbd48a47b	-0.048984986
48	0xbc6b65d8	-0.014367543
49	0xbc94aa7f	-0.018147705
50	0xbce7f7a4	-0.028316326
51	0xbbe2f450	-0.006926097
52	0x3d26b82e	0.04070299
53	0x3ce71a8e	0.028210904
54	0xbd1548f7	-0.036446538
55	0xbc9186df	-0.017764507
56	0xbc30489f	-0.010759502
57	0xbc9059fb	-0.017621031
58	0x3d0b3256	0.03398355
59	0x3c1897fc	0.00931358
60	0xbd4ad062	-0.049515136
61	0x3b9d0a66	0.0047924994
62	0xbb8e8481	-0.004349292
63	0xbbb324d3	-0.0054670363
64	0x3c3f0240	0.011658251
65	0xbced6ee2	-0.028983537
66	0xbd17558d	-0.036946822
67	0xbc6b9fce	-0.014381362
68	0x3ce22aa5	0.027608225
69	0x3c3006db	0.010743822
70	0xbc906fae	-0.017631378
71	0xbc9d594e	-0.019207623
72	0x3c46cab8	0.012133293
73	0xbccc96c4	-0.024974234
74	0xbd0e6f45	-0.034774084
75	0xbd2aaa0b	-0.04166607
76	0xbd797755	-0.06090482
77	0xbc215ad8	-0.009848319
78	0x3c3af7ee	0.01141165
79	0xbd3364d7	-0.04379734
80	0xbd01b5c3	-0.031667482
81	0x3cc77301	0.02434683
82	0xbd32ea0f	-0.043680247
83	0xbcbcf817	-0.023067517
84	0xb91930e4	-0.0001460943
85	0xbd1df38e	-0.03856235
86	0x3c7116f9	0.01471495
87	0xbd3c27de	-0.045936458
88	0x3bf2a457	0.0074048447
89	0x3caddbb8	0.021222934
90	0xbba356d0	-0.004984714
91	0xbd26495b	-0.0405973
92	0x3d588817	0.05286416
93	0xbaf0407f	-0.0018329768
94	0xbcc8ce4d	-0.024512434
95	0xbca222d9	-0.019792007
96	0xbbdc30b1	-0.0067196717
97	0xbc81c4e3	-0.015840953
98	0x3cbb8acd	0.022893334
99	0x38bda5d4	9.04311e-05
100	0xbb48967c	-0.0030607274
101	0xbc7d4923	-0.015459332
102	0xbc0fcc81	-0.008776785
103	0x3c1bac66	0.009501552
104	0x3c8194d9	0.015818046
105	0xbd58fb5a	-0.052974083
106	0xbd0369c5	-0.03208329
107	0xbc270d36	-0.010196021
108	0xbc824c9d	-0.015905673
109	0xbd0e1a1b	-0.034692865
110	0xbd00844f	-0.03137618
111	0xbc7e5f32	-0.015525626
112	0xbd98a38f	-0.07453071
113	0xbc4618c3	-0.012090865
114	0xbd65465c	-0.055975303
115	0x3d23f88f	0.040031966
116	0xbbc46ff8	-0.005994793
117	0xbd3f028f	-0.0466333
118	0xbd7c397d	-0.061578263
119	0xbcd9e362	-0.026597682
120	0x3ca6f635	0.020381073
121	0xbd04f189	-0.03245691
122	0x3bbd9aad	0.005786261
123	0x3cd9ce82	0.026587728
124	0xbc6a8451	-0.014313773
125	0xbcfb2a1e	-0.030659731
126	0xbbdf52db	-0.006815297
127	0xbce6c295	-0.028168956

action_model._discrete_distribution.branches.0.weight f4 [9, 128]
0	0xbb1a43ab	-0.0023538868
1	0x3bb7c4bb	0.005608169
2	0xbbc3f5dd	-0.005980237
3	0x3ab82711	0.0014049729
4	0xbc332f95	-0.010936637
5	0x3b96f156	0.004606406
6	0xbbfc05d0	-0.0076911226
7	0x3b61c283	0.0034448213
8	0xbb5116d5	-0.0031904478
9	0xbc16a8be	-0.009195505
10	0x3c0c7607	0.008573062
11	0x3ae1411f	0.0017185545
12	0x3b588040	0.0033035427
13	0x3a3f4599	0.00072964426
14	0x3ca58111	0.020203145
15	0x3b19b652	0.0023454619
16	0x3ca52ad4	0.020162024
17	0xbc57647a	-0.013146514
18	0xbc0bc26f	-0.008530243
19	0xbb4a803f	-0.0030899195
20	0x3bed29ad	0.007237634
21	0xbbaf8df6	-0.0053574992
22	0x3bb97af7	0.0056604105
23	0x3bc145d6	0.0058982177
24	0x3c3f298f	0.011667623
25	0x3ce2e040	0.027694821
26	0xba713b9d	-0.00092023035
27	0xbbab752a	-0.005232473
28	0xbcf5e9da	-0.030018736
29	0x3b0b4d17	0.0021255666
30	0xbc6cfb78	-0.014464252
31	0xbc8472d2	-0.016168032
32	0x3b5beb4f	0.0033557003
33	0x3bd696c8	0.0065487362
34	0xbc5b392a	-0.013380328
35	0xbbeeb53f	-0.00728479
36	0xbbd75aaa	-0.0065720873
37	0xbb2a7438	-0.0026009213
38	0xbc94bb4a	-0.018155713
39	0xbb3cc931	-0.0028806443
40	0xbc2de2a6	-0.010613119
41	0xbae0f207	-0.0017161974
42	0xbc3ddb4b	-0.011587928
43	0x3c108ab9	0.008822137
44	0x3c0e357e	0.008679746
45	0x3bfc3943	0.007697256
46	0x3a1f739d	0.00060825964
47	0x3b9c96ca	0.0047787176
48	0xbc40f861	-0.011777968
49	0x3865d8c5	5.4799737e-05
50	0x3a49b238	0.0007694098
51	0x3c1a4f64	0.009418342
52	0x3c816627	0.01579578
53	0x3b495cb7	0.0030725428
54	0xbc07d2b7	-0.008289984
55	0xbc0048eb	-0.007829885
56	0x3c130937	0.008974365
57	0x3c085485	0.008320932
58	0x3b17f993	0.002318953
59	0x3b03bb41	0.0020100626
60	0x3c3417a2	0.010991963
61	0x3ca00753	0.019534742
62	0x3ba81648	0.0051296093
63	0x3c099547	0.008397407
64	0xbc72d280	-0.014820695
65	0x3c46dd9f	0.0121377995
66	0xbc537742	-0.012906851
67	0xbb41e728	-0.0029587243
68	0x3c6f28ea	0.014597157
69	0x3c7b7b7b	0.015349264
70	0x3c0e74bb	0.008694823
71	0x3af696fa	0.0018813305
72	0x3a89d6f7	0.0010516335
73	0x3bbc471b	0.005745781
74	0xbbf0e64d	-0.0073516727
75	0xbc4c3487	-0.012463695
76	0xbba2718a	-0.0049573826
77	0xbbcaa2ef	-0.006183974
78	0xbb7a4a4a	-0.0038191252
79	0xbb55b83a	-0.0032611028
80	0x3c864867	0.016391946
81	0x3bc57b53	0.0060266643
82	0xbc18091a	-0.009279514
83	0x3bf05c1f	0.0073352004
84	0xbba53249	-0.005041395
85	0xbc235347	-0.009968585
86	0xbc08217c	-0.008308765
87	0xbcccf3ed	-0.025018657
88	0xbc2f94d5	-0.010716637
89	0x3c5e0a0b	0.013552199
90	0xbc036604	-0.008019928
91	0xbba1821e	-0.0049288413
92	0xb93ce8f8	-0.00018015865
93	0xbaa4250c	-0.0012523248
94	0xbc10c7e7	-0.008836723
95	0xbc52d817	-0.012868903
96	0xbb94e887	-0.004544321
97	0x3c8111c7	0.015755547
98	0xbbfeee72	-0.0077798897
99	0x3c4ba318	0.012429021
100	0xbc5054bb	-0.012715514
101	0xbb0918a0	-0.0020919219
102	0x3c6f2c88	0.014598019
103	0xbbc0899d	-0.00587578
104	0xbc7d8de3	-0.015475723
105	0x3c30565a	0.010762775
106	0xbc2c240a	-0.010506639
107	0xbc5bb7d5	-0.013410528
108	0xbc843870	-0.016140193
109	0x3b0e3f79	0.0021705313
110	0xbc2a9fb6	-0.010414055
111	0xbb243b8f	-0.0025059914
112	0x3b2afeb7	0.0026091763
113	0xbb67f22a	-0.0035392144
114	0x3b3076d9	0.0026926307
115	0xbbca89c7	-0.006180975
116	0xbc16ed70	-0.009211883
117	0xbc6c5fe8	-0.014427163
118	0x3c2d8c07	0.010592467
119	0x3a85ec3c	0.0010217498
120	0xbbaea5cb	-0.0053298227
121	0xbc43c94c	-0.011949848
122	0x3bcaa410	0.0061841086
123	0x3c0cfe9f	0.008605628
124	0x3ba60ed1	0.005067684
125	0xbba8c91e	-0.005150928
126	0xbb22f365	-0.0024864313
127	0xbc1c48e3	-0.009538862
128	0x3bd670a8	0.0065441914
129	0x3c59deeb	0.013297777
130	0xbb15d6e6	-0.0022863685
131	0xbc38d253	-0.011280614
132	0x3b20854e	0.0024493518
133	0xbc040184	-0.008057002
134	0x3bce2da8	0.0062920637
135	0x3c4b321f	0.0124020865
136	0x3b59a878	0.0033211987
137	0xbbd19815	-0.0063963034
138	0xbc0f370f	-0.008741154
139	0x3b9fa203	0.004871608
140	0x3c89f049	0.01683821
141	0x3af45ad0	0.0018642787
142	0x3c301b35	0.010748674
143	0xbbf8ea97	-0.0075963247
144	0x3b9c725d	0.0047743754
145	0xbb105cdf	-0.0022028012
146	0x3c21f182	0.00988424
147	0xbb85df2d	-0.0040854425
148	0x3baf531b	0.005350483
149	0x3aee916b	0.0018201297
150	0x3c0eb040	0.008709013
151	0xbc2bda5a	-0.010489071
152	0xbbb7721f	-0.005598321
153	0x3c0b13a7	0.008488572
154	0x3c0b9a27	0.0085206395
155	0xbba1c893	-0.0049372404
156	0xbb655d0d	-0.003499809
157	0x3bb9d114	0.005670676
158	0xbbcd9913	-0.0062743514
159	0xbb7eb82b	-0.0038867097
160	0x39fccfab	0.0004821991
161	0x3c02ea96	0.0079905
162	0x3c1221ed	0.008919221
163	0xbba5ab4a	-0.0050558196
164	0x3b5504dd	0.003250412
165	0x3acea017	0.0015764263
166	0x3bfc9b38	0.007708933
167	0xba18fd13	-0.0005836051
168	0x3c16635c	0.009178963
169	0xbb96da03	-0.0046036257
170	0x3c04b84b	0.0081005795
171	0x3b0e444e	0.0021708193
172	0x3b8d0c58	0.00430445
173	0xbb6cc60f	-0.0036128794
174	0x3bbb9852	0.005724945
175	0x3c0a0895	0.008424898
176	0xba8832d1	-0.0010391121
177	0xbc801cb3	-0.015638685
178	0xbc63bb95	-0.0138997035
179	0x3c3d06fd	0.011537311
180	0xbbb6fb8f	-0.0055841873
181	0xbcb86855	-0.022510687
182	0x3b2ea485	0.0026648354
183	0xb9b36d08	-0.00034222775
184	0xbb2f3752	-0.0026735854
185	0xbc030ade	-0.007998196
186	0xbc0bbe36	-0.008529237
187	0xbc05992a	-0.008154193
188	0xbc97597a	-0.018475283
189	0x3abc965f	0.0014388076
190	0xbc71f248	-0.014767237
191	0xbb815e35	-0.003947998
192	0x3b472c35	0.003039134
193	0xbc63a133	-0.013893413
194	0xbbe4ffb0	-0.006988488
195	0xbb125237	-0.0022326836
196	0x3a0de0af	0.00054122036
197	0x3bc5f42b	0.00604107
198	0x394bcf22	0.00019436752
199	0x3b7eb06d	0.0038862482
200	0xb9e56ef0	-0.0004376094
201	0xbc092872	-0.008371459
202	0xbbf45182	-0.0074560056
203	0x3b992c37	0.0046744603
204	0xba82a31e	-0.0009966826
205	0xb93aaec5	-0.00017803449
206	0x3c4b935b	0.012425269
207	0x3c8541f7	0.016266806
208	0xbb04daa8	-0.002027193
209	0xb9fd2eff	-0.00048290935
210	0x3b100fe8	0.0021982137
211	0x3a329218	0.0006811931
212	0xbc0bc13a	-0.0085299555
213	0xbc15bb77	-0.009138933
214	0x3c915057	0.017738504
215	0xba5893ad	-0.00082617515
216	0x3b4e7705	0.0031504047
217	0xbcc571a7	-0.024102045
218	0xbc0fa09a	-0.008766318
219	0x3c121fb7	0.008918694
220	0xbb2c3dce	-0.0026281956
221	0x3c6d13f0	0.0144700855
222	0xbb6ae56d	-0.0035842315
223	0x3bb4923f	0.005510598
224	0x3aa52f52	0.0012602604
225	0x392bd01b	0.00016385356
226	0x3bbe5c39	0.0058093336
227	0xbc53dff7	-0.012931815
228	0x3ba32361	0.0049785827
229	0x3ce342ef	0.027741877
230	0xbbb89d29	-0.0056339693
231	0x3bdbe7f7	0.006711002
232	0xbbf7c3c7	-0.0075611803
233	0xbc09bfbd	-0.00840753
234	0xbc6529df	-0.013987034
235	0xbb448495	-0.0029986252
236	0x3ba5351a	0.0050417306
237	0xbc319da7	-0.01084081
238	0xba7219bf	-0.0009235404
239	0xbb9354e2	-0.004496203
240	0xbb9b50af	-0.004739843
241	0x3c5f5423	0.0136309
242	0xbbe3131d	-0.0069297687
243	0xba03f19a	-0.0005033255
244	0x3b8bc70f	0.004265673
245	0xbc96fae6	-0.018430185
246	0xbb82c633	-0.0039909123
247	0xbc5425f8	-0.012948506
248	0xba88954c	-0.001042047
249	0x3aed824f	0.00181205
250	0x3bdc7b42	0.0067285607
251	0x3c062baf	0.008189126
252	0xbb46d6ba	-0.003034039
253	0x3c87d27e	0.016579863
254	0x3a787ef5	0.0009479367
255	0xbc27249c	-0.010201599

action_model._discrete_distribution.branches.0.bias f4 [9]
0	0x00000000	0.0
1	0x00000000	0.0
2	0x00000000	0.0
3	0x00000000	0.0
4	0x00000000	0.0
5	0x3bbd2f13	0.005773434
6	0x3cc1d08f	0.023659019
7	0xbc656e9c	-0.014003422
8	0xbc5732dc	-0.013134684

action_model._discrete_distribution.branches.1.weight f4 [9, 128]
0	0xbc8e50ef	-0.017372577
1	0xbb47cb05	-0.0030486
2	0xbca65dd5	-0.020308414
3	0x3d1d65b2	0.038427062
4	0x3a85779e	0.0010182743
5	0xbc24f634	-0.010068465
6	0xbcfa8945	-0.030583033
7	0x3ced4754	0.028964676
8	0x3c714e97	0.01472821
9	0x3d07cd43	0.033154737
10	0xbd0313f8	-0.032001466
11	0x3c71fc36	0.014769604
12	0x3c772b09	0.015085944
13	0x3c64ca7d	0.013964293
14	0x3c0d26a5	0.008615171
15	0x3aabea5c	0.0013116109
16	0x3ca9fb01	0.02074957
17	0x3be37aee	0.0069421446
18	0x3d624c0c	0.055248305
19	0x3ce33f8a	0.027740259
20	0x3d6e709a	0.058212854
21	0x3c5ed682	0.013600947
22	0xbd11ba45	-0.03557803
23	0x3d08764f	0.033315953
24	0x3d781ec7	0.060576227
25	0x3c78d8b1	0.015188382
26	0x3d056d10	0.032574713
27	0xbd66729b	-0.05626164
28	0xbc30098e	-0.0107444655
29	0x3d878014	0.06616226
30	0x3c87c58b	0.016573688
31	0x3d003235	0.03129788
32	0x3cbf67d1	0.023364933
33	0xbbed4645	-0.007241043
34	0xbbd2f401	-0.006437779
35	0xbd800a54	-0.0625197
36	0x3cce6905	0.025196562
37	0x3c942123	0.018082207
38	0xbca64ad6	-0.020299356
39	0xbc2ac4e7	-0.010422922
40	0x3c34e8bf	0.011041819
41	0x3c98a774	0.018634535
42	0xbad5197b	-0.0016258204
43	0x3d31751f	0.043324586
44	0xbbe952df	-0.0071204747
45	0xbc1268e7	-0.0089361435
46	0x3ac43c51	0.0014971589
47	0x3c77009b	0.015075828
48	0xbc21591d	-0.009847906
49	0x3cb6f8c1	0.022335412
50	0x3cbb6fbc	0.022880428
51	0x3d294006	0.041320823
52	0x3c41d8eb	0.011831502
53	0x3c62f4ef	0.013852342
54	0x3cac97fc	0.021068566
55	0xbc04ac24	-0.008097682
56	0x3cd549d2	0.026036177
57	0x3cdc2f97	0.026878161
58	0xbd72926f	-0.05922168
59	0x3c3dbd40	0.011580765
60	0x3cb963c6	0.022630583
61	0xbd071784	-0.03298141
62	0x3da0910b	0.07840165
63	0x3c09b09d	0.008403924
64	0x3d373d8e	0.044736437
65	0x3cd49669	0.025950627
66	0x3da08e67	0.07839661
67	0x3bdaf9c2	0.0066826055
68	0x3cac5f93	0.021041667
69	0x3d2f78d8	0.042839855
70	0xbb8e2405	-0.00433779
71	0x3b45bb02	0.003017128
72	0xbc8a1da6	-0.01685984
73	0x3a254d5d	0.00063057785
74	0x3bf03445	0.0073304498
75	0x3d04cfff	0.032424923
76	0xbcc828b5	-0.024433473
77	0x3b7c58bd	0.003850504
78	0x3c8f1a8d	0.017468715
79	0x3c8c2433	0.017107105
80	0x3d0813cb	0.033222
81	0x3c713957	0.014723144
82	0xba978377	-0.0011559565
83	0xbada3c8d	-0.0016650126
84	0x3a4dd871	0.00078523817
85	0xbbceaddf	-0.006307348
86	0x3d1735fa	0.03691671
87	0xbce3af09	-0.027793424
88	0x3c9e95c7	0.019358529
89	0x3c397b34	0.011320878
90	0x3c946174	0.018112876
91	0x3d0080d9	0.03137288
92	0xbd947165	-0.07248191
93	0xbca0ed37	-0.019644363
94	0xbc154af2	-0.009112107
95	0xba1bcd47	-0.00059433695
96	0xbb301a7b	-0.0026871252
97	0x3baabb5a	0.0052103223
98	0xbcdcc323	-0.026948517
99	0x3d4e712e	0.050400905
100	0x3bafd555	0.0053660073
101	0xbccce031	-0.025009247
102	0x3d9677ce	0.0734707
103	0x3cdf6105	0.027267942
104	0x3d40c497	0.047062483
105	0x3ca0cd1a	0.01962905
106	0x3d08c387	0.033389594
107	0xbd03b142	-0.032151468
108	0xbc95e473	-0.01829741
109	0x3ce73b87	0.028226627
110	0x3c93a9d3	0.018025314
111	0x3d06956d	0.032857347
112	0x3c978fc8	0.018501177
113	0xbd2b1794	-0.041770533
114	0x3caf82a2	0.021424595
115	0xbb4a8037	-0.0030899176
116	0x3c969f52	0.018386517
117	0xbca55775	-0.020183304
118	0xbc200a88	-0.009768136
119	0x3cfa76e6	0.030574273
120	0xbd310685	-0.043219108
121	0xbc9952df	-0.018716274
122	0xbd763e19	-0.060117815
123	0xbc90fc59	-0.017698454
124	0x3ca86cc1	0.02055967
125	0x3c452a1f	0.012033968
126	0x3d7afdf7	0.061277356
127	0x3b08543f	0.0020802168
128	0x3cf5887c	0.029972307
129	0x3d1162c6	0.03549459
130	0xbd414a46	-0.047189973
131	0xbd8aa787	-0.067702346
132	0x3cd84a0c	0.026402496
133	0xb9f21eed	-0.00046180878
134	0xbc292d53	-0.010325748
135	0x3cb8de85	0.022567043
136	0x3ce0b2d4	0.027429022
137	0x3ce16263	0.027512735
138	0xbba01ca8	-0.0048862286
139	0xbc657a99	-0.01400628
140	0x3bd649d7	0.006539564
141	0xbd8030a4	-0.062592775
142	0xbc2ce816	-0.0105533805
143	0x3d1e4137	0.038636412
144	0x3b898c87	0.0041976604
145	0x3c9f6bd5	0.019460598
146	0xbd08aa52	-0.033365555
147	0xbc8876c6	-0.016658198
148	0xbcb94fdc	-0.022621088
149	0x3d005029	0.031326447
150	0x3c79e899	0.0152532095
151	0xbc4b4961	-0.012407632
152	0x3c1d7a66	0.009611702
153	0xbb642f48	-0.003481822
154	0xbcc6c669	-0.024264531
155	0xbb8d46b3	-0.0043114065
156	0x3d051fb4	0.032500938
157	0xbb09b1f9	-0.002101062
158	0x3d7e5a3b	0.06209777
159	0xbb43e4fe	-0.0029891129
160	0xbd2a247b	-0.041538697
161	0x3c4030dc	0.011730399
162	0xbceabea2	-0.028655354
163	0x3a7c0757	0.0009614131
164	0xbcdcdab4	-0.026959755
165	0x3d4b532f	0.049639877
166	0xbb6c0ebe	-0.003601953
167	0xbd119b92	-0.035548754
168	0xbd9daea0	-0.07699323
169	0x3d034f83	0.03205825
170	0x3a57543a	0.000821415
171	0xbd49c9e3	-0.0492648
172	0x3c1b0a11	0.009462849
173	0x3c64b966	0.013960218
174	0xbcf76bda	-0.030202795
175	0x3c44f487	0.0120211905
176	0xbd010341	-0.031497244
177	0x3cf6af17	0.030112786
178	0xbc2dc3dc	-0.010605779
179	0x3c623d15	0.013808508
180	0x3c0c09a8	0.008547224
181	0x3c8d6cdd	0.017263824
182	0xbcb085fb	-0.021548262
183	0x3cef1e0a	0.029189128
184	0xbc6ccd70	-0.014453277
185	0xbbc52399	-0.0060162065
186	0xbcc654f9	-0.02421044
187	0xbc78d811	-0.015188233
188	0xbbf05d0c	-0.007335311
189	0xbc94e595	-0.01817588
190	0xbc13e2d0	-0.009026244
191	0x3d898e60	0.06716609
192	0xbc07187a	-0.008245582
193	0x3c8334f7	0.016016467
194	0x3a052b7f	0.0005080029
195	0xba96bca8	-0.0011500316
196	0x3c8d0fbd	0.017219419
197	0x3d465467	0.048420336
198	0xbc8293ca	-0.015939612
199	0x3c01b62f	0.007916971
200	0xbc4d0bb8	-0.012515001
201	0x3c8081f0	0.015686959
202	0x3c83b307	0.016076578
203	0xbcdd473d	-0.027011508
204	0xbcaf282d	-0.021381462
205	0x3b88aa28	0.004170675
206	0x3d382ae8	0.044962794
207	0x3cf9eb19	0.030507611
208	0x3cbcbce9	0.023039298
209	0xbc269867	-0.0101681715
210	0x3b120f77	0.002228705
211	0x3d08770d	0.03331666
212	0xbd13f15c	-0.03611885
213	0xb9c64e35	-0.00037823772
214	0x3d560c37	0.052257743
215	0xbafa03d6	-0.001907463
216	0x3c8f1603	0.01746655
217	0x3cdf47da	0.027255941
218	0xbbbbde00	-0.0057332516
219	0xbc5d54aa	-0.013508955
220	0xbd839dd0	-0.06426585
221	0xbc708589	-0.014680275
222	0x39bd58a9	0.00036114946
223	0xbc31b162	-0.010845514
224	0xbb824592	-0.0039755786
225	0xbcf84385	-0.030305633
226	0x3b4d9ff5	0.003137586
227	0xbd156d61	-0.036481265
228	0x3a48d28a	0.00076607673
229	0x3d448b8d	0.04798465
230	0xbb8b0a14	-0.0042431448
231	0x3d2738c4	0.04082562
232	0xbceb93e8	-0.02875705
233	0xbcc225c3	-0.023699647
234	0x3b91a3b5	0.004444564
235	0x3b7d2134	0.0038624527
236	0x3d2e831e	0.04260551
237	0x3b117b7e	0.0022198851
238	0xbc9e472f	-0.019321052
239	0xbc3dd4d1	-0.011586384
240	0xbcfd6a53	-0.030934488
241	0xbc2a41d5	-0.010391672
242	0xbcdb51ee	-0.026772466
243	0x3cc0bd78	0.023527846
244	0x3cd2e848	0.025745526
245	0x3ce9bbe0	0.028531969
246	0x3cd22951	0.025654467
247	0xbcc3693b	-0.023853889
248	0x3c484100	0.012222528
249	0xbc1c56ae	-0.00954215
250	0x3d2b8a43	0.041879904
251	0x3d6d9c94	0.058010653
252	0x3d31b77b	0.04338787
253	0xbc4ba8fa	-0.012430424
254	0xbc8d99c3	-0.017285233
255	0xbcab8cce	-0.020941164

action_model._discrete_distribution.branches.1.bias f4 [9]
0	0xbc2cda90	-0.010550156
1	0xbc0dbe04	-0.00865126
2	0x3d3dbe16	0.04632386
3	0xbcccf8bd	-0.025020951
4	0x3a86424a	0.0010243144
5	0x00000000	0.0
6	0x00000000	0.0
7	0x00000000	0.0
8	0x00000000	0.0
