Lofty2024/results/Test14/MoveToPlayer/MoveToPlayer-13428.onnx (onnx, 78170 bytes, 7 tensors)

network_body._body_endoder.seq_layers.0.weight f4 [128, 12]
000000 55 05 11 3e 85 85 5d 3c 3a 43 0d 3f a8 c0 b6 be
       0.1416219 0.013520603 0.55180705 -0.3569386
000010 60 af 8b bd d9 af 93 3e 95 69 7f be 04 7f 80 be
       -0.068205595 0.288451 -0.2494262 -0.25096905
000020 bf ef b6 3c f8 99 ab bb 02 a2 33 3e 01 7f 06 3e
       0.022331117 -0.0052368604 0.1754227 0.13134386
000030 08 f3 9b be e9 bc cf bc bc 77 0c 3f 97 f1 31 3e
       -0.30458856 -0.025358634 0.548702 0.17377315
000040 52 7a 78 be 21 32 8d 3d ca 7d dc bd 1c ba 5e be
       -0.24265411 0.06894327 -0.1076618 -0.21750683
000050 3d d0 c5 be e7 4a a6 bd c2 87 19 3e 45 d8 0b bf
       -0.38635436 -0.08119755 0.14993194 -0.54626876
000060 e4 b5 8f be 63 c0 9d 3e 45 f3 3d 3d c4 19 cd bc
       -0.2806846 0.30810842 0.046374578 -0.0250367
000070 de 61 84 be 0a 8d 53 3c 51 96 06 3f 62 89 7e 3e
       -0.25855917 0.012912044 0.52573115 0.24857095
000080 d9 04 31 3e c1 16 01 bf 2b 94 d9 be 1f 86 b3 3e
       0.17287005 -0.50425345 -0.42495856 0.35063264
000090 18 53 2b bc d2 cf b5 3d d4 8d d4 3e c3 fa 01 3d
       -0.010456823 0.08877529 0.41514456 0.031733286
0000a0 ea 3b d3 be c5 d6 51 be 95 72 49 be 9c c2 83 be
       -0.41256648 -0.20492084 -0.19672616 -0.25734413
0000b0 8c 84 af 3c 73 cd e1 bd 27 25 96 bd 37 5a 6d be
       0.021425508 -0.110255145 -0.07331305 -0.23178945
0000c0 95 ef 01 bf c0 3f f3 3d 3d 2e 4f 3e a7 be 95 bb
       -0.507562 0.11877394 0.20232482 -0.0045698467
0000d0 b3 6d 75 3e e3 52 a9 be 13 99 c1 be 13 8c 81 3e
       0.23967628 -0.3307105 -0.378121 0.2530218
0000e0 e6 7e 02 bf 94 49 12 3e 21 20 63 be c6 81 62 3d
       -0.5097488 0.1428588 -0.22180225 0.055299543
0000f0 67 b1 61 be 93 b2 0a 39 7e 81 96 bd 11 a1 71 3e
       -0.2204033 0.0001322723 -0.073489174 0.23596598
000100 94 9e 96 be ed 85 ba be 02 32 e2 3e d1 46 21 3f
       -0.2941786 -0.36430302 0.44178778 0.6299868
000110 d0 17 24 3e 85 89 10 3f a4 99 1a bf 91 9f db 3e
       0.16024709 0.5645984 -0.60390687 0.42895177
000120 66 91 47 3c dd 75 0e 3e 52 21 95 3e 05 21 4f be
       0.012180662 0.13912149 0.29126984 -0.2022744
000130 b1 df 1a be 23 31 0c be b3 06 b3 3d 93 2a 8a 3e
       -0.15124394 -0.13690619 0.08741512 0.26985607
000140 a6 56 90 be 94 f8 86 3e 1b 32 7b be e9 7f ce 3e
       -0.28191108 0.26361525 -0.24530832 0.40331963
000150 1e 97 1a 3f ca 86 b9 bd e4 c2 2f be 0a 0b b1 be
       0.60386837 -0.09058912 -0.17164189 -0.34578735
000160 7d 37 53 be 08 b4 5a 3e fc 63 6d 3d b8 3d 1a 3e
       -0.20626636 0.21357739 0.05795668 0.15062606
000170 db 22 63 3e 5e 0c 5a 3d ac 08 91 be 53 f7 b3 bd
       0.22181265 0.05323445 -0.2832693 -0.08787408
000180 0c 6b 9f 3d 68 67 5a 3d bd 71 24 3e 6d 17 4f 3d
       0.077840894 0.053321272 0.16059013 0.05055945
000190 48 55 17 3c d4 b3 03 3e 0d 3b d4 3d 6e 9f e6 3e
       0.009236641 0.12861568 0.103628255 0.4504351
0001a0 82 c1 93 be 9a d6 1d be dc 47 21 3e 04 8d 0b bf
       -0.28858572 -0.15413895 0.15750068 -0.5451205
0001b0 48 bc df 3e bd ee d2 3e 68 f5 03 be 19 d4 c4 be
       0.43698335 0.41197768 -0.12886584 -0.38443068
0001c0 e4 c6 ef bd 38 02 5c 3f ca 2c 7a bc 00 f0 d7 3d
       -0.11707857 0.85940886 -0.015269468 0.10543823
0001d0 05 9b 12 be a0 7e 80 be 3d 17 86 be 16 89 86 be
       -0.14316948 -0.25096607 -0.26189604 -0.26276463
0001e0 2c 2f 6a be 95 71 a6 bd fb d8 70 be aa a4 f0 3d
       -0.22869557 -0.08127133 -0.23520271 0.11750157
0001f0 bd 5e d8 3e 7a 34 ed 3e e3 80 9b 3e d1 75 18 3d
       0.4225978 0.463291 0.3037177 0.037221733
000200 00 6f 58 3d 78 0e e1 bc 7e bf ab be 54 7b aa be
       0.052840233 -0.02747272 -0.33544534 -0.33297217
000210 55 26 3a be f4 56 f3 3e ae de 24 3f 44 32 8a 3e
       -0.18178685 0.47527277 0.6440228 0.26991475
000220 77 86 2f bd 9d 67 01 3f c5 28 d6 3e 7d fd f6 be
       -0.042852845 0.50548726 0.4182798 -0.4824027
000230 44 b3 76 be 14 86 83 3e e0 f3 f2 bd 5e 16 a7 3e
       -0.24091822 0.2568823 -0.11862922 0.32634252
000240 76 1a ad 3d 75 1f f1 bd 5c 3f d6 3d e4 b9 c9 be
       0.08452313 -0.11773578 0.104613036 -0.39399636
000250 5f 3d 00 bf 44 93 2f bc 6a d3 2f be 70 fb b7 3d
       -0.50093645 -0.010716263 -0.17170492 0.08983505
000260 70 65 02 3d f7 de f5 bd ca 83 0f be 1f 1d 4a be
       0.03183502 -0.12005418 -0.14015117 -0.19737671
000270 d7 df df 3e b3 f6 25 be 4a 37 31 3e 4e 5f 66 be
       0.43725464 -0.1620739 0.17306247 -0.22497293
000280 20 a6 9c 3e a8 b4 e5 be 3b 05 ed 3c 2e c6 cc 3e
       0.30595493 -0.44864392 0.028933158 0.3999495
000290 66 dd 00 3d 8e b8 0b bf ed 57 41 3e 5d d2 ec be
       0.031461142 -0.54578483 0.18881197 -0.46254244
0002a0 53 30 f6 be 3d bb 0c be 8e e4 bb bd 97 1e 04 be
       -0.48083743 -0.137433 -0.09174453 -0.12902294
0002b0 f4 36 d8 3e 2f 57 07 bf 20 22 58 3d f4 8a 17 be
       0.42229426 -0.52867407 0.05276692 -0.147991
0002c0 fb 14 b0 3d 3f 2f 4a 3d 98 21 96 3e db 1a 0c 3d
       0.08597752 0.049361464 0.29322505 0.0342053
0002d0 87 18 02 3f 75 68 88 be 56 d4 69 3d 1b 32 3a bd
       0.50818676 -0.26642194 0.057087265 -0.04545794
0002e0 b7 28 c6 3e 60 d6 c9 be e7 c3 14 3e 56 de 06 be
       0.38702938 -0.39421368 0.14527856 -0.13170752
0002f0 dd ec ff bd 89 54 8a 3d 3d 76 bb be 22 d4 10 3e
       -0.1249635 0.06754405 -0.36613646 0.14143422
000300 db 60 08 be 9c 67 16 bd f1 9c de be 71 f7 40 3e
       -0.13318197 -0.036719903 -0.43479112 0.18844391
000310 e8 c5 07 3d 8c 73 1e bc 21 37 65 3d dd c4 98 bc
       0.033147722 -0.009671103 0.05596078 -0.01864856
000320 af 2c 21 3f a0 4b 33 be 0c a2 77 be ed 8d 06 bd
       0.62958807 -0.17509317 -0.2418291 -0.032850195
000330 c5 14 f6 bd 51 3f ca 3e 0e 4a 1f be be 93 1e 3f
       -0.1201568 0.39501432 -0.15555593 0.61944187
000340 d1 44 d3 be 20 eb 4b be 4d 3d bd 3e 6e 56 a2 3e
       -0.4126344 -0.19913912 0.3696083 0.31706566
000350 f1 43 86 3e a6 d6 12 3e 54 45 88 be 9c 0a b1 bd
       0.2622371 0.14339694 -0.26615393 -0.08644602
000360 92 97 e1 3e 04 c0 67 3e 53 12 9e be 2e 2f 62 be
       0.4406095 0.22631842 -0.30873355 -0.2208831
000370 8d b7 93 be c5 34 0e 3f 52 08 30 3e fe 9e 0c 3e
       -0.28850976 0.5554927 0.17190674 0.13732526
000380 51 ce 99 be 43 2d d9 3d 04 d7 fb 3b 4e 61 aa 3b
       -0.3004022 0.10604336 0.007685544 0.005199588
000390 ff b7 c8 3e 8c 10 b2 3e 41 fe 68 3d 2f 78 b4 3e
       0.39202878 0.3477825 0.0568831 0.35247943
0003a0 79 f5 3a be 54 73 e0 bc 60 8d cb 3d 18 3b 89 3e
       -0.18257703 -0.027398743 0.099390745 0.26802897
0003b0 47 3a 9a 3e 14 a1 5e be dc de 95 3e 02 f9 c2 be
       0.30122587 -0.21741134 0.2927159 -0.38080603
0003c0 67 e7 b2 3e b5 99 99 3e ab 56 e4 3e d3 85 c6 be
       0.3494217 0.30000082 0.44597372 -0.38773975
0003d0 45 79 65 bd de 45 f9 bb 61 1e 15 bf 42 c1 91 be
       -0.056023855 -0.007607206 -0.5824948 -0.28467757
0003e0 dd f0 41 bd 59 e7 57 3e e0 0b b4 bd 96 8e 21 be
       -0.047348846 0.21084346 -0.087913275 -0.15777048
0003f0 f6 03 e1 be c5 39 bc 3e 2a ca 06 bd 56 2c 7b be
       -0.43948334 0.36762825 -0.032907642 -0.24528632

network_body._body_endoder.seq_layers.0.bias f4 [128]
000000 b4 14 3d bb 2f 01 d2 ba fc 75 9a 3a ea 67 2f 3b
       -0.0028851451 -0.0016022081 0.001178443 0.0026764818
000010 fb 70 3d 3b b9 cd 82 ba e9 8c 47 39 8f ce 76 ba
       0.0028906453 -0.0009979523 0.00019030612 -0.0009414935
000020 6a 81 8d ba 01 66 15 bb c0 0e 39 bb cf 74 0f bb
       -0.0010796015 -0.0022796395 -0.0028237551 -0.0021889692
000030 f0 72 d4 39 09 09 80 bb bd 17 e8 ba 7a c1 08 39
       0.00040521426 -0.003907327 -0.001770727 0.00013042046
000040 5c 96 eb ba 6a 4c df b9 94 36 c5 39 20 e4 5c bb
       -0.0017973888 -0.00042590807 0.00037615432 -0.003370531
000050 60 c8 81 ba 10 be 98 ba d2 50 ac 3a 83 aa e0 ba
       -0.0009901635 -0.0011653323 0.0013146645 -0.001714066
000060 1b 0f 62 bb 1e 30 ab 3a 84 6d a1 ba f8 25 20 bb
       -0.0034493867 0.0013060605 -0.0012315963 -0.0024436694
000070 e6 d7 73 bb 49 9c e3 b9 52 d0 11 ba a0 fc 4f 39
       -0.0037207543 -0.00043413255 -0.0005562353 0.00019835168
000080 95 b1 10 3b 24 a9 99 ba e8 9e 67 ba 8e 82 19 ba
       0.0022078503 -0.0011723381 -0.00088356296 -0.0005855941
000090 b7 59 19 3b 40 9e 7f 3a 81 d3 d2 39 cf 4a 01 3a
       0.0023399421 0.0009751059 0.00040211904 0.0004932107
0000a0 7c ef 3a 39 3b 9b 99 3a 65 ca 98 3a fa 58 13 39
       0.00017827557 0.0011719236 0.0011656998 0.00014052159
0000b0 f7 42 c1 3a 70 41 fd 39 da a7 01 bb ff ec 40 3b
       0.0014744689 0.00048304675 -0.0019783885 0.0029438136
0000c0 c6 f5 65 3a 63 e2 8f 38 ae ef b2 39 09 f7 c5 3a
       0.000877228 6.860939e-05 0.0003412938 0.001510353
0000d0 74 26 20 ba 04 ef d5 ba e9 2f 68 bb a4 e4 10 3b
       -0.00061092456 -0.0016321843 -0.0035428947 0.0022108937
0000e0 85 6e 92 b9 ca 3b 0a bb f8 2e 36 ba 9c c5 7b 39
       -0.00027929634 -0.0021092766 -0.0006949748 0.0002401084
0000f0 4d 96 d9 ba 3d f8 2e bb 5c d8 bd 3a 6a 2d 0a 3a
       -0.0016600579 -0.0026698255 0.0014484036 0.00052710494
000100 d3 16 dd 3a bb 83 3f bb 51 af 35 39 d5 9a 2c bb
       0.0016867764 -0.0029222805 0.00017326816 -0.0026337404
000110 de f5 4f 3b e2 72 a7 ba d6 8c 14 ba 2d 57 c4 ba
       0.0031732242 -0.0012775327 -0.0005666738 -0.0014979594
000120 5e b8 a6 3a 73 bf b3 3a 32 6e d3 3a 16 93 24 3a
       0.0012719741 0.0013713673 0.0016130863 0.0006278021
000130 ee da 3f 3a 17 31 d5 3a 6f 59 f2 3a e0 f9 75 3b
       0.0007318695 0.001626524 0.0018489788 0.003753297
000140 cd e3 7e ba d8 e4 03 3b bc 27 df b9 a4 81 ad 39
       -0.0009723276 0.0020125415 -0.0004256348 0.0003309372
000150 5e 6e b1 38 fe 53 cb ba c4 e1 a0 ba 3a 25 94 3a
       8.460575e-05 -0.0015512703 -0.0012274315 0.0011302598
000160 87 b5 15 bb 92 64 c8 3a 8f 7c a5 3a f3 1f 83 3b
       -0.0022843794 0.0015288761 0.0012625622 0.0040016114
000170 01 7a 3a 39 eb e4 77 ba 01 db be 3a 3f e9 5f b8
       0.00017783792 -0.00094564137 0.0014561118 -5.338457e-05
000180 1c f0 cd ba 8e 42 2f 3b d1 14 3e bb c5 e7 c9 3a
       -0.0015711817 0.002674255 -0.0029004107 0.0015404156
000190 da fa 3b 3b f8 e1 4d 3b 78 60 71 bb e0 e4 42 bb
       0.0028683455 0.0031415205 -0.0036831181 -0.002973847
0001a0 38 0e cf 3a 88 36 c2 ba 63 77 0e 3a 49 e4 7a 3a
       0.0015797084 -0.0014817277 0.000543466 0.00095707603
0001b0 8d 17 0d b8 a4 24 f2 38 c1 c2 18 3a 32 30 2f b9
       -3.3638953e-05 0.00011546284 0.00058273604 -0.00016707255
0001c0 ce 3b ab ba 60 99 fd ba a6 76 e7 3a 27 05 56 ba
       -0.0013064088 -0.0019348077 0.0017659261 -0.000816422
0001d0 80 75 5f 3a 90 4e b7 b9 a8 62 c7 39 b9 5a 24 bb
       0.0008524284 -0.00034963014 0.00038029742 -0.002507849
0001e0 02 66 63 bb 3c 34 d8 ba 40 80 95 3a 36 43 03 3b
       -0.0034698253 -0.0016495059 0.0011406019 0.0020029075
0001f0 1f b9 99 38 58 3e 75 ba 30 88 02 3b a3 6e 78 3a
       7.33009e-05 -0.0009355298 0.00199176 0.00094769354

network_body._body_endoder.seq_layers.2.weight f4 [128, 128]
000000 78 71 ac 3d 17 bb aa bd db fc 1f be 6b f4 8c 3b
       0.0842008 -0.08336466 -0.156238 0.004301598
000010 e2 ed 67 be 8e 2b 61 3b 72 a5 6a be 93 d2 8d bd
       -0.22649339 0.0034358236 -0.22914675 -0.069249295
000020 41 e8 c3 3d d0 57 59 bd 5f d1 cf 3d 58 0b 53 3c
       0.09565783 -0.05306226 0.10147356 0.0128811225
000030 60 b2 67 bc 97 33 ab bd 0f 0f a4 3d 47 5a f0 bd
       -0.014141649 -0.08359449 0.08010685 -0.11735969
000040 1c 07 bf 3d 9b 42 c5 3d 59 12 fb 3d 2b 6b 9a 3d
       0.09327528 0.096318446 0.12259359 0.07539972
000050 7f 20 75 bd 56 d5 fb bc 13 9e 0d 3d 3a 53 07 3d
       -0.059845444 -0.030741375 0.03457458 0.033038355
000060 ab 81 12 be 86 d2 c6 bc 9c 6d 94 3d 00 00 81 bc
       -0.14307277 -0.024270307 0.07247469 -0.01574707
000070 78 bc 57 bd e7 47 d9 bd 50 40 4f 3d 8d a3 1c bd
       -0.052669972 -0.106094174 0.050598443 -0.03824191
000080 12 af 70 3d f0 b4 53 be be f6 b1 bd c5 a8 bb 3c
       0.05876071 -0.20674491 -0.086896405 0.022907624
000090 74 2c ba 3d 64 c4 f9 3d 60 9b 13 3d 80 73 e2 bd
       0.0909051 0.12195662 0.03603685 -0.11057186
0000a0 54 16 a2 3c d5 bd 8b bd 76 78 32 bc 26 00 56 bd
       0.019786038 -0.06823317 -0.010892978 -0.052246235
0000b0 f0 21 27 bc b1 3e 18 3e 6f bb 3c bd aa 86 c8 bc
       -0.010200962 0.14867665 -0.046077188 -0.024478275
0000c0 04 ce 2c 3d 97 a5 c9 3d b3 8a 82 3d 68 18 8f bd
       0.04218866 0.09846037 0.06374111 -0.06987077
0000d0 87 15 26 be 77 7d 1a 3d ed 16 bb bb 0b 22 6b bc
       -0.1621915 0.03771731 -0.00570952 -0.014351378
0000e0 6d 51 c2 bd d8 9c 63 bd c3 e4 a2 bd 15 ca 30 3d
       -0.09488187 -0.0555695 -0.07953789 0.04316147
0000f0 80 a3 d0 3c 9e 5d 00 be 37 35 40 3c 3d 69 a6 3d
       0.025468588 -0.12535712 0.011731437 0.08125541
000100 14 02 98 3d 25 27 f0 bd c7 9b 09 3e 85 bd 2f bd
       0.07422271 -0.11726216 0.1343833 -0.04290535
000110 0f bc fb 3d cb 29 87 3a ff 2b 95 3d d5 b3 d7 bc
       0.12291729 0.0010312138 0.07283782 -0.026330868
000120 b9 df fb 3d be b6 4b bd 5b 64 e8 3d d3 68 3e 3b
       0.12298531 -0.049734823 0.11347266 0.002905418
000130 af ed a5 bc 21 0e 81 bd 35 2f ba 3a 34 f4 75 bd
       -0.020254938 -0.06301523 0.0014204743 -0.060047343
000140 7b 44 18 3d 25 1e cb 3d cf ba 02 be d2 cd 36 bd
       0.037174683 0.09917859 -0.12766574 -0.04462988
000150 db f6 6e bd aa 28 c2 bc cc 80 d8 3b c8 8a b6 3c
       -0.05834089 -0.02370103 0.0066071507 0.022282973
000160 64 91 12 3e 3a 6a d7 3d 6e 8e c4 bc 74 b6 3c 3d
       0.14313275 0.10518308 -0.023993697 0.04607244
000170 6a 9a 33 3b eb 0b e4 3d 67 5d 1b be fd b1 89 3d
       0.002740527 0.11135086 -0.15172349 0.06723402
000180 a1 9d cd bd 19 ac 2b 3e 76 a4 3a 3e 89 b5 4a bd
       -0.10039831 0.16764869 0.182268 -0.04948953
000190 ee c9 1f bd 8d c1 02 3e c0 5d d9 bd 28 2d cc 3c
       -0.039010935 0.12769146 -0.106135845 0.024923876
0001a0 e2 ff be 3c b4 81 37 3d c6 77 54 bd ea ec df bd
       0.023315374 0.04480143 -0.051872037 -0.1093386
0001b0 3f f5 15 be 11 37 9c bc 7b fb 6f 3e 9f ba 9d bd
       -0.14644335 -0.019069226 0.23435776 -0.07701611
0001c0 ad 84 1c bd 25 51 0f 3d 9b 57 5c bb ee f6 99 3d
       -0.038212467 0.034989495 -0.0033621553 0.07517801
0001d0 b7 95 95 39 2d 93 8b 3d 1e 8e ef 3b 8e 8a 07 3d
       0.0002853104 0.06815181 0.007310643 0.03309112
0001e0 7b 06 8e 3d 1b 43 32 bd e0 4f d3 3d 4e be b3 3d
       0.0693483 -0.043521028 0.10317969 0.08776532
0001f0 01 34 93 3c cb 84 4b 3e d7 d9 51 bd 1e bb d4 bd
       0.017969133 0.19874875 -0.05123314 -0.10387252
000200 09 c9 73 be ab 2e 1c 3e 75 81 2f bd 7d 9a 38 bd
       -0.23807158 0.15252177 -0.04284807 -0.045069207
000210 49 bf 12 bd 08 03 39 3e 2b 86 4f 3c e6 b4 ba bd
       -0.035826955 0.18067563 0.0126662655 -0.09116535
000220 2c d7 0a 3d 48 63 42 3d 11 04 d5 bd c8 a6 b3 bd
       0.03389661 0.047457963 -0.10401166 -0.087720454
000230 82 5b 2c ba e3 bf 78 bd 0a 40 c1 3c 9d 3d fe bd
       -0.0006574915 -0.060729872 0.023590107 -0.124140956
000240 52 7c 15 3d 34 30 06 3e 98 11 6a 3d d4 12 e2 bd
       0.036495514 0.13104326 0.057145685 -0.110387474
000250 7c 27 6e 3d ed 1f 69 3d 14 6b 0b be 8e b4 0e bd
       0.058143124 0.056915212 -0.13615066 -0.03484016
000260 b1 a5 ac bd fa 71 2e bd 07 8c a6 bd cb 2b 1e be
       -0.08430041 -0.042589165 -0.08132177 -0.15446393
000270 55 c7 23 3e 25 8c 88 3d 0e b0 d0 3d 41 73 90 bd
       0.15994008 0.066673554 0.1018983 -0.07053233
000280 e9 07 0e be 1c 2a 2d bc fa 17 87 3b 73 ee 5e 3d
       -0.13870205 -0.010569122 0.0041227313 0.05442662
000290 b7 6b 35 3d 91 f0 e4 3d 9d a0 0c 3e 72 fb 3b bb
       0.044292178 0.11178697 0.13733144 -0.0028683809
0002a0 7c 75 1b 3d 80 64 9e 3d 4b 1e 0c bd e9 11 00 3d
       0.03795384 0.077340126 -0.034208577 0.03126708
0002b0 d9 12 32 be 2f 34 55 3d 05 3e 42 be 9b 2b 22 bd
       -0.17390002 0.05205172 -0.18968971 -0.039592367
0002c0 1f e4 64 bc 0a b9 e8 3d 5e a9 32 bd 5f 50 5c bc
       -0.013970404 0.113634184 -0.043618552 -0.013446896
0002d0 10 29 1c 3d d3 e3 a1 3a 2e 8c 9a 3d f0 c6 05 be
       0.038125098 0.0012351222 0.075462684 -0.1306417
0002e0 d0 7e d4 3d 9a a4 9a ba 9d e1 8b bd 92 63 85 bd
       0.1037575 -0.0011798323 -0.06830142 -0.06513132
0002f0 a9 88 cd 3c 99 6a 1b 3c fa a5 9c 3b 2c 33 d7 3d
       0.025089579 0.009485864 0.004780528 0.10507807
000300 66 5f ac 3d 95 40 45 3c d5 ce 23 3e 30 1d 81 3d
       0.08416633 0.012039323 0.15996869 0.06304395
000310 fc f7 22 3e 99 0c 08 3d da 10 ce bd f4 7b 56 bd
       0.15914911 0.03321514 -0.10061808 -0.052364305
000320 dc 3a 5b bd bc 1e 82 bd 60 7d 14 bd 76 9d ca 3b
       -0.05352293 -0.06353518 -0.03625238 0.0061833216
000330 cc fc d5 bd b9 e0 21 3c 51 ce 24 be 23 82 34 bb
       -0.10448608 0.009880238 -0.16094328 -0.0027543388
000340 d9 a6 a7 bd 64 23 e3 bd 8e c7 f3 3d 81 e9 70 3b
       -0.081861205 -0.110907346 0.119032964 0.0036760273
000350 62 1f 03 bc 29 f1 3b ba 03 56 bb 3d a0 9a 34 3e
       -0.008003088 -0.00071694196 0.09147265 0.1763711
000360 0d 2d bb bd bb 7d f9 3c 2f 38 a1 3d 2a b0 93 bc
       -0.09139452 0.03045546 0.07872044 -0.018028338
000370 d0 c4 c0 bd 2a ce 01 be 20 a6 c9 3d 48 11 50 3e
       -0.09412539 -0.12676302 0.09846139 0.20319092
000380 54 79 0c 3d d8 a7 ab bd 16 b4 ae 3b 20 24 b5 3e
       0.034295395 -0.08381623 0.0053315265 0.35379124
000390 95 01 38 3c 5a 2f aa 3d a0 a7 27 bd 10 10 37 3b
       0.011230846 0.08309813 -0.040931344 0.0027933158
0003a0 f7 7a f6 bc d8 22 8c bc 11 55 00 bd 04 f7 64 3c
       -0.030087931 -0.017106459 -0.031331126 0.013974909
0003b0 7e 1e cc 3d 48 47 5d bd 4b 8c 4c bd cb cb 05 3d
       0.099667534 -0.054023057 -0.04993848 0.032665055
0003c0 e0 07 8f 3d 68 29 53 bc 15 2a 6e 3d c1 f4 1e 3e
       0.06983924 -0.01288829 0.0581456 0.15523054
0003d0 a6 ab 2d 3e 77 83 31 3d 89 39 d5 3d 90 cb 3a bd
       0.1696001 0.043338265 0.104113646 -0.04560429
0003e0 8b f8 a0 3d d2 12 84 bc b7 f9 e5 bc 77 33 16 bd
       0.07859906 -0.016122255 -0.028073175 -0.036670174
0003f0 f6 19 73 bd f5 f3 ea 3c 69 42 d2 3d b8 cd 94 bb
       -0.05935093 0.02868078 0.10266573 -0.004541125

network_body._body_endoder.seq_layers.2.bias f4 [128]
000000 82 b8 63 3a a6 c9 c0 39 bf 16 db 3a 7e 0f 71 3b
       0.00086868566 0.00036771334 0.0016715153 0.0036782916
000010 d2 2f 69 ba aa 99 71 39 a7 73 e3 38 de 26 e7 3a
       -0.00088953704 0.00023040795 0.000108457454 0.0017635485
000020 6d 3b dc 39 a9 a8 0d 39 38 ea 0e ba f3 f0 5f 3b
       0.00042005946 0.00013509639 -0.00054517714 0.0034170717
000030 a9 24 18 ba 76 e3 0d ba 28 f5 73 b9 0c 0b 54 3a
       -0.00058038026 -0.00054126175 -0.00023265614 0.00080888043
000040 9d 90 b8 38 2a 9c 62 3a e2 ca b6 3b 08 d2 53 ba
       8.80074e-05 0.0008644486 0.0055783847 -0.00080803083
000050 94 83 1e b9 d4 8d 52 39 5b 5f 97 3a f2 8e 11 ba
       -0.00015117071 0.00020079996 0.0011548804 -0.00055526115
000060 c2 18 98 b8 e5 86 1b 3a ba b0 94 ba 22 3e 9b 3a
       -7.252536e-05 0.00059328816 -0.0011344173 0.0011844079
000070 0b 7e 36 bb a0 07 03 3b 64 55 15 bb 06 62 5e 3b
       -0.0027846124 0.0019993559 -0.0022786492 0.0033932938
000080 c9 c7 07 bb 0a 05 84 b9 1b 26 08 38 3d f9 2c ba
       -0.0020718446 -0.00025180756 3.2460415e-05 -0.00065984187
000090 2b dd 7e 3b f0 f4 4c ba e4 6c b4 ba 3b 39 c1 39
       0.003888915 -0.0007818481 -0.0013765362 0.0003685447
0000a0 a9 12 0d 3b 1a 0b b1 3a 96 9a 29 3b c9 a8 81 bb
       0.0021526015 0.0013507337 0.0025879494 -0.0039568883
0000b0 0e 78 2d 3b 67 ce a9 3a fd 81 77 ba b0 96 93 ba
       0.0026469263 0.001295519 -0.0009441672 -0.0011260118
0000c0 92 99 4d ba a9 57 8c 3a 77 ea 48 3a 16 44 da 3a
       -0.0007843013 0.0010707277 0.00076643325 0.0016652371
0000d0 6f 52 f7 3a c2 b1 78 3a 68 2c 9f ba 2c cc 73 bb
       0.0018869172 0.0009486937 -0.0012143971 -0.0037200553
0000e0 41 2f 37 3a 24 22 8d ba 64 8d 27 b9 54 ff c2 ba
       0.00069879374 -0.0010767621 -0.00015979033 -0.0014877119
0000f0 4f 58 03 bb 4a 76 85 38 81 52 9a ba a2 23 b2 ba
       -0.002004165 6.363967e-05 -0.0011773856 -0.0013590942
000100 6c 72 62 b9 2c 9b b2 3a dc 49 a1 3a 60 74 14 3b
       -0.00021595665 0.0013626567 0.0012305337 0.0022652373
000110 dd 99 6c ba ac f1 9d 3a 1b d7 86 bb b0 eb c2 38
       -0.0009025613 0.0012050173 -0.004114998 9.294541e-05
000120 ea 03 a4 b9 28 54 ec 3a d4 97 5c 3a f7 0f f7 39
       -0.00031283434 0.0018030452 0.0008414958 0.00047123406
000130 26 49 54 3a 5b 07 1b bb 5d 0d 30 3b d8 28 b3 ba
       0.0008098058 -0.0023655507 0.0026863434 -0.0013668789
000140 fe 85 a8 ba 53 a1 0c 3b b1 57 4e bb 08 e4 22 ba
       -0.0012857316 0.0021458461 -0.0031485374 -0.0006213789
000150 64 69 17 b9 a2 af 5a bb c6 af 88 3a dc 12 8d ba
       -0.00014439743 -0.0033368845 0.0010428361 -0.0010763067
000160 d6 5c 72 3a bf 2b 85 ba b6 98 83 ba 13 ca 24 bb
       0.0009245401 -0.0010160132 -0.0010040018 -0.002514486
000170 54 ce e0 b8 2d 84 ff 3a ed 05 62 bb 0e 51 75 3b
       -0.00010719584 0.0019494348 -0.0034488395 0.0037432346
000180 2e cd d1 ba cc f0 f8 38 ab 20 20 ba 3d 9e e3 ba
       -0.0016006583 0.000118704134 -0.00061083835 -0.0017365884
000190 ec 91 86 3a 26 05 73 ba af 5b 45 bb be 48 e5 ba
       0.0010266877 -0.00092704815 -0.0030114462 -0.0017492992
0001a0 84 2c 80 3a 50 22 cf 39 f8 b0 5a 3b 12 59 04 bb
       0.0009778892 0.00039507682 0.0033369642 -0.0020194692
0001b0 b7 27 4c b9 2a 2a 0c ba 05 a0 7c 3a 6c b6 d1 3a
       -0.00019469751 -0.0005346859 0.0009636882 0.00159998
0001c0 0c 0a 9e 37 41 b4 63 3a 94 22 78 ba fa 9a 35 3a
       1.8839746e-05 0.0008686223 -0.0009465602 0.00069276954
0001d0 ca 2a c0 3a 17 f0 a9 ba cb 74 05 ba 4c 69 ed b9
       0.001466119 -0.0012965229 -0.0005090951 -0.00045282615
0001e0 94 7c 52 ba c8 12 27 ba b8 ac 62 3b 41 46 70 ba
       -0.0008029428 -0.0006373343 0.0034587812 -0.0009165742
0001f0 9e 27 69 b9 ef 06 af b9 69 40 7d 3a f3 d5 78 3a
       -0.0002223537 -0.00033383767 0.0009660782 0.000949233

action_model._continuous_distribution.log_sigma f4 [1, 2]
000000 91 13 17 bb 98 ea 7a 3b
       -0.0023052434 0.0038286801

action_model._continuous_distribution.mu.weight f4 [2, 128]
000000 c5 14 09 bc f4 f2 97 bc ba 5e 13 3c 86 27 44 3b
       -0.008366768 -0.018548466 0.008994753 0.0029930784
000010 60 7c 0b bc 88 5b 81 3c 2a e8 d0 bc 41 cd 76 3c
       -0.00851354 0.015790716 -0.02550133 0.015063585
000020 9d 58 0b 3d 23 a6 31 3c 61 97 0b bd bb bd c1 3a
       0.034020055 0.010842833 -0.034079913 0.0014781276
000030 4a 66 7b bc b4 f0 fa bb 39 5a 71 bb 4f 16 87 3c
       -0.015344212 -0.0076580886 -0.0036827459 0.01649013
000040 63 24 c0 3c 0e 4e 67 3c 9d b4 0c 3c d0 f0 34 bc
       0.02345485 0.014117731 0.008587983 -0.011043742
000050 dd 48 3d 3c 07 95 86 3c ea ca 35 bc 64 23 b4 bc
       0.0115530165 0.016428484 -0.011095742 -0.021989532
000060 8c 78 00 bd 00 27 89 3c bd ad 82 bb 58 44 da 3b
       -0.031364962 0.01674223 -0.0039879964 0.0066609792
000070 8e 7f a9 bc 25 c8 74 3c 48 1a ad bc b6 f8 9c 3b
       -0.020690706 0.014940296 -0.021130696 0.004790391
000080 f7 0b 2c ba 07 c8 95 bc e9 9f 77 bc bf 40 90 3c
       -0.0006563062 -0.018283857 -0.015113809 0.017608998
000090 37 c1 df ba d0 ba 3a 3b dc 33 e3 bb 08 00 60 bc
       -0.0017071132 0.0028492697 -0.0069336724 -0.013671882
0000a0 db d8 a6 3a ae 6b 31 bc 20 05 b3 3c c2 b0 0a bc
       0.0012729423 -0.0108288955 0.02185303 -0.008464994
0000b0 54 23 d9 3c 0f 91 9f 3c 6f 60 88 3c 87 b5 3d 3c
       0.026506104 0.019478349 0.016647546 0.011578924
0000c0 de 8d d0 3a 5e 3b bc 3c ba 2f 4c bc 75 84 7e 3c
       0.001591142 0.022977527 -0.012462551 0.01553451
0000d0 8e f8 2c bc a9 9a f1 3c 77 7b 81 ba 37 e2 2a bd
       -0.010557307 0.029492693 -0.0009878714 -0.04171964
0000e0 d5 c8 09 3d 86 36 9a 3c ac 9d 7f bc e6 48 a5 bc
       0.033638794 0.018824827 -0.015601557 -0.020176362
0000f0 22 40 f1 bb a1 e3 1b bd 62 e2 07 bb 60 d8 c3 bc
       -0.0073623816 -0.03805888 -0.00207343 -0.023906887
000100 af c1 e3 3b 94 b6 09 bc 17 4e 94 bc e1 30 1c 3c
       0.006950579 -0.008405346 -0.018103642 0.009533138
000110 21 f7 06 bc 15 ec ca 3c 51 6f d3 bb b5 c0 19 bd
       -0.008237631 0.024770776 -0.006452479 -0.037537295
000120 93 a7 fc bc f9 02 71 3b 04 b3 e8 3b 38 e5 01 bc
       -0.030841624 0.0036775453 0.0071014185 -0.007928185
000130 30 ce c1 3b c0 54 21 bc a4 c8 36 bc ca 45 bc 3b
       0.005914472 -0.009846866 -0.011156235 0.005745624
000140 28 f0 f8 bb 59 ad 11 3c e2 96 b7 bb 5f ea 87 bb
       -0.007596988 0.008891427 -0.0056027034 -0.0041478123
000150 17 0b 4e bc 23 1d 6c 3b 66 e3 9f 3b c0 54 de bc
       -0.012575886 0.003602811 0.004879403 -0.027140021
000160 4d a9 d9 3b d4 29 97 ba b4 75 44 3b 01 21 1f 3b
       0.0066424967 -0.0011532851 0.0029977383 0.0024281146
000170 c6 93 b7 3c ab 7f 5c 3a bd 14 5a 3c 42 7f 95 ba
       0.022409331 0.0008411358 0.013310608 -0.0011405724
000180 bf 17 88 3c e1 95 81 3c ee 5d 00 bb e5 25 a0 bb
       0.016612886 0.015818538 -0.0019587236 -0.00488733
000190 13 88 85 ba c9 7a 65 39 15 78 c1 ba 77 32 78 3a
       -0.0010187648 0.00021884883 -0.0014760519 0.0009467969
0001a0 54 a8 26 3c 59 44 87 3b 8a 80 8a 3c 81 8e 8a bc
       0.0101719685 0.0041280207 0.016906995 -0.016913654
0001b0 bd 84 a7 ba 3e 2f 83 bc cb 5a bb 3b 7e 42 ba bb
       -0.0012780648 -0.016013738 0.0057176105 -0.005684196
0001c0 a4 5e a1 bc f0 8f 22 bc ba 06 01 3c 44 48 49 bc
       -0.019698448 -0.009922013 0.007875139 -0.012285296
0001d0 a6 39 90 3b 32 a1 15 bb 6f 42 9a 3c 43 08 c4 3b
       0.0044014035 -0.0022831676 0.018830506 0.00598243
0001e0 f7 96 0c bc bd ef b1 3c 40 69 95 bc 9b a7 46 bd
       -0.008580915 0.021720761 -0.018238664 -0.048499685
0001f0 bb 71 10 3c e3 98 d5 3b 7d 6a 7e 3c 29 4b aa 3b
       0.008816178 0.0065184697 0.0155283185 0.005196948
000200 26 c4 a1 3c 1b 0e 3e bc 4a 4e c1 3c fb e7 e3 3c
       0.019746851 -0.011600043 0.023596901 0.027820578
000210 94 1d 65 bc 23 53 01 bc 95 ce b1 3c ef 7d 4d bb
       -0.013984103 -0.0078933565 0.021704951 -0.003135558
000220 f2 a0 5e 3c 33 de fb ba b2 7f 27 bd ab b9 0a 3c
       0.013588177 -0.0019216001 -0.040893264 0.008467118
000230 92 35 4d 3b cd 4e b9 b9 81 a7 28 3b ba 18 90 3c
       0.0031312448 -0.0003534466 0.0025734606 0.017589916
000240 96 27 63 3c 4b 5d c2 3a a2 79 6c 3c 49 ca 5d bc
       0.0138644185 0.0014828829 0.014433296 -0.013536998
000250 64 f8 38 bb 2e 9c 92 bb e3 ba c5 bb 4e de a1 b9
       -0.0028224224 -0.0044741845 -0.0060342415 -0.00030873943
000260 a1 ee 98 bc b4 85 2e bb a6 c1 04 bb ce 0e 02 3d
       -0.018668475 -0.0026629986 -0.0020257025 0.0317524
000270 96 30 53 bd af 85 2f 3c e7 bd ee bb 5d 04 3b 3c
       -0.051560007 0.010713025 -0.0072858217 0.0114146145
000280 05 af 83 bc f4 04 08 bc 5a 40 06 bc 5a b5 9a bc
       -0.016074667 -0.008301962 -0.008194054 -0.018885303
000290 e7 07 4c 3c cf 82 18 bc 20 ed 03 bd 0c b6 5c bc
       0.012453056 -0.009308531 -0.032208562 -0.013471138
0002a0 57 14 fb 3a d8 41 5a bc 23 6e 86 3c 55 52 fc bc
       0.0019155842 -0.013321362 0.01640994 -0.030800978
0002b0 f7 44 55 3c 05 6e 3c 3b 88 25 d6 bc 99 02 8d bc
       0.013016931 0.00287521 -0.026140943 -0.017213153
0002c0 2a ea ec 3c 7a 9e 65 3b 72 34 eb 3b e9 dc a9 3c
       0.028920252 0.0035037086 0.007177883 0.020735221
0002d0 64 ab 39 3d 60 35 8e 3c 74 6b d0 bb da 27 ab bc
       0.045329466 0.017359436 -0.0063604657 -0.020893026
0002e0 b2 76 8b 39 5e 14 9b 3c aa 5c 36 3b 1a 36 47 bc
       0.0002660058 0.01893061 0.0027826228 -0.012158895
0002f0 b9 a6 50 bb 63 89 a1 3a 73 fc 63 3a 85 56 5e bb
       -0.0031837656 0.001232427 0.00086969807 -0.0033926081
000300 b4 be 51 ba 7a 63 24 bc 18 e1 b4 3c 72 fe 9f 3b
       -0.0008001134 -0.010033483 0.02207999 0.004882627
000310 e2 3f 79 b9 b7 7a 08 3c 8a a4 13 bc cb 45 dc 3b
       -0.00023770289 0.008330039 -0.009011397 0.006722187
000320 1c 9d 9a 3c 70 84 5c 3c 49 e2 50 3b c7 3d 92 ba
       0.018873744 0.01345931 0.0031873158 -0.0011157327
000330 75 5a ad 3c 9f 9a f6 ba 80 69 5f 3c 27 65 f8 3b
       0.021161297 -0.0018814391 0.013635993 0.0075804177
000340 a8 73 73 bc 46 17 a7 3c f2 68 c7 bc 48 86 1a 3b
       -0.014859118 0.02039684 -0.024342034 0.0023578573
000350 c9 3a f7 bb df a6 02 bc fb 0b b5 b9 e1 d6 58 ba
       -0.0075448495 -0.0079743555 -0.00034531936 -0.00082717655
000360 b0 ad de 3c ec 06 04 bd 60 19 ba bc 0a eb 9c bc
       0.02718243 -0.032233164 -0.022717178 -0.019155044
000370 ec 82 ae ba ee b8 ff 3c ec 3d d3 bc ce 83 18 bc
       -0.0013314164 0.031216111 -0.025786363 -0.009308768
000380 e7 ed 93 bc 23 2a d4 ba 8c d1 bc bb f6 dc 88 ba
       -0.018057777 -0.0016186874 -0.0057622846 -0.0010441828
000390 23 19 8a 3c c7 fd 13 bd f4 e4 71 bc 1f 0c 7d bc
       0.01685769 -0.036130693 -0.014764059 -0.015444784
0003a0 52 3b 1c 3c da b2 eb 3b a9 f9 49 3c c3 f7 83 3b
       0.009535627 0.0071929516 0.01232759 0.0040273382
0003b0 24 a4 24 bc 2e 32 8e ba 9c 4b 74 3c ce 44 ee 3c
       -0.0100489 -0.0010848695 0.014910605 0.029085543
0003c0 cb 6b ec 3c 39 38 86 3c cf 30 df bc 10 de 4c 3c
       0.028859993 0.01638423 -0.027244953 0.012504116
0003d0 4d e8 a2 bc 90 d5 9c bb 30 cf d4 bb 42 d5 82 bb
       -0.01988616 -0.004786201 -0.0064944252 -0.0039927075
0003e0 eb 94 ce ba e1 cb 08 3c 9d 5d b4 3b 9c cb 8f ba
       -0.0015760934 0.00834939 0.0055043236 -0.0010970715
0003f0 1d 28 e7 bb 27 81 2c 3c 41 4c 3c 3b 5a 93 b5 3b
       -0.0070543424 0.010528839 0.0028731974 0.0055412473

action_model._continuous_distribution.mu.bias f4 [2]
000000 a6 ff 48 3a 9f 62 ba 3a
       0.0007667489 0.0014220065
