Lofty2024/results/Test14/MoveToPlayer/MoveToPlayer-13428.pt (torch, 460314 bytes, 36 tensors)

network_body._body_endoder.seq_layers.0.weight f4 [128, 12]
0.1416219 0.013520603 0.55180705 -0.3569386 -0.068205595 0.288451 -0.2494262 -0.25096905
0.022331117 -0.0052368604 0.1754227 0.13134386 -0.30458856 -0.025358634 0.548702 0.17377315
-0.24265411 0.06894327 -0.1076618 -0.21750683 -0.38635436 -0.08119755 0.14993194 -0.54626876
-0.2806846 0.30810842 0.046374578 -0.0250367 -0.25855917 0.012912044 0.52573115 0.24857095
0.17287005 -0.50425345 -0.42495856 0.35063264 -0.010456823 0.08877529 0.41514456 0.031733286
-0.41256648 -0.20492084 -0.19672616 -0.25734413 0.021425508 -0.110255145 -0.07331305 -0.23178945
-0.507562 0.11877394 0.20232482 -0.0045698467 0.23967628 -0.3307105 -0.378121 0.2530218
-0.5097488 0.1428588 -0.22180225 0.055299543 -0.2204033 0.0001322723 -0.073489174 0.23596598
-0.2941786 -0.36430302 0.44178778 0.6299868 0.16024709 0.5645984 -0.60390687 0.42895177
0.012180662 0.13912149 0.29126984 -0.2022744 -0.15124394 -0.13690619 0.08741512 0.26985607
-0.28191108 0.26361525 -0.24530832 0.40331963 0.60386837 -0.09058912 -0.17164189 -0.34578735
-0.20626636 0.21357739 0.05795668 0.15062606 0.22181265 0.05323445 -0.2832693 -0.08787408
0.077840894 0.053321272 0.16059013 0.05055945 0.009236641 0.12861568 0.103628255 0.4504351
-0.28858572 -0.15413895 0.15750068 -0.5451205 0.43698335 0.41197768 -0.12886584 -0.38443068
-0.11707857 0.85940886 -0.015269468 0.10543823 -0.14316948 -0.25096607 -0.26189604 -0.26276463
-0.22869557 -0.08127133 -0.23520271 0.11750157 0.4225978 0.463291 0.3037177 0.037221733
0.052840233 -0.02747272 -0.33544534 -0.33297217 -0.18178685 0.47527277 0.6440228 0.26991475
-0.042852845 0.50548726 0.4182798 -0.4824027 -0.24091822 0.2568823 -0.11862922 0.32634252
0.08452313 -0.11773578 0.104613036 -0.39399636 -0.50093645 -0.010716263 -0.17170492 0.08983505
0.03183502 -0.12005418 -0.14015117 -0.19737671 0.43725464 -0.1620739 0.17306247 -0.22497293
0.30595493 -0.44864392 0.028933158 0.3999495 0.031461142 -0.54578483 0.18881197 -0.46254244
-0.48083743 -0.137433 -0.09174453 -0.12902294 0.42229426 -0.52867407 0.05276692 -0.147991
0.08597752 0.049361464 0.29322505 0.0342053 0.50818676 -0.26642194 0.057087265 -0.04545794
0.38702938 -0.39421368 0.14527856 -0.13170752 -0.1249635 0.06754405 -0.36613646 0.14143422
-0.13318197 -0.036719903 -0.43479112 0.18844391 0.033147722 -0.009671103 0.05596078 -0.01864856
0.62958807 -0.17509317 -0.2418291 -0.032850195 -0.1201568 0.39501432 -0.15555593 0.61944187
-0.4126344 -0.19913912 0.3696083 0.31706566 0.2622371 0.14339694 -0.26615393 -0.08644602
0.4406095 0.22631842 -0.30873355 -0.2208831 -0.28850976 0.5554927 0.17190674 0.13732526
-0.3004022 0.10604336 0.007685544 0.005199588 0.39202878 0.3477825 0.0568831 0.35247943
-0.18257703 -0.027398743 0.099390745 0.26802897 0.30122587 -0.21741134 0.2927159 -0.38080603
0.3494217 0.30000082 0.44597372 -0.38773975 -0.056023855 -0.007607206 -0.5824948 -0.28467757
-0.047348846 0.21084346 -0.087913275 -0.15777048 -0.43948334 0.36762825 -0.032907642 -0.24528632
00000000: 5505 113e 8585 5d3c 3a43 0d3f a8c0 b6be
00000010: 60af 8bbd d9af 933e 9569 7fbe 047f 80be
00000020: bfef b63c f899 abbb 02a2 333e 017f 063e
00000030: 08f3 9bbe e9bc cfbc bc77 0c3f 97f1 313e
00000040: 527a 78be 2132 8d3d ca7d dcbd 1cba 5ebe
00000050: 3dd0 c5be e74a a6bd c287 193e 45d8 0bbf
00000060: e4b5 8fbe 63c0 9d3e 45f3 3d3d c419 cdbc
00000070: de61 84be 0a8d 533c 5196 063f 6289 7e3e
00000080: d904 313e c116 01bf 2b94 d9be 1f86 b33e
00000090: 1853 2bbc d2cf b53d d48d d43e c3fa 013d
000000a0: ea3b d3be c5d6 51be 9572 49be 9cc2 83be
000000b0: 8c84 af3c 73cd e1bd 2725 96bd 375a 6dbe
000000c0: 95ef 01bf c03f f33d 3d2e 4f3e a7be 95bb
000000d0: b36d 753e e352 a9be 1399 c1be 138c 813e
000000e0: e67e 02bf 9449 123e 2120 63be c681 623d
000000f0: 67b1 61be 93b2 0a39 7e81 96bd 11a1 713e
00000100: 949e 96be ed85 babe 0232 e23e d146 213f
00000110: d017 243e 8589 103f a499 1abf 919f db3e
00000120: 6691 473c dd75 0e3e 5221 953e 0521 4fbe
00000130: b1df 1abe 2331 0cbe b306 b33d 932a 8a3e
00000140: a656 90be 94f8 863e 1b32 7bbe e97f ce3e
00000150: 1e97 1a3f ca86 b9bd e4c2 2fbe 0a0b b1be
00000160: 7d37 53be 08b4 5a3e fc63 6d3d b83d 1a3e
00000170: db22 633e 5e0c 5a3d ac08 91be 53f7 b3bd
00000180: 0c6b 9f3d 6867 5a3d bd71 243e 6d17 4f3d
00000190: 4855 173c d4b3 033e 0d3b d43d 6e9f e63e
000001a0: 82c1 93be 9ad6 1dbe dc47 213e 048d 0bbf
000001b0: 48bc df3e bdee d23e 68f5 03be 19d4 c4be
000001c0: e4c6 efbd 3802 5c3f ca2c 7abc 00f0 d73d
000001d0: 059b 12be a07e 80be 3d17 86be 1689 86be
000001e0: 2c2f 6abe 9571 a6bd fbd8 70be aaa4 f03d
000001f0: bd5e d83e 7a34 ed3e e380 9b3e d175 183d
00000200: 006f 583d 780e e1bc 7ebf abbe 547b aabe
00000210: 5526 3abe f456 f33e aede 243f 4432 8a3e
00000220: 7786 2fbd 9d67 013f c528 d63e 7dfd f6be
00000230: 44b3 76be 1486 833e e0f3 f2bd 5e16 a73e
00000240: 761a ad3d 751f f1bd 5c3f d63d e4b9 c9be
00000250: 5f3d 00bf 4493 2fbc 6ad3 2fbe 70fb b73d
00000260: 7065 023d f7de f5bd ca83 0fbe 1f1d 4abe
00000270: d7df df3e b3f6 25be 4a37 313e 4e5f 66be
00000280: 20a6 9c3e a8b4 e5be 3b05 ed3c 2ec6 cc3e
00000290: 66dd 003d 8eb8 0bbf ed57 413e 5dd2 ecbe
000002a0: 5330 f6be 3dbb 0cbe 8ee4 bbbd 971e 04be
000002b0: f436 d83e 2f57 07bf 2022 583d f48a 17be
000002c0: fb14 b03d 3f2f 4a3d 9821 963e db1a 0c3d
000002d0: 8718 023f 7568 88be 56d4 693d 1b32 3abd
000002e0: b728 c63e 60d6 c9be e7c3 143e 56de 06be
000002f0: ddec ffbd 8954 8a3d 3d76 bbbe 22d4 103e
00000300: db60 08be 9c67 16bd f19c debe 71f7 403e
00000310: e8c5 073d 8c73 1ebc 2137 653d ddc4 98bc
00000320: af2c 213f a04b 33be 0ca2 77be ed8d 06bd
00000330: c514 f6bd 513f ca3e 0e4a 1fbe be93 1e3f
00000340: d144 d3be 20eb 4bbe 4d3d bd3e 6e56 a23e
00000350: f143 863e a6d6 123e 5445 88be 9c0a b1bd
00000360: 9297 e13e 04c0 673e 5312 9ebe 2e2f 62be
00000370: 8db7 93be c534 0e3f 5208 303e fe9e 0c3e
00000380: 51ce 99be 432d d93d 04d7 fb3b 4e61 aa3b
00000390: ffb7 c83e 8c10 b23e 41fe 683d 2f78 b43e
000003a0: 79f5 3abe 5473 e0bc 608d cb3d 183b 893e
000003b0: 473a 9a3e 14a1 5ebe dcde 953e 02f9 c2be
000003c0: 67e7 b23e b599 993e ab56 e43e d385 c6be
000003d0: 4579 65bd de45 f9bb 611e 15bf 42c1 91be
000003e0: ddf0 41bd 59e7 573e e00b b4bd 968e 21be
000003f0: f603 e1be c539 bc3e 2aca 06bd 562c 7bbe

network_body._body_endoder.seq_layers.0.bias f4 [128]
-0.0028851451 -0.0016022081 0.001178443 0.0026764818 0.0028906453 -0.0009979523 0.00019030612 -0.0009414935
-0.0010796015 -0.0022796395 -0.0028237551 -0.0021889692 0.00040521426 -0.003907327 -0.001770727 0.00013042046
-0.0017973888 -0.00042590807 0.00037615432 -0.003370531 -0.0009901635 -0.0011653323 0.0013146645 -0.001714066
-0.0034493867 0.0013060605 -0.0012315963 -0.0024436694 -0.0037207543 -0.00043413255 -0.0005562353 0.00019835168
0.0022078503 -0.0011723381 -0.00088356296 -0.0005855941 0.0023399421 0.0009751059 0.00040211904 0.0004932107
0.00017827557 0.0011719236 0.0011656998 0.00014052159 0.0014744689 0.00048304675 -0.0019783885 0.0029438136
0.000877228 6.860939e-05 0.0003412938 0.001510353 -0.00061092456 -0.0016321843 -0.0035428947 0.0022108937
-0.00027929634 -0.0021092766 -0.0006949748 0.0002401084 -0.0016600579 -0.0026698255 0.0014484036 0.00052710494
0.0016867764 -0.0029222805 0.00017326816 -0.0026337404 0.0031732242 -0.0012775327 -0.0005666738 -0.0014979594
0.0012719741 0.0013713673 0.0016130863 0.0006278021 0.0007318695 0.001626524 0.0018489788 0.003753297
-0.0009723276 0.0020125415 -0.0004256348 0.0003309372 8.460575e-05 -0.0015512703 -0.0012274315 0.0011302598
-0.0022843794 0.0015288761 0.0012625622 0.0040016114 0.00017783792 -0.00094564137 0.0014561118 -5.338457e-05
-0.0015711817 0.002674255 -0.0029004107 0.0015404156 0.0028683455 0.0031415205 -0.0036831181 -0.002973847
0.0015797084 -0.0014817277 0.000543466 0.00095707603 -3.3638953e-05 0.00011546284 0.00058273604 -0.00016707255
-0.0013064088 -0.0019348077 0.0017659261 -0.000816422 0.0008524284 -0.00034963014 0.00038029742 -0.002507849
-0.0034698253 -0.0016495059 0.0011406019 0.0020029075 7.33009e-05 -0.0009355298 0.00199176 0.00094769354
00000000: b414 3dbb 2f01 d2ba fc75 9a3a ea67 2f3b
00000010: fb70 3d3b b9cd 82ba e98c 4739 8fce 76ba
00000020: 6a81 8dba 0166 15bb c00e 39bb cf74 0fbb
00000030: f072 d439 0909 80bb bd17 e8ba 7ac1 0839
00000040: 5c96 ebba 6a4c dfb9 9436 c539 20e4 5cbb
00000050: 60c8 81ba 10be 98ba d250 ac3a 83aa e0ba
00000060: 1b0f 62bb 1e30 ab3a 846d a1ba f825 20bb
00000070: e6d7 73bb 499c e3b9 52d0 11ba a0fc 4f39
00000080: 95b1 103b 24a9 99ba e89e 67ba 8e82 19ba
00000090: b759 193b 409e 7f3a 81d3 d239 cf4a 013a
000000a0: 7cef 3a39 3b9b 993a 65ca 983a fa58 1339
000000b0: f742 c13a 7041 fd39 daa7 01bb ffec 403b
000000c0: c6f5 653a 63e2 8f38 aeef b239 09f7 c53a
000000d0: 7426 20ba 04ef d5ba e92f 68bb a4e4 103b
000000e0: 856e 92b9 ca3b 0abb f82e 36ba 9cc5 7b39
000000f0: 4d96 d9ba 3df8 2ebb 5cd8 bd3a 6a2d 0a3a
00000100: d316 dd3a bb83 3fbb 51af 3539 d59a 2cbb
00000110: def5 4f3b e272 a7ba d68c 14ba 2d57 c4ba
00000120: 5eb8 a63a 73bf b33a 326e d33a 1693 243a
00000130: eeda 3f3a 1731 d53a 6f59 f23a e0f9 753b
00000140: cde3 7eba d8e4 033b bc27 dfb9 a481 ad39
00000150: 5e6e b138 fe53 cbba c4e1 a0ba 3a25 943a
00000160: 87b5 15bb 9264 c83a 8f7c a53a f31f 833b
00000170: 017a 3a39 ebe4 77ba 01db be3a 3fe9 5fb8
00000180: 1cf0 cdba 8e42 2f3b d114 3ebb c5e7 c93a
00000190: dafa 3b3b f8e1 4d3b 7860 71bb e0e4 42bb
000001a0: 380e cf3a 8836 c2ba 6377 0e3a 49e4 7a3a
000001b0: 8d17 0db8 a424 f238 c1c2 183a 3230 2fb9
000001c0: ce3b abba 6099 fdba a676 e73a 2705 56ba
000001d0: 8075 5f3a 904e b7b9 a862 c739 b95a 24bb
000001e0: 0266 63bb 3c34 d8ba 4080 953a 3643 033b
000001f0: 1fb9 9938 583e 75ba 3088 023b a36e 783a

network_body._body_endoder.seq_layers.2.weight f4 [128, 128]
0.0842008 -0.08336466 -0.156238 0.004301598 -0.22649339 0.0034358236 -0.22914675 -0.069249295
0.09565783 -0.05306226 0.10147356 0.0128811225 -0.014141649 -0.08359449 0.08010685 -0.11735969
0.09327528 0.096318446 0.12259359 0.07539972 -0.059845444 -0.030741375 0.03457458 0.033038355
-0.14307277 -0.024270307 0.07247469 -0.01574707 -0.052669972 -0.106094174 0.050598443 -0.03824191
0.05876071 -0.20674491 -0.086896405 0.022907624 0.0909051 0.12195662 0.03603685 -0.11057186
0.019786038 -0.06823317 -0.010892978 -0.052246235 -0.010200962 0.14867665 -0.046077188 -0.024478275
0.04218866 0.09846037 0.06374111 -0.06987077 -0.1621915 0.03771731 -0.00570952 -0.014351378
-0.09488187 -0.0555695 -0.07953789 0.04316147 0.025468588 -0.12535712 0.011731437 0.08125541
0.07422271 -0.11726216 0.1343833 -0.04290535 0.12291729 0.0010312138 0.07283782 -0.026330868
0.12298531 -0.049734823 0.11347266 0.002905418 -0.020254938 -0.06301523 0.0014204743 -0.060047343
0.037174683 0.09917859 -0.12766574 -0.04462988 -0.05834089 -0.02370103 0.0066071507 0.022282973
0.14313275 0.10518308 -0.023993697 0.04607244 0.002740527 0.11135086 -0.15172349 0.06723402
-0.10039831 0.16764869 0.182268 -0.04948953 -0.039010935 0.12769146 -0.106135845 0.024923876
0.023315374 0.04480143 -0.051872037 -0.1093386 -0.14644335 -0.019069226 0.23435776 -0.07701611
-0.038212467 0.034989495 -0.0033621553 0.07517801 0.0002853104 0.06815181 0.007310643 0.03309112
0.0693483 -0.043521028 0.10317969 0.08776532 0.017969133 0.19874875 -0.05123314 -0.10387252
-0.23807158 0.15252177 -0.04284807 -0.045069207 -0.035826955 0.18067563 0.0126662655 -0.09116535
0.03389661 0.047457963 -0.10401166 -0.087720454 -0.0006574915 -0.060729872 0.023590107 -0.124140956
0.036495514 0.13104326 0.057145685 -0.110387474 0.058143124 0.056915212 -0.13615066 -0.03484016
-0.08430041 -0.042589165 -0.08132177 -0.15446393 0.15994008 0.066673554 0.1018983 -0.07053233
-0.13870205 -0.010569122 0.0041227313 0.05442662 0.044292178 0.11178697 0.13733144 -0.0028683809
0.03795384 0.077340126 -0.034208577 0.03126708 -0.17390002 0.05205172 -0.18968971 -0.039592367
-0.013970404 0.113634184 -0.043618552 -0.013446896 0.038125098 0.0012351222 0.075462684 -0.1306417
0.1037575 -0.0011798323 -0.06830142 -0.06513132 0.025089579 0.009485864 0.004780528 0.10507807
0.08416633 0.012039323 0.15996869 0.06304395 0.15914911 0.03321514 -0.10061808 -0.052364305
-0.05352293 -0.06353518 -0.03625238 0.0061833216 -0.10448608 0.009880238 -0.16094328 -0.0027543388
-0.081861205 -0.110907346 0.119032964 0.0036760273 -0.008003088 -0.00071694196 0.09147265 0.1763711
-0.09139452 0.03045546 0.07872044 -0.018028338 -0.09412539 -0.12676302 0.09846139 0.20319092
0.034295395 -0.08381623 0.0053315265 0.35379124 0.011230846 0.08309813 -0.040931344 0.0027933158
-0.030087931 -0.017106459 -0.031331126 0.013974909 0.099667534 -0.054023057 -0.04993848 0.032665055
0.06983924 -0.01288829 0.0581456 0.15523054 0.1696001 0.043338265 0.104113646 -0.04560429
0.07859906 -0.016122255 -0.028073175 -0.036670174 -0.05935093 0.02868078 0.10266573 -0.004541125
00000000: 7871 ac3d 17bb aabd dbfc 1fbe 6bf4 8c3b
00000010: e2ed 67be 8e2b 613b 72a5 6abe 93d2 8dbd
00000020: 41e8 c33d d057 59bd 5fd1 cf3d 580b 533c
00000030: 60b2 67bc 9733 abbd 0f0f a43d 475a f0bd
00000040: 1c07 bf3d 9b42 c53d 5912 fb3d 2b6b 9a3d
00000050: 7f20 75bd 56d5 fbbc 139e 0d3d 3a53 073d
00000060: ab81 12be 86d2 c6bc 9c6d 943d 0000 81bc
00000070: 78bc 57bd e747 d9bd 5040 4f3d 8da3 1cbd
00000080: 12af 703d f0b4 53be bef6 b1bd c5a8 bb3c
00000090: 742c ba3d 64c4 f93d 609b 133d 8073 e2bd
000000a0: 5416 a23c d5bd 8bbd 7678 32bc 2600 56bd
000000b0: f021 27bc b13e 183e 6fbb 3cbd aa86 c8bc
000000c0: 04ce 2c3d 97a5 c93d b38a 823d 6818 8fbd
000000d0: 8715 26be 777d 1a3d ed16 bbbb 0b22 6bbc
000000e0: 6d51 c2bd d89c 63bd c3e4 a2bd 15ca 303d
000000f0: 80a3 d03c 9e5d 00be 3735 403c 3d69 a63d
00000100: 1402 983d 2527 f0bd c79b 093e 85bd 2fbd
00000110: 0fbc fb3d cb29 873a ff2b 953d d5b3 d7bc
00000120: b9df fb3d beb6 4bbd 5b64 e83d d368 3e3b
00000130: afed a5bc 210e 81bd 352f ba3a 34f4 75bd
00000140: 7b44 183d 251e cb3d cfba 02be d2cd 36bd
00000150: dbf6 6ebd aa28 c2bc cc80 d83b c88a b63c
00000160: 6491 123e 3a6a d73d 6e8e c4bc 74b6 3c3d
00000170: 6a9a 333b eb0b e43d 675d 1bbe fdb1 893d
00000180: a19d cdbd 19ac 2b3e 76a4 3a3e 89b5 4abd
00000190: eec9 1fbd 8dc1 023e c05d d9bd 282d cc3c
000001a0: e2ff be3c b481 373d c677 54bd eaec dfbd
000001b0: 3ff5 15be 1137 9cbc 7bfb 6f3e 9fba 9dbd
000001c0: ad84 1cbd 2551 0f3d 9b57 5cbb eef6 993d
000001d0: b795 9539 2d93 8b3d 1e8e ef3b 8e8a 073d
000001e0: 7b06 8e3d 1b43 32bd e04f d33d 4ebe b33d
000001f0: 0134 933c cb84 4b3e d7d9 51bd 1ebb d4bd
00000200: 09c9 73be ab2e 1c3e 7581 2fbd 7d9a 38bd
00000210: 49bf 12bd 0803 393e 2b86 4f3c e6b4 babd
00000220: 2cd7 0a3d 4863 423d 1104 d5bd c8a6 b3bd
00000230: 825b 2cba e3bf 78bd 0a40 c13c 9d3d febd
00000240: 527c 153d 3430 063e 9811 6a3d d412 e2bd
00000250: 7c27 6e3d ed1f 693d 146b 0bbe 8eb4 0ebd
00000260: b1a5 acbd fa71 2ebd 078c a6bd cb2b 1ebe
00000270: 55c7 233e 258c 883d 0eb0 d03d 4173 90bd
00000280: e907 0ebe 1c2a 2dbc fa17 873b 73ee 5e3d
00000290: b76b 353d 91f0 e43d 9da0 0c3e 72fb 3bbb
000002a0: 7c75 1b3d 8064 9e3d 4b1e 0cbd e911 003d
000002b0: d912 32be 2f34 553d 053e 42be 9b2b 22bd
000002c0: 1fe4 64bc 0ab9 e83d 5ea9 32bd 5f50 5cbc
000002d0: 1029 1c3d d3e3 a13a 2e8c 9a3d f0c6 05be
000002e0: d07e d43d 9aa4 9aba 9de1 8bbd 9263 85bd
000002f0: a988 cd3c 996a 1b3c faa5 9c3b 2c33 d73d
00000300: 665f ac3d 9540 453c d5ce 233e 301d 813d
00000310: fcf7 223e 990c 083d da10 cebd f47b 56bd
00000320: dc3a 5bbd bc1e 82bd 607d 14bd 769d ca3b
00000330: ccfc d5bd b9e0 213c 51ce 24be 2382 34bb
00000340: d9a6 a7bd 6423 e3bd 8ec7 f33d 81e9 703b
00000350: 621f 03bc 29f1 3bba 0356 bb3d a09a 343e
00000360: 0d2d bbbd bb7d f93c 2f38 a13d 2ab0 93bc
00000370: d0c4 c0bd 2ace 01be 20a6 c93d 4811 503e
00000380: 5479 0c3d d8a7 abbd 16b4 ae3b 2024 b53e
00000390: 9501 383c 5a2f aa3d a0a7 27bd 1010 373b
000003a0: f77a f6bc d822 8cbc 1155 00bd 04f7 643c
000003b0: 7e1e cc3d 4847 5dbd 4b8c 4cbd cbcb 053d
000003c0: e007 8f3d 6829 53bc 152a 6e3d c1f4 1e3e
000003d0: a6ab 2d3e 7783 313d 8939 d53d 90cb 3abd
000003e0: 8bf8 a03d d212 84bc b7f9 e5bc 7733 16bd
000003f0: f619 73bd f5f3 ea3c 6942 d23d b8cd 94bb

network_body._body_endoder.seq_layers.2.bias f4 [128]
0.00086868566 0.00036771334 0.0016715153 0.0036782916 -0.00088953704 0.00023040795 0.000108457454 0.0017635485
0.00042005946 0.00013509639 -0.00054517714 0.0034170717 -0.00058038026 -0.00054126175 -0.00023265614 0.00080888043
8.80074e-05 0.0008644486 0.0055783847 -0.00080803083 -0.00015117071 0.00020079996 0.0011548804 -0.00055526115
-7.252536e-05 0.00059328816 -0.0011344173 0.0011844079 -0.0027846124 0.0019993559 -0.0022786492 0.0033932938
-0.0020718446 -0.00025180756 3.2460415e-05 -0.00065984187 0.003888915 -0.0007818481 -0.0013765362 0.0003685447
0.0021526015 0.0013507337 0.0025879494 -0.0039568883 0.0026469263 0.001295519 -0.0009441672 -0.0011260118
-0.0007843013 0.0010707277 0.00076643325 0.0016652371 0.0018869172 0.0009486937 -0.0012143971 -0.0037200553
0.00069879374 -0.0010767621 -0.00015979033 -0.0014877119 -0.002004165 6.363967e-05 -0.0011773856 -0.0013590942
-0.00021595665 0.0013626567 0.0012305337 0.0022652373 -0.0009025613 0.0012050173 -0.004114998 9.294541e-05
-0.00031283434 0.0018030452 0.0008414958 0.00047123406 0.0008098058 -0.0023655507 0.0026863434 -0.0013668789
-0.0012857316 0.0021458461 -0.0031485374 -0.0006213789 -0.00014439743 -0.0033368845 0.0010428361 -0.0010763067
0.0009245401 -0.0010160132 -0.0010040018 -0.002514486 -0.00010719584 0.0019494348 -0.0034488395 0.0037432346
-0.0016006583 0.000118704134 -0.00061083835 -0.0017365884 0.0010266877 -0.00092704815 -0.0030114462 -0.0017492992
0.0009778892 0.00039507682 0.0033369642 -0.0020194692 -0.00019469751 -0.0005346859 0.0009636882 0.00159998
1.8839746e-05 0.0008686223 -0.0009465602 0.00069276954 0.001466119 -0.0012965229 -0.0005090951 -0.00045282615
-0.0008029428 -0.0006373343 0.0034587812 -0.0009165742 -0.0002223537 -0.00033383767 0.0009660782 0.000949233
00000000: 82b8 633a a6c9 c039 bf16 db3a 7e0f 713b
00000010: d22f 69ba aa99 7139 a773 e338 de26 e73a
00000020: 6d3b dc39 a9a8 0d39 38ea 0eba f3f0 5f3b
00000030: a924 18ba 76e3 0dba 28f5 73b9 0c0b 543a
00000040: 9d90 b838 2a9c 623a e2ca b63b 08d2 53ba
00000050: 9483 1eb9 d48d 5239 5b5f 973a f28e 11ba
00000060: c218 98b8 e586 1b3a bab0 94ba 223e 9b3a
00000070: 0b7e 36bb a007 033b 6455 15bb 0662 5e3b
00000080: c9c7 07bb 0a05 84b9 1b26 0838 3df9 2cba
00000090: 2bdd 7e3b f0f4 4cba e46c b4ba 3b39 c139
000000a0: a912 0d3b 1a0b b13a 969a 293b c9a8 81bb
000000b0: 0e78 2d3b 67ce a93a fd81 77ba b096 93ba
000000c0: 9299 4dba a957 8c3a 77ea 483a 1644 da3a
000000d0: 6f52 f73a c2b1 783a 682c 9fba 2ccc 73bb
000000e0: 412f 373a 2422 8dba 648d 27b9 54ff c2ba
000000f0: 4f58 03bb 4a76 8538 8152 9aba a223 b2ba
00000100: 6c72 62b9 2c9b b23a dc49 a13a 6074 143b
00000110: dd99 6cba acf1 9d3a 1bd7 86bb b0eb c238
00000120: ea03 a4b9 2854 ec3a d497 5c3a f70f f739
00000130: 2649 543a 5b07 1bbb 5d0d 303b d828 b3ba
00000140: fe85 a8ba 53a1 0c3b b157 4ebb 08e4 22ba
00000150: 6469 17b9 a2af 5abb c6af 883a dc12 8dba
00000160: d65c 723a bf2b 85ba b698 83ba 13ca 24bb
00000170: 54ce e0b8 2d84 ff3a ed05 62bb 0e51 753b
00000180: 2ecd d1ba ccf0 f838 ab20 20ba 3d9e e3ba
00000190: ec91 863a 2605 73ba af5b 45bb be48 e5ba
000001a0: 842c 803a 5022 cf39 f8b0 5a3b 1259 04bb
000001b0: b727 4cb9 2a2a 0cba 05a0 7c3a 6cb6 d13a
000001c0: 0c0a 9e37 41b4 633a 9422 78ba fa9a 353a
000001d0: ca2a c03a 17f0 a9ba cb74 05ba 4c69 edb9
000001e0: 947c 52ba c812 27ba b8ac 623b 4146 70ba
000001f0: 9e27 69b9 ef06 afb9 6940 7d3a f3d5 783a

action_model._continuous_distribution.log_sigma f4 [1, 2]
-0.0023052434 0.0038286801
00000000: 9113 17bb 98ea 7a3b

action_model._continuous_distribution.mu.weight f4 [2, 128]
-0.008366768 -0.018548466 0.008994753 0.0029930784 -0.00851354 0.015790716 -0.02550133 0.015063585
0.034020055 0.010842833 -0.034079913 0.0014781276 -0.015344212 -0.0076580886 -0.0036827459 0.01649013
0.02345485 0.014117731 0.008587983 -0.011043742 0.0115530165 0.016428484 -0.011095742 -0.021989532
-0.031364962 0.01674223 -0.0039879964 0.0066609792 -0.020690706 0.014940296 -0.021130696 0.004790391
-0.0006563062 -0.018283857 -0.015113809 0.017608998 -0.0017071132 0.0028492697 -0.0069336724 -0.013671882
0.0012729423 -0.0108288955 0.02185303 -0.008464994 0.026506104 0.019478349 0.016647546 0.011578924
0.001591142 0.022977527 -0.012462551 0.01553451 -0.010557307 0.029492693 -0.0009878714 -0.04171964
0.033638794 0.018824827 -0.015601557 -0.020176362 -0.0073623816 -0.03805888 -0.00207343 -0.023906887
0.006950579 -0.008405346 -0.018103642 0.009533138 -0.008237631 0.024770776 -0.006452479 -0.037537295
-0.030841624 0.0036775453 0.0071014185 -0.007928185 0.005914472 -0.009846866 -0.011156235 0.005745624
-0.007596988 0.008891427 -0.0056027034 -0.0041478123 -0.012575886 0.003602811 0.004879403 -0.027140021
0.0066424967 -0.0011532851 0.0029977383 0.0024281146 0.022409331 0.0008411358 0.013310608 -0.0011405724
0.016612886 0.015818538 -0.0019587236 -0.00488733 -0.0010187648 0.00021884883 -0.0014760519 0.0009467969
0.0101719685 0.0041280207 0.016906995 -0.016913654 -0.0012780648 -0.016013738 0.0057176105 -0.005684196
-0.019698448 -0.009922013 0.007875139 -0.012285296 0.0044014035 -0.0022831676 0.018830506 0.00598243
-0.008580915 0.021720761 -0.018238664 -0.048499685 0.008816178 0.0065184697 0.0155283185 0.005196948
0.019746851 -0.011600043 0.023596901 0.027820578 -0.013984103 -0.0078933565 0.021704951 -0.003135558
0.013588177 -0.0019216001 -0.040893264 0.008467118 0.0031312448 -0.0003534466 0.0025734606 0.017589916
0.0138644185 0.0014828829 0.014433296 -0.013536998 -0.0028224224 -0.0044741845 -0.0060342415 -0.00030873943
-0.018668475 -0.0026629986 -0.0020257025 0.0317524 -0.051560007 0.010713025 -0.0072858217 0.0114146145
-0.016074667 -0.008301962 -0.008194054 -0.018885303 0.012453056 -0.009308531 -0.032208562 -0.013471138
0.0019155842 -0.013321362 0.01640994 -0.030800978 0.013016931 0.00287521 -0.026140943 -0.017213153
0.028920252 0.0035037086 0.007177883 0.020735221 0.045329466 0.017359436 -0.0063604657 -0.020893026
0.0002660058 0.01893061 0.0027826228 -0.012158895 -0.0031837656 0.001232427 0.00086969807 -0.0033926081
-0.0008001134 -0.010033483 0.02207999 0.004882627 -0.00023770289 0.008330039 -0.009011397 0.006722187
0.018873744 0.01345931 0.0031873158 -0.0011157327 0.021161297 -0.0018814391 0.013635993 0.0075804177
-0.014859118 0.02039684 -0.024342034 0.0023578573 -0.0075448495 -0.0079743555 -0.00034531936 -0.00082717655
0.02718243 -0.032233164 -0.022717178 -0.019155044 -0.0013314164 0.031216111 -0.025786363 -0.009308768
-0.018057777 -0.0016186874 -0.0057622846 -0.0010441828 0.01685769 -0.036130693 -0.014764059 -0.015444784
0.009535627 0.0071929516 0.01232759 0.0040273382 -0.0100489 -0.0010848695 0.014910605 0.029085543
0.028859993 0.01638423 -0.027244953 0.012504116 -0.01988616 -0.004786201 -0.0064944252 -0.0039927075
-0.0015760934 0.00834939 0.0055043236 -0.0010970715 -0.0070543424 0.010528839 0.0028731974 0.0055412473
00000000: c514 09bc f4f2 97bc ba5e 133c 8627 443b
00000010: 607c 0bbc 885b 813c 2ae8 d0bc 41cd 763c
00000020: 9d58 0b3d 23a6 313c 6197 0bbd bbbd c13a
00000030: 4a66 7bbc b4f0 fabb 395a 71bb 4f16 873c
00000040: 6324 c03c 0e4e 673c 9db4 0c3c d0f0 34bc
00000050: dd48 3d3c 0795 863c eaca 35bc 6423 b4bc
00000060: 8c78 00bd 0027 893c bdad 82bb 5844 da3b
00000070: 8e7f a9bc 25c8 743c 481a adbc b6f8 9c3b
00000080: f70b 2cba 07c8 95bc e99f 77bc bf40 903c
00000090: 37c1 dfba d0ba 3a3b dc33 e3bb 0800 60bc
000000a0: dbd8 a63a ae6b 31bc 2005 b33c c2b0 0abc
000000b0: 5423 d93c 0f91 9f3c 6f60 883c 87b5 3d3c
000000c0: de8d d03a 5e3b bc3c ba2f 4cbc 7584 7e3c
000000d0: 8ef8 2cbc a99a f13c 777b 81ba 37e2 2abd
000000e0: d5c8 093d 8636 9a3c ac9d 7fbc e648 a5bc
000000f0: 2240 f1bb a1e3 1bbd 62e2 07bb 60d8 c3bc
00000100: afc1 e33b 94b6 09bc 174e 94bc e130 1c3c
00000110: 21f7 06bc 15ec ca3c 516f d3bb b5c0 19bd
00000120: 93a7 fcbc f902 713b 04b3 e83b 38e5 01bc
00000130: 30ce c13b c054 21bc a4c8 36bc ca45 bc3b
00000140: 28f0 f8bb 59ad 113c e296 b7bb 5fea 87bb
00000150: 170b 4ebc 231d 6c3b 66e3 9f3b c054 debc
00000160: 4da9 d93b d429 97ba b475 443b 0121 1f3b
00000170: c693 b73c ab7f 5c3a bd14 5a3c 427f 95ba
00000180: bf17 883c e195 813c ee5d 00bb e525 a0bb
00000190: 1388 85ba c97a 6539 1578 c1ba 7732 783a
000001a0: 54a8 263c 5944 873b 8a80 8a3c 818e 8abc
000001b0: bd84 a7ba 3e2f 83bc cb5a bb3b 7e42 babb
000001c0: a45e a1bc f08f 22bc ba06 013c 4448 49bc
000001d0: a639 903b 32a1 15bb 6f42 9a3c 4308 c43b
000001e0: f796 0cbc bdef b13c 4069 95bc 9ba7 46bd
000001f0: bb71 103c e398 d53b 7d6a 7e3c 294b aa3b
00000200: 26c4 a13c 1b0e 3ebc 4a4e c13c fbe7 e33c
00000210: 941d 65bc 2353 01bc 95ce b13c ef7d 4dbb
00000220: f2a0 5e3c 33de fbba b27f 27bd abb9 0a3c
00000230: 9235 4d3b cd4e b9b9 81a7 283b ba18 903c
00000240: 9627 633c 4b5d c23a a279 6c3c 49ca 5dbc
00000250: 64f8 38bb 2e9c 92bb e3ba c5bb 4ede a1b9
00000260: a1ee 98bc b485 2ebb a6c1 04bb ce0e 023d
00000270: 9630 53bd af85 2f3c e7bd eebb 5d04 3b3c
00000280: 05af 83bc f404 08bc 5a40 06bc 5ab5 9abc
00000290: e707 4c3c cf82 18bc 20ed 03bd 0cb6 5cbc
000002a0: 5714 fb3a d841 5abc 236e 863c 5552 fcbc
000002b0: f744 553c 056e 3c3b 8825 d6bc 9902 8dbc
000002c0: 2aea ec3c 7a9e 653b 7234 eb3b e9dc a93c
000002d0: 64ab 393d 6035 8e3c 746b d0bb da27 abbc
000002e0: b276 8b39 5e14 9b3c aa5c 363b 1a36 47bc
000002f0: b9a6 50bb 6389 a13a 73fc 633a 8556 5ebb
00000300: b4be 51ba 7a63 24bc 18e1 b43c 72fe 9f3b
00000310: e23f 79b9 b77a 083c 8aa4 13bc cb45 dc3b
00000320: 1c9d 9a3c 7084 5c3c 49e2 503b c73d 92ba
00000330: 755a ad3c 9f9a f6ba 8069 5f3c 2765 f83b
00000340: a873 73bc 4617 a73c f268 c7bc 4886 1a3b
00000350: c93a f7bb dfa6 02bc fb0b b5b9 e1d6 58ba
00000360: b0ad de3c ec06 04bd 6019 babc 0aeb 9cbc
00000370: ec82 aeba eeb8 ff3c ec3d d3bc ce83 18bc
00000380: e7ed 93bc 232a d4ba 8cd1 bcbb f6dc 88ba
00000390: 2319 8a3c c7fd 13bd f4e4 71bc 1f0c 7dbc
000003a0: 523b 1c3c dab2 eb3b a9f9 493c c3f7 833b
000003b0: 24a4 24bc 2e32 8eba 9c4b 743c ce44 ee3c
000003c0: cb6b ec3c 3938 863c cf30 dfbc 10de 4c3c
000003d0: 4de8 a2bc 90d5 9cbb 30cf d4bb 42d5 82bb
000003e0: eb94 ceba e1cb 083c 9d5d b43b 9ccb 8fba
000003f0: 1d28 e7bb 2781 2c3c 414c 3c3b 5a93 b53b

action_model._continuous_distribution.mu.bias f4 [2]
0.0007667489 0.0014220065
00000000: a6ff 483a 9f62 ba3a

exp_avg f4 [128, 12]
1.1517631e-06 5.7588153e-07 1.0189844e-05 -2.3035261e-06 5.7588153e-07 -2.3035261e-06 4.579432e-06 2.289716e-06
9.516149e-06 -9.158864e-06 2.289716e-06 -9.158864e-06 -5.683371e-06 -2.8416855e-06 2.73012e-07 1.1366742e-05
-2.8416855e-06 1.1366742e-05 1.2088367e-05 6.0441835e-06 5.1747543e-06 -2.4176734e-05 6.0441835e-06 -2.4176734e-05
-2.2888049e-05 -1.14440245e-05 2.521945e-05 4.5776098e-05 -1.14440245e-05 4.5776098e-05 -3.6192967e-05 -1.8096483e-05
1.1789188e-05 7.2385934e-05 -1.8096483e-05 7.2385934e-05 1.5611891e-05 7.805946e-06 -1.8333685e-06 -3.1223783e-05
7.805946e-06 -3.1223783e-05 -6.565661e-06 -3.2828304e-06 -5.8755677e-06 1.3131322e-05 -3.2828304e-06 1.3131322e-05
4.901715e-06 2.4508574e-06 -1.793319e-05 -9.80343e-06 2.4508574e-06 -9.80343e-06 6.9695244e-07 3.4847622e-07
-1.3144189e-05 -1.3939049e-06 3.4847622e-07 -1.3939049e-06 2.4221083e-06 1.2110542e-06 2.5376241e-06 -4.8442166e-06
1.2110542e-06 -4.8442166e-06 -7.0635224e-07 -3.5317612e-07 1.313911e-06 1.4127045e-06 -3.5317612e-07 1.4127045e-06
-3.8028234e-06 -1.9014117e-06 6.080166e-06 7.6056467e-06 -1.9014117e-06 7.6056467e-06 -3.027766e-06 -1.513883e-06
2.776652e-06 6.055532e-06 -1.513883e-06 6.055532e-06 1.453036e-05 7.26518e-06 6.311071e-06 -2.906072e-05
7.26518e-06 -2.906072e-05 -3.2508724e-06 -1.6254362e-06 5.0151457e-06 6.501745e-06 -1.6254362e-06 6.501745e-06
-4.3896493e-05 -2.1948246e-05 -7.636503e-07 8.7792985e-05 -2.1948246e-05 8.7792985e-05 -2.0584596e-06 -1.0292298e-06
-1.3058437e-05 4.116919e-06 -1.0292298e-06 4.116919e-06 -8.614269e-06 -4.3071345e-06 -7.635865e-06 1.7228538e-05
-4.3071345e-06 1.7228538e-05 2.24874e-05 1.12437e-05 -6.6448274e-06 -4.49748e-05 1.12437e-05 -4.49748e-05
-2.6706568e-06 -1.3353284e-06 5.667878e-06 5.3413137e-06 -1.3353284e-06 5.3413137e-06 1.8715235e-05 9.357617e-06
1.989283e-06 -3.743047e-05 9.357617e-06 -3.743047e-05 3.2378887e-06 1.6189443e-06 -6.0234834e-07 -6.4757774e-06
1.6189443e-06 -6.4757774e-06 7.658053e-06 3.8290264e-06 4.6805948e-07 -1.5316105e-05 3.8290264e-06 -1.5316105e-05
-4.181818e-05 -2.090909e-05 4.2900733e-06 8.363636e-05 -2.090909e-05 8.363636e-05 -2.66527e-05 -1.332635e-05
-8.59331e-06 5.33054e-05 -1.332635e-05 5.33054e-05 1.4681129e-05 7.3405645e-06 1.24500975e-05 -2.9362258e-05
7.3405645e-06 -2.9362258e-05 1.40887905e-05 7.0443953e-06 1.3547838e-05 -2.8177581e-05 7.0443953e-06 -2.8177581e-05
-2.6329222e-05 -1.3164611e-05 -4.3753286e-07 5.2658444e-05 -1.3164611e-05 5.2658444e-05 -1.3308445e-05 -6.6542225e-06
-8.980087e-06 2.661689e-05 -6.6542225e-06 2.661689e-05 3.3514996e-05 1.6757498e-05 -1.2931465e-05 -6.702999e-05
1.6757498e-05 -6.702999e-05 1.9768251e-05 9.884126e-06 -1.0896639e-05 -3.9536502e-05 9.884126e-06 -3.9536502e-05
-4.2400192e-05 -2.1200096e-05 3.7065136e-05 8.4800384e-05 -2.1200096e-05 8.4800384e-05 1.1333299e-06 5.6666494e-07
7.943134e-06 -2.2666597e-06 5.6666494e-07 -2.2666597e-06 9.067435e-06 4.5337174e-06 -5.050388e-06 -1.813487e-05
4.5337174e-06 -1.813487e-05 7.703093e-06 3.8515464e-06 -2.9065733e-08 -1.5406185e-05 3.8515464e-06 -1.5406185e-05
3.7703157e-05 1.8851579e-05 -1.9142277e-05 -7.5406315e-05 1.8851579e-05 -7.5406315e-05 1.9204075e-05 9.602038e-06
-8.042417e-07 -3.840815e-05 9.602038e-06 -3.840815e-05 -8.15371e-07 -4.076855e-07 2.6488815e-05 1.630742e-06
-4.076855e-07 1.630742e-06 3.7208613e-06 1.8604306e-06 2.0285595e-05 -7.4417226e-06 1.8604306e-06 -7.4417226e-06
6.892017e-06 3.4460086e-06 6.314554e-06 -1.3784034e-05 3.4460086e-06 -1.3784034e-05 7.965701e-06 3.9828506e-06
-3.8451617e-07 -1.5931402e-05 3.9828506e-06 -1.5931402e-05 -2.3410093e-05 -1.1705047e-05 6.055543e-06 4.6820187e-05
00000000: 4796 9a35 4796 1a35 0cf5 2a37 4796 1ab6
00000010: 4796 1a35 4796 1ab6 05a9 9936 05a9 1936
00000020: 8ca7 1f37 05a9 19b7 05a9 1936 05a9 19b7
00000030: c9b3 beb6 c9b3 3eb6 7c92 9234 c9b3 3e37
00000040: c9b3 3eb6 c9b3 3e37 24cf 4a37 24cf ca36
00000050: cda2 ad36 24cf cab7 24cf ca36 24cf cab7
00000060: b6ff bfb7 b6ff 3fb7 5b8e d337 b6ff 3f38
00000070: b6ff 3fb7 b6ff 3f38 e7cd 17b8 e7cd 97b7
00000080: 2dca 4537 e7cd 9738 e7cd 97b7 e7cd 9738
00000090: 48f6 8237 48f6 0237 1012 f6b5 48f6 02b8
000000a0: 48f6 0237 48f6 02b8 994e dcb6 994e 5cb6
000000b0: be26 c5b6 994e 5c37 994e 5cb6 994e 5c37
000000c0: 6979 a436 6979 2436 3b6f 96b7 6979 24b7
000000d0: 6979 2436 6979 24b7 3516 3b35 3516 bb34
000000e0: dd85 5cb7 3516 bbb5 3516 bb34 3516 bbb5
000000f0: 818b 2236 818b a235 0d4c 2a36 818b a2b6
00000100: 818b a235 818b a2b6 289c 3db5 289c bdb4
00000110: a359 b035 289c bd35 289c bdb4 289c bd35
00000120: 0234 7fb6 0234 ffb5 3a04 cc36 0234 ff36
00000130: 0234 ffb5 0234 ff36 a030 4bb6 a030 cbb5
00000140: 8556 3a36 a030 cb36 a030 cbb5 a030 cb36
00000150: 6cc7 7337 6cc7 f336 b0c3 d336 6cc7 f3b7
00000160: 6cc7 f336 6cc7 f3b7 9029 5ab6 9029 dab5
00000170: c647 a836 9029 da36 9029 dab5 9029 da36
00000180: 801d 38b8 801d b8b7 a6fd 4cb5 801d b838
00000190: 801d b8b7 801d b838 1124 0ab6 1124 8ab5
000001a0: 8f15 5bb7 1124 8a36 1124 8ab5 1124 8a36
000001b0: 0186 10b7 0186 90b6 ca1b 00b7 0186 9037
000001c0: 0186 90b6 0186 9037 53a3 bc37 53a3 3c37
000001d0: a2f6 deb6 53a3 3cb8 53a3 3c37 53a3 3cb8
000001e0: 8939 33b6 8939 b3b5 b42e be36 8939 b336
000001f0: 8939 b3b5 8939 b336 a9fe 9c37 a9fe 1c37
00000200: 9f7f 0536 a9fe 1cb8 a9fe 1c37 a9fe 1cb8
00000210: 814a 5936 814a d935 10b1 21b5 814a d9b6
00000220: 814a d935 814a d9b6 167b 0037 167b 8036
00000230: 9b49 fb34 167b 80b7 167b 8036 167b 80b7
00000240: ee65 2fb8 ee65 afb7 73f3 8f36 ee65 af38
00000250: ee65 afb7 ee65 af38 3d94 dfb7 3d94 5fb7
00000260: fc2b 10b7 3d94 5f38 3d94 5fb7 3d94 5f38
00000270: f84e 7637 f84e f636 c3e0 5037 f84e f6b7
00000280: f84e f636 f84e f6b7 e55e 6c37 e55e ec36
00000290: 854b 6337 e55e ecb7 e55e ec36 e55e ecb7
000002a0: 93dd dcb7 93dd 5cb7 0fe6 eab4 93dd 5c38
000002b0: 93dd 5cb7 93dd 5c38 5647 5fb7 5647 dfb6
000002c0: 2ea9 16b7 5647 df37 5647 dfb6 5647 df37
000002d0: 7492 0c38 7492 8c37 38f4 58b7 7492 8cb8
000002e0: 7492 8c37 7492 8cb8 ffd3 a537 ffd3 2537
000002f0: b5d0 36b7 ffd3 25b8 ffd3 2537 ffd3 25b8
00000300: dcd6 31b8 dcd6 b1b7 6376 1b38 dcd6 b138
00000310: dcd6 b1b7 dcd6 b138 eb1c 9835 eb1c 1835
00000320: 8043 0537 eb1c 18b6 eb1c 1835 eb1c 18b6
00000330: 5620 1837 5620 9836 8176 a9b6 5620 98b7
00000340: 5620 9836 5620 98b7 883c 0137 883c 8136
00000350: 39ac f9b2 883c 81b7 883c 8136 883c 81b7
00000360: 7523 1e38 7523 9e37 ba93 a0b7 7523 9eb8
00000370: 7523 9e37 7523 9eb8 7018 a137 7018 2137
00000380: 12e3 57b5 7018 21b8 7018 2137 7018 21b8
00000390: dedf 5ab5 dedf dab4 4c34 de37 dedf da35
000003a0: dedf dab4 dedf da35 e9b3 7936 e9b3 f935
000003b0: fc2a aa37 e9b3 f9b6 e9b3 f935 e9b3 f9b6
000003c0: fa41 e736 fa41 6736 9be1 d336 fa41 67b7
000003d0: fa41 6736 fa41 67b7 6da4 0537 6da4 8536
000003e0: 806f ceb4 6da4 85b7 6da4 8536 6da4 85b7
000003f0: cb60 c4b7 cb60 44b7 b830 cb36 cb60 4438

exp_avg_sq f4 [128, 12]
5.4955557e-11 1.3738889e-11 2.2558928e-10 2.1982223e-10 1.3738889e-11 2.1982223e-10 6.737788e-11 1.684447e-11
2.3053522e-10 2.6951152e-10 1.684447e-11 2.6951152e-10 9.289007e-11 2.3222518e-11 3.855219e-10 3.7156028e-10
2.3222518e-11 3.7156028e-10 3.4749084e-10 8.687271e-11 4.1393933e-10 1.3899634e-09 8.687271e-11 1.3899634e-09
4.5047466e-10 1.12618664e-10 1.0418847e-09 1.8018986e-09 1.12618664e-10 1.8018986e-09 9.632621e-10 2.4081553e-10
1.2098499e-09 3.8530485e-09 2.4081553e-10 3.8530485e-09 3.369018e-10 8.422545e-11 9.1692276e-10 1.3476072e-09
8.422545e-11 1.3476072e-09 5.790584e-10 1.447646e-10 1.0088806e-09 2.3162336e-09 1.447646e-10 2.3162336e-09
1.9100617e-11 4.7751542e-12 3.450256e-11 7.640247e-11 4.7751542e-12 7.640247e-11 2.940666e-11 7.351665e-12
3.7461485e-11 1.1762664e-10 7.351665e-12 1.1762664e-10 3.3217693e-12 8.304423e-13 6.2296305e-12 1.3287077e-11
8.304423e-13 1.3287077e-11 6.844256e-12 1.711064e-12 6.2929063e-12 2.7377024e-11 1.711064e-12 2.7377024e-11
1.7636859e-11 4.4092147e-12 5.4798128e-11 7.0547436e-11 4.4092147e-12 7.0547436e-11 1.7122094e-11 4.2805234e-12
5.1982453e-11 6.8488375e-11 4.2805234e-12 6.8488375e-11 1.5915315e-10 3.9788287e-11 3.458898e-10 6.366126e-10
3.9788287e-11 6.366126e-10 3.3528008e-10 8.382002e-11 3.60977e-10 1.3411203e-09 8.382002e-11 1.3411203e-09
4.5846177e-10 1.1461544e-10 1.9561466e-09 1.8338471e-09 1.1461544e-10 1.8338471e-09 8.406177e-10 2.1015442e-10
1.945967e-09 3.3624707e-09 2.1015442e-10 3.3624707e-09 1.6828465e-10 4.2071163e-11 3.0307173e-10 6.731386e-10
4.2071163e-11 6.731386e-10 5.877525e-10 1.4693813e-10 3.523614e-10 2.35101e-09 1.4693813e-10 2.35101e-09
1.5212906e-11 3.8032264e-12 2.9978943e-11 6.085162e-11 3.8032264e-12 6.085162e-11 1.8748356e-10 4.687089e-11
3.7829875e-11 7.499342e-10 4.687089e-11 7.499342e-10 5.710907e-12 1.4277268e-12 1.0752656e-11 2.2843628e-11
1.4277268e-12 2.2843628e-11 7.72919e-12 1.9322974e-12 1.2592462e-11 3.091676e-11 1.9322974e-12 3.091676e-11
1.2088516e-10 3.022129e-11 2.544989e-10 4.8354065e-10 3.022129e-11 4.8354065e-10 1.3831072e-10 3.457768e-11
2.3375396e-10 5.532429e-10 3.457768e-11 5.532429e-10 1.12610726e-10 2.8152682e-11 1.6561397e-10 4.504429e-10
2.8152682e-11 4.504429e-10 2.3333918e-10 5.8334795e-11 1.7214402e-10 9.333567e-10 5.8334795e-11 9.333567e-10
9.978688e-11 2.494672e-11 3.300506e-10 3.9914752e-10 2.494672e-11 3.9914752e-10 1.2704214e-10 3.1760535e-11
3.5742814e-10 5.0816856e-10 3.1760535e-11 5.0816856e-10 4.210276e-10 1.052569e-10 1.7468761e-09 1.6841104e-09
1.052569e-10 1.6841104e-09 4.7591053e-10 1.1897763e-10 1.7408971e-09 1.9036421e-09 1.1897763e-10 1.9036421e-09
4.0197923e-10 1.0049481e-10 1.6333335e-09 1.6079169e-09 1.0049481e-10 1.6079169e-09 1.0795408e-09 2.698852e-10
1.9426014e-09 4.318163e-09 2.698852e-10 4.318163e-09 2.6782434e-11 6.6956085e-12 6.1992696e-11 1.07129736e-10
6.6956085e-12 1.07129736e-10 3.1259417e-10 7.814854e-11 1.2073206e-10 1.2503767e-09 7.814854e-11 1.2503767e-09
8.968486e-11 2.2421214e-11 1.5047925e-10 3.5873943e-10 2.2421214e-11 3.5873943e-10 3.966132e-10 9.91533e-11
1.9624775e-10 1.5864527e-09 9.91533e-11 1.5864527e-09 7.6288434e-11 1.9072108e-11 2.6823826e-10 3.0515374e-10
1.9072108e-11 3.0515374e-10 1.4136389e-10 3.5340973e-11 2.5617167e-10 5.6545557e-10 3.5340973e-11 5.6545557e-10
1.58505e-10 3.962625e-11 3.8479353e-10 6.3402e-10 3.962625e-11 6.3402e-10 1.714582e-10 4.286455e-11
4.3530413e-10 6.858328e-10 4.286455e-11 6.858328e-10 5.3486063e-11 1.3371516e-11 1.3800436e-10 2.1394425e-10
00000000: 75b2 712e 75b2 712d bd09 782f 75b2 712f
00000010: 75b2 712d 75b2 712f 602a 942e 602a 942d
00000020: e579 7d2f 602a 942f 602a 942d 602a 942f
00000030: 7644 cc2e 7644 cc2d 62f1 d32f 7644 cc2f
00000040: 7644 cc2d 7644 cc2f fd08 bf2f fd08 bf2e
00000050: c890 e32f fd08 bf30 fd08 bf2e fd08 bf30
00000060: aca6 f72f aca6 f72e 0f32 8f30 aca6 f730
00000070: aca6 f72e aca6 f730 c663 8430 c663 842f
00000080: cf47 a630 c663 8431 c663 842f c663 8431
00000090: b736 b92f b736 b92e b40a 7c30 b736 b930
000000a0: b736 b92e b736 b930 9d2b 1f30 9d2b 1f2f
000000b0: d5a8 8a30 9d2b 1f31 9d2b 1f2f 9d2b 1f31
000000c0: c402 a82d c402 a82c 6ebe 172e c402 a82e
000000d0: c402 a82c c402 a82e f554 012e f554 012d
000000e0: e2c1 242e f554 012f f554 012d f554 012f
000000f0: adbf 692c adbf 692b 862f db2c adbf 692d
00000100: adbf 692b adbf 692d 94cf f02c 94cf f02b
00000110: 7669 dd2c 94cf f02d 94cf f02b 94cf f02d
00000120: ad22 9b2d ad22 9b2c 3501 712e ad22 9b2e
00000130: ad22 9b2c ad22 9b2e 879b 962d 879b 962c
00000140: 0a9f 642e 879b 962e 879b 962c 879b 962e
00000150: a1fd 2e2f a1fd 2e2e a927 be2f a1fd 2e30
00000160: a1fd 2e2e a1fd 2e30 7a52 b82f 7a52 b82e
00000170: ff72 c62f 7a52 b830 7a52 b82e 7a52 b830
00000180: c20a fc2f c20a fc2e e56c 0631 c20a fc30
00000190: c20a fc2e c20a fc30 3611 6730 3611 672f
000001a0: d0b9 0531 3611 6731 3611 672f 3611 6731
000001b0: eb07 392f eb07 392e 8e9d a62f eb07 3930
000001c0: eb07 392e eb07 3930 688f 2130 688f 212f
000001d0: 75b6 c12f 688f 2131 688f 212f 688f 2131
000001e0: 6bd0 852d 6bd0 852c 4ad9 032e 6bd0 852e
000001f0: 6bd0 852c 6bd0 852e ee23 4e2f ee23 4e2e
00000200: a760 262e ee23 4e30 ee23 4e2e ee23 4e30
00000210: 47ef c82c 47ef c82b a829 3d2d 47ef c82d
00000220: 47ef c82b 47ef c82d 2df9 072d 2df9 072c
00000230: 6887 5d2d 2df9 072e 2df9 072c 2df9 072e
00000240: 26ea 042f 26ea 042e 89e9 8b2f 26ea 0430
00000250: 26ea 042e 26ea 0430 0213 182f 0213 182e
00000260: f281 802f 0213 1830 0213 182e 0213 1830
00000270: 34a2 f72e 34a2 f72d 3018 362f 34a2 f72f
00000280: 34a2 f72d 34a2 f72f 9247 802f 9247 802e
00000290: 3c46 3d2f 9247 8030 9247 802e 9247 8030
000002a0: 056f db2e 056f db2d 7e72 b52f 056f db2f
000002b0: 056f db2d 056f db2f 2faf 0b2f 2faf 0b2e
000002c0: 8a7f c42f 2faf 0b30 2faf 0b2e 2faf 0b30
000002d0: 5e76 e72f 5e76 e72e bd16 f030 5e76 e730
000002e0: 5e76 e72e 5e76 e730 3ad1 0230 3ad1 022f
000002f0: 5f44 ef30 3ad1 0231 3ad1 022f 3ad1 0231
00000300: 8cfd dc2f 8cfd dc2e d07b e030 8cfd dc30
00000310: 8cfd dc2e 8cfd dc30 f75e 9430 f75e 942f
00000320: 9b7e 0531 f75e 9431 f75e 942f f75e 9431
00000330: ae94 eb2d ae94 eb2c c952 882e ae94 eb2e
00000340: ae94 eb2c ae94 eb2e b8d9 ab2f b8d9 ab2e
00000350: 0ebf 042f b8d9 ab30 b8d9 ab2e b8d9 ab30
00000360: 1638 c52e 1638 c52d 2574 252f 1638 c52f
00000370: 1638 c52d 1638 c52f 580a da2f 580a da2e
00000380: d5c6 572f 580a da30 580a da2e 580a da30
00000390: 92c2 a72e 92c2 a72d 2e77 932f 92c2 a72f
000003a0: 92c2 a72d 92c2 a72f 666e 1b2f 666e 1b2e
000003b0: f5d4 8c2f 666e 1b30 666e 1b2e 666e 1b30
000003c0: 3147 2e2f 3147 2e2e e08a d32f 3147 2e30
000003d0: 3147 2e2e 3147 2e30 3185 3c2f 3185 3c2e
000003e0: 9c4f ef2f 3185 3c30 3185 3c2e 3185 3c30
000003f0: f43b 6b2e f43b 6b2d c6bc 172f f43b 6b2f

exp_avg f4 [128]
4.5794322e-06 1.2088373e-05 -3.619297e-05 -6.565652e-06 6.9695113e-07 -7.0635144e-07 -3.027767e-06 -3.250866e-06
-2.0584528e-06 2.2487395e-05 1.8715229e-05 7.6580545e-06 -2.6652699e-05 1.4088784e-05 -1.3308441e-05 1.9768255e-05
1.1333299e-06 7.703092e-06 1.9204062e-05 3.7208533e-06 7.965702e-06 -1.664677e-05 -4.4901608e-05 6.3034586e-06
7.792683e-06 1.917855e-05 -1.6531667e-05 1.2194336e-05 9.70424e-06 -2.4701458e-06 2.4190242e-05 -2.4063453e-05
-6.6006663e-07 1.20912655e-05 -3.090791e-05 2.1037201e-06 -2.579402e-06 7.617304e-07 2.1127973e-05 -1.036192e-05
3.8147427e-05 -8.948511e-06 -1.7373985e-05 1.9404115e-05 5.7247585e-06 -7.3619844e-07 -2.8190836e-06 -5.78548e-06
1.1239555e-05 -1.3249614e-07 -1.043434e-05 3.981732e-06 -1.6644164e-05 -3.1116542e-06 5.45143e-05 -1.4692719e-05
3.15527e-05 2.0657082e-05 9.892966e-07 2.60967e-05 4.8387676e-07 1.7538207e-06 -2.1381984e-06 1.5631746e-05
4.25425e-06 2.310711e-05 1.3859095e-05 6.3734988e-06 -1.5864372e-05 1.0914314e-05 2.1625907e-05 -7.734295e-06
6.5665745e-06 6.057713e-06 -6.5000795e-06 -3.4244862e-05 5.5167834e-07 -3.1673342e-06 -6.278122e-07 1.6768065e-06
-8.413979e-06 -9.5020283e-07 1.5021937e-05 -4.5581586e-05 -3.140699e-05 5.576573e-06 1.8606941e-05 -3.715269e-05
-5.3169647e-06 1.3510229e-05 -1.6211959e-06 -5.5038927e-05 -1.8678802e-05 4.750763e-06 -5.389387e-06 -2.5437083e-07
-4.66014e-06 -3.538683e-05 9.909403e-07 -1.606148e-05 -1.5715277e-05 -1.8647897e-05 2.3873414e-05 3.8398197e-05
-1.8230667e-05 -1.6819826e-05 1.9451847e-06 -1.6297283e-05 2.0550027e-05 -6.572105e-06 3.6974557e-06 2.3400178e-05
3.4051565e-05 -5.4302286e-06 -1.6862869e-05 -1.8482784e-05 3.0366658e-05 8.5646116e-07 4.3716655e-06 1.1273143e-05
8.835525e-06 -2.0430922e-07 1.7483015e-05 -1.1718672e-05 -2.1747232e-05 2.4175639e-05 -3.3553966e-05 1.5043534e-05
00000000: 06a9 9936 2bcf 4a37 e8cd 17b8 854e dcb6
00000010: 1e16 3b35 1a9c 3db5 a430 4bb6 7429 5ab6
00000020: f323 0ab6 50a3 bc37 a6fe 9c37 187b 0037
00000030: 3c94 dfb7 de5e 6c37 5247 5fb7 01d4 a537
00000040: eb1c 9835 873c 0137 6918 a137 c6b3 7936
00000050: 6ea4 0537 aba4 8bb7 bc54 3cb8 4c82 d336
00000060: 52bd 0237 9fe1 a037 7cad 8ab7 4696 4c37
00000070: 65cf 2237 c8c4 25b6 26ec ca37 dfdb c9b7
00000080: 6f2f 31b5 97db 4a37 1ea3 01b8 a32d 0d36
00000090: ca19 2db6 b779 4c35 fa3b b137 1cd8 2db7
000000a0: 7d00 2038 9021 16b7 59be 91b7 05c6 a237
000000b0: 4d17 c036 2c9f 45b5 7d2f 3db6 e520 c2b6
000000c0: 8591 3c37 4344 0eb4 260f 2fb7 d19a 8536
000000d0: 129f 8bb7 d0d1 50b6 49a6 6438 bf80 76b7
000000e0: 7457 0438 bf48 ad37 f9c7 8435 3dea da37
000000f0: c2e3 0135 d264 eb35 f87d 0fb6 eb20 8337
00000100: bbbf 8e36 24d6 c137 5c84 6837 f0db d536
00000110: 7b14 85b7 9f1c 3737 4869 b537 8bc2 01b7
00000120: 7256 dc36 5c43 cb36 421b dab6 24a2 0fb8
00000130: 0c17 1435 638e 54b6 ed86 28b5 a20e e135
00000140: c429 0db7 7111 7fb5 ba06 7c37 db2e 3fb8
00000150: 00bb 03b8 661e bb36 1a16 9c37 66d4 1bb8
00000160: 6168 b2b6 fea9 6237 de97 d9b5 99d9 66b8
00000170: 6cb0 9cb7 be68 9f36 7bd6 b4b6 7690 88b4
00000180: 4c5e 9cb6 526c 14b8 7300 8535 c4bb 86b7
00000190: 4dd4 83b7 0e6e 9cb7 c443 c837 c00d 2138
000001a0: 0fee 98b7 4d18 8db7 058a 0236 26b6 88b7
000001b0: d962 ac37 f485 dcb6 ce21 7836 804b c437
000001c0: 97d2 0e38 4f35 b6b6 bc74 8db7 7a0b 9bb7
000001d0: e7bb fe37 90e7 6535 52b0 9236 c821 3d37
000001e0: 4a3c 1437 1760 5bb4 7da8 9237 509b 44b7
000001f0: d36d b6b7 cacc ca37 4cbc 0cb8 7d63 7c37

exp_avg_sq f4 [128]
6.7377916e-11 3.4749092e-10 9.632621e-10 5.790584e-10 2.9406658e-11 6.8442556e-12 1.7122097e-11 3.3528005e-10
8.406177e-10 5.8775257e-10 1.874836e-10 7.7291906e-12 1.3831072e-10 2.333392e-10 1.2704217e-10 4.7591053e-10
1.0795409e-09 3.1259423e-10 3.966132e-10 1.4136388e-10 1.714582e-10 7.864662e-11 9.0128927e-10 8.98426e-11
5.5823624e-11 9.523391e-10 4.164361e-10 6.2307555e-11 2.3709378e-11 1.8117501e-12 8.81189e-10 4.8548154e-10
1.644279e-11 7.484606e-10 5.994798e-10 4.6328035e-13 2.443826e-12 1.3348478e-10 6.1014593e-10 1.10590696e-10
1.3912886e-09 1.4270517e-09 1.143426e-10 2.3232196e-09 2.949812e-10 1.1680416e-10 2.3049547e-11 9.501936e-12
4.7714077e-10 3.0091908e-11 7.752855e-11 4.9391744e-11 2.2063733e-10 2.0114634e-09 3.2569725e-10 8.526468e-10
1.5867164e-09 1.0497891e-09 4.166491e-12 1.0750719e-09 1.307034e-10 1.0695337e-12 2.2375407e-12 1.09488404e-10
1.11050336e-11 2.6204694e-10 1.9023633e-10 5.8493054e-12 6.5466604e-10 1.01873024e-10 4.063643e-10 1.05151186e-10
4.2026058e-10 8.649795e-10 5.1780373e-12 9.750019e-10 2.9679805e-12 1.7305782e-09 1.194135e-11 4.1190926e-11
2.050987e-10 4.4887433e-10 5.701954e-10 2.896217e-09 4.1732345e-10 1.5065393e-10 8.6647545e-10 2.9521488e-10
4.2597384e-11 8.16846e-11 2.942368e-10 6.160303e-10 1.4146506e-09 1.1368856e-10 1.2191952e-10 7.853728e-10
9.189932e-12 1.2926074e-10 4.362323e-12 2.9531664e-09 3.105253e-11 3.261384e-11 2.2040023e-10 4.4243353e-10
9.1885316e-10 8.456293e-10 9.592286e-11 5.5407737e-11 5.299409e-10 3.3859007e-10 3.2667955e-11 5.5095145e-10
3.04686e-10 5.8145516e-11 1.0077114e-09 4.679262e-09 3.4351864e-09 1.6076201e-10 2.2331057e-11 3.257288e-10
2.5655913e-11 6.5029306e-12 1.7171004e-09 3.3845985e-11 2.984267e-09 1.2793665e-10 9.179942e-10 5.4562294e-10
00000000: 652a 942e 0009 bf2f c663 8430 9d2b 1f30
00000010: f454 012e 93cf f02c 899b 962d 7952 b82f
00000020: 3611 6730 698f 2130 f123 4e2f 2ef9 072d
00000030: 0213 182f 9347 802f 31af 0b2f 3ad1 0230
00000040: f85e 9430 bad9 ab2f 580a da2f 656e 1b2f
00000050: 3185 3c2f 1cf2 ac2e 98be 7730 e390 c52e
00000060: d083 752e 74e3 8230 2cf0 e42f 0904 892e
00000070: c68c d02d 2dfb fe2b 2a38 7230 ba72 0530
00000080: dfa1 902d 3cbc 4d30 a4c8 2430 de66 022b
00000090: 0ef8 2b2c a0c4 122f 34b7 2730 0731 f32e
000000a0: 9e37 bf30 eb21 c430 2971 fb2e 83a6 1f31
000000b0: ea2a a22f 736d 002f f7be ca2d ea28 272d
000000c0: cc27 0330 7a58 042e b27c aa2e 293a 592e
000000d0: e397 722f 0a3a 0a31 d00d b32f af5f 6a30
000000e0: 9f13 da30 2c48 9030 6a98 922c bbc1 9330
000000f0: bdb5 0f2f 0386 962b f373 1d2c 7ec4 f02e
00000100: a05c 432d d40f 902f c42a 512f dccd cd2c
00000110: 07f4 3330 6a05 e02e b166 df2f db3a e72e
00000120: 6b0a e72f 85c3 6d30 9d2f b62c d400 8630
00000130: 62da 502c 4fd9 ed30 0f13 522d dc28 352e
00000140: 2782 612f 72c5 f62f efbb 1c30 ca06 4731
00000150: 0e6d e52f 50a5 252f ca2c 6e30 cd4b a22f
00000160: 6458 3b2e 57a0 b32e 26c2 a12f 4755 2930
00000170: 986d c230 f800 fa2e 4b0d 062f b3e1 5730
00000180: c6ab 212d aa1f 0e2f 507c 992c a7f0 4a31
00000190: 0a92 082e eb6f 0f2e 2655 722f fc3a f32f
000001a0: 8b92 7c30 df71 6830 c5ef d22e 91af 732e
000001b0: 47ab 1130 5124 ba2f d9ac 0f2e c371 1730
000001c0: be80 a72f 08ba 7f2e b17f 8a30 39c7 a031
000001d0: 7010 6c31 7cc2 302f 126d c42d 4112 b32f
000001e0: fbab e12d 31cd e42c 19ff eb30 31db 142e
000001f0: c813 4d31 f7aa 0c2f 1956 7c30 cdfa 1530
