Lofty2024/results/Test7/MoveToPoint/checkpoint.pt (torch, 485730 bytes, 40 tensors)

discrete_act_size_vector f4 [1, 2]
00000000: 0000 1041 0000 1041
9.0 9.0

network_body._body_endoder.seq_layers.0.weight f4 [128, 12]
00000000: b18d c13d aade 8fbc bf83 86bd 7cd4 1bbc
00000010: 461d edbc c1cb 0cbe 2803 5e3e b935 c53e
00000020: 1178 3cbd 9d1e 24be d0f5 083d c097 083f
00000030: 130a c7bd 2d28 b7be a97a be3e 34bf 813e
00000040: ae68 353d 402d 893e e95f bdbe c727 79bd
00000050: 1a3a 54bd 0369 7fbb 5de1 4bbd 82f3 c7bb
00000060: 4d83 96be 142b 873e a863 e4be bd54 59be
00000070: b164 ce3d 1a44 09bf 6a16 10bd 2f8f 2bbf
00000080: c9d8 0bbe d554 06be b7ed 64bd 8bfb 35bd
00000090: 698b c0bc 3479 e2be 7058 f63b 4655 fabe
000000a0: 9841 213e 1968 e5bd 485f 35bc 3733 073e
000000b0: 488f 3fbf 8adf d2bd ba4d 9ebe 82ad 0e3f
000000c0: 7712 0abf 8ebe 933e 34dd aebe 3835 e83e
000000d0: 99e2 b5be 30fa 9fbe 045b 97be 0316 c8bd
000000e0: ecc0 d9be a5cf 81bd d312 593e 6e88 883e
000000f0: ed8f c43d 7d88 65bd aa1e 213e a093 503e
00000100: df16 43bd 68ac c13b 9282 393e f87d 40be
00000110: ac81 263e 2994 9fbe 0311 1ebd 0116 52be
00000120: 058f ba3d df0b 403e c592 3abe c857 0d3e
00000130: 2c2d 703e 93be bdbe bff7 633e b243 6c3c
00000140: 720c b8be 9a71 aebd d255 2c3c d6a3 74bd
00000150: 60fd 613e e94a 0a3d 41a2 a9be 0a3c 1c3e
00000160: ecab 0c3f 3627 be3e e4b3 80bd bc0d ac3e
00000170: 62dc 2b3e 378b 6b3e 44ae 12be 2a58 273d
00000180: 948c 2e3f 067d 67bd 60ef 133f bf70 bd3e
00000190: b49f 12bf 5e41 cb3d 3d77 8abe 0392 043e
000001a0: 9786 b33d 9770 d03d dbf9 e53d 0d56 dabe
000001b0: fb49 0c3d 8545 c1be 746c f8be 1b05 0ebe
000001c0: 473f 80bd 4b32 8abc fdf7 39be 174f a23d
000001d0: 9375 f03e b27d 83be 04a3 af3d fd6c c5be
000001e0: a288 03be 2a82 bbbe c5e5 db3e 9604 eebe
000001f0: ab2d 9dbd de0d 82be 9669 003f 88d2 2abe
00000200: 479c e43e 3b66 363e 15db 0b3e 0f2b df3e
00000210: eee9 56be 6a9c 92bd 82b9 68be 3ae1 873e
00000220: 4563 d93d 6f97 4abe fed1 62be 66e0 aabe
00000230: b273 af3d 5ad6 c0be c20b 8a3e b438 d8be
00000240: 0e6a 66be 92fa 3f3e 9497 b23d 99ed ae3e
00000250: 30ac 393b e17a 4b3b 6e71 513e c7f6 d4be
00000260: a61a a33e 0337 9b3e 9b6c ae3d bc02 1d3e
00000270: fdd4 ec3d 303a 273e abe4 033d 60e0 aa3a
00000280: bbcb 573e 12b9 c83e 662c a83e 9d53 d0bd
00000290: 166d bcbe 4b78 f0bc 1c1c 4ebd 6e3b 18be
000002a0: a9a1 5e3e aa9e bb3d 8fbe 8cbe 2923 8b3e
000002b0: 053b 0ebf bec8 03be a269 38bd 2b6e b8bc
000002c0: 5402 21bf 6573 a33e d43c afbd 4c0f 423d
000002d0: 07ae aabd aa28 29bd ee98 043e 4b14 edbd
000002e0: 33c9 19bd 60e7 1bbe 2049 d5be e98c 00bd
000002f0: 6865 693d 1f79 063f b95e b3bd e647 05be
00000300: c4f6 08be b19d 4abf b1cc 293f 8fca b9be
00000310: 27f8 6d3e d11a 49be f8cb 5a3d e1fa 703e
00000320: ca47 c23c 29a4 cbbe c61c 913d 373b 923e
00000330: 0e64 a1be b27e 59be 20e8 afbe 2414 703e
00000340: 0c0f 713e 082a 883e 61b5 413d 7b2a 0abe
00000350: ba29 adbe ce23 183e f141 083e 3efe babe
00000360: ba39 133d e8d8 a2bd 073e 14bd 02b2 e2be
00000370: 071c 153b 47db 5c3d fef6 acbc 8913 acbe
00000380: 062d 3c3e 34a1 da3d 421e d8bc 47c1 0c3f
00000390: 2308 9cbd 952d d93e 05f1 aabe 90c8 c5be
000003a0: ccba 01bc 7c19 02be 5822 8bbe e019 d1be
000003b0: 2488 613e aa27 b23e 2e92 0abf 1668 c1be
000003c0: 313e 87bd 8a4c b53e 85e7 e03e ff2a 263e
000003d0: 4c47 b63e 8929 9d3e b1bc 903d 4d19 8ebe
000003e0: 9c8b 913d 004d ac3e 9724 ac3e 8f47 e03e
000003f0: 45a6 42bf eb0b 03be ced7 a93d 81c0 f23c
0.094508536 -0.01756223 -0.06568097 -0.009511109 -0.028944623 -0.13749601 0.21680892 0.3851755
-0.04601294 -0.16027303 0.03343755 0.5335655 -0.097187184 -0.3577284 0.37202957 0.2534119
0.044289283 0.26792336 -0.36987236 -0.06082895 -0.051813222 -0.0038972504 -0.04977547 -0.0061020264
-0.2939705 0.26400054 -0.44607282 -0.21223731 0.10077799 -0.5361954 -0.035177626 -0.67015356
-0.13656916 -0.13118298 -0.055890765 -0.044429343 -0.023503976 -0.44233096 0.007517867 -0.48893183
0.15747678 -0.11201496 -0.01107008 0.1320313 -0.74828005 -0.10296543 -0.30918676 0.557335
-0.53934425 0.2885632 -0.3415314 0.45353103 -0.35524443 -0.31245565 -0.29561627 -0.097698234
-0.4253 -0.06338433 0.21198587 0.26666588 0.09597764 -0.05603837 0.15734354 0.20368814
-0.047629233 0.005910445 0.18116215 -0.18798053 0.16260403 -0.31167725 -0.038590442 -0.20516206
0.0910931 0.18754528 -0.1822005 0.13803017 0.23454732 -0.3705946 0.22262476 0.014420437
-0.35946995 -0.085177615 0.010518508 -0.05972656 0.22069311 0.033762846 -0.33131602 0.15257278
0.5494983 0.3713929 -0.062843114 0.33604228 0.16783288 0.23002325 -0.1432429 0.040855564
0.68183255 -0.056515716 0.5778713 0.3700008 -0.5727494 0.09924577 -0.27044097 0.12946324
0.08765905 0.10177725 0.11229297 -0.42643777 0.03425024 -0.37748352 -0.48520243 -0.13869135
-0.06262069 -0.016869685 -0.18161006 0.079252414 0.46964702 -0.25681835 0.08576015 -0.38559714
-0.1284509 -0.36622745 0.42948738 -0.46487874 -0.07674726 -0.25401205 0.5016111 -0.16681874
0.4465048 0.17812435 0.13657792 0.4358754 -0.20987675 -0.0715874 -0.22727016 0.26539022
0.10614637 -0.1978433 -0.22150418 -0.33374327 0.08566989 -0.37663537 0.26962095 -0.4223076
-0.22501394 0.18747929 0.087203175 0.34165648 0.0028331392 0.0031048583 0.20453426 -0.41594526
0.3185627 0.30315408 0.085168086 0.15333074 0.11564062 0.1633079 0.032200497 0.001303684
0.21073811 0.39203697 0.32846373 -0.10172198 -0.36801976 -0.029354235 -0.050319776 -0.1486642
0.21741356 0.09161122 -0.27489135 0.27175263 -0.55558807 -0.12869546 -0.045022614 -0.02251347
-0.6289418 0.31923977 -0.08556524 0.04737787 -0.08333974 -0.041298546 0.12948963 -0.11576136
-0.037545394 -0.15224981 -0.41657352 -0.031384382 0.056981474 0.52528566 -0.08758301 -0.13015708
-0.13375384 -0.7914687 0.6632796 -0.36287352 0.23239194 -0.19639136 0.053417176 0.23533203
0.023715872 -0.39773682 0.07085566 0.28560802 -0.31521648 -0.21239737 -0.34356785 0.23445183
0.23540896 0.26594567 0.047292117 -0.13492768 -0.33820897 0.14857408 0.13306405 -0.36522096
0.035943724 -0.07951528 -0.036191966 -0.44276434 0.0022752301 0.053920057 -0.021113869 -0.33608654
0.1837655 0.10675278 -0.026381616 0.5498242 -0.076187395 0.4241759 -0.33387008 -0.3862958
-0.007918071 -0.12705034 -0.2717464 -0.40840054 0.2202459 0.34795886 -0.541293 -0.37774724
-0.06603659 0.35409957 0.43926635 0.16227339 0.3560127 0.3069575 0.0706724 -0.27753678
0.071067065 0.33652496 0.33621666 0.43804595 -0.7603496 -0.12797515 0.082931146 0.029632809

network_body._body_endoder.seq_layers.0.bias f4 [128]
00000000: 21b7 a2ba 370e 4aba 70a8 07bc cb7b d0ba
00000010: b1e4 9139 ef16 91bb 8178 a13b 038f d6ba
00000020: 9d4d 6cbc aedc f3bb 7863 a43b 38ab bd3b
00000030: 9046 39bc a8b1 9239 5282 2fbb 9f70 93bb
00000040: 94e8 1d3c e427 0a3c 592e 8f3b e37b 863c
00000050: 5918 8bbb 6498 fd3a 2b8f ed3b d91c 08bc
00000060: 9444 7e3b 4cf7 2fbc f168 c63b df3d 603a
00000070: d8a5 3cbc 21c7 fdbb d456 293c 0d27 37bc
00000080: 3399 57b9 8643 6d3b a54e 163b 0e7f 223c
00000090: 8a77 0b3c fc45 91bb 87a2 30bc b803 5dbc
000000a0: 06a1 9abb c7d9 b03a 29c8 55bc 1823 e03a
000000b0: 5d05 983b 12da b0bb 8d30 f2bb cc76 8bbc
000000c0: f16c 563b 678b 733b e978 2ebb a831 d13a
000000d0: f59d 73ba 8e0b a53b 0884 0bbb 1fe1 70bb
000000e0: 71a0 083b f480 03bc 5cb8 e43b 3141 223c
000000f0: 844a b13b b845 a0bb fce1 f93b ed35 a6bb
00000100: 644e b2bb bc08 483a 935a d73b a766 5abc
00000110: 493f 99bc 6f40 5ebc 4e4b 043c 8a20 20bc
00000120: 6ed7 2f3b a288 48bc aee5 b33b 617b a2bb
00000130: 56f9 78ba 623d a93b c929 b2bb 3713 c9bb
00000140: 57ef c53a e1c6 52bc 3010 3abc 460e 233b
00000150: f075 b6ba 1aea 22bc ec24 81bb 1c93 1dbc
00000160: 7dd5 3ebc fe19 67bc 0e0d 033c 1dcf 59bc
00000170: 1167 34bc 703d a2bc 4436 783c 2b08 f9bb
00000180: 920c 76bc ffd5 44bb 4896 033c a10a 5ebc
00000190: 5b8f 3bbc 9e34 363b 6248 22bb e976 a03a
000001a0: f426 7fbb 8bf7 0abb c492 b0bb e884 033c
000001b0: 1d97 dcbb 8ea0 c039 7e20 ee3a 527f 87bc
000001c0: 27db 983b 756d 2cbb ee46 27bb 4ee2 f23a
000001d0: a791 8ebb 9a23 66b9 1b6b 8cbb 86ab 89bb
000001e0: 4ca1 1bbb 5a08 41bb e5bb 293b cf57 c03a
000001f0: 6dc5 ad3b 77b2 283b 355b 78ba 1ab1 663b
-0.0012414196 -0.00077078067 -0.008279905 -0.0015906034 0.00027826944 -0.0044277827 0.0049276953 -0.0016369525
-0.014422801 -0.0074420786 0.0050167404 0.005788233 -0.011308327 0.00027979654 -0.0026780558 -0.0044995095
0.0096379705 0.008432362 0.0043695387 0.016416496 -0.004244846 0.0019347784 0.007249733 -0.008307659
0.00387982 -0.0107401125 0.0060549905 0.00085541414 -0.01151415 -0.0077446853 0.010335643 -0.011178744
-0.00020561069 0.0036203577 0.002293506 0.0099179875 0.008512387 -0.0044333916 -0.010780937 -0.013489656
-0.0047189025 0.0013492637 -0.01304821 0.0017100303 0.004639311 -0.0053970898 -0.0073910416 -0.01702442
0.0032718743 0.0037161948 -0.002662236 0.0015960233 -0.0009293252 0.005036778 -0.0021288414 -0.0036755276
0.0020847584 -0.00802635 0.006979985 0.009903238 0.0054104943 -0.0048911236 0.0076258164 -0.0050723464
-0.005441474 0.0007630696 0.0065720766 -0.013330138 -0.018706935 -0.013565167 0.008074595 -0.009773383
0.0026831287 -0.012239607 0.0054900264 -0.0049585556 -0.0009497603 0.005164788 -0.00543711 -0.006136324
0.0015101236 -0.012864799 -0.011356398 0.0024880334 -0.0013920646 -0.0099435095 -0.003941169 -0.009617593
-0.011647579 -0.014105318 0.007998718 -0.013294009 -0.011010901 -0.019804686 0.015149657 -0.0075998507
-0.015017645 -0.0030034778 0.008031435 -0.013552339 -0.011447753 0.0027802358 -0.0024762382 0.0012242469
-0.003893313 -0.0021204676 -0.0053885896 0.008027293 -0.0067318813 0.00036740716 0.0018167642 -0.016540203
0.004664797 -0.0026310359 -0.0025524455 0.0018530579 -0.004350859 -0.00021947772 -0.004285229 -0.0042013554
-0.0023747263 -0.002945444 0.0025899347 0.0014674607 0.005303076 0.002574114 -0.000947404 0.0035200776

network_body._body_endoder.seq_layers.2.weight f4 [128, 128]
00000000: 0cce 583c 1406 8cbd 31ad 0d3d 538c 86bc
00000010: 7b07 243e 81fd aebd c36b cbbc 1aef c4bc
00000020: b645 fd3a 5db7 0fbe ef6b 483d 8f09 b1bd
00000030: 1e81 243d 2168 aebd 46ea 183d 7417 f13d
00000040: 5c52 e1bc d61d ce3c ab17 dfbd 3bc0 babd
00000050: f13f 66bd f341 083d 1a43 943d ab67 10be
00000060: 90bc 88bd dc31 b13b 2f16 08be 662a 843c
00000070: a143 123e 3526 bb3d 3463 073e 54bc 2bbd
00000080: 8659 a03c 4c56 9a3d 3ae3 3e3d 1f52 863d
00000090: 5a75 24bc 7cf8 a43d 4e6a e2bc 9055 72bd
000000a0: c271 ed3d efe3 8a3c a9e4 623d f643 ec3d
000000b0: c499 a43d ca67 333e eb61 0c3e 1bc6 7abd
000000c0: 9554 d53d b086 1cbe aa4b 18be abfb 533b
000000d0: 22ed 7cbd 6cbe 033e 1fb8 513d b2d7 bcbb
000000e0: bf4c 39be 40a3 dbbc e355 933d 12cd 243d
000000f0: 76ad f0bc 1060 283e 42d5 833d d262 e33c
00000100: 2d73 d6bc 46ef 2ebb 4d0a 3f3d 22c0 313d
00000110: 9d3a 48bd 2f7c 8a3d 2de9 57bc 1299 1f3c
00000120: cdd4 813d 2f54 3f3d 601d 53bd 1e00 c1bd
00000130: f7b2 13be e7e2 49bd 2419 94bd a583 923c
00000140: c78b 8dbd 44e4 443d 41e0 34be ca14 a1bd
00000150: 7407 a2bd 390e dabd 746c af3c 7eb6 93bc
00000160: 0524 0fbc f2c7 663c cf1d da3d ddbf 343d
00000170: 6310 69bc d76c 343d 0966 00bd 1c2d d13d
00000180: 5cf1 b6bd 547a ea3c 3273 edbd 2973 20bd
00000190: 2d70 053e b946 63bd a269 e4bd db06 1abc
000001a0: 72d0 a1bd 979c 133d 7ecd fb3c dac7 50bd
000001b0: 189a 07bd 4b77 913d f308 02be 6da0 09be
000001c0: d3a8 02bd a0f5 6fbd f837 eabd 6167 073e
000001d0: 6118 97bd d3af 3abc e75f b83d 5ab7 b83d
000001e0: 2169 00bc 072f 60be 0417 0ebe 3831 d73c
000001f0: 41dd 043e 5325 b4bc 9882 60be 0f48 10bd
00000200: 3d24 433c 6d6f 193d 0f61 a83d 5b12 d4bd
00000210: d041 6b3e 7b40 b03d 58a3 0abd 3810 fdba
00000220: 0891 ae3d 0012 9a3d e1dd ab3d 9b0a 84bd
00000230: 0fa1 eebc 2264 6fbc cc4b a73c 72a2 aebd
00000240: c90f 93bd 4b30 87bd eaf8 47be 75b7 02bc
00000250: 684c f0bd 3725 0b3e 798f 773d 5aba b23d
00000260: f3c3 e33d 6a67 173e 9389 283e f300 b43d
00000270: 2fe5 27bc 41a3 223d 8a24 3a3d 9256 c73c
00000280: c4f6 dabd 1b54 1cbe ce27 48bd de5c c93c
00000290: 3bf5 ed3d b2d9 713d 84c4 513e 47e8 6e3d
000002a0: 32cf 1bbd 2ef7 893d 3039 313d b5ad 51bd
000002b0: 9a46 5ebd 0112 523e 76a4 113d 2ad2 c4bd
000002c0: 9e75 21bd 3c86 c6bd 7ec5 023e 0473 6f3b
000002d0: 1281 52bc 5acf 213d d927 a0bd df41 e93d
000002e0: c72f 213d e2a9 673e 0da2 29be 27cf c5bd
000002f0: 4662 93bd 8e50 e7bd ff25 d83c 2e74 01be
00000300: 0937 63bd 1f04 f43c fbf8 0c3e f2b9 cbbc
00000310: 51bf a63c 31bc 963c 406d 653c 7b53 9cbb
00000320: 2718 ebba 442b 3e3e bad5 143e 17f0 4f3d
00000330: 6cfa d3bc c74e 7a3d 3bb8 b0bd 6a7b 29bd
00000340: 4020 9fbd 3a0e 9ebd ccfa 063e f398 bf3c
00000350: 7a19 bf3d a02e f8bc 604b 9ebd c794 a4bd
00000360: 80c9 8fbd 46dc 6cbc 9f9a 4cbc 3abe 8f3c
00000370: 9bb8 c8bd ef7a dd3d f31e 07bd d09a 42be
00000380: 2319 56bb e0bd af3d 8bf5 283e 0272 1c3d
00000390: a932 34be 3766 933d 0a43 73bd a4e1 233d
000003a0: 05d1 7bbd b162 f0bc cab4 5d3e 15e3 edbd
000003b0: 031d ab3d 15c6 d0bb b561 73bd f748 0e3c
000003c0: 5ac9 1fbe 270e 24bd 8585 42bd 5a5a 00be
000003d0: a780 12bc b2bb 0ebc bf47 0abe 4ba1 3339
000003e0: 6ac4 913d bc57 e33d 1155 053e 6775 bfbd
000003f0: a1a7 d83d 5a87 243e 0189 15bd b0b0 ad3c
0.013232719 -0.06837097 0.034588996 -0.016424334 0.16018479 -0.08544446 -0.024831658 -0.024039794
0.0019323144 -0.14034791 0.04893106 -0.08644401 0.0401622 -0.08515955 0.037332796 0.117720515
-0.027505092 0.025160711 -0.10893186 -0.09118696 -0.056213323 0.03326602 0.07239361 -0.14102046
-0.066765904 0.005407555 -0.13289712 0.016133498 0.14283611 0.09138147 0.13221437 -0.04192765
0.019573938 0.07535991 0.04660342 0.06558632 -0.010037744 0.08055207 -0.02763858 -0.05916363
0.11593963 0.01695439 0.05539385 0.115364 0.08037141 0.17520061 0.13709228 -0.061224084
0.10416523 -0.15285754 -0.14872614 0.003234605 -0.061749585 0.12865609 0.051200982 -0.0057630176
-0.18095683 -0.026811242 0.07194116 0.040234633 -0.029379588 0.16442895 0.0643716 0.027757082
-0.026177967 -0.002669291 0.046640683 0.043396123 -0.048884023 0.067619674 -0.013178152 0.009741085
0.06339417 0.046711143 -0.051541686 -0.094238505 -0.14423738 -0.049288657 -0.07231358 0.017885039
-0.06911426 0.048069254 -0.17663671 -0.07865293 -0.07911578 -0.10647244 0.02141402 -0.018031355
-0.008736615 0.014085757 0.10650217 0.044128288 -0.014225098 0.04404911 -0.03134731 0.10213682
-0.089327544 0.028622784 -0.115942374 -0.039172325 0.13031073 -0.05548737 -0.1115296 -0.0094010485
-0.07901086 0.036038008 0.030737635 -0.050971843 -0.03310594 0.071028315 -0.12698726 -0.13440104
-0.031899285 -0.058583856 -0.114364564 0.1322303 -0.07377697 -0.011394459 0.09002667 0.090193465
-0.007837565 -0.2189294 -0.13875967 0.026268587 0.12975027 -0.021990454 -0.21924818 -0.03522497
0.011910495 0.03745978 0.082216375 -0.103550635 0.22974324 0.08606049 -0.033847183 -0.0019307202
0.08523756 0.075229645 0.083919294 -0.06447335 -0.029129533 -0.014611276 0.020421885 -0.08527078
-0.07180745 -0.06601008 -0.19528547 -0.00797831 -0.11733323 0.13588415 0.06043956 0.0872695
0.11121359 0.14785543 0.1645873 0.087892435 -0.010247513 0.039706472 0.045445003 0.024333272
-0.10691598 -0.15266459 -0.048866086 0.024580415 0.116190396 0.0590455 0.20485121 0.058326986
-0.038039394 0.06736599 0.04326743 -0.05119105 -0.05426655 0.2051468 0.035557233 -0.09610398
-0.03941881 -0.09693572 0.1277065 0.003653706 -0.012848156 0.039504386 -0.078201 0.11389517
0.039352205 0.22623399 -0.16565724 -0.09658652 -0.071964785 -0.112946615 0.026385305 -0.12641975
-0.055472407 0.029787121 0.13766854 -0.02486894 0.020354899 0.018400284 0.014003098 -0.004770694
-0.0017936275 0.18571192 0.14534655 0.050766077 -0.025876246 0.061110284 -0.08628889 -0.041377462
-0.07769823 -0.07717557 0.13181609 0.023388362 0.09331031 -0.03029567 -0.077292204 -0.080361895
-0.07020855 -0.014456814 -0.012488036 0.017546762 -0.09800836 0.10814463 -0.0329885 -0.19004369
-0.0032668791 0.08581138 0.16499917 0.038194664 -0.1759745 0.0719723 -0.059390105 0.04001011
-0.061478633 -0.029343935 0.21650997 -0.11615578 0.08355143 -0.0063712695 -0.059419353 0.008684388
-0.15604153 -0.04005256 -0.047490615 -0.12534466 -0.008941806 -0.008711742 -0.13503931 0.00017130857
0.07117541 0.111007184 0.13020732 -0.093485646 0.10578848 0.16067258 -0.03650761 0.021202415

network_body._body_endoder.seq_layers.2.bias f4 [128]
00000000: 74d5 563b 4bd8 cfbb cfbc 56bb 0130 513c
00000010: ed7b 23bb 67be 07bb d88d 823b f512 4a3b
00000020: d8e4 c8bb dc53 46bc 97c6 6a3b 49d2 31bc
00000030: 4890 7d3b 2e6d 42bc 86ac 7cbb bf5c 8fbb
00000040: 470b 5dba d7ec ac3b 8b1d db3a a07d 6e3b
00000050: 1d8f a13a f2f6 b0bb 86e0 b0ba 4c46 b13b
00000060: 898e fe3a b8e9 abba 083c 9abb b09e 8cbb
00000070: 3b94 363b 1996 623c f831 51bc 4f35 dcbb
00000080: 4f07 c03b c049 b4bb 38b7 e5b9 22fc 2dbc
00000090: a678 44b9 ecfd b0ba b76f f63a b688 0dbc
000000a0: b4ed 49bb 512f 26bc 4e41 58bb 115d 96bb
000000b0: de3b d4ba bb11 a83a 709a 183b 0fae 0fbc
000000c0: c41e 2fbc fd07 9cba 336d 63bb b053 3cbb
000000d0: 1e89 11bc d808 ccbb 961b d1bb a3d4 98bc
000000e0: 948e 0cbb aa43 b3ba 9aab a73b b65b c6bb
000000f0: 43d1 8c39 0629 cfbb 144e 77bb 8b44 5d3b
00000100: 4faf 85bb 70d4 3fbc dbba a83b 096a 38bc
00000110: fe94 13bb e65d 97bb 0245 f4ba 6206 8bbb
00000120: 3dcb 363c 2736 90bb 8e85 c1bb 17bf b6bb
00000130: 562a ab3b e104 813b addf 3ebc 5cd2 14bc
00000140: 0d7a 9b3b ce8a 08bb 38f3 58bc cd85 533c
00000150: cc0a c6bb fba0 c3bb 497b 8c3b 1b7f f8bb
00000160: 3184 a13b c9d8 873b 6359 10ba 6ecd aebb
00000170: 74fa 293c c42c eb3b a8ee 78b9 1b41 52bb
00000180: 619a 43bc 806f 5fbb 6026 cb3b 1eb5 2cba
00000190: c672 e73b 2d8f 853b 41bd 47ba 61ea 0abb
000001a0: 3e71 323b d91a 81ba a6d0 3dbc 296b 39bb
000001b0: a9de 94ba d2a6 1dbc fd6a 31bc 6eb0 fe3b
000001c0: d24f e63a d9d4 0cbc 49e9 36bb 8c67 42bc
000001d0: 02be 25bb c709 f4bb 71f4 073c daa4 0ebb
000001e0: f501 843b c41d 483a e43c 9ebb 8e65 f239
000001f0: ee9d c4bb 0636 1abc 7c55 92bb 5618 c8bb
0.0032781037 -0.006342923 -0.0032766347 0.012767793 -0.0024945692 -0.0020712854 0.0039841942 0.0030834053
-0.006130796 -0.012104955 0.0035823935 -0.010853359 0.0038690735 -0.011866851 -0.003855498 -0.00437507
-0.00084321614 0.005277257 0.0016717179 0.0036390796 0.0012325976 -0.005400532 -0.0013494648 0.0054099914
0.0019421141 -0.0013115918 -0.0047068633 -0.004291378 0.0027859348 0.013829731 -0.012768261 -0.006720222
0.0058602463 -0.0055019557 -0.00043814792 -0.010619195 -0.00018736962 -0.0013503409 0.0018801604 -0.008638551
-0.0030811848 -0.010143117 -0.003299791 -0.004588731 -0.0016192158 0.0012822667 0.0023285411 -0.008769526
-0.010688487 -0.0011904236 -0.003470254 -0.0028736405 -0.008882789 -0.00622664 -0.0063814623 -0.01865608
-0.0021447288 -0.0013676782 0.005116892 -0.0060534133 0.00026858793 -0.006322029 -0.0037735747 0.0033762779
-0.0040797363 -0.011708364 0.005149228 -0.0112557495 -0.0022519226 -0.004619348 -0.0018636289 -0.0042427042
0.011156854 -0.0044009867 -0.0059058135 -0.005576979 0.0052235527 0.003937349 -0.011650008 -0.009083357
0.004744774 -0.0020834687 -0.013241582 0.012910319 -0.0060437676 -0.005970118 0.0042871577 -0.0075835115
0.0049290885 0.004145716 -0.0005506484 -0.0053345477 0.010374654 0.0071769673 -0.0002374003 -0.0032082263
-0.011938662 -0.0034093559 0.006199643 -0.0006588268 0.0070632426 0.004075906 -0.00076194486 -0.002119683
0.0027228142 -0.000984992 -0.01158539 -0.0028292632 -0.0011357862 -0.009622293 -0.010828731 0.007772497
0.0017571396 -0.008595669 -0.0027910045 -0.011865508 -0.0025290255 -0.0074474546 0.0082980255 -0.002176574
0.0040285536 0.000763383 -0.004829036 0.000462335 -0.006000272 -0.009412294 -0.004465757 -0.0061064167

action_model._discrete_distribution.branches.0.weight f4 [9, 128]
00000000: 234b 2abc 1875 d13b 53e1 bb3b 9b33 ae3b
00000010: f701 8abc b8d3 57bc c375 e4bb 5dad 653b
00000020: 7a5e e1bb f285 72bb a7a4 cb3b f802 f9ba
00000030: ef59 36bb 2e9d 223b 58f9 c53b 56da b7bb
00000040: 9f69 053c bf95 6a3b d510 a73c 305f e4bb
00000050: 4b7a 7cbc 04a5 a2bb 3fc8 f03b 7130 a13b
00000060: 1a8f 7d3b b33c 3d3c 2343 083b 4fe5 93bb
00000070: cfe2 7abc 96e1 203b 7fcb ee3b 30e2 183b
00000080: 13e2 31bb d83f ca3b 0167 20bc 1a43 e1bb
00000090: 1dad e3bb cff9 283c 53ea 3f36 4812 c2bb
000000a0: 6125 cbbb 37c2 0abc a010 3abc 3772 80bc
000000b0: e750 833b 2f3b e0bb cf9b 943b b2c4 daba
000000c0: f235 63bc fafa 9f3a deac a93b c0ac 5ebc
000000d0: 5f1c b0bc 0e98 253b af1b c2bb 6454 173b
000000e0: 5b26 c13b e53f a1bc e21a 90bc 2701 6b3b
000000f0: 9c2a 27bb d10e 423c 794a 963b 4b78 43bc
00000100: d880 ffb9 a277 76bb 9df2 e0bb f727 55bc
00000110: 2630 913b 3894 8e3c 951e 9d3b d3a6 733a
00000120: fdbf 303c 1a41 2ebc 3b0b 91bb 0c04 44bb
00000130: 7dc6 1cbc 63f4 04bb 5095 5ebc c97a 9ebb
00000140: 8b2f 3a3c 650f 4eb9 86fe ad3b df4d ab3a
00000150: 392c 92bb d87f ddbb f7ad f5bb 78c8 4b3b
00000160: 15ca 9bbb a9d3 243c 07ed 2bbc 9a93 73bb
00000170: 97f0 123b 140b 403b 7202 0cbc 4b36 d63b
00000180: e7be 43bc 07ed 8dbb c2e1 9cbb 6951 0a3c
00000190: ace6 4abc 9371 b63b 9539 f1bb b851 6fbb
000001a0: 6849 ddbb d796 f33a dbf1 96bb 32a0 d13a
000001b0: 2e96 23b8 6243 6a3c 3f63 dabb 0d9d 7a3b
000001c0: e68f 0f3c 8be7 e4bb c2a7 913b 61fc 1abb
000001d0: 3465 04bc bf19 baba af67 efbc bafe 1cbc
000001e0: f056 07bc 3ec1 3dbb 0b0b 1d3c b10e 29bb
000001f0: 65ff 05bc af46 063a 5b3b f8b9 13e7 d2ba
00000200: 97f9 743c 6f0b 1dbc 167a 423b 03ed 113c
00000210: 1845 34bc 4715 2eba 802f ab3b 808d df3b
00000220: 104e f83b dc7d 463c 3b3e 17bb c0a9 9a3b
00000230: baba 603b 7d5b a23c bff1 8ebb 9c7a c8bb
00000240: 7afa db3b 5bdb 0538 fe8d 0a3c e23f 163b
00000250: c25f fbbb da97 e93a 3f02 acba 8f82 5e3b
00000260: 13d0 803b 8f47 eabb 6d84 70ba f31e 85bc
00000270: d595 fcbb 32b3 873a 4dff fc3a d2c0 c93a
00000280: 27fe 6f3c e264 5f3c 9fdb 483c 8f91 cbb8
00000290: b2bf 01bc 18ba dbbb 6279 063c 5ffa d1b8
000002a0: 81de aa3b bd66 d2bb 3aae 76bb 5ddf 65bc
000002b0: d247 12bb ed2a 113c 7f71 323c 374c 353c
000002c0: b8f4 8d3b 20b6 6a3c 6c86 93bc 5fdc 82ba
000002d0: ed72 abbb 1b25 3cbb 0545 123c f01d 6f3b
000002e0: 07b3 09bc 9fad e2bb e50a a5b7 e7e5 09b7
000002f0: ce62 403c 72f7 58bc 933b 3ebb bc53 3fbc
00000300: 454d debb 9634 0d3b 9a62 963c d7f1 f8bb
00000310: debd 97bb 0b47 b8bb b36a a0ba f320 263c
00000320: 5a75 caba dbb0 07bb 1541 4ebc c26d b33c
00000330: 3ba3 1abc d5bf 18bb 7a80 d03b b881 6a3c
00000340: e07f d2bb 757a 893b 1f5b fe3b 99d7 a6ba
00000350: 3c58 8b3b 0bc6 6e3b 1cb4 0d3b ef41 bdbb
00000360: d160 2e3c d0cf ad3b 0af8 3c3c df2d 10b9
00000370: bb00 17bc 85f1 4bbc 8695 c53a 49dc 953c
00000380: fdd2 06bc d7a4 d4bb 4a12 683a b810 d5bb
00000390: bff6 933b 41fa 8f3c bfbf 6ebb b678 cb3b
000003a0: d57f 453b ea53 beba 4ca1 84bb fe8c 88bb
000003b0: b742 9d3b f879 6abc 5d9c 6c3c a09b a9bb
000003c0: fe1f 413c 9f9a 1b3c 3158 23bc cb69 8a3b
000003d0: d8c0 4e3b 7d7c 0fbc 4ec3 943b d700 1ebb
000003e0: cd66 59bc f875 17bc 8dbf 78bb d81c ee3b
000003f0: ae67 1dbc 3200 743c 07c4 06bc eb4d 13b9
-0.010393891 0.0063921325 0.005733648 0.0053162104 -0.01684664 -0.013173036 -0.006972046 0.003504596
-0.0068777176 -0.0037006107 0.0062146964 -0.0018998077 -0.00278246 0.0024812925 0.006041687 -0.0056107445
0.008142858 0.0035794822 0.020393768 -0.006969355 -0.015410016 -0.004963519 0.00734809 0.0049191047
0.0038690032 0.011550116 0.002079197 -0.0045134197 -0.015312864 0.0024548522 0.007287442 0.0023328178
-0.0027142807 0.0061721615 -0.009790183 -0.006874454 -0.006948127 0.010313465 2.8597613e-06 -0.0059225895
-0.0061995243 -0.008469156 -0.011356503 -0.015679462 0.004007447 -0.0068429927 0.0045351754 -0.00166907
-0.013867842 0.0012205534 0.005178078 -0.0135909915 -0.021497903 0.0025267634 -0.0059237103 0.0023091072
0.005894465 -0.019683788 -0.017590944 0.003585884 -0.0025507575 0.011844353 0.0045865146 -0.011930536
-0.00048733386 -0.0037607928 -0.0068648593 -0.013010017 0.0044307886 0.01740466 0.0047949054 0.0009294573
0.010787961 -0.010635639 -0.0044263876 -0.0029909639 -0.009568808 -0.0020287267 -0.013585404 -0.0048364145
0.011363874 -0.00019651426 0.0053098826 0.0013069472 -0.004460838 -0.006759625 -0.007497545 0.003109483
-0.0047543147 0.010060229 -0.010493523 -0.0037166835 0.0022421235 0.0029303478 -0.008545505 0.006537234
-0.01194737 -0.0043312344 -0.0047876546 0.008442261 -0.012384098 0.0055677383 -0.0073616006 -0.0036517214
-0.0067531355 0.0018584382 -0.004606468 0.0015993176 -3.9002094e-05 0.014298292 -0.006664663 0.0038240582
0.008762335 -0.00698561 0.004445047 -0.0023648965 -0.008080769 -0.0014198347 -0.029224245 -0.009582216
-0.008260474 -0.0028954293 0.009585152 -0.002579611 -0.008178567 0.0005122227 -0.0004734647 -0.0016090594
0.014952085 -0.0095852455 0.002967482 0.008906606 -0.011002801 -0.0006640744 0.0052241683 0.006822288
0.007577665 0.012114968 -0.0023077864 0.004719943 0.0034290985 0.019819016 -0.0043623145 -0.006118132
0.0067132087 3.191396e-05 0.008456705 0.002292626 -0.0076713273 0.0017821745 -0.0013123228 0.003395233
0.0039310544 -0.0071496437 -0.00091750064 -0.01625011 -0.007708291 0.0010353087 0.001930216 0.0015392548
0.014647997 0.013634892 0.012259393 -9.706907e-05 -0.007919239 -0.0067055337 0.008207651 -0.00010012532
0.005214513 -0.0064209388 -0.0037640468 -0.014030305 -0.002232064 0.008860332 0.010891317 0.011065534
0.0043321513 0.014325649 -0.018008433 -0.0009983889 -0.005232206 -0.002870864 0.008927588 0.003648635
-0.0084045 -0.00691767 -1.9674606e-05 -8.219365e-06 0.011742307 -0.013242589 -0.0029027208 -0.011677679
-0.0067841136 0.0021546236 0.018357564 -0.007597189 -0.004630788 -0.0056237034 -0.001223883 0.010139692
-0.001544635 -0.002070478 -0.012588759 0.021902923 -0.009438331 -0.00233077 0.006362972 0.014313154
-0.0064239353 0.004195506 0.0077623273 -0.0012729048 0.0042524617 0.003643396 0.0021622246 -0.005775682
0.0106432 0.005304314 0.0115337465 -0.00013749998 -0.009216483 -0.012447719 0.0015074469 0.018293517
-0.008229014 -0.006489377 0.0008852823 -0.006502237 0.0045154984 0.017575385 -0.0036430208 0.006209458
0.0030136008 -0.0014520858 -0.0040475484 -0.004167198 0.004799213 -0.014311306 0.014441577 -0.0051760226
0.011787413 0.009497314 -0.009969757 0.0042240373 0.003154805 -0.008757708 0.0045398837 -0.0024109387
-0.0132691385 -0.009244435 -0.003795597 0.007266622 -0.009607239 0.014892625 -0.0082254475 -0.00014048039

action_model._discrete_distribution.branches.0.bias f4 [9]
00000000: 0000 0000 0000 0000 0000 0000 0000 0000
00000010: 0000 0000 6b60 2a3b 956b 053c 596c 67bb
00000020: 5dfb 82bb
0.0 0.0 0.0 0.0 0.0 0.002599741 0.008143325 -0.0035312383
-0.00399725

action_model._discrete_distribution.branches.1.weight f4 [9, 128]
00000000: fb26 c63b 780d 613c 0693 2ebc 2a61 96bc
00000010: 79b1 fd3a 608d f6ba a4e5 9b3c 17ef 97bc
00000020: 56f1 76bc 6e24 b0bb 05fa 8abc 681e 763b
00000030: cd48 593c e0a1 13bc 322e f7bb 1367 91ba
00000040: 0aa2 37bc 0e6c f5ba bb7e a93b 26aa cdbb
00000050: 0ac0 713b 36fd ad3b 2893 49bc a511 a6bc
00000060: f130 25bc a06b a93b fa77 733c 0080 acba
00000070: 18fe a93c 5fc8 55bc 6207 0739 d1b9 a43b
00000080: dfc3 4fbc db00 bc3b 4ca6 4c3c b6b8 cfbb
00000090: 02d4 4bbb 20a2 ab3a f99e bebb 0ebc e139
000000a0: fe83 bcbb 41bd 65bc 493e 97bb 17ad 223a
000000b0: 27b8 1c3c 4c26 89ba b851 33bb f013 713c
000000c0: d7ba 813b 3db3 cf3c baa4 8ebc 3a56 a6bc
000000d0: 7b64 653c 7c8d 713b b5b2 ffbb e29c 673c
000000e0: b532 82bc 3956 7d3a 7eb6 243b 3524 3fbc
000000f0: d9d2 1f3c 48ab b938 ca76 88bc 6ee5 adbb
00000100: d28e d2bb 0e06 263c 5909 9bbc bc5d c2ba
00000110: 05cc 6abc d432 12bc e525 163c 319d adbb
00000120: 96eb 29bc 0811 97bc 748b 23bb 379b 04bd
00000130: 6d31 13bc bec5 403c 52d4 5ebc e5c2 f13b
00000140: fe7c d1bb 7b6a 6dba e9b2 2dbc 9581 223b
00000150: a129 dbb9 cee1 11bc af9f 9abc 483d 3cbb
00000160: de1a bc3c a478 04bc 4b53 62bb dc5c 3d3c
00000170: 326d 9cbb b380 ab3b f13c 1abc 484d 0c3c
00000180: ed0f 12bb a49e 21bc e93a 583b 9253 25ba
00000190: 1680 c23c 69b5 25bb 9581 8e3c 3f32 b8bc
000001a0: eaf7 bbbc 7c61 2dba 3dc2 c63b d436 d13b
000001b0: 8ee3 273c 8880 473c 6559 eb3a 0893 12b8
000001c0: 9850 8abb 5226 35bb ccdd e43c bdf8 523c
000001d0: 6f3c afbb 0765 72bb 706b 4abb 036d fdba
000001e0: 9476 48bb b68d af3c 9aa0 3d3c 4a96 cbba
000001f0: a525 f3bb bc7f e6b8 3697 d23c e75c 91bb
00000200: 7e4e 3c3c 8b15 2ebc e556 37bc d3b0 0a3c
00000210: 0825 afbc 5c8e 52bc cfd0 d4bc a6a4 81bb
00000220: ff58 bebb 87a1 4aba 007b c5b9 bc28 4c3b
00000230: ad70 95bb 1673 68bc 510c eeb6 1313 2abb
00000240: e366 be3b e6bb a9bb 0528 213b 1963 5db9
00000250: ac79 69bb 6d22 373c 8898 223b b600 38bc
00000260: 5624 2fb9 0dbe f6bb 4060 2cbc 8ed0 20bb
00000270: 4abf 90bc a873 88ba 850f 5e3b 045a 343c
00000280: 565c a9bb 4d5b 63bb cb5b 153c f722 79bc
00000290: 058c 043b c79d 343c 24ff 30bc 65bd 11bc
000002a0: 1346 40bb d7c5 21bc ee03 903b e413 2dbb
000002b0: b2bb a1bb 8dd8 a93b 8b9a 8abb a5da 3fbc
000002c0: 414c 0bbc 2c90 05bb 8a95 433c f588 f63b
000002d0: 22d5 b63b 4693 fb3a edd8 beba 824b cf39
000002e0: 7e1e fabb 1f98 243c c213 483c 164f 59bc
000002f0: b755 27bb e654 473c 77a4 c43a 162a 8e3b
00000300: 7c55 fa3a d6e5 a9bb 86d7 f3b9 8968 bdbc
00000310: d04b e13b 63b9 143c 3e08 16bc 1fda 3d3c
00000320: 5eb0 2fb9 31ba b8ba 0ff4 76bb b16e 313c
00000330: 3bb8 013c 0124 123b 222f 00ba 7e5e 4cbb
00000340: e5eb f6ba f967 7cbb bf89 113c 64d3 2cba
00000350: 7eb4 12bb c1ee 23bb e1c3 263c 34db 18bb
00000360: c7ff ebbc f146 6f3c 38f8 9bbc 6e64 cfbb
00000370: b1ba c0bb 6221 58bc 3d1c 5abc 2290 67bc
00000380: 653c cf3b 041b 8f3b 32ce d03b e83c 3bbb
00000390: 5b7e 9bbb d3f4 36bc 9a6c debb 58fc 9ebc
000003a0: 9bc1 1fbc a0aa c1bb 5ecc a8bc 3a71 8c3a
000003b0: c7cf 5e3b 2ab7 043b 752d f6bb 1768 023b
000003c0: 8b09 803b a450 da3a 2696 253c 0a8d 0cbc
000003d0: 1f15 0bbc a8cd ecba c8d5 613b a2da 563a
000003e0: fb1d 1bbc 3678 8ebb b1d4 18bc a5c2 7fbb
000003f0: 8634 bf3b 72ef f43a 6c0b d3bb eac5 31bc
0.0060471273 0.013736121 -0.01065517 -0.018356878 0.0019355259 -0.0018810444 0.0190304 -0.018546624
-0.015072187 -0.0053754365 -0.016964922 0.0037554745 0.013261986 -0.009010762 -0.0075433487 -0.001109334
-0.011208067 -0.0018724219 0.005172578 -0.006276387 0.0036888146 0.005309726 -0.012303151 -0.020272085
-0.010082469 0.0051703006 0.014860148 -0.0013160706 0.020751044 -0.0130482605 0.00012877354 0.005027034
-0.012680977 0.0057374067 0.01249082 -0.006339158 -0.0031101708 0.0013094582 -0.005817291 0.00043055456
-0.0057530394 -0.014022172 -0.0046155793 0.0006205602 0.00956539 -0.0010463684 -0.002736194 0.014714226
0.0039590406 0.025354022 -0.017412532 -0.020304788 0.014001007 0.0036858013 -0.007803286 0.014136525
-0.01589332 0.0009664032 0.0025133188 -0.011666347 0.00975486 8.853391e-05 -0.016658206 -0.005306891
-0.006425717 0.0101332795 -0.018925356 -0.001482896 -0.014330869 -0.008923251 0.009164308 -0.0052982797
-0.0103711095 -0.018440738 -0.0024954947 -0.032374587 -0.008983952 0.011765895 -0.013600426 0.0073779696
-0.006393074 -0.00090566993 -0.010601738 0.0024796475 -0.0004180195 -0.008903934 -0.018874971 -0.002872305
0.02296203 -0.008085404 -0.003453451 0.011557784 -0.0047737593 0.005233848 -0.009413944 0.008563347
-0.0022287325 -0.009864483 0.0032994098 -0.00063067034 0.023742717 -0.002528513 0.017395774 -0.022484897
-0.022945363 -0.00066139526 0.0060656355 0.00638471 0.010247124 0.01217664 0.0017955719 -3.4946046e-05
-0.0042210333 -0.002764125 0.027937792 0.012876687 -0.0053477804 -0.0036986487 -0.0030886792 -0.0019334856
-0.0030588256 0.021429878 0.011573935 -0.001553246 -0.007420259 -0.00010991047 0.025706869 -0.0044361237
0.011493323 -0.010625253 -0.011190151 0.00846501 -0.021379963 -0.012851324 -0.025978474 -0.003956395
-0.005808949 -0.0007729758 -0.0003766641 0.003115221 -0.004560551 -0.014187595 -7.0943865e-06 -0.002595131
0.005810605 -0.00517987 0.0024590504 -0.00021113119 -0.00356255 0.011177641 0.0024810154 -0.011230638
-0.00016702837 -0.00752998 -0.010520995 -0.002453837 -0.017669339 -0.0010410445 0.0033883762 0.0110077895
-0.005168478 -0.003469187 0.009116123 -0.01520609 0.002022506 0.011023945 -0.010803018 -0.008895253
-0.0029338642 -0.009873829 0.0043949997 -0.002640956 -0.004935705 0.0051832856 -0.0042298487 -0.011709844
-0.008502067 -0.0020380123 0.011937508 0.007523651 0.0055796066 0.0019193671 -0.0014560499 0.00039538374
-0.0076330295 0.010046034 0.012211742 -0.013263484 -0.0025533268 0.012166237 0.0015002628 0.004338513
0.0019098963 -0.0051848693 -0.0004650915 -0.023121135 0.0068754926 0.009077403 -0.0091572385 0.011587649
-0.00016755002 -0.0014093575 -0.0037682091 0.010829614 0.007917459 0.0022299292 -0.0004889836 -0.0031184251
-0.0018838613 -0.003851412 0.008882939 -0.0006592779 -0.0022385414 -0.0025014135 0.010178537 -0.0023324015
-0.028808488 0.014604316 -0.019039258 -0.006329111 -0.0058816303 -0.013191553 -0.013312397 -0.014133485
0.0063243383 0.004367234 0.0063722366 -0.0028570239 -0.0047452874 -0.011166769 -0.0067878487 -0.019407436
-0.009750749 -0.0059102327 -0.020605262 0.0010714896 0.0033998357 0.0020250776 -0.007512743 0.0019898468
0.0039073876 0.0016656113 0.010106599 -0.008578548 -0.008488922 -0.0018066661 0.00344597 0.0008196031
-0.009467597 -0.0043478264 -0.009328053 -0.003902593 0.0058351187 0.0018687083 -0.0064405706 -0.010850409

action_model._discrete_distribution.branches.1.bias f4 [9]
00000000: 3771 7239 819d c93a a64b 323b 9334 aebb
00000010: 64d6 9c3a 0000 0000 0000 0000 0000 0000
00000020: 0000 0000
0.00023121094 0.0015382023 0.0027205735 -0.005316326 0.0011965749 0.0 0.0 0.0
0.0

exp_avg f4 [128, 12]
00000000: e603 d8b7 743c 0237 43b9 7eb7 91cb a238
00000010: 743c 0237 743c 02b8 6799 efb7 743c 0237
00000020: 59c8 85b7 91cb a238 743c 0237 743c 02b8
00000030: f087 9138 1b8d aab7 e31b a439 5430 55b9
00000040: 1b8d aab7 1b8d aa38 7d47 3d38 1b8d aab7
00000050: c1eb 8e39 5430 55b9 1b8d aab7 1b8d aa38
00000060: 440e 4db7 33bd f737 aabc ebb8 40d6 9a39
00000070: 33bd f737 33bd f7b8 9219 8bb8 33bd f737
00000080: 3da6 12b9 40d6 9a39 33bd f737 33bd f7b8
00000090: c939 74b7 6fcd 9636 a72e 35b8 c680 3c38
000000a0: 6fcd 9636 6fcd 96b7 fc64 d4b7 6fcd 9636
000000b0: 2cda 39b8 c680 3c38 6fcd 9636 6fcd 96b7
000000c0: 7816 38b9 4735 5f38 c6d5 38b8 4c81 0b3a
000000d0: 4735 5f38 4735 5fb9 bd3c 44b8 4735 5f38
000000e0: f522 1239 4c81 0b3a 4735 5f38 4735 5fb9
000000f0: b7a2 6f3a 22b7 7039 7fa0 9f3a 7572 163b
00000100: 22b7 7039 22b7 70ba 1fa2 7e3a 22b7 7039
00000110: ad98 b03a 7572 163b 22b7 7039 22b7 70ba
00000120: 5924 16b9 42fa c4b8 9640 1eba d138 76ba
00000130: 42fa c4b8 42fa c439 07ba 71b9 42fa c4b8
00000140: 3f1e 13ba d138 76ba 42fa c4b8 42fa c439
00000150: 7975 8e3a 3d6b a439 c5af 3a3b 0b86 4d3b
00000160: 3d6b a439 3d6b a4ba 42d4 aa3a 3d6b a439
00000170: a7fe 3e3b 0b86 4d3b 3d6b a439 3d6b a4ba
00000180: df95 423a cf42 cab8 e196 1b39 80d3 7cba
00000190: cf42 cab8 cf42 ca39 969e 313a cf42 cab8
000001a0: dd95 2a39 80d3 7cba cf42 cab8 cf42 ca39
000001b0: 97ea 98b7 4c40 a336 3ddb 8ab7 6010 4c38
000001c0: 4c40 a336 4c40 a3b7 9919 75b7 4c40 a336
000001d0: fbed 5fb6 6010 4c38 4c40 a336 4c40 a3b7
000001e0: 718c ab3a 3f3b 8939 aed8 1f3b 0f8a 2b3b
000001f0: 3f3b 8939 3f3b 89ba 822a b13a 3f3b 8939
00000200: ab74 1f3b 0f8a 2b3b 3f3b 8939 3f3b 89ba
00000210: 5f38 c0b9 32ca f738 9f8b 93b9 5dde 9a3a
00000220: 32ca f738 32ca f7b9 95ba d1b8 32ca f738
00000230: 241c 1db9 5dde 9a3a 32ca f738 32ca f7b9
00000240: 206b 633a c238 ed38 77a5 013b 7a43 943a
00000250: c238 ed38 c238 edb9 27ed 833a c238 ed38
00000260: 29b8 f23a 7a43 943a c238 ed38 c238 edb9
00000270: 8a8e 8f39 c274 b038 4d6d 3039 f591 5c3a
00000280: c274 b038 c274 b0b9 ef2a a839 c274 b038
00000290: 0af9 3a39 f591 5c3a c274 b038 c274 b0b9
000002a0: 3a16 cf38 775a 3a39 6574 253a 15f1 e83a
000002b0: 775a 3a39 775a 3aba 610d e239 775a 3a39
000002c0: 34f5 123a 15f1 e83a 775a 3a39 775a 3aba
000002d0: 8797 f1b9 243b 9db8 78a6 5aba ed89 44ba
000002e0: 243b 9db8 243b 9d39 b7d3 12ba 243b 9db8
000002f0: 0c8d 70ba ed89 44ba 243b 9db8 243b 9d39
00000300: ad21 25b8 2522 1bb7 c832 ccb8 acea c1b8
00000310: 2522 1bb7 2522 1b38 812d 21b8 2522 1bb7
00000320: 6e51 ccb8 acea c1b8 2522 1bb7 2522 1b38
00000330: 305f 60b9 83fa c839 6053 da39 2539 7b3b
00000340: 83fa c839 83fa c8ba cddb 8b37 83fa c839
00000350: bc42 083a 2539 7b3b 83fa c839 83fa c8ba
00000360: f55d d3b8 d279 b4b7 eea8 11b9 4798 61b9
00000370: d279 b4b7 d279 b438 297e bdb8 d279 b4b7
00000380: 964a 1fb9 4798 61b9 d279 b4b7 d279 b438
00000390: f945 94b9 aed3 91b8 6edd d3b9 9748 36ba
000003a0: aed3 91b8 aed3 9139 9845 a9b9 aed3 91b8
000003b0: 9817 e8b9 9748 36ba aed3 91b8 aed3 9139
000003c0: 8da3 853a f894 3a38 64aa 0b3b 3a3a e939
000003d0: f894 3a38 f894 3ab9 c494 4c3a f894 3a38
000003e0: 85d8 033b 3a3a e939 f894 3a38 f894 3ab9
000003f0: 4844 0dba fe09 d5b7 bf24 85ba 4a26 85b9
-2.5751022e-05 7.762679e-06 -1.5182714e-05 7.762679e-05 7.762679e-06 -3.1050717e-05 -2.8562454e-05 7.762679e-06
-1.594813e-05 7.762679e-05 7.762679e-06 -3.1050717e-05 6.939459e-05 -2.0331287e-05 0.00031301295 -0.00020331267
-2.0331287e-05 8.1325146e-05 4.512769e-05 -2.0331287e-05 0.0002726 -0.00020331267 -2.0331287e-05 8.1325146e-05
-1.2222274e-05 2.9532797e-05 -0.00011240815 0.00029532798 2.9532797e-05 -0.00011813119 -6.632799e-05 2.9532797e-05
-0.00013985574 0.00029532798 2.9532797e-05 -0.00011813119 -1.45569875e-05 4.494264e-06 -4.319721e-05 4.4942622e-05
4.494264e-06 -1.7977056e-05 -2.5319394e-05 4.494264e-06 -4.4310626e-05 4.4942622e-05 4.494264e-06 -1.7977056e-05
-0.00017555978 5.321696e-05 -4.406811e-05 0.0005321696 5.321696e-05 -0.00021286785 -4.678661e-05 5.321696e-05
0.00013936668 0.0005321696 5.321696e-05 -0.00021286785 0.0009141373 0.00022956406 0.0012178569 0.0022956405
0.00022956406 -0.00091825624 0.0009713489 0.00022956406 0.0013473235 0.0022956405 0.00022956406 -0.00091825624
-0.00014318655 -9.3926225e-05 -0.0006036846 -0.00093926216 -9.3926225e-05 0.0003757049 -0.00023052852 -9.3926225e-05
-0.0005612112 -0.00093926216 -9.3926225e-05 0.0003757049 0.001086875 0.00031360416 0.0028486114 0.0031360413
0.00031360416 -0.0012544167 0.0013033228 0.00031360416 0.0029143484 0.0031360413 0.00031360416 -0.0012544167
0.0007422845 -9.644555e-05 0.00014838159 -0.0009644553 -9.644555e-05 0.0003857822 0.00067756453 -9.644555e-05
0.00016268292 -0.0009644553 -9.644555e-05 0.0003857822 -1.8229051e-05 4.8652637e-06 -1.6552973e-05 4.865264e-05
4.8652637e-06 -1.9461055e-05 -1.4609098e-05 4.8652637e-06 -3.3368112e-06 4.865264e-05 4.8652637e-06 -1.9461055e-05
0.001308812 0.00026174818 0.0024390626 0.0026174819 0.00026174818 -0.0010469927 0.0013516697 0.00026174818
0.0024331014 0.0026174819 0.00026174818 -0.0010469927 -0.00036663093 0.000118155396 -0.0002814205 0.0011815537
0.000118155396 -0.00047262158 -0.0001000065 0.000118155396 -0.0001498317 0.0011815537 0.000118155396 -0.00047262158
0.00086753257 0.000113116126 0.0019782463 0.0011311613 0.000113116126 -0.0004524645 0.0010065184 0.000113116126
0.0018518019 0.0011311613 0.000113116126 -0.0004524645 0.00027381285 8.414082e-05 0.00016825386 0.0008414083
8.414082e-05 -0.00033656327 0.00032075445 8.414082e-05 0.00017831117 0.0008414083 8.414082e-05 -0.00033656327
9.874669e-05 0.00017772043 0.00063115946 0.0017772043 0.00017772043 -0.0007108817 0.00043116047 0.00017772043
0.0005605996 0.0017772043 0.00017772043 -0.0007108817 -0.0004608 -7.497359e-05 -0.0008340846 -0.0007497359
-7.497359e-05 0.00029989437 -0.0005601006 -7.497359e-05 -0.0009176291 -0.0007497359 -7.497359e-05 0.00029989437
-3.937043e-05 -9.24667e-06 -9.736937e-05 -9.246668e-05 -9.24667e-06 3.698668e-05 -3.842777e-05 -9.24667e-06
-9.7426455e-05 -9.246668e-05 -9.24667e-06 3.698668e-05 -0.00021397765 0.00038333618 0.0004164232 0.0038333621
0.00038333618 -0.0015333447 1.6672444e-05 0.00038333618 0.00051979325 0.0038333621 0.00038333618 -0.0015333447
-0.00010078765 -2.15144e-05 -0.00013891209 -0.000215144 -2.15144e-05 8.60576e-05 -9.0357215e-05 -2.15144e-05
-0.00015191207 -0.000215144 -2.15144e-05 8.60576e-05 -0.00028280893 -6.953567e-05 -0.00040410034 -0.0006953566
-6.953567e-05 0.0002781427 -0.00032286043 -6.953567e-05 -0.00044268067 -0.0006953566 -6.953567e-05 0.0002781427
0.0010195837 4.4484594e-05 0.0021311278 0.00044484605 4.4484594e-05 -0.00017793837 0.000780415 4.4484594e-05
0.002011807 0.00044484605 4.4484594e-05 -0.00017793837 -0.0005388898 -2.5396232e-05 -0.0010158046 -0.00025396264

exp_avg_sq f4 [128, 12]
00000000: b55c 8935 f1cc 6732 1827 d334 7b6d 0635
00000010: f1cc 6732 554d c034 b200 8b35 c836 6732
00000020: a38e d934 8e1a 0635 c836 6732 e733 be34
00000030: bd30 b435 633a 0634 8d8f e136 c2a2 4f37
00000040: 633a 0634 08e3 0736 dc30 a735 a13d 0634
00000050: 5cdc e136 f8a1 4f37 a13d 0634 0ee2 0736
00000060: 2c99 e933 745c 7a32 171a 4a34 775d c335
00000070: 745c 7a32 a6c4 7a34 b649 c933 2561 7a32
00000080: 302c 2b34 215e c335 2561 7a32 add5 7a34
00000090: 432c b832 9409 c830 a17c 7f32 e3fd 0c34
000000a0: 9409 c830 a214 e232 93fd b732 6c64 c830
000000b0: cb48 8332 2bfd 0c34 6c64 c830 4411 e232
000000c0: 8d7a 2b36 4887 ab34 30cb 6436 8400 0638
000000d0: 4887 ab34 aa89 ab36 95bc 2936 858c ab34
000000e0: 43fe 4536 a800 0638 858c ab34 6c95 ab36
000000f0: e827 6a36 0c7a 0a34 a3f9 db36 19f4 5037
00000100: 0c7a 0a34 ae3e 0e36 b81d 6936 f2c5 0a34
00000110: 47af e136 6ae0 5037 f2c5 0a34 86fa 0e36
00000120: 62a7 c635 28c8 bc33 b7ba 6135 7064 1337
00000130: 28c8 bc33 81a0 bc35 c0ad c535 bcb4 bc33
00000140: 816f 6135 ee4f 1337 bcb4 bc33 d685 bc35
00000150: 885a 1f37 c509 1c35 cb49 1937 aee8 6f38
00000160: c509 1c35 5d80 1d37 5ac6 1d37 c316 1c35
00000170: c833 1737 aa06 7038 c316 1c35 df8d 1d37
00000180: c624 f636 3f19 1135 1367 5237 3649 6038
00000190: 3f19 1135 058a 1437 26b9 f036 942d 1135
000001a0: 0e26 5437 1d60 6038 942d 1135 8192 1437
000001b0: 8cab d432 876d 0431 3ab2 8433 52cb 4c34
000001c0: 876d 0431 458c 0533 73ac c632 879b 0431
000001d0: f7d4 9633 a3df 4c34 879b 0431 7dd5 0533
000001e0: 94b3 9136 f4e6 0634 487b 0437 6959 3937
000001f0: f4e6 0634 6cd6 1636 1430 9936 7cec 0834
00000200: 5671 0637 da0d 3a37 7cec 0834 12ab 1b36
00000210: 0c8d b235 c688 4634 c9ed 0336 7f15 9b37
00000220: c688 4634 118d 4636 57a8 a835 f088 4634
00000230: d9e4 0636 8a15 9b37 f088 4634 d28c 4636
00000240: 8585 8636 8da3 8834 1e4c af36 a95a d337
00000250: 8da3 8834 5e74 8a36 6d9a 8836 8eb3 8834
00000260: 9f9b b136 4960 d337 8eb3 8834 1692 8a36
00000270: bb60 9836 94b2 3c34 6e65 0236 de1c 8e37
00000280: 94b2 3c34 b095 4436 604c 9e36 be44 3d34
00000290: d442 0836 4895 8e37 be44 3d34 70a8 4536
000002a0: becd eb36 015b 2a35 1a1f 9736 6916 8538
000002b0: 015b 2a35 4664 2a37 a5e5 ed36 b85b 2a35
000002c0: 2b85 9436 a616 8538 b85b 2a35 2364 2a37
000002d0: 162b 4a36 c05a aa34 eca8 f236 7717 0538
000002e0: c05a aa34 5f61 aa36 1ca5 3d36 b15b aa34
000002f0: 203f f436 2c18 0538 b15b aa34 a962 aa36
00000300: 28f7 6b35 bc39 9832 273c b935 2f13 1735
00000310: bc39 9832 de22 1335 4648 6b35 1c4f 9732
00000320: 6911 bb35 f906 1735 1c4f 9732 064b 1235
00000330: a7b2 c136 f37f 2935 09d2 a936 ff6a 8438
00000340: f37f 2935 1d81 2937 ec89 bb36 4886 2935
00000350: a730 a836 626f 8438 4886 2935 a086 2937
00000360: 8cbe 3335 68d6 3e32 a4a0 f634 1938 c334
00000370: 68d6 3e32 486d b834 3fc6 3935 0a47 4032
00000380: 2a92 0035 5069 c334 0a47 4032 840b ba34
00000390: 3769 2835 a74e d233 48f5 ee35 1a3f 2437
000003a0: a74e d233 ab65 d235 b0f0 2135 6187 d233
000003b0: ecbe e835 086b 2437 6187 d233 42a0 d235
000003c0: 55a8 e536 0b40 0735 37cb 1637 8ab8 5138
000003d0: 0b40 0735 b671 0937 b0c2 de36 c42f 0735
000003e0: 533d 1937 23a6 5138 c42f 0735 724d 0937
000003f0: ac95 e735 ba1e 9634 40f5 0837 a847 ea37
1.0234277e-06 1.3492568e-08 3.9330257e-07 5.0078205e-07 1.3492568e-08 3.5819053e-07 1.0356509e-06 1.34584255e-08
4.0523182e-07 4.995753e-07 1.34584255e-08 3.5428022e-07 1.342523e-06 1.2500963e-07 6.722234e-06 1.23760565e-05
1.2500963e-07 2.0248717e-06 1.245669e-06 1.2502143e-07 6.7311757e-06 1.2375873e-05 1.2502143e-07 2.0248149e-06
1.087777e-07 1.4572937e-08 1.8822207e-07 1.4555834e-06 1.4572937e-08 2.3354605e-07 9.3732e-08 1.4574003e-08
1.5941691e-07 1.4556027e-06 1.4574003e-08 2.3360799e-07 2.1440547e-08 1.4554637e-09 1.4871291e-08 1.313088e-07
1.4554637e-09 2.6319245e-08 2.1419316e-08 1.4580457e-09 1.528351e-08 1.3130618e-07 1.4580457e-09 2.6317714e-08
2.555232e-06 3.1949662e-07 3.4092918e-06 3.194857e-05 3.1949662e-07 5.1122233e-06 2.5292732e-06 3.1953473e-07
2.9503287e-06 3.19487e-05 3.1953473e-07 5.113592e-06 3.4891946e-06 1.2896652e-07 6.55577e-06 1.24545995e-05
1.2896652e-07 2.1196133e-06 3.4737004e-06 1.2924264e-07 6.7259275e-06 1.2450017e-05 1.2924264e-07 2.1305473e-06
1.4800864e-06 8.7908404e-08 8.409074e-07 8.785268e-06 8.7908404e-08 1.4053804e-06 1.4728212e-06 8.7873076e-08
8.398129e-07 8.780493e-06 8.7873076e-08 1.4046043e-06 9.498217e-06 5.8128745e-07 9.136692e-06 5.719874e-05
5.8128745e-07 9.387816e-06 9.404112e-06 5.814765e-07 9.012358e-06 5.7226665e-05 5.814765e-07 9.390961e-06
7.3356523e-06 5.405345e-07 1.2540974e-05 5.3473945e-05 5.405345e-07 8.853623e-06 7.1741115e-06 5.4083034e-07
1.2645045e-05 5.3495274e-05 5.4083034e-07 8.855598e-06 2.4758059e-08 1.9270787e-09 6.179148e-08 1.9072948e-07
1.9270787e-09 3.109405e-08 2.3128655e-08 1.9296935e-09 7.0236574e-08 1.9080339e-07 1.9296935e-09 3.1160642e-08
4.3422424e-06 1.2563743e-07 7.896517e-06 1.1047677e-05 1.2563743e-07 2.2476552e-06 4.5653524e-06 1.275202e-07
8.0134105e-06 1.1089689e-05 1.275202e-07 2.3196376e-06 1.3303084e-06 1.8489945e-07 1.965893e-06 1.848745e-05
1.8489945e-07 2.958641e-06 1.2565969e-06 1.8490005e-07 2.0100763e-06 1.848747e-05 1.8490005e-07 2.9586267e-06
4.009055e-06 2.5450973e-07 5.2242676e-06 2.5195377e-05 2.5450973e-07 4.1262674e-06 4.0710934e-06 2.5462617e-07
5.2931277e-06 2.5197996e-05 2.5462617e-07 4.129727e-06 4.541214e-06 1.7573831e-07 1.943055e-06 1.6941161e-05
1.7573831e-07 2.9293406e-06 4.717658e-06 1.7627005e-07 2.0304478e-06 1.6997234e-05 1.7627005e-07 2.945333e-06
7.0274973e-06 6.3462363e-07 4.5037714e-06 6.3461084e-05 6.3462363e-07 1.0156136e-05 7.0898845e-06 6.3463403e-07
4.4262465e-06 6.346153e-05 6.3463403e-07 1.01561045e-05 3.0125425e-06 3.1730997e-07 7.231827e-06 3.1731524e-05
3.1730997e-07 5.0777303e-06 2.82593e-06 3.1731682e-07 7.2791154e-06 3.1732183e-05 3.1731682e-07 5.0778804e-06
8.790398e-07 1.7721383e-08 1.3801081e-06 5.62798e-07 1.7721383e-08 5.4812506e-07 8.7649494e-07 1.7614688e-08
1.3937653e-06 5.626203e-07 1.7614688e-08 5.449841e-07 5.772646e-06 6.3143597e-07 5.061044e-06 6.31418e-05
6.3143597e-07 1.01032465e-05 5.5890905e-06 6.315281e-07 5.012454e-06 6.314997e-05 6.315281e-07 1.010453e-05
6.695998e-07 1.1108206e-08 4.5937952e-07 3.6362397e-07 1.1108206e-08 3.4352183e-07 6.9206357e-07 1.1192023e-08
4.789641e-07 3.6398205e-07 1.1192023e-08 3.4653578e-07 6.2737985e-07 9.793194e-08 1.7803768e-06 9.789854e-06
9.793194e-08 1.5675809e-06 6.032742e-07 9.803512e-08 1.7340913e-06 9.800082e-06 9.803512e-08 1.569286e-06
6.8443283e-06 5.0384614e-07 8.988011e-06 5.000135e-05 5.0384614e-07 8.192312e-06 6.63878e-06 5.036093e-07
9.133789e-06 4.998421e-05 5.036093e-07 8.183868e-06 1.7254401e-06 2.7962034e-07 8.163333e-06 2.7928341e-05

exp_avg f4 [128]
00000000: 743c 8237 1b8d 2ab8 33bd 7738 6fcd 1637
00000010: 4735 df38 22b7 f039 42fa 44b9 3d6b 243a
00000020: cf42 4ab9 4c40 2337 3f3b 093a 32ca 7739
00000030: c238 6d39 c274 3039 775a ba39 243b 1db9
00000040: 2522 9bb7 83fa 483a d279 34b8 aed3 11b9
00000050: f894 ba38 fe09 55b8 055c bab6 6353 3438
00000060: 4b71 79b8 c6dc a739 5b09 eb38 775c 93b7
00000070: edab 1db9 ed5c be38 f3c7 80b8 4e6c fd36
00000080: 1953 0d38 94cb 9139 d757 8b37 0f06 b139
00000090: 81eb 3c39 8e54 7238 d28e 0539 023a 9539
000000a0: 6c8b 32b9 7daf 3039 46b8 dfb9 7900 9e38
000000b0: c22f 8bb7 aba8 12b9 2e4e d6b9 deca 1137
000000c0: dbb5 9239 e3bd bc3a 51b8 1eb7 738d eab9
000000d0: 62dd d039 a16f 6238 efb3 6f39 56d6 1a39
000000e0: 321f 3aba dcd1 aab8 4daa 57ba 9e59 3e37
000000f0: 0105 8cb9 3954 bc39 f1da 4639 abb4 1eba
00000100: de25 3638 dde4 b539 b9b6 c239 f8fe 163a
00000110: 7dd5 5039 8e47 7338 c6f4 d839 bae6 9339
00000120: 0934 2fb8 bb7a d438 fd75 f738 8228 dc37
00000130: ac5c 76b8 6c4c 5eb8 d8ca bdb7 9c0e 38b8
00000140: 003f 8835 6ea0 0238 d1f9 99b8 2a5f 3d3a
00000150: 5c43 47b9 0c20 0e35 792c a2b9 4324 133a
00000160: ef7f ab39 ec4b eeb8 050c 64b9 de93 bfb9
00000170: 5a39 c6b9 d1c1 843a 6179 1a3a b4b3 44b6
00000180: 7cef d837 d878 7f37 bd9e c2b8 298e 0739
00000190: 1d05 eeb9 9e5e e739 7a3a 78b7 073f e639
000001a0: bb81 5537 4601 f3b9 f951 2e39 77e9 2e3a
000001b0: 3fe8 c139 c0a1 6ab9 5e77 1fb6 1fd6 acb9
000001c0: 633b 7a38 13eb 96b7 c704 a439 b87b 38b7
000001d0: 8185 abb9 e544 2138 6bcb 14b9 bedc 7e39
000001e0: abb3 e439 ee77 b239 bcf7 6839 448c 8eb8
000001f0: b109 b639 cd89 9cb8 4085 cf38 58fd a638
1.5525358e-05 -4.0662573e-05 5.9065595e-05 8.988528e-06 0.00010643392 0.00045912812 -0.00018785245 0.0006272083
-0.0001928911 9.730527e-06 0.00052349636 0.00023631079 0.00022623225 0.00016828164 0.00035544086 -0.00014994718
-1.849334e-05 0.00076667237 -4.30288e-05 -0.00013907134 8.896919e-05 -5.0792463e-05 -5.5539444e-06 4.2993004e-05
-5.947174e-05 0.0003201721 0.00011207416 -1.7566823e-05 -0.00015036734 9.077215e-05 -6.140759e-05 7.552596e-06
3.369441e-05 0.00027808233 1.6610995e-05 0.00033764585 0.00018016809 5.7776044e-05 0.00012737073 0.00028462714
-0.00017027342 0.00016850042 -0.0004267117 7.534115e-05 -1.659233e-05 -0.00013986479 -0.0004087551 8.689907e-06
0.00027982783 0.0014399852 -9.460448e-06 -0.00044737346 0.00039837795 5.398656e-05 0.00022859847 0.00014766431
-0.00070999854 -8.145321e-05 -0.0008226976 1.1345748e-05 -0.0002670661 0.00035920905 0.00018964313 -0.00060541433
4.3427448e-05 0.00034693527 0.00037138702 0.0005760039 0.00019915956 5.8002355e-05 0.000413811 0.0002820993
-4.1771713e-05 0.00010131808 0.00011799855 2.6244907e-05 -5.8737278e-05 -5.3000098e-05 -2.2625012e-05 -4.3882625e-05
1.0151125e-06 3.1143827e-05 -7.3421405e-05 0.00072239584 -0.00019003212 5.2945757e-07 -0.00030932183 0.00056130084
0.0003271098 -0.00011362866 -0.00021748252 -0.00036540529 -0.00037808233 0.0010128563 0.00058927207 -2.9310877e-06
2.5860725e-05 1.5227321e-05 -9.280208e-05 0.00012927562 -0.00045398707 0.0004413025 -1.4795567e-05 0.00043915978
1.2725995e-05 -0.0004634952 0.0001662447 0.0006672362 0.00036984865 -0.00022376236 -2.3762327e-06 -0.0003296593
5.9659953e-05 -1.7990858e-05 0.00031284077 -1.099606e-05 -0.0003271513 3.8449554e-05 -0.00014190159 0.0002430556
0.00043621412 0.0003404016 0.00022217532 -6.797214e-05 0.00034720966 -7.464327e-05 9.895349e-05 7.962686e-05
