Lofty2024/results/Test16/MoveToPlayer/MoveToPlayer-2464.pt (torch, 155011 bytes, 10 tensors)

network_body._body_endoder.seq_layers.0.weight f4 [128, 12]
0.10129625 0.12921736 0.44133562 -0.24524282 0.3322337 0.12406701 0.47837844 -0.7152345
0.47417754 -0.1830775 0.04838695 -0.0068786503 0.23851034 0.19550392 0.21329528 -0.27692375
-0.5538721 -0.6642574 -0.14825779 0.13370061 0.42012078 -0.3090269 -0.22025192 0.11391236
0.015160561 -0.1643355 -0.19602841 -0.3311737 0.11856289 0.4828071 -0.02010885 0.47480467
0.32991388 -0.43016797 -0.5400045 0.31077692 -0.01900006 0.26131192 0.0864221 -0.256264
0.52182555 0.0142605165 -0.24115452 0.17888454 0.19000538 -0.045123957 -0.2965744 -0.030788569
-0.04005347 0.22540843 -0.63159823 -0.3869928 0.27049667 -0.020451557 -0.14845547 -0.5814562
-0.10693883 -0.05841175 0.0060417396 0.22276625 -0.26931655 -0.33234555 -0.15705627 0.2744305
-0.4138759 -0.09933135 -0.073395796 0.5263382 -0.20808338 0.44380215 -0.10665167 -0.2982949
-0.18819709 0.1585556 -0.19703092 -0.026229925 -0.25871298 0.014197258 0.08329762 -0.34433544
0.5039605 0.26310873 -0.04754426 -0.13338806 -0.027606077 -0.13777635 0.30853277 -0.32271343
0.10522179 -0.5614389 -0.015307764 0.2250655 0.7096766 0.016789041 0.23707436 0.18972886
0.15539534 -0.6373915 -0.30024928 -0.3411607 -0.23945527 0.54012257 -0.21988569 0.09920174
0.022090364 0.088748634 -0.18622704 -0.32114515 0.21802345 0.44527858 -0.40749392 -0.03749872
-0.22550823 0.26321214 0.021603405 -0.29653084 0.3669396 0.07647058 0.14484203 -0.4508194
-0.13118358 -0.31053898 0.093430474 -0.24012746 0.43927622 -0.28249085 0.62649244 -0.10057393
0.29657516 -0.030497149 -0.08965205 -0.54652876 0.111847736 0.23146735 0.08264289 0.011607703
-0.44496334 0.102134496 -0.25567716 0.344992 0.41165242 -0.05428545 0.033155523 -0.0068145855
-0.2520011 -0.21988642 0.25750488 0.20982705 -0.32710502 0.13127333 -0.264822 -0.122948445
0.22271016 -0.10382138 0.07813716 0.070475206 -0.24005531 -0.21378784 0.57326686 0.033445954
-0.17866015 0.0045536174 0.12685958 -0.11884372 0.2117779 -0.25308254 0.43668532 0.24071355
-0.118465275 -0.039161056 0.09422658 -0.17486094 -0.0044818786 0.39353132 -0.16295612 0.23306027
-0.35005507 -0.094949886 0.2984266 0.031738754 0.061960395 0.023793489 0.020636419 0.21570922
-0.077214666 0.1738795 0.29129943 -0.39367512 -0.16462852 -0.36972058 -0.43973285 -0.23594475
-0.06213072 -0.32557642 -0.00087955163 -0.16067009 -0.5651612 -0.2735689 0.5886341 0.19845514
0.5959646 -0.12087047 -0.5095481 -0.30118063 -0.29355487 0.07434212 -0.40725824 -0.13120435
0.2821625 0.24297123 -0.68285394 -0.0038888794 0.15915625 0.07497524 0.40890917 -0.054446835
-0.6312813 -0.24389179 -0.09025657 0.53815794 0.069178075 -0.012456366 -0.5004212 0.008983718
0.067048825 -0.10973748 -0.008972941 0.16208959 0.15936868 0.0733798 -0.27553257 0.1731371
-0.15517363 -0.4119754 0.28334334 0.52770436 -0.43509954 0.308456 -0.072083525 -0.22347498
0.18495558 -0.044975556 0.0560173 0.019748328 -0.22578941 -0.13723966 0.22957313 0.22318009
-0.2540419 -0.30747026 0.09122358 0.37646237 -0.16839685 -0.14573179 0.0066543138 0.6497624
00000000: 6974 cf3d 8e51 043e bef6 e13e ef20 7bbe
00000010: 891a aa3e d816 fe3d 05ee f43e 9c19 37bf
00000020: 66c7 f23e ab78 3bbe 6531 463d 4d66 e1bb
00000030: 0e3c 743e 2e32 483e 146a 5a3e f3c8 8dbe
00000040: 90ca 0dbf c60c 2abf e4d0 17be d0e8 083e
00000050: 121a d73e c638 9ebe b889 61be e24a e93d
00000060: 0064 783c 9147 28be acbb 48be 998f a9be
00000070: 1ad1 f23d 7e32 f73e 51bb a4bc 9919 f33e
00000080: 79ea a83e fa3e dcbe bc3d 0abf 271e 9f3e
00000090: 04a6 9bbc adca 853e 12fe b03d 0935 83be
000000a0: 5c96 053f f1a4 693c 36f1 76be 822d 373e
000000b0: c590 423e e6d3 38bd 9ad8 97be 4f38 fcbc
000000c0: 1b0f 24bd 78d1 663e 6cb0 21bf ec23 c6be
000000d0: 8a7e 8a3e 068a a7bc b604 18be 50da 14bf
000000e0: bf02 dbbd 2941 6fbd c9f9 c53b d61c 643e
000000f0: dce3 89be 3229 aabe 5cd3 20be 2882 8c3e
00000100: 8be7 d3be 3c6e cbbd 8950 96bd 1abe 063f
00000110: cf13 55be 093a e33e 316c dabd 1cba 98be
00000120: bdb6 40be 665c 223e 79c2 49be 24e0 d6bc
00000130: 0776 84be 9e9b 683c f197 aa3d bc4c b0be
00000140: 8e03 013f 30b6 863e c5bd 42bd e196 08be
00000150: 2426 e2bc 3e15 0dbe 02f8 9d3e b23a a5be
00000160: 867e d73d 76ba 0fbf 6acd 7abc 9277 663e
00000170: 5ead 353f 2c89 893c 9fc3 723e 4848 423e
00000180: f51f 1f3e 172c 23bf 46ba 99be 9eac aebe
00000190: c333 75be 7945 0a3f b729 61be 482a cb3d
000001a0: daf6 b43c d8c1 b53d 4db2 3ebe 236d a4be
000001b0: 8a41 5f3e 8efb e33e 0ba3 d0be 4298 19bd
000001c0: a1eb 66be bec3 863e a0f9 b03c e4d2 97be
000001d0: 82df bb3e 9c9c 9c3d 7851 143e cdd1 e6be
000001e0: fd54 06be f7fe 9ebe 7a58 bf3d f9e3 75be
000001f0: d0e8 e03e a4a2 90be cf61 203f b4f9 cdbd
00000200: b3d8 973e 28d5 f9bc 7e9b b7bd 4fe9 0bbf
00000210: 6d10 e53d c705 6d3e ad40 a93d 3c2e 3e3c
00000220: 3cd2 e3be e42b d13d 1ee8 82be cba2 b03e
00000230: 1bc4 d23e 6c5a 5ebd 16ce 073d e34c dfbb
00000240: 4a06 81be e829 61be aed7 833e e7dc 563e
00000250: 4f7a a7be 846c 063e c096 87be 65cc fbbd
00000260: 220e 643e 4ea0 d4bd 6006 a03d 4e55 903d
00000270: 0fd1 75be 33eb 5abe 9ec1 123f a0fe 083d
00000280: b0f2 36be 8336 953b 7ae7 013e 5664 f3bd
00000290: 4edc 583e 0994 81be 3895 df3e 9d7d 763e
000002a0: ec9d f2bd 5867 20bd ddf9 c03d bf0e 33be
000002b0: b9dc 92bb f07c c93e f8dd 26be 5aa7 6e3e
000002c0: 6b3a b3be 1675 c2bd 5fcb 983e 7f00 023d
000002d0: 2fca 7d3d 90ea c23c b50d a93c e1e2 5c3e
000002e0: b922 9ebd 780d 323e 3325 953e c98f c9be
000002f0: 6194 28be 044c bdbe aa24 e1be 809b 71be
00000300: c87c 7ebd f4b1 a6be b691 66ba b386 24be
00000310: 68ae 10bf 3911 8cbe b9b0 163f d337 4b3e
00000320: 2391 183f f08a f7bd bf71 02bf 5934 9abe
00000330: d34c 96be ae40 983d 2784 d0be 6f5a 06be
00000340: 9a77 903e 73cd 783e 84cf 2ebf 92dc 7ebb
00000350: dbf9 223e 9e8c 993d 8b5c d13e a503 5fbd
00000360: a79b 21bf c5be 79be 70d8 b8bd b8c4 093f
00000370: 3cad 8d3d c915 4cbc 9b1b 00bf 7230 133c
00000380: e550 893d 0bbe e0bd 3e03 13bc d0fa 253e
00000390: 8b31 233e 2648 963d 9b12 8dbe da4a 313e
000003a0: d6e5 1ebe 71ee d2be 6112 913e a217 073f
000003b0: 5ec5 debe f2ed 9d3e 87a0 93bd a0d6 64be
000003c0: ff64 3d3e 4a38 38bd 6572 653d 3fc7 a13c
000003d0: 5735 67be 8e88 0cbe 3815 6b3e 5289 643e
000003e0: c811 82be be6c 9dbe 6ed3 ba3d adbf c03e
000003f0: 3970 2cbe b73a 15be 6e0c da3b d456 263f

network_body._body_endoder.seq_layers.0.bias f4 [128]
0.0 0.0 0.0 0.0 0.0 0.0 0.0 0.0
0.0 0.0 0.0 0.0 0.0 0.0 0.0 0.0
0.0 0.0 0.0 0.0 0.0 0.0 0.0 0.0
0.0 0.0 0.0 0.0 0.0 0.0 0.0 0.0
0.0 0.0 0.0 0.0 0.0 0.0 0.0 0.0
0.0 0.0 0.0 0.0 0.0 0.0 0.0 0.0
0.0 0.0 0.0 0.0 0.0 0.0 0.0 0.0
0.0 0.0 0.0 0.0 0.0 0.0 0.0 0.0
0.0 0.0 0.0 0.0 0.0 0.0 0.0 0.0
0.0 0.0 0.0 0.0 0.0 0.0 0.0 0.0
0.0 0.0 0.0 0.0 0.0 0.0 0.0 0.0
0.0 0.0 0.0 0.0 0.0 0.0 0.0 0.0
0.0 0.0 0.0 0.0 0.0 0.0 0.0 0.0
0.0 0.0 0.0 0.0 0.0 0.0 0.0 0.0
0.0 0.0 0.0 0.0 0.0 0.0 0.0 0.0
0.0 0.0 0.0 0.0 0.0 0.0 0.0 0.0
00000000: 0000 0000 0000 0000 0000 0000 0000 0000
00000010: 0000 0000 0000 0000 0000 0000 0000 0000
00000020: 0000 0000 0000 0000 0000 0000 0000 0000
00000030: 0000 0000 0000 0000 0000 0000 0000 0000
00000040: 0000 0000 0000 0000 0000 0000 0000 0000
00000050: 0000 0000 0000 0000 0000 0000 0000 0000
00000060: 0000 0000 0000 0000 0000 0000 0000 0000
00000070: 0000 0000 0000 0000 0000 0000 0000 0000
00000080: 0000 0000 0000 0000 0000 0000 0000 0000
00000090: 0000 0000 0000 0000 0000 0000 0000 0000
000000a0: 0000 0000 0000 0000 0000 0000 0000 0000
000000b0: 0000 0000 0000 0000 0000 0000 0000 0000
000000c0: 0000 0000 0000 0000 0000 0000 0000 0000
000000d0: 0000 0000 0000 0000 0000 0000 0000 0000
000000e0: 0000 0000 0000 0000 0000 0000 0000 0000
000000f0: 0000 0000 0000 0000 0000 0000 0000 0000
00000100: 0000 0000 0000 0000 0000 0000 0000 0000
00000110: 0000 0000 0000 0000 0000 0000 0000 0000
00000120: 0000 0000 0000 0000 0000 0000 0000 0000
00000130: 0000 0000 0000 0000 0000 0000 0000 0000
00000140: 0000 0000 0000 0000 0000 0000 0000 0000
00000150: 0000 0000 0000 0000 0000 0000 0000 0000
00000160: 0000 0000 0000 0000 0000 0000 0000 0000
00000170: 0000 0000 0000 0000 0000 0000 0000 0000
00000180: 0000 0000 0000 0000 0000 0000 0000 0000
00000190: 0000 0000 0000 0000 0000 0000 0000 0000
000001a0: 0000 0000 0000 0000 0000 0000 0000 0000
000001b0: 0000 0000 0000 0000 0000 0000 0000 0000
000001c0: 0000 0000 0000 0000 0000 0000 0000 0000
000001d0: 0000 0000 0000 0000 0000 0000 0000 0000
000001e0: 0000 0000 0000 0000 0000 0000 0000 0000
000001f0: 0000 0000 0000 0000 0000 0000 0000 0000

network_body._body_endoder.seq_layers.2.weight f4 [128, 128]
0.08344545 -0.0042850617 0.04287124 0.07597782 -0.08536542 -0.0740479 0.044712257 0.08788892
0.056509845 -0.111942515 -0.077261984 0.11165431 0.15328777 0.01812846 -0.16656755 -0.034493595
-0.20027754 0.0800182 0.02702625 -0.014241683 0.028004093 0.029554691 -0.05486979 -0.20714866
0.029712584 -0.027332932 -0.00991143 0.22238837 0.047773905 -0.036012005 0.1759766 0.0010617857
-0.008249559 0.1365044 -0.013356284 0.054525897 -0.0016419078 0.037282687 0.08339167 -0.010951344
0.033266675 0.06512814 0.014924228 -0.06832273 -0.00517344 -0.0060353633 0.06927489 -0.15742688
-0.08304933 -0.004579402 -0.08140867 -0.074871905 0.15670052 -0.07932963 0.08000462 -0.09932409
-0.07581031 0.003404598 0.10374414 -0.05771612 0.03348696 0.14659424 -0.021514818 -0.06986436
0.050906412 0.02492359 0.0069816015 0.087238714 0.007143858 -0.06545995 -0.0652976 -0.10515215
-0.10460473 0.051630974 -0.11660875 0.13223158 -0.0888922 -0.0074466276 -0.024050424 -0.20317729
0.0080352975 -0.041797537 0.05917742 0.018471776 0.032774486 -0.0017176544 0.078794725 0.08106189
-0.22591381 -0.09619948 0.033720568 0.008650047 0.05470593 -0.049195554 -0.07081997 0.04077581
0.12665243 -0.09038771 -0.042191833 0.13902815 0.09910565 0.06798547 -0.09498537 -0.12714794
-0.014274139 0.025341352 -0.051525377 -0.07929823 0.04737402 -0.07285971 -0.08596173 0.0044838353
0.058032233 0.1593891 0.11094045 -0.091571964 0.137948 0.075461246 -0.11195807 0.027111335
-0.14978033 0.11173411 -0.0016338258 -0.068934344 -0.08873619 -0.03208967 -0.041276224 0.09959614
0.05523661 0.013647589 -0.07586282 0.09861001 -0.105523095 -0.07900735 0.06637765 -0.19449489
0.07382543 0.06792812 0.04390321 0.03698258 -0.013121803 0.055395465 0.025997482 -0.09665134
-0.032720827 0.14873858 -0.03437992 -0.030113183 -0.06722787 -0.029921649 -0.018098222 -0.10694914
0.058925696 -0.07506094 -0.105473414 -0.1059705 0.017845977 -0.079311326 -0.05868427 0.1300881
-0.0958358 -0.03275952 0.072919965 0.20776393 -0.12157587 0.06755563 0.044281628 -0.12932889
-0.026365116 0.14403829 -0.0020047592 -0.041629665 0.001077686 0.0003447669 0.043819375 -0.024150481
0.1441393 -0.06461396 0.07326453 -0.11402591 0.025720933 0.1662287 0.10001604 0.0042060483
-0.060147244 -0.093518026 0.002767678 0.051282562 -0.024617855 -0.091944434 -0.028282667 0.021686677
-0.015191751 0.017201567 -0.023457931 0.020505825 0.081474185 0.07357293 -0.019373868 -0.034227792
0.049836893 0.13590096 -0.04494001 0.09620912 -0.072765656 0.035616048 0.0039872318 0.0033972058
-0.053320676 0.021849016 -0.012874713 0.12613328 -0.0022632312 0.06672201 0.20264067 0.08072078
-0.01625937 -0.0423657 0.036564723 -0.05352754 0.05552939 -0.14986722 -0.023009129 0.21105798
-0.0025922153 0.05788732 0.08020999 -0.022276677 0.1454209 -0.034749184 0.081101045 -0.14353113
-0.020524686 0.16011414 0.034328513 0.021837927 0.018085588 -0.25805765 0.017255241 0.20006126
-0.10644741 0.04982742 0.07537793 0.039186843 0.10249393 -0.016950551 -0.05394034 -0.009454146
0.0061315848 -0.03310627 -0.11678604 -0.05170756 -0.028313976 0.045750733 -0.03537908 -0.045773227
00000000: 73e5 aa3d b469 8cbb c199 2f3d 429a 9b3d
00000010: 11d4 aebd 6da6 97bd 3324 373d 1bff b33d
00000020: de76 673d 1e42 e5bd 883b 9ebd 04ab e43d
00000030: 78f7 1c3e 2382 943c af90 2abe 2849 0dbd
00000040: 8e15 4dbe 95e0 a33d 2766 dd3c f355 69bc
00000050: d768 e53c ae1c f23c 25bf 60bd c71e 54be
00000060: ce67 f33c 50e9 dfbc 8d63 22bc c7b9 633e
00000070: 92ae 433d 5381 13bd 3633 343e 9e2b 8b3a
00000080: 2929 07bc cfc7 0b3e 51d4 5abc 8c56 5f3d
00000090: 4935 d7ba bbb5 183d 40c9 aa3d 446d 33bc
000000a0: a342 083d e761 853d c084 743c caec 8bbd
000000b0: f685 a9bb 4cc4 c5bb fedf 8d3d 8334 21be
000000c0: c415 aabd cf0e 96bb 97b9 a6bd 7156 99bd
000000d0: 1a76 203e 9377 a2bd 76d9 a33d 6e6a cbbd
000000e0: 7042 9bbd ad1f 5f3b cf77 d43d bd67 6cbd
000000f0: 9f29 093d cd1c 163e d83f b0bc 0c15 8fbd
00000100: 3e83 503d 8e2c cc3c ebc5 e43b 36aa b23d
00000110: 0617 ea3b de0f 86bd c0ba 85bd 035a d7bd
00000120: 013b d6bd 007b 533d 91d0 eebd b767 073e
00000130: 1d0d b6bd d702 f4bb 6505 c5bc b50d 50be
00000140: 7ba6 033c e533 2bbd 0664 723d 1f52 973c
00000150: 8a3e 063d eb22 e1ba 215f a13d c703 a63d
00000160: f355 67be 3c04 c5bd 941e 0a3d edb8 0d3c
00000170: 5313 603d 4781 49bd 0f0a 91bd 8904 273d
00000180: 2db1 013e 311d b9bd 58d1 2cbd 655d 0e3e
00000190: e7f7 ca3d f73b 8b3d b187 c2bd 1233 02be
000001a0: 14de 69bc ab98 cf3c 460c 53bd 1c67 a2bd
000001b0: 430b 423d 7937 95bd b40c b0bd 23ed 923b
000001c0: 35b3 6d3d e536 233e bf34 e33d 158a bbbd
000001d0: 3e42 0d3e 6d8b 9a3d 464a e5bd 9718 de3c
000001e0: 0460 19be dad4 e43d 1926 d6ba 732d 8dbd
000001f0: 52bb b5bd 7570 03bd 4211 29bd 10f9 cb3d
00000200: c93f 623d 239a 5f3c f75d 9bbd 0cf4 c93d
00000210: 7e1c d8bd 9bce a1bd 01f1 873d ab29 47be
00000220: c931 973d e61d 8b3d dad3 333d 0c7b 173d
00000230: d5fc 56bc 5be6 623d acf8 d43c 23f1 c5bd
00000240: 4606 06bd ed4e 183e f6d1 0cbd ecaf f6bc
00000250: c4ae 89bd 3f1e f5bc b942 94bc 2708 dbbd
00000260: 125c 713d 8db9 99bd 7202 d8bd 1007 d9bd
00000270: ba31 923c fa6d a2bd eb5e 70bd d135 053e
00000280: 8f45 c4bd d92e 06bd 1057 953d 11c0 543e
00000290: c5fc f8bd 9b5a 8a3d a760 353d cb6e 04be
000002a0: a8fb d7bc c67e 133e 4762 03bb de83 2abd
000002b0: 2441 8d3a d4c1 b439 f27b 333d 3bd7 c5bc
000002c0: 4199 133e 5354 84bd b70b 963d 6b86 e9bd
000002d0: b5b4 d23c db37 2a3e 36d5 cc3d e4d2 893b
000002e0: f55c 76bd 6186 bfbd ee61 353b aa0d 523d
000002f0: 62ab c9bc 5d4d bcbd 0db1 e7bc 42a8 b13c
00000300: d2e6 78bc 4dea 8c3c d92a c0bc d5fb a73c
00000310: f0db a63d 68ad 963d f2b5 9ebc 7132 0cbd
00000320: c521 4c3d 9f29 0b3e 0413 38bd 4909 c53d
00000330: 2906 95bd 22e2 113d 53a7 823b a8a3 5e3b
00000340: c866 5abd b5fc b23c 76f0 52bc 1529 013e
00000350: b852 14bb 8da5 883d 0981 4f3e f050 a53d
00000360: 5f32 85bc a887 2dbd e4c4 153d b23f 5bbd
00000370: c972 633d cb76 19be a47d bcbc 951f 583e
00000380: 28e2 29bb 411b 6d3d 2345 a43d 947d b6bc
00000390: 37e9 143e 2955 0ebd 4e18 a63d d3f9 12be
000003a0: 6323 a8bc f6f4 233e 0e9c 0c3d 74e5 b23c
000003b0: 3a28 943c 2220 84be dd5a 8d3c dcdc 4c3e
000003c0: 1a01 dabd d617 4c3d bf5f 9a3d 6282 203d
000003d0: 56e8 d13d e2db 8abc 8cf0 5cbd 90e5 1abc
000003e0: 76eb c83b 719a 07bd 852d efbd 4ecb 53bd
000003f0: b6f2 e7bc 1f65 3b3d a7e9 10bd b57c 3bbd

network_body._body_endoder.seq_layers.2.bias f4 [128]
0.0 0.0 0.0 0.0 0.0 0.0 0.0 0.0
0.0 0.0 0.0 0.0 0.0 0.0 0.0 0.0
0.0 0.0 0.0 0.0 0.0 0.0 0.0 0.0
0.0 0.0 0.0 0.0 0.0 0.0 0.0 0.0
0.0 0.0 0.0 0.0 0.0 0.0 0.0 0.0
0.0 0.0 0.0 0.0 0.0 0.0 0.0 0.0
0.0 0.0 0.0 0.0 0.0 0.0 0.0 0.0
0.0 0.0 0.0 0.0 0.0 0.0 0.0 0.0
0.0 0.0 0.0 0.0 0.0 0.0 0.0 0.0
0.0 0.0 0.0 0.0 0.0 0.0 0.0 0.0
0.0 0.0 0.0 0.0 0.0 0.0 0.0 0.0
0.0 0.0 0.0 0.0 0.0 0.0 0.0 0.0
0.0 0.0 0.0 0.0 0.0 0.0 0.0 0.0
0.0 0.0 0.0 0.0 0.0 0.0 0.0 0.0
0.0 0.0 0.0 0.0 0.0 0.0 0.0 0.0
0.0 0.0 0.0 0.0 0.0 0.0 0.0 0.0
00000000: 0000 0000 0000 0000 0000 0000 0000 0000
00000010: 0000 0000 0000 0000 0000 0000 0000 0000
00000020: 0000 0000 0000 0000 0000 0000 0000 0000
00000030: 0000 0000 0000 0000 0000 0000 0000 0000
00000040: 0000 0000 0000 0000 0000 0000 0000 0000
00000050: 0000 0000 0000 0000 0000 0000 0000 0000
00000060: 0000 0000 0000 0000 0000 0000 0000 0000
00000070: 0000 0000 0000 0000 0000 0000 0000 0000
00000080: 0000 0000 0000 0000 0000 0000 0000 0000
00000090: 0000 0000 0000 0000 0000 0000 0000 0000
000000a0: 0000 0000 0000 0000 0000 0000 0000 0000
000000b0: 0000 0000 0000 0000 0000 0000 0000 0000
000000c0: 0000 0000 0000 0000 0000 0000 0000 0000
000000d0: 0000 0000 0000 0000 0000 0000 0000 0000
000000e0: 0000 0000 0000 0000 0000 0000 0000 0000
000000f0: 0000 0000 0000 0000 0000 0000 0000 0000
00000100: 0000 0000 0000 0000 0000 0000 0000 0000
00000110: 0000 0000 0000 0000 0000 0000 0000 0000
00000120: 0000 0000 0000 0000 0000 0000 0000 0000
00000130: 0000 0000 0000 0000 0000 0000 0000 0000
00000140: 0000 0000 0000 0000 0000 0000 0000 0000
00000150: 0000 0000 0000 0000 0000 0000 0000 0000
00000160: 0000 0000 0000 0000 0000 0000 0000 0000
00000170: 0000 0000 0000 0000 0000 0000 0000 0000
00000180: 0000 0000 0000 0000 0000 0000 0000 0000
00000190: 0000 0000 0000 0000 0000 0000 0000 0000
000001a0: 0000 0000 0000 0000 0000 0000 0000 0000
000001b0: 0000 0000 0000 0000 0000 0000 0000 0000
000001c0: 0000 0000 0000 0000 0000 0000 0000 0000
000001d0: 0000 0000 0000 0000 0000 0000 0000 0000
000001e0: 0000 0000 0000 0000 0000 0000 0000 0000
000001f0: 0000 0000 0000 0000 0000 0000 0000 0000

action_model._discrete_distribution.branches.0.weight f4 [1, 128]
0.020637259 0.020264141 0.0021714156 0.0010114986 0.0027193034 -0.014086288 -0.015005285 -0.006284186
-0.014064764 -0.005296282 -0.011997519 -0.010706034 -0.021876743 -0.003395432 -0.0059829326 -0.0066111656
-0.014554977 0.0053016446 -0.0073587927 -0.0042594885 0.003555034 0.0042678653 0.0129764695 -0.0013581713
0.0016847067 -0.0031120828 -0.004524973 -0.0019118609 0.02029754 0.006510652 0.0036266856 -0.0023952618
-0.011910344 -0.0024418726 -0.0021973436 0.005928965 -0.007631492 -8.295301e-05 -0.0038125967 -0.0072234343
0.0046460885 -0.020852126 -0.003811085 -0.007996492 0.00808691 -0.0017252694 -0.0070063844 0.006028803
-0.010512943 0.005478656 0.003888238 0.0014595733 0.018228821 -0.002148477 -0.0017306356 0.008753238
0.004055428 -0.008178692 -0.000720716 0.0023233783 0.009666431 0.010032265 -0.007923473 -0.013572889
-0.0039016258 0.0037307285 0.0050476096 0.0021538907 0.013643217 -0.012039504 -0.004318692 0.0055832444
0.022180386 -0.019800706 0.0021737732 -0.0038034467 -0.010780322 -0.0031973098 0.01749056 -0.0071982476
0.0047619417 -0.009690083 -0.00043811655 -0.01613732 0.004621455 0.0071092434 -0.0026416897 0.0018682117
-0.007819355 -0.0010893292 0.010634172 0.008047729 -0.004457263 -0.0053292266 0.007686179 0.0011087323
0.010605963 -0.0026112022 0.006533649 0.016388824 -0.014172888 0.00044262313 -0.005177769 0.009402528
0.0046039107 -0.004032001 -0.014998405 -0.0008004775 0.004065993 0.012167197 -0.003316572 -0.010507857
-0.0015201706 0.0050036716 -0.00063762785 0.011713105 -0.0082416935 0.012603809 0.009566589 0.003178774
0.01519841 0.014308135 0.003032735 -0.006820398 0.0054154005 0.024673447 0.01586616 -0.0051836222
00000000: 780f a93c fc00 a63c 4f4e 0e3b 4394 843a
00000010: 5736 323b 2dca 66bc bad8 75bc 93eb cdbb
00000020: e56f 66bc 6f8c adbb 3e91 44bc 5c68 2fbc
00000030: db36 b3bc e585 5ebb 7a0c c4bb 7aa2 d8bb
00000040: 0078 6ebc 6bb9 ad3b 0722 f1bb 2e93 8bbb
00000050: 93fb 683b 73d9 8b3b 429b 543c ab04 b2ba
00000060: 60d1 dc3a 16f4 4bbb 3a46 94bb 6897 faba
00000070: 0747 a63c 4f57 d53b b0ad 6d3b d3f9 1cbb
00000080: 9a23 43bc d307 20bb 4f01 10bb c347 c23b
00000090: 9811 fabb 0ff7 adb8 c2dc 79bb 8fb2 ecbb
000000a0: 373e 983b 14d2 aabc 65c3 79bb b803 03bc
000000b0: f57e 043c 6f22 e2ba d095 e5bb 448d c53b
000000c0: 7b3e 2cbc 4c86 b33b cfd1 7e3b 274f bf3a
000000d0: 9c54 953c 76cd 0cbb 7fd6 e2ba be69 0f3c
000000e0: 65e3 843b ecff 05bc 6fee 3cba d243 183b
000000f0: f35f 1e3c 5f5e 243c 74d1 01bc d360 5ebc
00000100: 6bb2 7fbb 3d7f 743b 6b66 a53b 4a28 0d3b
00000110: cd87 5f3c 5741 45bc d083 8dbb a6f3 b63b
00000120: a4b3 b53c 1735 a2bc dd75 0e3b 3f43 79bb
00000130: f39f 30bc f589 51bb 5d48 8f3c 47df ebbb
00000140: 100a 9c3b 27c3 1ebc 02b3 e5b9 6a32 84bc
00000150: 936f 973b a8f4 e83b 3320 2dbb c8de f43a
00000160: c11c 00bc d3c7 8eba f33a 2e3c 9fda 033c
00000170: 3b0e 92bb cba0 aebb 58dc fb3b e252 913a
00000180: a2c4 2d3c b420 2bbb 3818 d63b db41 863c
00000190: 6735 68bc df0f e839 46aa a9bb 100d 1a3c
000001a0: 67dc 963b e01e 84bb dfbb 75bc 23d7 51ba
000001b0: 053c 853b ec58 473c d85a 59bb 2629 2cbc
000001c0: 7640 c7ba d7f5 a33b 7b26 27ba 53e8 3f3c
000001d0: 2b08 07bc 3580 4e3c 2fbd 1c3c fa52 503b
000001e0: c002 793c ab6c 6a3c dac0 463b a57d dfbb
000001f0: ac73 b13b f81f ca3c c0f9 813c 60db a9bb

network_body._body_endoder.seq_layers.0.weight f4 [128, 12]
0.058982845 0.11057536 0.12575261 -0.10821022 -0.12708923 0.40643847 0.17371242 -0.3076213
0.20513798 -0.25839928 -0.33116734 0.18260857 -0.15699662 -0.40632036 -0.008856714 0.299808
-0.26449606 -0.1570127 0.14253269 -0.100582935 -0.21362829 -0.012269936 -0.08107959 -0.40382165
-0.4237751 -0.574429 -0.027569892 0.10442991 -0.618179 0.3376056 -0.074292004 0.17080423
0.3306473 -0.29276654 0.024410382 -0.024897084 0.41733575 0.11249865 -0.10747022 -0.47903228
-0.072412014 0.09191161 -0.14904681 0.009088671 -0.15560834 0.045490723 -0.61594117 -0.20203538
0.5972578 -0.20486039 -0.11120472 0.19127588 0.26697925 -0.23266156 0.10014501 0.23223943
-0.23876399 0.05781615 -0.10011257 0.14162773 0.263522 -0.24225882 -0.23462762 -0.18872029
-0.1924512 -0.14265174 -0.030350184 0.035069548 0.013840698 0.08403318 -0.08914691 -0.18609878
0.1301709 -0.049875114 -0.13810755 0.048366413 0.20391421 -0.577931 0.22150382 0.4818657
0.3379475 -0.19533063 0.0102294795 0.09927641 0.2277658 0.08183319 0.25868392 0.7055605
0.26958224 0.23660764 0.30586612 0.13834491 0.36221728 -0.28013924 -0.32064956 -0.014556225
0.21924743 0.064393304 0.12528765 -0.2548674 0.049069308 0.07560456 -0.093333945 -0.23485734
-0.035476144 0.051181857 0.3467814 -0.99405736 -0.29494125 -0.4356174 -0.18803942 -0.56993496
-0.1607601 0.12714067 0.43925303 0.3756546 -0.19610903 -0.3634901 -0.59656715 0.13911927
0.45572573 0.27891517 -0.36517406 0.20015949 0.15396436 0.16687006 0.16248217 -0.24916267
0.3997906 0.15759146 -0.08077611 -0.094489895 -0.13022988 -0.89212 0.19785956 -0.032819543
0.37306106 0.17916077 -0.17078303 -0.5388973 -0.20701866 0.18114306 -0.08147492 -0.4356511
-0.0839073 0.38284013 -0.4261877 0.27820516 -0.41139016 0.055740926 0.10502477 -0.1751689
0.3141463 0.24107373 0.13557571 -0.15174906 -0.19618244 -0.1000819 0.04688107 -0.1256485
0.23383924 -0.09825906 0.116529234 -0.3639636 -0.027991677 0.69925433 -0.19675754 0.10625122
0.2436047 0.12962809 0.34646338 -0.31083366 0.10755454 -0.38780993 -0.10371604 -0.22501439
-0.1353398 0.20295444 -0.048991542 0.22255756 -0.020751728 0.1438165 -0.38526338 -0.20103797
-0.1650458 0.5462884 -0.51011515 -0.35316595 0.31935978 0.21509433 0.070393756 0.095062934
-0.39989567 0.35800382 -0.046986863 -0.58146346 -0.099947535 0.33716917 0.21235675 0.36555812
-0.43885025 0.64735836 0.3807258 0.010688962 -0.13017751 -0.24044472 0.38041207 0.33816087
0.35898554 -0.15814555 -0.18596211 0.1455052 0.15692735 0.024995685 -0.17134926 -0.42455968
-0.44781166 -0.15427409 0.31431362 0.19686085 0.13425037 0.36213958 -0.561347 0.003551148
0.14327829 0.07656985 0.52598906 -0.17071477 -0.36335027 -0.38892072 0.11253495 -0.105573274
0.10696939 -0.6088182 0.023674056 -0.09064267 -0.2467708 0.029434608 0.050797325 0.29574487
-0.022310292 0.07306838 -0.39984345 -0.10008531 0.5393403 0.028372303 0.50339615 0.5105284
0.051293723 0.16557854 -0.2956568 0.12991057 0.11010917 0.030211234 0.03279219 0.47767848
00000000: ff97 713d 5675 e23d 4bc5 003e 529d ddbd
00000010: ae23 02be b418 d03e abe1 313e 8a80 9dbe
00000020: b10f 523e e94c 84be c48e a9be befd 3a3e
00000030: b9c3 20be 3909 d0be c01b 11bc 6f80 993e
00000040: 076c 87be f0c7 20be 17f4 113e 6dfe cdbd
00000050: 60c1 5abe d707 49bc 0e0d a6bd b6c1 cebe
00000060: 0df9 d8be c70d 13bf 41da e1bc 59df d53d
00000070: fb40 1ebf a4da ac3e 6826 98bd 4ee7 2e3e
00000080: 9a4a a93e 7fe5 95be 48f8 c73c f8f4 cbbc
00000090: 08ad d53e b165 e63d 5919 dcbd b843 f5be
000000a0: c04c 94bd 273c bc3d ba9f 18be a6e8 143c
000000b0: cb57 1fbe 7b54 3a3d 52ae 1dbf 5de2 4ebe
000000c0: e3e5 183f ecc6 51be 4dbf e3bd d3dd 433e
000000d0: 81b1 883e d53e 6ebe d418 cd3d 2cd0 6d3e
000000e0: 8c7e 74be a1d0 6c3d d207 cdbd dc06 113e
000000f0: 5bec 863e b212 78be 3942 70be e43f 41be
00000100: ed11 45be 4c13 12be f3a0 f8bc 16a5 0f3d
00000110: 18c4 623c 9619 ac3d a892 b6bd ae90 3ebe
00000120: 854b 053e d949 4cbd 116c 0dbe dc1b 463d
00000130: e3ce 503e 49f3 13bf e6d1 623e 1ab7 f63e
00000140: 7407 ad3e c104 48be 8c99 273c 6e51 cb3d
00000150: 703b 693e 2998 a73d 3872 843e 9d9f 343f
00000160: af06 8a3e 4649 723e 7c9a 9c3e 4aaa 0d3e
00000170: 8b74 b93e 696e 8fbe 2e2c a4be 3c7d 6ebc
00000180: 6682 603e a3e0 833d 684b 003e fb7d 82be
00000190: e6fc 483d 90d6 9a3d de25 bfbd 717e 70be
000001a0: 6f4f 11bd 11a4 513d 558d b13e 8b7a 7ebf
000001b0: 8a02 97be 3e09 dfbe 688d 40be 42e7 11bf
000001c0: 4c9e 24be 2a31 023e c6e5 e03e cd55 c03e
000001d0: ced0 48be 601b babe a0b8 18bf 4875 0e3e
000001e0: e254 e93e f8cd 8e3e 18f8 babe 9cf6 4c3e
000001f0: d5a8 1d3e fcdf 2a3e ba61 263e 8024 7fbe
00000200: 5bb1 cc3e a85f 213e f26d a5bd eb83 c1bd
00000210: fb5a 05be fa61 64bf b29b 4a3e c96d 06bd
00000220: dc01 bf3e ec75 373e bfe1 2ebe 2cf5 09bf
00000230: b3fc 53be 917d 393e 53dc a6bd a90d dfbe
00000240: 97d7 abbd 9f03 c43e 4635 dabe e870 8e3e
00000250: bba1 d2be 9950 643d 3a17 d73d 7a5f 33be
00000260: c9d7 a03e 08dc 763e 5cd4 0a3e 1b64 1bbe
00000270: 0de4 48be bdf7 ccbd 5d06 403d 00aa 00be
00000280: 8e73 6f3e 0c3c c9bd e1a6 ee3d 7059 babe
00000290: cd4e e5bc 5502 333f cf7a 49be 3d9a d93d
000002a0: 8373 793e 3abd 043e a663 b13e 9725 9fbe
000002b0: 8e45 dc3d 068f c6be 1369 d4bd 2c6a 66be
000002c0: 8496 0abe 4ad3 4f3e 5bab 48bd 21e6 633e
000002d0: 87ff a9bc a244 133e 3e41 c5be e6dc 4dbe
000002e0: c401 29be 8ed9 0b3f e896 02bf 2bd2 b4be
000002f0: 2083 a33e b041 5c3e 9a2a 903d 5bb0 c23d
00000300: 20bf ccbe 474c b73e 4c75 40bd cada 14bf
00000310: 4bb1 ccbd 70a1 ac3e 0c74 593e 6f2a bb3e
00000320: fbb0 e0be 47b9 253f 7eee c23e c220 2f3c
00000330: 414d 05be 2437 76be 5fc5 c23e 6c23 ad3e
00000340: f4cc b73e e8f0 21be da6c 3ebe 51ff 143e
00000350: 90b1 203e c0c3 cc3c 2e76 2fbe e35f d9be
00000360: 9247 e5be 07fa 1dbe b7ed a03e e495 493e
00000370: ee78 093e 5c6a b93e 70b4 0fbf 61ba 683b
00000380: 8bb7 123e a7d0 9c3d 38a7 063f dacf 2ebe
00000390: 0c09 babe 9e20 c7be b978 e63d cd36 d8bd
000003a0: c412 db3d 82db 1bbf 18f0 c13c dda2 b9bd
000003b0: 7cb1 7cbe d920 f13c db10 503d df6b 973e
000003c0: 13c4 b6bc e0a4 953d 48b8 ccbe 87f9 ccbd
000003d0: 3512 0a3f 086d e83c 92de 003f fdb1 023f
000003e0: 5e19 523d 6c8d 293e 5460 97be 4707 053e
000003f0: eb80 e13d 8d7d f73c 1a51 063d 4692 f43e

network_body._body_endoder.seq_layers.0.bias f4 [128]
0.0 0.0 0.0 0.0 0.0 0.0 0.0 0.0
0.0 0.0 0.0 0.0 0.0 0.0 0.0 0.0
0.0 0.0 0.0 0.0 0.0 0.0 0.0 0.0
0.0 0.0 0.0 0.0 0.0 0.0 0.0 0.0
0.0 0.0 0.0 0.0 0.0 0.0 0.0 0.0
0.0 0.0 0.0 0.0 0.0 0.0 0.0 0.0
0.0 0.0 0.0 0.0 0.0 0.0 0.0 0.0
0.0 0.0 0.0 0.0 0.0 0.0 0.0 0.0
0.0 0.0 0.0 0.0 0.0 0.0 0.0 0.0
0.0 0.0 0.0 0.0 0.0 0.0 0.0 0.0
0.0 0.0 0.0 0.0 0.0 0.0 0.0 0.0
0.0 0.0 0.0 0.0 0.0 0.0 0.0 0.0
0.0 0.0 0.0 0.0 0.0 0.0 0.0 0.0
0.0 0.0 0.0 0.0 0.0 0.0 0.0 0.0
0.0 0.0 0.0 0.0 0.0 0.0 0.0 0.0
0.0 0.0 0.0 0.0 0.0 0.0 0.0 0.0
00000000: 0000 0000 0000 0000 0000 0000 0000 0000
00000010: 0000 0000 0000 0000 0000 0000 0000 0000
00000020: 0000 0000 0000 0000 0000 0000 0000 0000
00000030: 0000 0000 0000 0000 0000 0000 0000 0000
00000040: 0000 0000 0000 0000 0000 0000 0000 0000
00000050: 0000 0000 0000 0000 0000 0000 0000 0000
00000060: 0000 0000 0000 0000 0000 0000 0000 0000
00000070: 0000 0000 0000 0000 0000 0000 0000 0000
00000080: 0000 0000 0000 0000 0000 0000 0000 0000
00000090: 0000 0000 0000 0000 0000 0000 0000 0000
000000a0: 0000 0000 0000 0000 0000 0000 0000 0000
000000b0: 0000 0000 0000 0000 0000 0000 0000 0000
000000c0: 0000 0000 0000 0000 0000 0000 0000 0000
000000d0: 0000 0000 0000 0000 0000 0000 0000 0000
000000e0: 0000 0000 0000 0000 0000 0000 0000 0000
000000f0: 0000 0000 0000 0000 0000 0000 0000 0000
00000100: 0000 0000 0000 0000 0000 0000 0000 0000
00000110: 0000 0000 0000 0000 0000 0000 0000 0000
00000120: 0000 0000 0000 0000 0000 0000 0000 0000
00000130: 0000 0000 0000 0000 0000 0000 0000 0000
00000140: 0000 0000 0000 0000 0000 0000 0000 0000
00000150: 0000 0000 0000 0000 0000 0000 0000 0000
00000160: 0000 0000 0000 0000 0000 0000 0000 0000
00000170: 0000 0000 0000 0000 0000 0000 0000 0000
00000180: 0000 0000 0000 0000 0000 0000 0000 0000
00000190: 0000 0000 0000 0000 0000 0000 0000 0000
000001a0: 0000 0000 0000 0000 0000 0000 0000 0000
000001b0: 0000 0000 0000 0000 0000 0000 0000 0000
000001c0: 0000 0000 0000 0000 0000 0000 0000 0000
000001d0: 0000 0000 0000 0000 0000 0000 0000 0000
000001e0: 0000 0000 0000 0000 0000 0000 0000 0000
000001f0: 0000 0000 0000 0000 0000 0000 0000 0000

network_body._body_endoder.seq_layers.2.weight f4 [128, 128]
-0.03466952 0.03987625 0.048295613 0.103783354 -0.061334874 0.014823984 -0.021539817 -0.07794734
-0.117506675 0.19913465 0.03676588 0.057505503 0.03779847 0.13203686 0.08153656 0.02338044
0.04345347 0.23471068 -0.19906572 -0.016738925 -0.15206511 0.027782457 0.057652738 -0.085691586
-0.037129696 -0.05454783 -0.08392993 -0.028157474 -0.08988238 0.11602575 0.036902323 0.10514053
0.039443888 -0.025647394 -0.022876738 0.005331582 0.23139009 -0.062225197 -0.053150617 -0.040193453
-0.025359975 -0.050209925 -0.07433623 0.0980407 0.011348096 0.107771784 0.029995514 0.023264302
-0.15342565 0.14577141 0.19565906 0.028388826 0.07017599 -0.12891002 0.078247696 0.021612043
-0.05289586 0.074953824 -0.060167756 0.023745742 0.062339406 -0.058828585 0.055144995 0.01452567
-0.048706625 -0.07998781 0.003456951 0.07343068 0.0075548165 0.060388077 0.024075873 0.05247676
-0.08815467 0.037012756 -0.012713666 -0.03731377 -0.15876742 0.06555565 -0.040799517 0.004387099
-0.025101695 -0.10929119 -0.00394374 -0.09745341 0.021011563 0.10342902 0.08539249 0.03327649
0.13146338 0.006398141 -0.040935446 0.046442255 -0.15449373 -0.15020461 -0.07456764 0.117618546
0.13602683 0.088309385 -0.04495817 0.003192004 0.0190938 0.053018533 -0.18617512 -0.052176733
-0.031204967 0.09844419 -0.07931172 -0.029997803 0.024484398 0.030796336 0.074225955 0.0047419784
0.13838175 0.01797209 0.074080974 0.0805676 -0.011851306 0.037703607 -0.040610254 -0.18316619
0.0831385 0.029477084 0.088292055 0.100592494 -0.081796706 0.06886018 0.010988405 -0.032464907
0.13929506 0.002676472 -0.14691561 0.066677466 -0.00069098704 0.01475146 -0.10764017 0.06813682
-0.10488827 0.119555235 -0.05446136 -0.12631398 -0.023807703 -0.050881404 -0.043348648 0.15791114
-0.020688055 0.084966496 0.0045729307 -0.06151719 0.10839183 0.11209805 -0.04370442 -0.024439983
0.045221936 0.20402594 -0.004915128 -0.024844447 0.0579772 0.04046329 0.08561521 -0.04688809
-0.105966635 0.05227041 -0.089307435 0.07385733 -0.09134832 -0.15031749 0.019287396 0.07272399
-0.0087572085 0.031987462 -0.023543319 0.024291713 0.059241664 0.0059634466 0.025245132 -0.10389649
-0.022105621 0.09123078 0.010881714 0.010784891 0.03961385 0.032862917 0.10988626 -0.12856524
-0.0049247965 0.14352463 -0.037819985 0.08002342 -0.21789275 0.107036754 -0.041697495 -0.052888937
0.08460071 -0.013405022 -0.15167691 -0.042786967 0.0798413 0.10853432 -0.010174364 -0.071870774
-0.26778728 0.10289401 -0.105390936 0.034547575 0.07394505 0.03257943 -0.037207227 -0.08398814
0.042122383 0.04675815 0.04907158 -0.062357474 0.05510819 -0.19729377 -0.10037526 -0.017803082
0.04302972 0.12258809 0.00067630364 -0.011485091 -0.12040483 -0.040565524 0.09699568 0.0731195
-0.0491477 -0.03720874 0.007313414 0.16443096 -0.16379078 -0.060306486 -0.085197605 0.09014472
-0.1252112 -0.0321554 0.022568347 -0.0047551 0.036230244 -0.092144474 0.2720097 0.12380704
0.08618777 -0.020673266 -0.0686669 -0.01628123 0.046689637 0.05403578 4.9052556e-05 -0.01024757
0.019582493 -0.083411366 -0.068515 -0.11734009 -0.07103709 -0.020231564 -0.04345988 -0.029570242
00000000: a001 0ebd 4755 233d 9fd1 453d 5e8c d43d
00000010: 473a 7bbd 4ce0 723c 4574 b0bc dba2 9fbd
00000020: 57a7 f0bd f4e9 4b3e d297 163d e48a 6b3d
00000030: 92d2 1a3d ac34 073e a4fc a63d 5688 bf3c
00000040: 44fc 313d ff57 703e e2d7 4bbe 1220 89bc
00000050: f5b6 1bbe 0998 e33c 4725 6c3d 127f afbd
00000060: 4f15 18bd 8c6d 5fbd 75e3 abbd 81aa e6bc
00000070: 4114 b8bd e99e ed3d e426 173d eb53 d73d
00000080: ea8f 213d 7c1a d2bc ff67 bbbc 8db4 ae3b
00000090: 86f1 6c3e d9df 7ebd 76b4 59bd e4a1 24bd
000000a0: b9bf cfbc eca8 4dbd 983d 98bd 90c9 c83d
000000b0: 5ded 393c 74b7 dc3d 27b9 f53c c794 be3c
000000c0: 9d1b 1dbe 1a45 153e d95a 483e af8f e83c
000000d0: 6eb8 8f3d fd00 04be 5440 a03d bd0b b13c
000000e0: 54a9 58bd 6481 993d 7772 76bd 6e86 c23c
000000f0: 9b57 7f3d 3ef6 70bd b8df 613d 13fd 6d3c
00000100: 9980 47bd a6d0 a3bd 038e 623b d362 963d
00000110: 658e f73b 7d59 773d c43a c53c dff1 563d
00000120: 708a b4bd b09a 173d fb4c 50bc 53d6 18bd
00000130: ed93 22be 0a42 863d 651d 27bd a7c1 8f3b
00000140: 12a2 cdbc 0fd4 dfbd 7d3a 81bb a795 c7bd
00000150: 7120 ac3c 98d2 d33d 42e2 ae3d ee4c 083d
00000160: 569e 063e 7fa7 d13b edab 27bd 3c3a 3e3d
00000170: 9b33 1ebe 3dcf 19be ebb6 98bd fee1 f03d
00000180: 9e4a 0b3e 8ddb b43d 0f26 38bd f130 513b
00000190: 9a6a 9c3c f629 593d b1a4 3ebe 45b7 55bd
000001a0: 8fa1 ffbc 1c9d c93d 2f6e a2bd f4bd f5bc
000001b0: 8193 c83c 9948 fc3c c703 983d 9962 9b3b
000001c0: f2b3 0d3e 343a 933c c4b7 973d a000 a53d
000001d0: fb2b 42bc 196f 1a3d f056 26bd eb8f 3bbe
000001e0: 8544 aa3d ed79 f13c 77d2 b43d 7003 ce3d
000001f0: 0885 a7bd 9106 8d3d b608 343c ecf9 04bd
00000200: 5da3 0e3e c067 2f3b 0c71 16be 328e 883d
00000210: 5b23 35ba 1cb0 713c 7372 dcbd 518b 8b3d
00000220: a9cf d6bd 60d9 f43d e012 5fbd 7458 01be
00000230: 5f08 c3bc 0569 50bd 5a8e 31bd 75b3 213e
00000240: ff79 a9bc ea02 ae3d 86d8 953b 73f9 7bbd
00000250: 89fc dd3d aa93 e53d 6803 33bd 5c36 c8bc
00000260: a33a 393d 2dec 503e 150f a1bb 9586 cbbc
00000270: 8079 6d3d d6bc 253d 0757 af3d ba0d 40bd
00000280: 0905 d9bd 7f19 563d d1e6 b6bd 8342 973d
00000290: d414 bbbd d4ec 19be 9a00 9e3c 51f0 943d
000002a0: 657a 0fbc 4905 033d ebdd c0bc 6aff c63c
000002b0: 63a7 723d 0469 c33b e1ce ce3c afc7 d4bd
000002c0: d916 b5bc 34d7 ba3d 3749 323c 1db3 303c
000002d0: 2242 223d 449b 063d 0c0c e13d 9ba6 03be
000002e0: 3060 a1bb 1ff8 123e 21e9 1abd 52e3 a33d
000002f0: 471f 5fbe 1636 db3d feca 2abd 12a2 58bd
00000300: 2343 ad3d bda0 5bbc 3151 1bbe 6341 2fbd
00000310: d683 a33d 3e47 de3d 60b2 26bc fc30 93bd
00000320: 6a1b 89be 18ba d23d 34d7 d7bd c281 0d3d
00000330: 8170 973d 0272 053d 9b66 18bd f901 acbd
00000340: 8588 2c3d 7985 3f3d 48ff 483d 8d6a 7fbd
00000350: 20b9 613d 6107 4abe 8b91 cdbd c5d7 91bc
00000360: ef3f 303d 770f fb3d f849 313a f72b 3cbc
00000370: cf96 f6bd 0928 26bd aca5 c63d adbf 953d
00000380: 194f 49bd 3168 18bd 5da5 ef3b 9760 283e
00000390: c5b8 27be ef03 77bd 157c aebd cc9d b83d
000003a0: 5d37 00be 61b5 03bd 41e1 b83c abd0 9bbb
000003b0: 2a66 143d 3eb6 bcbd db44 8b3e 8c8e fd3d
000003c0: 3783 b03d fb5a a9bc 3ba1 8cbd 3760 85bc
000003d0: a23d 3f3d 9f54 5d3d c8bd 4d38 6de5 27bc
000003e0: 776b a03c 94d3 aabd 9851 8cbd 0050 f0bd
000003f0: e57b 91bd aabc a5bc fd02 32bd 4b3d f2bc

network_body._body_endoder.seq_layers.2.bias f4 [128]
0.0 0.0 0.0 0.0 0.0 0.0 0.0 0.0
0.0 0.0 0.0 0.0 0.0 0.0 0.0 0.0
0.0 0.0 0.0 0.0 0.0 0.0 0.0 0.0
0.0 0.0 0.0 0.0 0.0 0.0 0.0 0.0
0.0 0.0 0.0 0.0 0.0 0.0 0.0 0.0
0.0 0.0 0.0 0.0 0.0 0.0 0.0 0.0
0.0 0.0 0.0 0.0 0.0 0.0 0.0 0.0
0.0 0.0 0.0 0.0 0.0 0.0 0.0 0.0
0.0 0.0 0.0 0.0 0.0 0.0 0.0 0.0
0.0 0.0 0.0 0.0 0.0 0.0 0.0 0.0
0.0 0.0 0.0 0.0 0.0 0.0 0.0 0.0
0.0 0.0 0.0 0.0 0.0 0.0 0.0 0.0
0.0 0.0 0.0 0.0 0.0 0.0 0.0 0.0
0.0 0.0 0.0 0.0 0.0 0.0 0.0 0.0
0.0 0.0 0.0 0.0 0.0 0.0 0.0 0.0
0.0 0.0 0.0 0.0 0.0 0.0 0.0 0.0
00000000: 0000 0000 0000 0000 0000 0000 0000 0000
00000010: 0000 0000 0000 0000 0000 0000 0000 0000
00000020: 0000 0000 0000 0000 0000 0000 0000 0000
00000030: 0000 0000 0000 0000 0000 0000 0000 0000
00000040: 0000 0000 0000 0000 0000 0000 0000 0000
00000050: 0000 0000 0000 0000 0000 0000 0000 0000
00000060: 0000 0000 0000 0000 0000 0000 0000 0000
00000070: 0000 0000 0000 0000 0000 0000 0000 0000
00000080: 0000 0000 0000 0000 0000 0000 0000 0000
00000090: 0000 0000 0000 0000 0000 0000 0000 0000
000000a0: 0000 0000 0000 0000 0000 0000 0000 0000
000000b0: 0000 0000 0000 0000 0000 0000 0000 0000
000000c0: 0000 0000 0000 0000 0000 0000 0000 0000
000000d0: 0000 0000 0000 0000 0000 0000 0000 0000
000000e0: 0000 0000 0000 0000 0000 0000 0000 0000
000000f0: 0000 0000 0000 0000 0000 0000 0000 0000
00000100: 0000 0000 0000 0000 0000 0000 0000 0000
00000110: 0000 0000 0000 0000 0000 0000 0000 0000
00000120: 0000 0000 0000 0000 0000 0000 0000 0000
00000130: 0000 0000 0000 0000 0000 0000 0000 0000
00000140: 0000 0000 0000 0000 0000 0000 0000 0000
00000150: 0000 0000 0000 0000 0000 0000 0000 0000
00000160: 0000 0000 0000 0000 0000 0000 0000 0000
00000170: 0000 0000 0000 0000 0000 0000 0000 0000
00000180: 0000 0000 0000 0000 0000 0000 0000 0000
00000190: 0000 0000 0000 0000 0000 0000 0000 0000
000001a0: 0000 0000 0000 0000 0000 0000 0000 0000
000001b0: 0000 0000 0000 0000 0000 0000 0000 0000
000001c0: 0000 0000 0000 0000 0000 0000 0000 0000
000001d0: 0000 0000 0000 0000 0000 0000 0000 0000
000001e0: 0000 0000 0000 0000 0000 0000 0000 0000
000001f0: 0000 0000 0000 0000 0000 0000 0000 0000

value_heads.value_heads.extrinsic.weight f4 [1, 128]
-0.12031753 0.15549856 -0.20784387 -0.16194306 0.09826505 -0.13333309 0.21489027 0.19955426
0.12979352 -0.10461918 0.1209023 -0.08702533 -0.04204656 0.042571038 0.19253424 0.05396846
0.07991552 0.12746775 0.14782813 0.16825739 0.09960866 0.12537634 0.16416132 -0.1134662
-0.1631425 -0.088186115 0.20738956 -0.027163863 0.023572892 -0.07867324 0.1748439 -0.015507236
-0.11578197 0.13456321 -0.11291836 -0.15710585 -0.085852236 -0.080988035 0.11124584 -0.053434357
0.019179523 -0.029548824 0.014241502 0.024249092 -0.0703648 -0.018077135 -0.107254624 0.052481353
0.09724924 0.1694926 0.18665075 0.13941145 -0.10455478 0.17183128 -0.13446459 -0.13967061
-0.16689074 -0.031001031 -0.18832274 0.15630603 -0.10276791 0.16095912 -0.13160396 0.18044195
-0.1519095 -0.015320346 -0.057426095 -0.15335757 -0.044239655 -0.15685833 0.08953512 -0.020084754
-0.08002275 -0.09461432 0.04213667 -0.035329923 0.2011851 0.091946065 -0.14923784 0.029420555
0.096366554 0.12929982 -0.14125007 -0.0034504533 0.030702755 -0.19463482 0.024777174 0.18998638
0.19683477 0.040054142 -0.12169211 -0.21242072 -0.13389307 0.033890024 0.019982204 0.130907
0.016813338 -0.045348033 0.07032263 -0.14692423 0.083583534 -0.12957796 -0.015618905 -0.084746614
-0.041962937 0.07918176 -0.020752415 0.00650914 -0.016053066 0.097768456 0.04275477 -0.1474753
-0.029774964 -0.029951066 -0.1720947 -0.11807579 0.19709867 0.1368711 -0.20025167 -0.062588245
0.19803604 -0.07790397 -0.1501832 -0.18264946 0.16927946 0.03577578 0.1509138 0.0395222
00000000: 0a69 f6bd 043b 1f3e 06d5 54be 67d4 25be
00000010: 303f c93d 7888 08be 320c 5c3e f457 4c3e
00000020: 98e8 043e 9542 d6bd a09b f73d 563a b2bd
00000030: 0439 2cbd f85e 2e3d b227 453e 080e 5d3d
00000040: c0aa a33d e886 023e 4260 173e aa4b 2c3e
00000050: a0ff cb3d a862 003e e819 283e f860 e8bd
00000060: d40e 27be ec9a b4bd ee5d 543e c086 debc
00000070: f01b c13c 701f a1bd 480a 333e 1012 7ebc
00000080: 191f edbd f0ca 093e be41 e7bd 5be0 20be
00000090: 4cd3 afbd 0edd a5bd dcd4 e33d fcdd 5abd
000000a0: 601e 9d3c 6010 f2bc 3055 693c 08a6 c63c
000000b0: 6c1b 90bd 8016 94bc 50a8 dbbd b0f6 563d
000000c0: 9c2a c73d 788f 2d3e 6021 3f3e e0c1 0e3e
000000d0: d120 d6bd 8af4 2f3e 16b1 09be d005 0fbe
000000e0: 68e5 2abe e0f5 fdbc add7 40be b00e 203e
000000f0: fb77 d2bd 78d2 243e 30c3 06be c6c5 383e
00000100: 2a8e 1bbe 3002 7bbc a037 6bbd c409 1dbe
00000110: a434 35bd 789f 20be 305e b73d c888 a4bc
00000120: f8e2 a3bd 27c5 c1bd 8097 2c3d 1cb6 10bd
00000130: 7803 4e3e 384e bc3d ced1 18be 6003 f13c
00000140: d45b c53d 2c67 043e dca3 10be 0021 62bb
00000150: 5884 fb3c 5a4e 47be 80f9 ca3c ca8b 423e
00000160: 0e8f 493e d00f 243d b739 f9bd d184 59be
00000170: 441b 09be 44d0 0a3d b8b1 a33c 7c0c 063e
00000180: 20bc 893c dcbe 39bd 5005 903d 4e73 16be
00000190: d82d ab3d 16b0 04be 70e6 7fbc a28f adbd
000001a0: 54e1 2bbd 0c2a a23d f800 aabc a04a d53b
000001b0: b881 83bc d43a c83d a01f 2f3d c403 17be
000001c0: a0ea f3bc f05b f5bc 9839 30be b8d1 f1bd
000001d0: 3cd4 493e f027 0c3e c60e 4dbe 442e 80bd
000001e0: f6c9 4a3e 1e8c 9fbd a0c9 19be 7608 3bbe
000001f0: 9857 2d3e a089 123d 2689 1a3e 08e2 213d
