Lofty2024/results/Test16/MoveToPlayer/MoveToPlayer-2464.onnx (onnx, 77734 bytes, 4 tensors)

network_body._body_endoder.seq_layers.0.weight f4 [128, 12]
0	0x3dcf7469	0.10129625
1	0x3e04518e	0.12921736
2	0x3ee1f6be	0.44133562
3	0xbe7b20ef	-0.24524282
4	0x3eaa1a89	0.3322337
5	0x3dfe16d8	0.12406701
6	0x3ef4ee05	0.47837844
7	0xbf37199c	-0.7152345
8	0x3ef2c766	0.47417754
9	0xbe3b78ab	-0.1830775
10	0x3d463165	0.04838695
11	0xbbe1664d	-0.0068786503
12	0x3e743c0e	0.23851034
13	0x3e48322e	0.19550392
14	0x3e5a6a14	0.21329528
15	0xbe8dc8f3	-0.27692375
16	0xbf0dca90	-0.5538721
17	0xbf2a0cc6	-0.6642574
18	0xbe17d0e4	-0.14825779
19	0x3e08e8d0	0.13370061
20	0x3ed71a12	0.42012078
21	0xbe9e38c6	-0.3090269
22	0xbe6189b8	-0.22025192
23	0x3de94ae2	0.11391236
24	0x3c786400	0.015160561
25	0xbe284791	-0.1643355
26	0xbe48bbac	-0.19602841
27	0xbea98f99	-0.3311737
28	0x3df2d11a	0.11856289
29	0x3ef7327e	0.4828071
30	0xbca4bb51	-0.02010885
31	0x3ef31999	0.47480467
32	0x3ea8ea79	0.32991388
33	0xbedc3efa	-0.43016797
34	0xbf0a3dbc	-0.5400045
35	0x3e9f1e27	0.31077692
36	0xbc9ba604	-0.01900006
37	0x3e85caad	0.26131192
38	0x3db0fe12	0.0864221
39	0xbe833509	-0.256264
40	0x3f05965c	0.52182555
41	0x3c69a4f1	0.0142605165
42	0xbe76f136	-0.24115452
43	0x3e372d82	0.17888454
44	0x3e4290c5	0.19000538
45	0xbd38d3e6	-0.045123957
46	0xbe97d89a	-0.2965744
47	0xbcfc384f	-0.030788569
48	0xbd240f1b	-0.04005347
49	0x3e66d178	0.22540843
50	0xbf21b06c	-0.63159823
51	0xbec623ec	-0.3869928
52	0x3e8a7e8a	0.27049667
53	0xbca78a06	-0.020451557
54	0xbe1804b6	-0.14845547
55	0xbf14da50	-0.5814562
56	0xbddb02bf	-0.10693883
57	0xbd6f4129	-0.05841175
58	0x3bc5f9c9	0.0060417396
59	0x3e641cd6	0.22276625
60	0xbe89e3dc	-0.26931655
61	0xbeaa2932	-0.33234555
62	0xbe20d35c	-0.15705627
63	0x3e8c8228	0.2744305
64	0xbed3e78b	-0.4138759
65	0xbdcb6e3c	-0.09933135
66	0xbd965089	-0.073395796
67	0x3f06be1a	0.5263382
68	0xbe5513cf	-0.20808338
69	0x3ee33a09	0.44380215
70	0xbdda6c31	-0.10665167
71	0xbe98ba1c	-0.2982949
72	0xbe40b6bd	-0.18819709
73	0x3e225c66	0.1585556
74	0xbe49c279	-0.19703092
75	0xbcd6e024	-0.026229925
76	0xbe847607	-0.25871298
77	0x3c689b9e	0.014197258
78	0x3daa97f1	0.08329762
79	0xbeb04cbc	-0.34433544
80	0x3f01038e	0.5039605
81	0x3e86b630	0.26310873
82	0xbd42bdc5	-0.04754426
83	0xbe0896e1	-0.13338806
84	0xbce22624	-0.027606077
85	0xbe0d153e	-0.13777635
86	0x3e9df802	0.30853277
87	0xbea53ab2	-0.32271343
88	0x3dd77e86	0.10522179
89	0xbf0fba76	-0.5614389
90	0xbc7acd6a	-0.015307764
91	0x3e667792	0.2250655
92	0x3f35ad5e	0.7096766
93	0x3c89892c	0.016789041
94	0x3e72c39f	0.23707436
95	0x3e424848	0.18972886
96	0x3e1f1ff5	0.15539534
97	0xbf232c17	-0.6373915
98	0xbe99ba46	-0.30024928
99	0xbeaeac9e	-0.3411607
100	0xbe7533c3	-0.23945527
101	0x3f0a4579	0.54012257
102	0xbe6129b7	-0.21988569
103	0x3dcb2a48	0.09920174
104	0x3cb4f6da	0.022090364
105	0x3db5c1d8	0.088748634
106	0xbe3eb24d	-0.18622704
107	0xbea46d23	-0.32114515
108	0x3e5f418a	0.21802345
109	0x3ee3fb8e	0.44527858
110	0xbed0a30b	-0.40749392
111	0xbd199842	-0.03749872
112	0xbe66eba1	-0.22550823
113	0x3e86c3be	0.26321214
114	0x3cb0f9a0	0.021603405
115	0xbe97d2e4	-0.29653084
116	0x3ebbdf82	0.3669396
117	0x3d9c9c9c	0.07647058
118	0x3e145178	0.14484203
119	0xbee6d1cd	-0.4508194
120	0xbe0654fd	-0.13118358
121	0xbe9efef7	-0.31053898
122	0x3dbf587a	0.093430474
123	0xbe75e3f9	-0.24012746
124	0x3ee0e8d0	0.43927622
125	0xbe90a2a4	-0.28249085
126	0x3f2061cf	0.62649244
127	0xbdcdf9b4	-0.10057393
128	0x3e97d8b3	0.29657516
129	0xbcf9d528	-0.030497149
130	0xbdb79b7e	-0.08965205
131	0xbf0be94f	-0.54652876
132	0x3de5106d	0.111847736
133	0x3e6d05c7	0.23146735
134	0x3da940ad	0.08264289
135	0x3c3e2e3c	0.011607703
136	0xbee3d23c	-0.44496334
137	0x3dd12be4	0.102134496
138	0xbe82e81e	-0.25567716
139	0x3eb0a2cb	0.344992
140	0x3ed2c41b	0.41165242
141	0xbd5e5a6c	-0.05428545
142	0x3d07ce16	0.033155523
143	0xbbdf4ce3	-0.0068145855
144	0xbe81064a	-0.2520011
145	0xbe6129e8	-0.21988642
146	0x3e83d7ae	0.25750488
147	0x3e56dce7	0.20982705
148	0xbea77a4f	-0.32710502
149	0x3e066c84	0.13127333
150	0xbe8796c0	-0.264822
151	0xbdfbcc65	-0.122948445
152	0x3e640e22	0.22271016
153	0xbdd4a04e	-0.10382138
154	0x3da00660	0.07813716
155	0x3d90554e	0.070475206
156	0xbe75d10f	-0.24005531
157	0xbe5aeb33	-0.21378784
158	0x3f12c19e	0.57326686
159	0x3d08fea0	0.033445954
160	0xbe36f2b0	-0.17866015
161	0x3b953683	0.0045536174
162	0x3e01e77a	0.12685958
163	0xbdf36456	-0.11884372
164	0x3e58dc4e	0.2117779
165	0xbe819409	-0.25308254
166	0x3edf9538	0.43668532
167	0x3e767d9d	0.24071355
168	0xbdf29dec	-0.118465275
169	0xbd206758	-0.039161056
170	0x3dc0f9dd	0.09422658
171	0xbe330ebf	-0.17486094
172	0xbb92dcb9	-0.0044818786
173	0x3ec97cf0	0.39353132
174	0xbe26ddf8	-0.16295612
175	0x3e6ea75a	0.23306027
176	0xbeb33a6b	-0.35005507
177	0xbdc27516	-0.094949886
178	0x3e98cb5f	0.2984266
179	0x3d02007f	0.031738754
180	0x3d7dca2f	0.061960395
181	0x3cc2ea90	0.023793489
182	0x3ca90db5	0.020636419
183	0x3e5ce2e1	0.21570922
184	0xbd9e22b9	-0.077214666
185	0x3e320d78	0.1738795
186	0x3e952533	0.29129943
187	0xbec98fc9	-0.39367512
188	0xbe289461	-0.16462852
189	0xbebd4c04	-0.36972058
190	0xbee124aa	-0.43973285
191	0xbe719b80	-0.23594475
192	0xbd7e7cc8	-0.06213072
193	0xbea6b1f4	-0.32557642
194	0xba6691b6	-0.00087955163
195	0xbe2486b3	-0.16067009
196	0xbf10ae68	-0.5651612
197	0xbe8c1139	-0.2735689
198	0x3f16b0b9	0.5886341
199	0x3e4b37d3	0.19845514
200	0x3f189123	0.5959646
201	0xbdf78af0	-0.12087047
202	0xbf0271bf	-0.5095481
203	0xbe9a3459	-0.30118063
204	0xbe964cd3	-0.29355487
205	0x3d9840ae	0.07434212
206	0xbed08427	-0.40725824
207	0xbe065a6f	-0.13120435
208	0x3e90779a	0.2821625
209	0x3e78cd73	0.24297123
210	0xbf2ecf84	-0.68285394
211	0xbb7edc92	-0.0038888794
212	0x3e22f9db	0.15915625
213	0x3d998c9e	0.07497524
214	0x3ed15c8b	0.40890917
215	0xbd5f03a5	-0.054446835
216	0xbf219ba7	-0.6312813
217	0xbe79bec5	-0.24389179
218	0xbdb8d870	-0.09025657
219	0x3f09c4b8	0.53815794
220	0x3d8dad3c	0.069178075
221	0xbc4c15c9	-0.012456366
222	0xbf001b9b	-0.5004212
223	0x3c133072	0.008983718
224	0x3d8950e5	0.067048825
225	0xbde0be0b	-0.10973748
226	0xbc13033e	-0.008972941
227	0x3e25fad0	0.16208959
228	0x3e23318b	0.15936868
229	0x3d964826	0.0733798
230	0xbe8d129b	-0.27553257
231	0x3e314ada	0.1731371
232	0xbe1ee5d6	-0.15517363
233	0xbed2ee71	-0.4119754
234	0x3e911261	0.28334334
235	0x3f0717a2	0.52770436
236	0xbedec55e	-0.43509954
237	0x3e9dedf2	0.308456
238	0xbd93a087	-0.072083525
239	0xbe64d6a0	-0.22347498
240	0x3e3d64ff	0.18495558
241	0xbd38384a	-0.044975556
242	0x3d657265	0.0560173
243	0x3ca1c73f	0.019748328
244	0xbe673557	-0.22578941
245	0xbe0c888e	-0.13723966
246	0x3e6b1538	0.22957313
247	0x3e648952	0.22318009
248	0xbe8211c8	-0.2540419
249	0xbe9d6cbe	-0.30747026
250	0x3dbad36e	0.09122358
251	0x3ec0bfad	0.37646237
252	0xbe2c7039	-0.16839685
253	0xbe153ab7	-0.14573179
254	0x3bda0c6e	0.0066543138
255	0x3f2656d4	0.6497624

network_body._body_endoder.seq_layers.0.bias f4 [128]
0	0x00000000	0.0
1	0x00000000	0.0
2	0x00000000	0.0
3	0x00000000	0.0
4	0x00000000	0.0
5	0x00000000	0.0
6	0x00000000	0.0
7	0x00000000	0.0
8	0x00000000	0.0
9	0x00000000	0.0
10	0x00000000	0.0
11	0x00000000	0.0
12	0x00000000	0.0
13	0x00000000	0.0
14	0x00000000	0.0
15	0x00000000	0.0
16	0x00000000	0.0
17	0x00000000	0.0
18	0x00000000	0.0
19	0x00000000	0.0
20	0x00000000	0.0
21	0x00000000	0.0
22	0x00000000	0.0
23	0x00000000	0.0
24	0x00000000	0.0
25	0x00000000	0.0
26	0x00000000	0.0
27	0x00000000	0.0
28	0x00000000	0.0
29	0x00000000	0.0
30	0x00000000	0.0
31	0x00000000	0.0
32	0x00000000	0.0
33	0x00000000	0.0
34	0x00000000	0.0
35	0x00000000	0.0
36	0x00000000	0.0
37	0x00000000	0.0
38	0x00000000	0.0
39	0x00000000	0.0
40	0x00000000	0.0
41	0x00000000	0.0
42	0x00000000	0.0
43	0x00000000	0.0
44	0x00000000	0.0
45	0x00000000	0.0
46	0x00000000	0.0
47	0x00000000	0.0
48	0x00000000	0.0
49	0x00000000	0.0
50	0x00000000	0.0
51	0x00000000	0.0
52	0x00000000	0.0
53	0x00000000	0.0
54	0x00000000	0.0
55	0x00000000	0.0
56	0x00000000	0.0
57	0x00000000	0.0
58	0x00000000	0.0
59	0x00000000	0.0
60	0x00000000	0.0
61	0x00000000	0.0
62	0x00000000	0.0
63	0x00000000	0.0
64	0x00000000	0.0
65	0x00000000	0.0
66	0x00000000	0.0
67	0x00000000	0.0
68	0x00000000	0.0
69	0x00000000	0.0
70	0x00000000	0.0
71	0x00000000	0.0
72	0x00000000	0.0
73	0x00000000	0.0
74	0x00000000	0.0
75	0x00000000	0.0
76	0x00000000	0.0
77	0x00000000	0.0
78	0x00000000	0.0
79	0x00000000	0.0
80	0x00000000	0.0
81	0x00000000	0.0
82	0x00000000	0.0
83	0x00000000	0.0
84	0x00000000	0.0
85	0x00000000	0.0
86	0x00000000	0.0
87	0x00000000	0.0
88	0x00000000	0.0
89	0x00000000	0.0
90	0x00000000	0.0
91	0x00000000	0.0
92	0x00000000	0.0
93	0x00000000	0.0
94	0x00000000	0.0
95	0x00000000	0.0
96	0x00000000	0.0
97	0x00000000	0.0
98	0x00000000	0.0
99	0x00000000	0.0
100	0x00000000	0.0
101	0x00000000	0.0
102	0x00000000	0.0
103	0x00000000	0.0
104	0x00000000	0.0
105	0x00000000	0.0
106	0x00000000	0.0
107	0x00000000	0.0
108	0x00000000	0.0
109	0x00000000	0.0
110	0x00000000	0.0
111	0x00000000	0.0
112	0x00000000	0.0
113	0x00000000	0.0
114	0x00000000	0.0
115	0x00000000	0.0
116	0x00000000	0.0
117	0x00000000	0.0
118	0x00000000	0.0
119	0x00000000	0.0
120	0x00000000	0.0
121	0x00000000	0.0
122	0x00000000	0.0
123	0x00000000	0.0
124	0x00000000	0.0
125	0x00000000	0.0
126	0x00000000	0.0
127	0x00000000	0.0

network_body._body_endoder.seq_layers.2.weight f4 [128, 128]
0	0x3daae573	0.08344545
1	0xbb8c69b4	-0.0042850617
2	0x3d2f99c1	0.04287124
3	0x3d9b9a42	0.07597782
4	0xbdaed411	-0.08536542
5	0xbd97a66d	-0.0740479
6	0x3d372433	0.044712257
7	0x3db3ff1b	0.08788892
8	0x3d6776de	0.056509845
9	0xbde5421e	-0.111942515
10	0xbd9e3b88	-0.077261984
11	0x3de4ab04	0.11165431
12	0x3e1cf778	0.15328777
13	0x3c948223	0.01812846
14	0xbe2a90af	-0.16656755
15	0xbd0d4928	-0.034493595
16	0xbe4d158e	-0.20027754
17	0x3da3e095	0.0800182
18	0x3cdd6627	0.02702625
19	0xbc6955f3	-0.014241683
20	0x3ce568d7	0.028004093
21	0x3cf21cae	0.029554691
22	0xbd60bf25	-0.05486979
23	0xbe541ec7	-0.20714866
24	0x3cf367ce	0.029712584
25	0xbcdfe950	-0.027332932
26	0xbc22638d	-0.00991143
27	0x3e63b9c7	0.22238837
28	0x3d43ae92	0.047773905
29	0xbd138153	-0.036012005
30	0x3e343336	0.1759766
31	0x3a8b2b9e	0.0010617857
32	0xbc072929	-0.008249559
33	0x3e0bc7cf	0.1365044
34	0xbc5ad451	-0.013356284
35	0x3d5f568c	0.054525897
36	0xbad73549	-0.0016419078
37	0x3d18b5bb	0.037282687
38	0x3daac940	0.08339167
39	0xbc336d44	-0.010951344
40	0x3d0842a3	0.033266675
41	0x3d8561e7	0.06512814
42	0x3c7484c0	0.014924228
43	0xbd8becca	-0.06832273
44	0xbba985f6	-0.00517344
45	0xbbc5c44c	-0.0060353633
46	0x3d8ddffe	0.06927489
47	0xbe213483	-0.15742688
48	0xbdaa15c4	-0.08304933
49	0xbb960ecf	-0.004579402
50	0xbda6b997	-0.08140867
51	0xbd995671	-0.074871905
52	0x3e20761a	0.15670052
53	0xbda27793	-0.07932963
54	0x3da3d976	0.08000462
55	0xbdcb6a6e	-0.09932409
56	0xbd9b4270	-0.07581031
57	0x3b5f1fad	0.003404598
58	0x3dd477cf	0.10374414
59	0xbd6c67bd	-0.05771612
60	0x3d09299f	0.03348696
61	0x3e161ccd	0.14659424
62	0xbcb03fd8	-0.021514818
63	0xbd8f150c	-0.06986436
64	0x3d50833e	0.050906412
65	0x3ccc2c8e	0.02492359
66	0x3be4c5eb	0.0069816015
67	0x3db2aa36	0.087238714
68	0x3bea1706	0.007143858
69	0xbd860fde	-0.06545995
70	0xbd85bac0	-0.0652976
71	0xbdd75a03	-0.10515215
72	0xbdd63b01	-0.10460473
73	0x3d537b00	0.051630974
74	0xbdeed091	-0.11660875
75	0x3e0767b7	0.13223158
76	0xbdb60d1d	-0.0888922
77	0xbbf402d7	-0.0074466276
78	0xbcc50565	-0.024050424
79	0xbe500db5	-0.20317729
80	0x3c03a67b	0.0080352975
81	0xbd2b33e5	-0.041797537
82	0x3d726406	0.05917742
83	0x3c97521f	0.018471776
84	0x3d063e8a	0.032774486
85	0xbae122eb	-0.0017176544
86	0x3da15f21	0.078794725
87	0x3da603c7	0.08106189
88	0xbe6755f3	-0.22591381
89	0xbdc5043c	-0.09619948
90	0x3d0a1e94	0.033720568
91	0x3c0db8ed	0.008650047
92	0x3d601353	0.05470593
93	0xbd498147	-0.049195554
94	0xbd910a0f	-0.07081997
95	0x3d270489	0.04077581
96	0x3e01b12d	0.12665243
97	0xbdb91d31	-0.09038771
98	0xbd2cd158	-0.042191833
99	0x3e0e5d65	0.13902815
100	0x3dcaf7e7	0.09910565
101	0x3d8b3bf7	0.06798547
102	0xbdc287b1	-0.09498537
103	0xbe023312	-0.12714794
104	0xbc69de14	-0.014274139
105	0x3ccf98ab	0.025341352
106	0xbd530c46	-0.051525377
107	0xbda2671c	-0.07929823
108	0x3d420b43	0.04737402
109	0xbd953779	-0.07285971
110	0xbdb00cb4	-0.08596173
111	0x3b92ed23	0.0044838353
112	0x3d6db335	0.058032233
113	0x3e2336e5	0.1593891
114	0x3de334bf	0.11094045
115	0xbdbb8a15	-0.091571964
116	0x3e0d423e	0.137948
117	0x3d9a8b6d	0.075461246
118	0xbde54a46	-0.11195807
119	0x3cde1897	0.027111335
120	0xbe196004	-0.14978033
121	0x3de4d4da	0.11173411
122	0xbad62619	-0.0016338258
123	0xbd8d2d73	-0.068934344
124	0xbdb5bb52	-0.08873619
125	0xbd037075	-0.03208967
126	0xbd291142	-0.041276224
127	0x3dcbf910	0.09959614
128	0x3d623fc9	0.05523661
129	0x3c5f9a23	0.013647589
130	0xbd9b5df7	-0.07586282
131	0x3dc9f40c	0.09861001
132	0xbdd81c7e	-0.105523095
133	0xbda1ce9b	-0.07900735
134	0x3d87f101	0.06637765
135	0xbe4729ab	-0.19449489
136	0x3d9731c9	0.07382543
137	0x3d8b1de6	0.06792812
138	0x3d33d3da	0.04390321
139	0x3d177b0c	0.03698258
140	0xbc56fcd5	-0.013121803
141	0x3d62e65b	0.055395465
142	0x3cd4f8ac	0.025997482
143	0xbdc5f123	-0.09665134
144	0xbd060646	-0.032720827
145	0x3e184eed	0.14873858
146	0xbd0cd1f6	-0.03437992
147	0xbcf6afec	-0.030113183
148	0xbd89aec4	-0.06722787
149	0xbcf51e3f	-0.029921649
150	0xbc9442b9	-0.018098222
151	0xbddb0827	-0.10694914
152	0x3d715c12	0.058925696
153	0xbd99b98d	-0.07506094
154	0xbdd80272	-0.105473414
155	0xbdd90710	-0.1059705
156	0x3c9231ba	0.017845977
157	0xbda26dfa	-0.079311326
158	0xbd705eeb	-0.05868427
159	0x3e0535d1	0.1300881
160	0xbdc4458f	-0.0958358
161	0xbd062ed9	-0.03275952
162	0x3d955710	0.072919965
163	0x3e54c011	0.20776393
164	0xbdf8fcc5	-0.12157587
165	0x3d8a5a9b	0.06755563
166	0x3d3560a7	0.044281628
167	0xbe046ecb	-0.12932889
168	0xbcd7fba8	-0.026365116
169	0x3e137ec6	0.14403829
170	0xbb036247	-0.0020047592
171	0xbd2a83de	-0.041629665
172	0x3a8d4124	0.001077686
173	0x39b4c1d4	0.0003447669
174	0x3d337bf2	0.043819375
175	0xbcc5d73b	-0.024150481
176	0x3e139941	0.1441393
177	0xbd845453	-0.06461396
178	0x3d960bb7	0.07326453
179	0xbde9866b	-0.11402591
180	0x3cd2b4b5	0.025720933
181	0x3e2a37db	0.1662287
182	0x3dccd536	0.10001604
183	0x3b89d2e4	0.0042060483
184	0xbd765cf5	-0.060147244
185	0xbdbf8661	-0.093518026
186	0x3b3561ee	0.002767678
187	0x3d520daa	0.051282562
188	0xbcc9ab62	-0.024617855
189	0xbdbc4d5d	-0.091944434
190	0xbce7b10d	-0.028282667
191	0x3cb1a842	0.021686677
192	0xbc78e6d2	-0.015191751
193	0x3c8cea4d	0.017201567
194	0xbcc02ad9	-0.023457931
195	0x3ca7fbd5	0.020505825
196	0x3da6dbf0	0.081474185
197	0x3d96ad68	0.07357293
198	0xbc9eb5f2	-0.019373868
199	0xbd0c3271	-0.034227792
200	0x3d4c21c5	0.049836893
201	0x3e0b299f	0.13590096
202	0xbd381304	-0.04494001
203	0x3dc50949	0.09620912
204	0xbd950629	-0.072765656
205	0x3d11e222	0.035616048
206	0x3b82a753	0.0039872318
207	0x3b5ea3a8	0.0033972058
208	0xbd5a66c8	-0.053320676
209	0x3cb2fcb5	0.021849016
210	0xbc52f076	-0.012874713
211	0x3e012915	0.12613328
212	0xbb1452b8	-0.0022632312
213	0x3d88a58d	0.06672201
214	0x3e4f8109	0.20264067
215	0x3da550f0	0.08072078
216	0xbc85325f	-0.01625937
217	0xbd2d87a8	-0.0423657
218	0x3d15c4e4	0.036564723
219	0xbd5b3fb2	-0.05352754
220	0x3d6372c9	0.05552939
221	0xbe1976cb	-0.14986722
222	0xbcbc7da4	-0.023009129
223	0x3e581f95	0.21105798
224	0xbb29e228	-0.0025922153
225	0x3d6d1b41	0.05788732
226	0x3da44523	0.08020999
227	0xbcb67d94	-0.022276677
228	0x3e14e937	0.1454209
229	0xbd0e5529	-0.034749184
230	0x3da6184e	0.081101045
231	0xbe12f9d3	-0.14353113
232	0xbca82363	-0.020524686
233	0x3e23f4f6	0.16011414
234	0x3d0c9c0e	0.034328513
235	0x3cb2e574	0.021837927
236	0x3c94283a	0.018085588
237	0xbe842022	-0.25805765
238	0x3c8d5add	0.017255241
239	0x3e4cdcdc	0.20006126
240	0xbdda011a	-0.10644741
241	0x3d4c17d6	0.04982742
242	0x3d9a5fbf	0.07537793
243	0x3d208262	0.039186843
244	0x3dd1e856	0.10249393
245	0xbc8adbe2	-0.016950551
246	0xbd5cf08c	-0.05394034
247	0xbc1ae590	-0.009454146
248	0x3bc8eb76	0.0061315848
249	0xbd079a71	-0.03310627
250	0xbdef2d85	-0.11678604
251	0xbd53cb4e	-0.05170756
252	0xbce7f2b6	-0.028313976
253	0x3d3b651f	0.045750733
254	0xbd10e9a7	-0.03537908
255	0xbd3b7cb5	-0.045773227

action_model._discrete_distribution.branches.0.weight f4 [1, 128]
0	0x3ca90f78	0.020637259
1	0x3ca600fc	0.020264141
2	0x3b0e4e4f	0.0021714156
3	0x3a849443	0.0010114986
4	0x3b323657	0.0027193034
5	0xbc66ca2d	-0.014086288
6	0xbc75d8ba	-0.015005285
7	0xbbcdeb93	-0.006284186
8	0xbc666fe5	-0.014064764
9	0xbbad8c6f	-0.005296282
10	0xbc44913e	-0.011997519
11	0xbc2f685c	-0.010706034
12	0xbcb336db	-0.021876743
13	0xbb5e85e5	-0.003395432
14	0xbbc40c7a	-0.0059829326
15	0xbbd8a27a	-0.0066111656
16	0xbc6e7800	-0.014554977
17	0x3badb96b	0.0053016446
18	0xbbf12207	-0.0073587927
19	0xbb8b932e	-0.0042594885
20	0x3b68fb93	0.003555034
21	0x3b8bd973	0.0042678653
22	0x3c549b42	0.0129764695
23	0xbab204ab	-0.0013581713
24	0x3adcd160	0.0016847067
25	0xbb4bf416	-0.0031120828
26	0xbb94463a	-0.004524973
27	0xbafa9768	-0.0019118609
28	0x3ca64707	0.02029754
29	0x3bd5574f	0.006510652
30	0x3b6dadb0	0.0036266856
31	0xbb1cf9d3	-0.0023952618
32	0xbc43239a	-0.011910344
33	0xbb2007d3	-0.0024418726
34	0xbb10014f	-0.0021973436
35	0x3bc247c3	0.005928965
36	0xbbfa1198	-0.007631492
37	0xb8adf70f	-8.295301e-05
38	0xbb79dcc2	-0.0038125967
39	0xbbecb28f	-0.0072234343
40	0x3b983e37	0.0046460885
41	0xbcaad214	-0.020852126
42	0xbb79c365	-0.003811085
43	0xbc0303b8	-0.007996492
44	0x3c047ef5	0.00808691
45	0xbae2226f	-0.0017252694
46	0xbbe595d0	-0.0070063844
47	0x3bc58d44	0.006028803
48	0xbc2c3e7b	-0.010512943
49	0x3bb3864c	0.005478656
50	0x3b7ed1cf	0.003888238
51	0x3abf4f27	0.0014595733
52	0x3c95549c	0.018228821
53	0xbb0ccd76	-0.002148477
54	0xbae2d67f	-0.0017306356
55	0x3c0f69be	0.008753238
56	0x3b84e365	0.004055428
57	0xbc05ffec	-0.008178692
58	0xba3cee6f	-0.000720716
59	0x3b1843d2	0.0023233783
60	0x3c1e5ff3	0.009666431
61	0x3c245e5f	0.010032265
62	0xbc01d174	-0.007923473
63	0xbc5e60d3	-0.013572889
64	0xbb7fb26b	-0.0039016258
65	0x3b747f3d	0.0037307285
66	0x3ba5666b	0.0050476096
67	0x3b0d284a	0.0021538907
68	0x3c5f87cd	0.013643217
69	0xbc454157	-0.012039504
70	0xbb8d83d0	-0.004318692
71	0x3bb6f3a6	0.0055832444
72	0x3cb5b3a4	0.022180386
73	0xbca23517	-0.019800706
74	0x3b0e75dd	0.0021737732
75	0xbb79433f	-0.0038034467
76	0xbc309ff3	-0.010780322
77	0xbb5189f5	-0.0031973098
78	0x3c8f485d	0.01749056
79	0xbbebdf47	-0.0071982476
80	0x3b9c0a10	0.0047619417
81	0xbc1ec327	-0.009690083
82	0xb9e5b302	-0.00043811655
83	0xbc84326a	-0.01613732
84	0x3b976f93	0.004621455
85	0x3be8f4a8	0.0071092434
86	0xbb2d2033	-0.0026416897
87	0x3af4dec8	0.0018682117
88	0xbc001cc1	-0.007819355
89	0xba8ec7d3	-0.0010893292
90	0x3c2e3af3	0.010634172
91	0x3c03da9f	0.008047729
92	0xbb920e3b	-0.004457263
93	0xbbaea0cb	-0.0053292266
94	0x3bfbdc58	0.007686179
95	0x3a9152e2	0.0011087323
96	0x3c2dc4a2	0.010605963
97	0xbb2b20b4	-0.0026112022
98	0x3bd61838	0.006533649
99	0x3c8641db	0.016388824
100	0xbc683567	-0.014172888
101	0x39e80fdf	0.00044262313
102	0xbba9aa46	-0.005177769
103	0x3c1a0d10	0.009402528
104	0x3b96dc67	0.0046039107
105	0xbb841ee0	-0.004032001
106	0xbc75bbdf	-0.014998405
107	0xba51d723	-0.0008004775
108	0x3b853c05	0.004065993
109	0x3c4758ec	0.012167197
110	0xbb595ad8	-0.003316572
111	0xbc2c2926	-0.010507857
112	0xbac74076	-0.0015201706
113	0x3ba3f5d7	0.0050036716
114	0xba27267b	-0.00063762785
115	0x3c3fe853	0.011713105
116	0xbc07082b	-0.0082416935
117	0x3c4e8035	0.012603809
118	0x3c1cbd2f	0.009566589
119	0x3b5052fa	0.003178774
120	0x3c7902c0	0.01519841
121	0x3c6a6cab	0.014308135
122	0x3b46c0da	0.003032735
123	0xbbdf7da5	-0.006820398
124	0x3bb173ac	0.0054154005
125	0x3cca1ff8	0.024673447
126	0x3c81f9c0	0.01586616
127	0xbba9db60	-0.0051836222
