Lofty2024/Assets/_Lofty/James/AI Brain/Old/MoveToPlayer.onnx (onnx, 78290 bytes, 8 tensors)

network_body._body_endoder.seq_layers.0.weight f4 [128, 6]
00000000: 5d01 173e 4d91 713e 91a1 833e 8bf3 f5bc
00000010: dfb7 973e 7fa5 89be fcba 3e3e 3eab 20bf
00000020: 536c a8be 8bbc 1fbe 1528 1fbe 8200 183e
00000030: 0772 3fbd 44cd 51bd 665a 01be f898 5bbe
00000040: 42a6 4f3c e297 c93e ecba 753d 68be 01bf
00000050: 41d9 09bf 5964 463f 0073 20be 6f37 9ebd
00000060: 5f91 f03e 66ee 5cbd 6a4d 0dbe eadd bfbc
00000070: 3403 623f ba5b a13d 63a7 943e bb04 c8be
00000080: 25f0 72be 4d15 44bf 38dd 46be e775 413f
00000090: 56db e83c 180d ca3e ed60 5b3f 24b3 d63e
000000a0: 53b6 3e3f 4b95 0abe d846 113f 3f09 a13d
000000b0: 3428 373f abe9 4c3e f7d4 043f 71e6 48bf
000000c0: 2677 803f a3a4 213f 7c87 8c3e cc3e 99be
000000d0: 0869 863d 2904 bb3d ed5d 0cbd 34ac 7b3f
000000e0: fb18 4dbe 50ff c83e 29e0 5f3e 91f3 513f
000000f0: da1f 443d 9dfa 32be cf08 74bc 3098 12bf
00000100: b19c 1c3e 0afd ed3e 6565 e43d 45f2 bb3e
00000110: c471 fbbe 7217 85be 7e68 053e 8663 66be
00000120: fe77 d8bd 65ac 70bd 5fa0 4e3f 74fb 7fbe
00000130: 729f cebe 6738 583e 94b6 e23d 9358 dabe
00000140: 0aa3 123f 1874 c83d e733 c03e da40 38bf
00000150: 83bc b93e b412 4c3e 7394 95bc d2c8 87be
00000160: 5583 87be bcad 353f cf50 b2bd 54cc 923f
00000170: 88f6 1b3f c74d b9be a145 9fbd 377a c73e
00000180: f893 3e3e feb6 563e 1264 84bd 5ba9 8b3e
00000190: b154 b13c b3bb 3fbf f6bf fcbe 8f73 bb3d
000001a0: 7902 673b 29ae 6dbd 79a8 abbe 9463 7ebe
000001b0: 4e37 033f 9515 373d 4088 5abe 8772 52bd
000001c0: a6f0 8c3d 29da bdbe 10b9 b4bc b6d8 ab3e
000001d0: f56d 11bf f7b3 8abe d7d5 4f3e 1bb9 e5bc
000001e0: 553a be3e 2c5d 5abe 18bf 143f e8db c8be
000001f0: 0cb9 b8be e512 74be 3493 28be 576b b53e
00000200: deba 30bf 7b20 bfbc d9e8 6cbd 5116 10be
00000210: b179 04be 6c31 76bf 0064 cc3e 7c96 113e
00000220: b507 e83d f64b d83e d87c 0a3d beee d13e
00000230: a0e8 d93e 7d5d 263d 2790 46bd 9a43 33bf
00000240: 8388 5dbf 8032 f53e c2ae aa3e 6ca9 493e
00000250: cf8f bb3e 1b3b 2c3f f900 253d 1543 113d
00000260: 0f27 dabd 0c61 f13d 6d46 4bbf 5acd b5bd
00000270: 22ac fdbd a69d 123e 318c 6c3e 8634 903e
00000280: aeb5 e33d 7a6e 84bd 1971 c83e 1b60 4bbe
00000290: 414a 023f f03a 203d 745f a2be 650f fdbd
000002a0: 6a2b 4fbf 844f 5bbe 047c ca3e b167 71bd
000002b0: 28c0 ba3e dd80 703e 8bae c1be a477 e9be
000002c0: 7661 6abd b58e 97bf e0af afbe 81d0 323f
000002d0: 1d14 743e 5414 e1be 9f0f 343c c300 83bd
000002e0: 4cca 403f 4b38 7e3e c002 2a3f b319 6dbc
000002f0: 8b6a 9ebd f3c5 febe 56c4 18be 7ab5 b6be
00000300: e7fb f13e 1566 9dbe ca9a 203f 923e 80be
00000310: 1bf0 68bd df76 223e 649e c0bd 598b 293e
00000320: d6c7 e33e b0e7 b63e 1c6a 25be 8419 033f
00000330: 450c a83e 7b78 08bf 4d18 cbbe e158 17be
00000340: 280c 78be 1497 b23d 7916 16be 95f0 893e
00000350: 099b 273e 75e5 01bf 55eb 033f f1ba c9bb
00000360: 676f 2d3f a6c2 a93e b646 82be 271b 85be
00000370: f5c1 9b3e 8b44 633f bf36 0f3e 47d4 37bd
00000380: 3550 2cbf da7e 1dbf 0cc9 6fbe e33d 46be
00000390: d96b 453e a8f9 cabe 7d11 06be 34c7 ebbe
000003a0: 322c 8ebe fb30 1c3e 51d7 47bf bc8d 9b3e
000003b0: 622b cbbe 7471 b83d 1ae7 18bf 50e9 e2be
000003c0: 3bdc 37be 7d82 3bbf b943 7c3d 5a31 9ebd
000003d0: 16a7 153c c306 ccbd c500 cf3d 8778 933e
000003e0: c3ae 053e 301b 97be 2cb7 36bf 6e21 1c3f
000003f0: 4063 bd3d b8c4 d73e c208 eebd 51a9 94be
0.14746614 0.23590584 0.25709203 -0.030023357 0.2963247 -0.26884076 0.18626016 -0.62761295
-0.32895145 -0.15599267 -0.15542634 0.14843944 -0.046739604 -0.051221147 -0.1263214 -0.21445072
0.012673916 0.3937369 0.059992716 -0.5068116 -0.5384713 0.7749687 -0.15668869 -0.07725417
0.4698591 -0.053938292 -0.13799062 -0.023421247 0.8828614 0.078788236 0.29033956 -0.3906611
-0.2372442 -0.76595 -0.19420326 0.7557053 0.0284249 0.39463115 0.8569477 0.41933548
0.74496955 -0.13533513 0.56748724 0.07863092 0.7154572 0.20011012 0.5188746 -0.78476626
1.0036361 0.6314184 0.27447116 -0.29930723 0.06563002 0.09131653 -0.034269262 0.98309636
-0.2002906 0.39257288 0.21862854 0.8201228 0.04788194 -0.17478414 -0.014894678 -0.5726347
0.15294148 0.46482116 0.11152152 0.36708274 -0.49110234 -0.2599445 0.13028142 -0.22498903
-0.10569762 -0.05875816 0.80713457 -0.24998266 -0.40356022 0.21115266 0.1106998 -0.42645702
0.5728003 0.09787768 0.37539598 -0.71973956 0.36276636 0.1992901 -0.018259263 -0.265204
-0.26467386 0.7096822 -0.08706819 1.1468606 0.6092305 -0.36192152 -0.077769525 0.3896043
0.18611133 0.20968243 -0.064643994 0.27277645 0.02164683 -0.7489578 -0.49365205 0.091529004
0.0035249277 -0.05802742 -0.33526972 -0.24842674 0.51256263 0.044698317 -0.21341038 -0.051378753
0.068818375 -0.37080505 -0.0220609 0.33563775 -0.56808406 -0.27090427 0.20296417 -0.028042367
0.3715388 -0.21324605 0.58104086 -0.39230275 -0.3607868 -0.23835333 -0.16462404 0.35433456
-0.69035137 -0.023330918 -0.05783925 -0.14071013 -0.12937047 -0.9616916 0.39920044 0.14217561
0.11329595 0.42245454 0.033810467 0.41002458 0.4256029 0.0406165 -0.04847732 -0.70025027
-0.86536425 0.4789009 0.33336455 0.19693536 0.36633155 0.6727769 0.04028413 0.035464365
-0.10651981 0.11786088 -0.79404336 -0.08877058 -0.12386347 0.1431795 0.23100354 0.28165072
0.11118637 -0.06466384 0.39148787 -0.1986088 0.5089455 0.039118707 -0.3171345 -0.12356452
-0.8092562 -0.21417052 0.3954774 -0.05893678 0.3647473 0.23486657 -0.37828478 -0.4559909
-0.057221852 -1.1840426 -0.3431387 0.698494 0.23835798 -0.43960822 0.0109900525 -0.0639663
0.7530868 0.24826162 0.66410446 -0.014471459 -0.07735165 -0.49760398 -0.14918646 -0.3568533
0.472625 -0.30741945 0.6273619 -0.25047737 -0.056869607 0.15865658 -0.094052106 0.16557063
0.444884 0.3572364 -0.16153759 0.5121081 0.3282186 -0.5330884 -0.39666978 -0.14779998
-0.24223387 0.08720222 -0.1465701 0.26941362 0.16367735 -0.5074075 0.51530963 -0.0061563184
0.6774811 0.33156317 -0.25444573 -0.25997278 0.30421415 0.88776463 0.13985728 -0.044880178
-0.67309886 -0.61521685 -0.23416537 -0.19359545 0.19279422 -0.39643598 -0.13092609 -0.46050417
-0.27768093 0.1525306 -0.7806292 0.30381572 -0.39681536 0.090060145 -0.59727633 -0.44318628
-0.17955105 -0.73245984 0.061588023 -0.07724257 0.009134075 -0.09962227 0.10107569 0.28802893
0.13054948 -0.2951293 -0.7137325 0.6098851 0.09247446 0.42142272 -0.11622764 -0.29035428

network_body._body_endoder.seq_layers.0.bias f4 [128]
00000000: 3d48 cf3c 5fa3 7abc c1b4 cb3c 4437 7abc
00000010: 97d2 a03c 5b64 a9bc 1fc1 aebc b961 9bbc
00000020: c09b 3ebc 1df4 c9bc b271 ad3c ff2b cf3c
00000030: a76d e53c a69d 82bc e70b ebbc ef35 c13c
00000040: cf23 acbc e11e f0bc 34d5 1f3c ee53 8a3c
00000050: 0c12 82bb bdb3 ff3c 5c85 003c 70a1 44bc
00000060: 7133 873c 740c c1bc bf79 90bc d7c9 e7bc
00000070: 98dc 423c efde ed3c 292d 573c fed6 ba3c
00000080: 8a90 b93c 98b0 a7bc dd2b 00bd ed51 c93c
00000090: 5678 d03c 1699 c13c 0621 8fba c9b6 97bc
000000a0: 0b0f e1bb f9d7 e43c a0d6 b63c 812d a83b
000000b0: abeb af3c 6d57 e4bc 394b abbc 76b7 aa3c
000000c0: 69bc 943c 0a5f cebc 19bd c1bb 6c17 1fbb
000000d0: df09 843b 150d e53c da4b 9b3c 2dfd dcbc
000000e0: b3e6 493b 9a5f ce3c bee1 c63c 90b6 89bc
000000f0: 46c3 48bc b370 9c3c c86f d03c 021a b0b9
00000100: 8c51 563c 5ee5 b93c d86f 033d cc35 bebc
00000110: 1e6d debc 8fbf ae3c 6720 85bc d8cc 81bc
00000120: c7e1 4fbc d76e b53c 76c8 a53c abdf d43c
00000130: 101d 1cbc 118d 9a3a cee3 243d 5409 083d
00000140: 0063 a83c 758d fb3c d00c 0b3d 5100 033d
00000150: 9ccb 74bc 2f3d 83bc 93a9 9a3c 8d3f 43bc
00000160: 9af8 01bc 6406 93bc 7320 ec3c ce71 363a
00000170: fd30 48bc afa0 c5bc 0a6c 1bbc 385c dabc
00000180: fc04 adbc 1e12 9b3c c722 d33c f310 a33b
00000190: 45e3 98bc 53af d6bc a668 553c d37b e13c
000001a0: 3fde 5d3d 499c da3c 2ec8 5abc 4df2 923c
000001b0: 6ce7 6a3c d83e f3bc bfd0 ccbc 5234 a5bc
000001c0: 697e b7bc 9efe 9fbc a25d c93c ef2a ac3c
000001d0: 8abd 17bc 9844 933c 4dee 253a 1177 a2bc
000001e0: fb63 823c bf97 c23c fa37 0dbd 0bc2 9d3b
000001f0: 6780 a43c 8f05 e93c 513c 9c3c 19f3 9dbc
0.025303 -0.01529774 0.024866464 -0.015271965 0.019631667 -0.020677736 -0.021332322 -0.018967496
-0.011633813 -0.024652535 0.021172378 0.025289534 0.028006388 -0.015944313 -0.028692199 0.023585288
-0.021013169 -0.0293116 0.009755421 0.016885724 -0.0039694365 0.031213636 0.007844295 -0.01200138
0.016504021 -0.023565508 -0.017636178 -0.028294487 0.011893414 0.029036967 0.013133326 0.022807594
0.02265193 -0.020469949 -0.03129183 0.024575198 0.025448006 0.023632567 -0.0010919876 -0.018519776
-0.0068682483 0.027935015 0.022319138 0.0051323776 0.02147468 -0.02787372 -0.020909892 0.020839434
0.018156247 -0.025191803 -0.005912435 -0.0024275435 0.004029497 0.02796034 0.018957067 -0.026976192
0.0030807673 0.02519207 0.024277564 -0.016810685 -0.012253588 0.019096708 0.025443926 -0.00033588713
0.013080966 0.022692379 0.032089084 -0.023219012 -0.02715164 0.021331577 -0.016250802 -0.015844747
-0.012688107 0.02214758 0.020237189 0.02598556 -0.009528413 0.0011791309 0.040256314 0.03321202
0.02055502 0.0307071 0.033947766 0.031982724 -0.014941122 -0.016020386 0.018879687 -0.011917007
-0.007932806 -0.017947383 0.028824067 0.0006959707 -0.012218711 -0.024124471 -0.009486208 -0.026655301
-0.02112054 0.018929537 0.025773419 0.0049763857 -0.018663058 -0.026206648 0.013025438 0.027524864
0.05416703 0.02668585 -0.013353391 0.017937804 0.014337402 -0.029693052 -0.025001882 -0.02016655
-0.022399144 -0.01953059 0.02458078 0.021016566 -0.009261498 0.017977044 0.000632976 -0.019832166
0.015916815 0.023753999 -0.03447721 0.0048143915 0.020080758 0.028445033 0.01907173 -0.019280957

network_body._body_endoder.seq_layers.2.weight f4 [128, 128]
00000000: a7ea 14be 7a7c d43d 51c8 9d3d 8206 7d3b
00000010: 45fe c23d 6e1f 743d 66fa 1e3c 9016 243d
00000020: 2e9d fabd 1e0e 9bbd 00a2 3b3d e8c1 47bc
00000030: 3ff1 eb3d 8c03 183d 6ed4 22bc f3f1 5abd
00000040: 9aab a5bd 3347 d7ba c50b e33d 4d2d fcbd
00000050: d032 1f3d 527c 323a db99 67bd 4c1a 05be
00000060: 2e5b bbbd 5e58 1d3c 999b b6bd 9396 97bc
00000070: 6600 93bd 3e0d 683b a063 8c3d a60c e1bb
00000080: 2475 1b3d daeb fa3d a1d1 743d 42c0 c73d
00000090: fb2d 103d fea1 7a3d 0ac7 b8bc 2917 3dbd
000000a0: d1b3 92bd 26b2 c9bd 6ad6 c8bd fe64 a4bd
000000b0: 5bbc 5bbd 99ca 26bc 428a 023d ecea 8ebd
000000c0: 7cb7 22be f88c 71bb 49d0 15bd d97e 19be
000000d0: 5a05 5b3e 6de1 e2bb b025 b5bd 289c 3abc
000000e0: 21a7 243e 2ff7 f23c 2700 33be 6985 4e3e
000000f0: e5f6 c63c add7 9a3c 64aa 513d a9b1 153e
00000100: f53b 2e3d 4d08 653c 4bdd 1ebc 4b9f 923d
00000110: 3a24 fb3d 4452 e63d 58f4 39bd 2f99 883d
00000120: 2964 a63d e604 0f3d e9e0 3ebd b7d8 c33d
00000130: 8467 de3c b008 80bd 9296 103d b531 d6bd
00000140: 1283 27bd ee2d f53c 0633 363d 3a11 363c
00000150: c189 b8bc 563d 063e e8fb c1bc 4285 29bd
00000160: 7fe5 8e3d 1a09 b4bd 768e 133e f83f 3c3c
00000170: 3ccc adbd f469 e0bd c685 e9bc 0801 22bc
00000180: 52f7 6abd 7d91 cebd c2f9 b23d 58e3 db3d
00000190: df83 77ba 09ba 1f3d af6c 6f3b 09f8 f73c
000001a0: ecef 07be c8ad 98bd 8fa0 d2bb 5c57 953d
000001b0: b819 d33d 8d1c 39bd 297a 86be 75e9 c0bd
000001c0: 2352 f73d 6b70 20be 8b5b 873d 194c 5b3c
000001d0: 4d51 683b a142 f43d 2076 233e bed7 543d
000001e0: 004a 883d e095 0ebe c465 953d 5c63 4f3d
000001f0: 080a 99bc 9888 fbbc dcd4 8cbd f716 683d
00000200: 0e4f 2cbe b08d 05bd 732d b03d 2799 c63d
00000210: f64f 00be 2e86 513d 6dff 493e 38d5 023e
00000220: ac64 853a c4b8 453c 5d6d b6bd 08cf 68be
00000230: 0571 2f3d d5ef 193e 49e0 1f3d 1686 393e
00000240: 3c0a d63d 2090 0d3e b00e ba3d c298 0ebd
00000250: d59e 6b3c f6f6 033d abb5 9ebd 8205 13be
00000260: d6eb 2d3e e7a3 853c 7be4 10be edc7 52bd
00000270: 09e6 d9bd 1737 b8bd 09f8 26be 7478 9ebd
00000280: 4614 b23c 36b6 0c3e 122d 893d eaf3 fbbb
00000290: c8bd 533c 9862 713d 7607 473d 83f3 eebc
000002a0: 4cc7 0f3e 18ae 3dbd 3be3 e63d 6191 6abd
000002b0: 1298 fcbc 883d bc3d bef0 f13d ea55 bf3d
000002c0: 6d75 aa3c 2a21 f83d b699 ddbd 61ed d6bc
000002d0: 5ca3 aa3d e7ea 41be be68 0d3d ad56 4cbe
000002e0: 3283 bbbd a83a 8b3d f6ec 99bd 2aa3 8c3e
000002f0: 7fa8 a93d 9437 a6bc bc3a 9a3d 9455 803d
00000300: 5d01 c53c 8884 98b7 ad53 03be bbe4 123d
00000310: cfbc d13d cacf db3d c259 c63c b6ea eb3d
00000320: 66d9 91bc d840 c93d b941 433d 908a 03bd
00000330: 5724 93bd 92de 183d 48ac fbbd f42f e1bc
00000340: 7471 17bc 9f8b c9bc 5d21 3abe b3b7 04be
00000350: 2ac0 d9bd 3888 833c 32e0 763d 39de 273d
00000360: 1117 54be 35b6 6fbd 7d44 4cbd 6531 1ebc
00000370: de00 423d 35fb e9bd 036a aabd 0b67 c63d
00000380: ee79 a13d 3a22 c53c afba f0bc d8fd 0d3d
00000390: 9aea 843d 5dae bd3d 217c 3dbd 5cbd 09be
000003a0: f5a0 68bc f3e0 303d 159c 8f3d b42e 003d
000003b0: 3a0b 86be 6c99 e7bd 8ac9 a13d 23db 053b
000003c0: 5a5c 113c b448 23bd fa12 dabd 4192 4b3e
000003d0: cd26 e83d 6f22 1cbd d803 a5bb 8b53 ebbd
000003e0: 05cd 71bc 4e34 11bc a615 13be 151e cc3d
000003f0: 0843 803d 40ff 83bd 8d27 a23c 6d51 8a3d
-0.14542638 0.103753045 0.07704223 0.0038608615 0.09521154 0.059600286 0.009703254 0.04006058
-0.12237011 -0.07571052 0.045808792 -0.012192227 0.115206234 0.037112758 -0.0099383425 -0.053453397
-0.08089371 -0.0016424417 0.11086229 -0.12313328 0.038866818 0.00068086863 -0.056543212 -0.12998313
-0.091482505 0.009603588 -0.08916397 -0.018504417 -0.0717781 0.0035408284 0.068549395 -0.006867963
0.03795351 0.12252016 0.05977023 0.09753467 0.0352001 0.061189644 -0.022555847 -0.046164665
-0.071632035 -0.09848432 -0.09806521 -0.08027075 -0.053646427 -0.010180139 0.031870134 -0.069784015
-0.15890306 -0.0036857706 -0.03657559 -0.14989795 0.2138876 -0.0069238455 -0.08845079 -0.01138977
0.1607938 0.029658882 -0.17480527 0.2016808 0.02428765 0.01890167 0.051187888 0.14618553
0.04253765 0.01397903 -0.009696315 0.07159289 0.12262769 0.1124616 -0.04539904 0.066698425
0.08124573 0.03491678 -0.04660121 0.095628195 0.02714897 -0.06251657 0.035299845 -0.104586996
-0.040896483 0.029929128 0.044482253 0.011112506 -0.022526624 0.13109335 -0.023679689 -0.04138685
0.06977367 -0.087907985 0.14409813 0.011489861 -0.0848622 -0.10957709 -0.028506171 -0.009887941
-0.05736477 -0.100863434 0.08739044 0.10736722 -0.00094419526 0.038995776 0.0036533286 0.03026964
-0.13275117 -0.07455021 -0.0064278315 0.07292053 0.1030764 -0.045193244 -0.26265076 -0.094195284
0.12076213 -0.15667884 0.06609257 0.013384842 0.003544885 0.11926771 0.1596303 0.05196356
0.066547394 -0.1392436 0.07294801 0.050631866 -0.018681541 -0.030704781 -0.06876537 0.056662526
-0.16827032 -0.032605827 0.08602419 0.0969718 -0.12530503 0.051153354 0.19726343 0.12776649
0.0010177097 0.012067977 -0.08907578 -0.22735226 0.042832393 0.15032895 0.039032254 0.18117556
0.10451171 0.1382451 0.09084833 -0.03481365 0.01438113 0.032217942 -0.07749494 -0.1435757
0.16984496 0.016313506 -0.14149658 -0.051460195 -0.10639579 -0.089948826 -0.16305555 -0.07737818
0.021738183 0.13741383 0.066980496 -0.007688989 0.012923665 0.058931917 0.0485911 -0.02916885
0.1404087 -0.046308607 0.112738095 -0.05726755 -0.030834232 0.09191424 0.11813496 0.09342559
0.020807946 0.121157005 -0.10820334 -0.026236238 0.083319396 -0.18937264 0.034523718 -0.19954939
-0.09155883 0.06798297 -0.075159 0.27468234 0.08284091 -0.020290174 0.07530734 0.06266323
0.024048502 -1.8181527e-05 -0.12824889 0.035862666 0.102410905 0.10732992 0.024212722 0.11519377
-0.017803859 0.09826821 0.0476701 -0.032114565 -0.07184666 0.037321635 -0.122887194 -0.027488686
-0.009243358 -0.02460271 -0.1817679 -0.129607 -0.106323555 0.016056165 0.060272403 0.040983412
-0.20711924 -0.058523376 -0.049870003 -0.009655331 0.04736411 -0.11424867 -0.083210014 0.09687623
0.07884584 0.024064172 -0.029385893 0.034665912 0.06490059 0.09261773 -0.046260957 -0.13451141
-0.014198531 0.04318328 0.07012192 0.03129454 -0.2618044 -0.1130856 0.07899769 0.0020424805
0.008872116 -0.039864257 -0.10648151 0.1988001 0.11335526 -0.038118776 -0.0050358586 -0.11490544
-0.014758353 -0.008862568 -0.14363727 0.09966675 0.06262785 -0.064451694 0.01979425 0.06753812

network_body._body_endoder.seq_layers.2.bias f4 [128]
00000000: 2ece 623c d50c a8bc 3df0 6dbc 08bc 923c
00000010: 2d04 94bc 1625 89bc 9ae6 6c3c 297f 84bc
00000020: d819 90bc 355f 83bc 9ef3 af3c 45b9 98bc
00000030: f1c2 7c3c 9598 59bc 4cc9 9dbb a296 e2bb
00000040: 6abe 12bc 74ab dd3c c6fd 61bc fb00 36bc
00000050: b7e0 cd3c 650b d23c cf04 be3c c809 813c
00000060: 7790 bb3c 2535 73bc ff4c 763c 06b4 783c
00000070: 8ebb 80bb 072d 05bc 6baa c63c ea45 bd3c
00000080: c004 00bb 1001 be3c cea1 9dbc cbb9 c6bb
00000090: 11e2 a93c 01ce 8dbc 5b8d fb3c 5c35 81bc
000000a0: d5b7 253c f4a1 b53c a0a8 9d3b cecc 77bb
000000b0: e618 47bb e2b8 ba3c 9386 b5bc c79e d3bc
000000c0: 2103 adbc 75a1 08bc daa9 99bc c8ab b53c
000000d0: c00b 52bc c423 b53c 630c ec3b a3b2 d13c
000000e0: 21ee 4ebc 7429 51bc aa3b 0d3c e729 dabb
000000f0: f0aa 97bc 8284 773c 47c9 36bc d253 9e3c
00000100: b684 213c d302 7d3c 4d57 c33c c7e5 593c
00000110: 5744 39bc 6024 493b bf20 96bc a4d0 acbb
00000120: 31f7 a5bc 9b1c acba a3c7 313c a04c f2b9
00000130: a70e acbc 02dd b83c e266 c33c bb47 453c
00000140: bfd7 373c b300 a2bc dace acbc e19c fd3c
00000150: 9528 10bc 2c85 2cbc de57 ef3b 0892 3ebc
00000160: 9fac 80bc 80fe 6dbc dbac 7c3b 445c abbc
00000170: 1874 cb3c 8a17 08bc 257a 67bc d138 7d3c
00000180: 840c db3c 3cfa 80bb 2f13 a33c fb89 3ebc
00000190: 8a4f da3c 576f c73c 3461 1cbc 08dd 96bc
000001a0: 6a8b 91bb 9d8e d83b 1420 b63c 3445 cc3c
000001b0: 711e 9cbc f538 1e3d a2c0 7a3c d138 8b3c
000001c0: 13fe 043a 1527 853c 82cf af3c 427e a53c
000001d0: 2c91 8bbc 7f14 a8bc d29c 96bc fca8 33ba
000001e0: 0309 ca3c 6e7b aabb d7b7 57bc 09d3 ca3c
000001f0: 4553 8dbc 8beb ad3c 6477 3cbc 3c7e a33c
0.013843102 -0.020513931 -0.014522609 0.017911926 -0.018068397 -0.016741317 0.014459277 -0.016173916
-0.017590448 -0.01603661 0.02147847 -0.01864303 0.015427337 -0.013281007 -0.004815256 -0.0069149295
-0.008956531 0.027059294 -0.013793414 -0.011108632 0.025131566 0.025640199 0.023195652 0.015751734
0.022896035 -0.014844214 0.015033006 0.01517964 -0.0039286083 -0.008128411 0.024251183 0.023104627
-0.0019534081 0.023193866 -0.019242194 -0.0060646287 0.02073768 -0.017310144 0.030707052 -0.015772514
0.01011463 0.022171952 0.0048113614 -0.0037811282 -0.003037983 0.022793237 -0.022158897 -0.025832547
-0.021119656 -0.008339276 -0.01875775 0.022176638 -0.012820184 0.022111781 0.007203625 0.025597876
-0.012630017 -0.012766231 0.008620182 -0.006657827 -0.018514127 0.015107276 -0.011156387 0.019327078
0.009858301 0.015442568 0.02384534 0.013299412 -0.011307797 0.0030691847 -0.018326161 -0.0052738953
-0.020259472 -0.0013131084 0.01085082 -0.00046214927 -0.02100308 0.022566322 0.02385277 0.012041028
0.0112208715 -0.019775724 -0.021094728 0.030958595 -0.008798738 -0.0105297975 0.0073041758 -0.011631496
-0.015707312 -0.01452601 0.0038555178 -0.02091802 0.024835631 -0.008306393 -0.014128243 0.015455441
0.026739366 -0.0039360803 0.019906608 -0.011629577 0.026649255 0.024345083 -0.009544659 -0.018415943
-0.0044416683 0.0066087977 0.022232093 0.024935342 -0.019057484 0.038628537 0.015304716 0.016994866
0.00050732604 0.016253987 0.021461252 0.020201806 -0.017036997 -0.020517586 -0.018385325 -0.0006853489
0.0246625 -0.0052027022 -0.013166389 0.024758833 -0.01725162 0.02123048 -0.011503074 0.019957654

action_model._continuous_distribution.log_sigma f4 [1, 2]
00000000: c144 09be b593 5f3c
-0.13405134 0.013646056

action_model._continuous_distribution.mu.weight f4 [2, 128]
00000000: 3e5c b7bc 39cf 2d3d 5621 dabb 06c4 1abd
00000010: e832 8b3c dbe0 2d3d 6728 b8bc 2376 843c
00000020: e7e5 1d3d 77cb bd3a e200 1ebd 50e2 073d
00000030: 8545 00bd dc1e ca3c a504 893c 9235 db3b
00000040: 38c4 8f3c 1a39 52bd 7f78 7e3c 5d95 183d
00000050: 0500 75bd 7fc5 63bd 277b 33bd 1dc4 243b
00000060: 25c0 4abd 0697 8d3d 9e8d 9ebc 8ac5 74bc
00000070: 5678 3a3d 2d8e d13c 26cb 41bd 48a6 21bd
00000080: a2de 803b 5486 18bd 893d 883d 04e3 abbb
00000090: a921 04bd 9c9a 703d e6be 4abd daae 323d
000000a0: dad7 833b a97e d7bc fff5 0f3d e382 9c3c
000000b0: 16a4 303d b9c0 5fbd 1c67 c03c 7ec0 863c
000000c0: cb12 fb3c f020 3e3d d086 fe3c b9f8 fbbc
000000d0: 605f 143d 0615 1cbd 94ac a3bc 0c54 8fbd
000000e0: 2284 f23c 564d 003d 07a3 b0bc 6b6b 353d
000000f0: ff2f 563d 02d6 b5bc a5d6 123d 0377 0cbd
00000100: 7538 85bc 077a aebc ac51 12bd a651 c7bc
00000110: 319c 2b3d b83f 733c 2192 243d f802 fc3c
00000120: 1157 243d 3667 b53c 61ca 4cbc 0107 7c3c
00000130: 368d 223d 6fcc 0bbd 9a1b 55bd 0545 9bbc
00000140: 154a 61bc 98db 2c3d 4631 1b3d b841 79bd
00000150: f7f0 053d 1f65 0d3d 375e 5fbc ed68 23bb
00000160: 537e 1b3d 9843 5a3d 350a 8a3b 7002 003d
00000170: 3159 2cbd 2de4 0c3d 292d 213d 754a 9fbc
00000180: 3983 1cbd 73c2 56bc 1b78 00bd bd79 103d
00000190: 413f 19bd 3955 a6bc 6cb6 543c b689 343d
000001a0: 5665 2e3c 3820 813c 208e 4abd a3fa 87bd
000001b0: b007 3c3d 3c36 cebc 8d60 d8bc e06e 02bd
000001c0: 1ff1 61bb 09e5 abbc 512a 30bd 2e2d edbc
000001d0: b26b 9d3c 7e44 143d 677d b63c e623 dc3c
000001e0: fa66 50bd 2140 4e3b 74bd 4d3d bb0a 41bd
000001f0: e3ae 1a3d 54bc 25bd 63a4 503d 5c13 11bd
00000200: 9aac a3bc 9554 71bc 334f 1bbd 25fb c5bc
00000210: 7fd0 01bc 9f90 cfbc 4bdf f53a bb4c f1bc
00000220: 9afb 763c 1216 2dbc bf21 7ebc 3b83 9e3b
00000230: cad3 9fbc eb4d 3fbc 9a78 3bbc 7e21 2bbd
00000240: 70b4 11bc 4fb9 da3c 9d82 b63b 7181 893c
00000250: 91c2 973b b343 86bc c1b1 e03c add4 153b
00000260: d1e6 15bc cead 56bb 50e4 df3c 0484 93bb
00000270: 5cac f339 2cc6 073c 8e69 74bb 6633 b7bb
00000280: 3ab8 5cbc 6970 d13b ca58 9f3b 0f7c a1bb
00000290: 51d6 bf3a 3fd7 7abb 7e82 843c 4c48 53b9
000002a0: 00eb 323c e031 fd3a cf17 9fb9 b4ab e23a
000002b0: 0000 e1bc 594f 413d ceef 973b ebfb c4bb
000002c0: f4bd 7abc 2f0b 19bc 0b45 983a 2ed3 80ba
000002d0: f1fc 5f3c 207d 0dbc 3449 7d3c 957d c83a
000002e0: 7ca5 013c 3c54 04bb abfe 37bc 04de 143d
000002f0: 62a8 76bc 32b5 80bb 30af 023d ad67 ca39
00000300: 8251 1cbd 7dc2 ef3c e31c 64bc 2eba 2abc
00000310: 33a5 01bd 6d9e 093c 8642 6cbc 7f92 4d3b
00000320: 8586 8abc ba2f 0fbd 4d74 48bd 83e7 503c
00000330: 3f93 b1bb d889 773c de2a 503c 52c2 80bc
00000340: 979b 0abc 280d 8abb 5c08 23bd ac0c 0a3d
00000350: c326 6b3c ba70 913c e158 07bd cee3 eebc
00000360: 3c39 9c3c 1b72 2abc b66c 69bc 0a83 3cbc
00000370: b2b2 d73c a619 95bc 53c2 32bd 3b31 c83c
00000380: b231 7b3c 7b80 14bd 427b 3ebc 8ca9 1fbc
00000390: a6d3 8abb b665 2fbc 8c73 ad3c d49e aabc
000003a0: f2f0 6e3c e65a 923c 83e9 72bc 4d1f 85bc
000003b0: 6a0c 703b bd9f d53b a986 e03a 7ae8 3d3d
000003c0: 6d96 5a3c 78b5 69bc b259 c9ba 7a96 8a3c
000003d0: ae40 3dbc b8bc 14bc cca6 c3bb 5aac 98bc
000003e0: f58a e6ba ea39 ec3b a9fa 23bc 55a5 53bb
000003f0: 283b 123c d7ef 5c3d 2d10 0bbd b84d 63bc
-0.022382852 0.04243395 -0.006656806 -0.0377846 0.016992047 0.042450767 -0.022480203 0.016169613
0.03854933 0.0014480193 -0.03857506 0.033174813 -0.0313163 0.024672918 0.016725847 0.0066897357
0.01754962 -0.051323988 0.015531658 0.03725182 -0.05981447 -0.05560827 -0.04381862 0.0025141307
-0.04949965 0.06913571 -0.019354638 -0.014939675 0.045524918 0.02558049 -0.047312878 -0.03946522
0.00393279 -0.03723748 0.06652362 -0.005245568 -0.032258663 0.058741197 -0.04949846 0.043623783
0.0040235342 -0.026305513 0.03514671 0.01910538 0.043125235 -0.054627154 0.023486666 0.01644921
0.03064861 0.04641813 0.031070143 -0.030758249 0.03622377 -0.038105987 -0.019979753 -0.069984525
0.029604021 0.031323753 -0.021562112 0.044291895 0.052291866 -0.022196773 0.035849232 -0.034293186
-0.016262272 -0.021298422 -0.03572242 -0.024330925 0.041897003 0.014846735 0.040178422 0.030763134
0.040122095 0.022143941 -0.012499423 0.015382529 0.03968545 -0.03413051 -0.052028276 -0.01895381
-0.013750573 0.04220161 0.037888788 -0.06085369 0.032700505 0.034520265 -0.013633302 -0.0024934367
0.03796227 0.05328712 0.0042126426 0.031252325 -0.042077247 0.034397293 0.03934971 -0.019444684
-0.03821108 -0.013107884 -0.03136454 0.03527235 -0.03741384 -0.02030431 0.012982946 0.044076644
0.010644278 0.015762433 -0.049451947 -0.06639602 0.04590577 -0.025172345 -0.026413227 -0.03184402
-0.0034475995 -0.020983236 -0.043009106 -0.028952207 0.019216392 0.03619813 0.022276593 0.026872586
-0.050879456 0.003147133 0.050229505 -0.047129374 0.03776444 -0.040462807 0.05093802 -0.035418853
-0.019979764 -0.014729639 -0.037917327 -0.024167607 -0.0079232445 -0.025337515 0.0018758563 -0.029455533
0.015074635 -0.010564344 -0.015510975 0.0048374212 -0.019510169 -0.011676292 -0.011442328 -0.041779988
-0.008893117 0.02669969 0.0055697695 0.016785355 0.0046313484 -0.016389703 0.02742851 0.002286236
-0.009149269 -0.0032757404 0.027330548 -0.0045018215 0.0004647699 0.008286994 -0.003729436 -0.005590844
-0.013471657 0.006391574 0.0048628794 -0.004928119 0.0014636015 -0.003827527 0.016175505 -0.00020149461
0.010920286 0.0019317232 -0.00030344582 0.0017293603 -0.02746582 0.047194812 0.0046367412 -0.0060114763
-0.015304077 -0.009341045 0.0011617256 -0.0009828561 0.013671146 -0.008635789 0.0154593475 0.0015296215
0.00791299 -0.002019181 -0.011230151 0.036344543 -0.015054794 -0.00392785 0.031905353 0.00038605687
-0.03816367 0.029267544 -0.013922903 -0.010420365 -0.031651687 0.008399588 -0.014420157 0.0031367836
-0.016909847 -0.034957625 -0.048939038 0.012750509 -0.0054191644 0.015108548 0.012705533 -0.01571766
-0.008459947 -0.004212994 -0.039802894 0.03370349 0.014352503 0.017753948 -0.033043746 -0.02916136
0.01907026 -0.010403181 -0.01424711 -0.0115058515 0.026330326 -0.018200707 -0.043642353 0.024437537
0.0153316725 -0.03625534 -0.011626067 -0.009745013 -0.0042366562 -0.010705402 0.021173261 -0.020827688
0.014583813 0.01786561 -0.014826181 -0.016250277 0.0036628493 0.0065192864 0.0017129976 0.046364285
0.013341528 -0.014264457 -0.0015361814 0.016917456 -0.011551065 -0.009078197 -0.0059708115 -0.018636871
-0.001758902 0.0072090523 -0.0100084925 -0.003229459 0.008925237 0.053939667 -0.033950973 -0.01387351

action_model._continuous_distribution.mu.bias f4 [2]
00000000: 381f bbbc 8aa3 af3b
-0.022842035 0.0053600715

action_model._discrete_distribution.branches.0.weight f4 [1, 128]
00000000: 9b99 b9b8 af6e 443c e682 abbc 2f38 edba
00000010: 852f 4e3a 940b a4bb 27ee 583c 2fd7 3f3c
00000020: 2042 de3b ef8a 663c 6d3d 86bc a474 15bc
00000030: 0d8a d63b 9f55 0dbc 6751 59bc 3307 903c
00000040: 865f 80bb f8aa 573c f43d 34bc 2464 17bb
00000050: fde6 1e3c c16b 833c 0e38 333c 83e1 e93b
00000060: 8fc6 7bbc 51c2 87ba 890b 293c 7146 af3c
00000070: 91cd 083a 6f1a 273c 3769 88b7 e514 cb3a
00000080: e7da f33b 37b0 49b8 b88e 653b 3f92 883b
00000090: 4b8f 10bb fbac c7bb 3b12 38ba df21 593c
000000a0: 73b3 3bbc 93e9 b33b 12f5 d7bb 32b0 f93b
000000b0: 451e a93c 51a4 8cba fbbc 383c 9346 ff3b
000000c0: e0a4 fb3a a77c 573b f027 153b 93c7 1abc
000000d0: e716 7e3c 0f6e e1bb d7e9 21bc 3e8a 41ba
000000e0: 05c3 023b c5a3 9738 b3f9 073c 8353 2d3c
000000f0: b905 c1bb d457 c9bb 978b 393b f725 cf3b
00000100: 50c6 873b 852b 35bb adb6 d9bb f38b e6bb
00000110: 6141 48bb ddde 233b 324d df3b eba8 b9bb
00000120: 97c6 233b 6a6b 7c3c 37d2 9dba 9f11 9dbc
00000130: 087d bc3b 0aea c63a a3a1 34bb 0802 46ba
00000140: 0752 033b b08c ae3b a5d5 23bc b361 a73b
00000150: 7389 bc3b 1afd 493c f795 9f3a a764 1eba
00000160: fd21 32b9 a211 473c d29d 663c 5a13 9d3b
00000170: ffe2 fb3b 5efa 383a 8bf7 4e3c 208c f8bb
00000180: 00f5 d6bb 6d27 4b3b 8419 93bc a8bd 89bc
00000190: b3d3 1d3b 098b 0fbc faed e93a b079 203c
000001a0: 7b80 53bb a3bb e9bb 0d0c ebbb 2b57 1abc
000001b0: eaf7 433b 38a3 34bb 4275 d6bb 65eb ebb7
000001c0: 0479 c2bb f520 063c 77ed 40bc 50aa 543c
000001d0: 02ec 6b3b b703 083c 011e 21bb 269e 91bb
000001e0: 48dd 5a3c 5b63 063c 7fe4 b9ba 5033 d0ba
000001f0: d3ac 423c 8322 8a3b 792a 29bc 7a45 593c
-8.850099e-05 0.01198928 -0.02093644 -0.0018098409 0.00078653573 -0.005006263 0.013240374 0.011709019
0.006782785 0.01407121 -0.016386712 -0.009122048 0.0065472187 -0.008626371 -0.013264037 0.017581558
-0.0039176373 0.013163321 -0.011001099 -0.002310046 0.009698627 0.016042592 0.010938657 0.007137479
-0.015367164 -0.0010357593 0.010317692 0.021395894 0.000521862 0.010199173 -1.6261458e-05 0.0015493898
0.0074418667 -4.8086247e-05 0.0035027694 0.0041678245 -0.0022058066 -0.006093619 -0.00070217595 0.013252704
-0.011456358 0.0054904907 -0.006590494 0.007619881 0.020644316 -0.0010730122 0.011275525 0.0077903955
0.0019198917 0.0032880695 0.00227594 -0.009446996 0.01550839 -0.006879575 -0.009882412 -0.00073829654
0.0019952666 7.2307455e-05 0.008299279 0.010578993 -0.005890575 -0.006144503 0.0028311962 0.0063216644
0.0041435137 -0.0027644348 -0.006644091 -0.007035726 -0.0030556547 0.0025004663 0.0068146223 -0.0056658885
0.0024990195 0.015406469 -0.0012040798 -0.019173441 0.0057522096 0.001517595 -0.0027562163 -0.0007553403
0.0020037906 0.00532683 -0.009999667 0.005108082 0.00575369 0.0123284105 0.001217543 -0.000604222
-0.00016988064 0.0121502 0.014075713 0.0047935667 0.007686972 0.00070563506 0.012632261 -0.0075850636
-0.006559968 0.0030998841 -0.017956503 -0.016814068 0.0024082481 -0.008761176 0.0017847412 0.009794638
-0.0032272625 -0.0071329637 -0.0071730674 -0.0094201965 0.0029902407 -0.0027563106 -0.00654474 -2.8123797e-05
-0.0059348363 0.0081865685 -0.011775366 0.012980059 0.0035998826 0.008301667 -0.0024584534 -0.0044439016
0.013358422 0.008202399 -0.0014182477 -0.0015884433 0.011882025 0.00421554 -0.010325068 0.013261193
