Lofty2024/results/MoveToPlayer2/MoveToPlayer/checkpoint.pt (torch, 445410 bytes, 39 tensors)

network_body._body_endoder.seq_layers.0.weight f4 [128, 6]
000000 07 24 f7 3d 78 f3 a1 be 87 13 30 3e d6 cf 82 be
       0.120674185 -0.31631064 0.17194949 -0.2554919
000010 6e 50 ff 3e 09 62 bb be c0 33 8a 3e ee dd 51 bc
       0.4986605 -0.36598232 0.26992607 -0.01280926
000020 05 26 29 bf 6e 82 f0 3d 7a 47 08 bf e3 a8 0c 3f
       -0.6607364 0.117436275 -0.53234065 0.549452
000030 6f c1 28 bf e3 ed 80 3e fb 0b c9 3e 1f 9b 0a 3e
       -0.65920156 0.25181493 0.39266953 0.13535737
000040 14 3d a2 3e c0 2b 58 be a5 a9 8a 3d 0a fb 27 3e
       0.31687224 -0.2111044 0.067706384 0.16404358
000050 05 29 ab bd f1 57 6e bf b7 3c db 3e 66 cf 05 3e
       -0.08357433 -0.9310294 0.4281976 0.13067397
000060 c7 88 9e 3e 27 35 b1 bd 6b c1 35 3e d2 5b 83 bd
       0.30963728 -0.08652716 0.17749564 -0.06413998
000070 fa ed 48 3e a2 29 9f 3c 21 0f 17 bf 56 69 e7 3e
       0.19622031 0.019429032 -0.5900746 0.45197552
000080 95 91 35 3e 5f de da 3e 1c 90 cd bd ea 87 56 bf
       0.17731316 0.4274778 -0.10037252 -0.8380114
000090 40 b2 1e 3e c3 ca d6 be eb 2f 80 bf de 5d d8 be
       0.15497684 -0.4195157 -1.0014623 -0.42259115
0000a0 17 dc bd be 9c c3 d7 3d 1b 0d 2f 3e 0c 22 7e 3d
       -0.37081978 0.105353564 0.17094843 0.06204419
0000b0 c7 ef 13 be 6c fe 7b bf 59 c0 10 3f 1e 9c e1 3e
       -0.14446937 -0.9843509 0.565435 0.4406442
0000c0 34 6c 93 3e 29 ab a1 bd 15 5a 67 be ff 37 90 be
       0.2879349 -0.07893974 -0.22592957 -0.28167722
0000d0 63 b8 8d 3e 3a 49 df 3e b7 9a 89 be b7 5d 2a 3e
       0.27679738 0.43610555 -0.2687585 0.16637312
0000e0 cb 54 44 3f c3 ab d1 bd b0 b8 74 bd 07 d9 97 be
       0.76691884 -0.10237839 -0.059746444 -0.29657766
0000f0 f0 bb b4 3e 0a 21 22 3f 71 46 7b 3e f0 ec d1 3d
       0.35299635 0.63331664 0.2453859 0.1025027
000100 21 1e 8c be b2 7f 27 bf e4 3b ea be 66 6c 94 3e
       -0.27366737 -0.6542922 -0.45748818 0.2898895
000110 df a7 da 3d b2 08 b2 bd 24 25 a4 be 80 61 ac bf
       0.1067655 -0.08693065 -0.32059586 -1.3467255
000120 93 75 6b 3e 5d 92 ad be cd fa 20 be e8 0f 86 be
       0.2299407 -0.3390073 -0.15720673 -0.2618401
000130 1e 8e a4 3e fd 66 bc 3e d3 e5 31 3d 4e e8 48 3e
       0.32139677 0.36797324 0.043432068 0.19619867
000140 12 b2 9d be 27 1b 04 3e 0c e6 40 3e b6 33 8f 3e
       -0.3079992 0.12900983 0.18837756 0.2796914
000150 e5 be 1c 3f 1c 03 29 3d 48 8a 1b bf 0b 10 10 be
       0.6122878 0.04126273 -0.60757875 -0.1406862
000160 15 a6 12 bf de 2e af be 96 e1 13 3e d6 6c 55 be
       -0.5728467 -0.34215444 0.14441523 -0.20842299
000170 0c 6a e2 be 97 5b fb 3e 11 61 a0 3d b7 38 16 be
       -0.44221532 0.49093315 0.07831014 -0.14670072
000180 a4 34 43 be 28 53 ba 3e b9 1b 85 3e eb be f5 3e
       -0.1906305 0.36391568 0.25997713 0.4799722
000190 6b 88 66 be 37 b5 9d 3e 7e cd 8c 3e 53 0f 9a 3d
       -0.22512977 0.30802318 0.27500528 0.07522454
0001a0 ee 31 3c 3d 6e 7e e8 be 45 ab bd be 47 db 55 bf
       0.045946054 -0.45408958 -0.3704473 -0.83537716
0001b0 ac bc 64 be d3 a7 a3 be e9 04 b0 be 36 64 eb bc
       -0.22337598 -0.31963977 -0.34378746 -0.028734308
0001c0 19 f3 7a 3e 4e 5c 42 be ad b8 8d 3e 79 c6 00 bf
       0.24506797 -0.18980524 0.2767996 -0.50302845
0001d0 c0 50 b8 be 51 6b 3c be 06 85 fa 3d f4 3b 80 bf
       -0.35999107 -0.18400313 0.122324035 -1.0018296
0001e0 25 d8 98 be 7d 4d 3f 3e 8a a3 4e 3e d3 3e 9c be
       -0.29852405 0.18681903 0.20179573 -0.3051668
0001f0 0b 36 ba 3d 9e f2 42 bf 92 0d c7 3b 45 9e 04 3c
       0.09092339 -0.76151454 0.0060746158 0.008094375
000200 20 a4 a9 3e a3 74 90 3e 29 08 a5 3e 8d 1b 1b be
       0.3313303 0.28213987 0.32232788 -0.15147229
000210 3a ac ea be e5 59 47 bf 44 be ae 3c 98 5e 9b 3e
       -0.45834523 -0.77871543 0.02133096 0.30345607
000220 f3 13 8f 3e 67 5b b0 3e 94 e2 f4 be 58 16 a0 3d
       0.27944908 0.34444734 -0.47829115 0.07816762
000230 9e b0 f7 3e e5 39 75 bf 57 46 7f 3e 85 c2 3a 3f
       0.48376936 -0.95791465 0.24929176 0.72953063
000240 cb a9 b7 3e 6a 1f 06 3e 0b 0d c7 3e 78 cc 12 be
       0.3587173 0.13097921 0.38877138 -0.14335811
000250 d0 f1 8b 3e e4 13 43 3f d9 27 e0 3e 1a 9a f2 3e
       0.27332926 0.76202226 0.437804 0.47383195
000260 d9 f5 33 3d ae 3e e8 3e 8c 68 ac bc 26 cf 9e be
       0.04393563 0.4536032 -0.021045946 -0.31017417
000270 40 48 64 3e d7 37 8c 3f 54 9c 22 3d 80 11 88 3e
       0.22293186 1.0954541 0.039699867 0.2657585
000280 ba 54 ce 3e f7 50 a2 bd 7e 41 68 be 79 b2 43 3f
       0.40299016 -0.07925599 -0.22681233 0.764442
000290 b2 81 9d 3e af 57 cd be 5a b9 9a 3e 73 dc 08 bf
       0.30763012 -0.4010596 0.30219537 -0.5346138
0002a0 79 24 89 be 19 e1 87 be 8d 36 93 be 9d 46 75 bd
       -0.2678564 -0.26538923 -0.28752556 -0.059881795
0002b0 ab 71 29 bf 53 37 93 3e 36 e6 ff 3e c5 fb 0c be
       -0.6618907 0.28753147 0.49980325 -0.13767917
0002c0 41 e1 91 3d 62 4d ab be 7c 5f 2e 3e 9a c0 62 bf
       0.07123042 -0.33457476 0.17028612 -0.88575137
0002d0 fa 07 a8 bd 9c 7d c8 bf e6 b4 64 bd 35 26 9b 3e
       -0.082046464 -1.5663333 -0.05583658 0.30302587
0002e0 17 9a 19 3f 6c 2c 34 be aa 75 2f 3f 94 87 53 bf
       0.6000075 -0.1759507 0.68538916 -0.8262875
0002f0 6d db 2c 3e 5d b2 80 be 44 66 78 bf f1 93 cc 3e
       0.1688058 -0.2513608 -0.97031045 0.3995662
000300 c7 30 51 be 59 7c a9 bd b9 dd a5 3e a3 c9 a8 bf
       -0.20428763 -0.082756706 0.32395723 -1.3186535
000310 52 b9 8f 3f dd 7e c1 bd 58 c3 a7 3e c2 86 a4 be
       1.122843 -0.094480254 0.32766223 -0.32134062
000320 38 40 aa be 13 1c e9 3e 8e cb 90 be 5d 0a 4e bf
       -0.3325212 0.4552923 -0.282803 -0.80484563
000330 c7 25 5e 3e 91 20 1d bf 2d 8f 3c bf 38 4c 52 3c
       0.21694098 -0.6137782 -0.7365597 0.012835555
000340 da 2c c1 3e 56 2f 42 3e 79 a1 93 3e c3 fe 98 be
       0.37729532 0.1896337 0.2883413 -0.29881868
000350 25 52 70 be f4 ee c9 3e 69 4e 0a bf b9 a8 83 be
       -0.23468836 0.3944012 -0.54025894 -0.25714663
000360 4b 79 41 3e df bb fe be 2d b9 ec be d4 4d b2 be
       0.18893926 -0.4975271 -0.46235028 -0.34825003
000370 49 3f 87 3f 17 5b 30 3e ae f8 be be d9 65 b9 3e
       1.0566188 0.17222248 -0.37299103 0.36210516
000380 d9 d4 6a bb b9 57 9f 3e 51 ef aa be b4 2b 1f 3d
       -0.0035832433 0.31121615 -0.3338571 0.038860038
000390 e9 66 53 bf 8f 3b 1f bd e0 15 ab be 17 cd 85 be
       -0.82578903 -0.03887516 -0.33415127 -0.26133034
0003a0 1d 79 76 3e 48 e3 3c 3e 65 71 90 be 91 be f0 bd
       0.24069639 0.18446076 -0.28211513 -0.11755098
0003b0 bc 08 4b 3e 67 49 28 3c ea 31 31 bf da 79 53 3d
       0.1982755 0.010271407 -0.6921679 0.05162988
0003c0 40 7f ce bc ff ce 86 3e 10 c6 07 3e 39 8b 27 be
       -0.025207162 0.263298 0.13259149 -0.16361703
0003d0 7e b5 bb 3e 11 81 c0 3e 4a 07 93 3b c2 d5 fb be
       0.36661905 0.3759847 0.004486953 -0.49186522
0003e0 72 cc e5 3e 79 30 95 3e 62 e6 41 bf 7f 7d 97 be
       0.44882542 0.29138544 -0.7574216 -0.29587933
0003f0 b5 67 e1 3e bb cf 8e 3d e9 2a eb 3e 27 a4 84 3d
       0.44024435 0.06973215 0.45931175 0.06476622

network_body._body_endoder.seq_layers.0.bias f4 [128]
000000 90 95 3f 3c ba f3 f4 3c 9d c9 cd 3c fb 31 22 3d
       0.011693373 0.029901374 0.02512055 0.039598446
000010 db 2b b2 3c a5 13 a2 3c f1 8c 68 3c 1d 1a 5b 3c
       0.021749428 0.019784758 0.014193759 0.013372925
000020 bd 23 04 3d 90 9c fe ba 72 b2 15 3c c6 38 4f 3c
       0.032260645 -0.0019425321 0.009136783 0.012647813
000030 0e e5 8b 3c 3f b4 0b 3d 12 da 9d 3c 00 c6 8c 3c
       0.017076995 0.034107443 0.019269023 0.017184258
000040 ff 96 e3 bb 22 a1 18 bc a2 c1 8a 3a 3f e0 e5 3b
       -0.0069454904 -0.009315761 0.0010586272 0.0070152576
000050 7d ea 82 3a 9d 55 d9 3b 38 d6 b5 3c 51 53 42 3d
       0.0009988096 0.0066325204 0.022196874 0.047442738
000060 9b 58 d8 3c 82 fb 88 3c 39 f9 89 3c 47 47 22 3d
       0.026409438 0.01672149 0.016842471 0.039618757
000070 b1 60 a0 3b 48 94 b7 3a 23 f0 87 3b 60 a8 0f 3d
       0.004894339 0.0014005983 0.0041484996 0.035072684
000080 df 6d cf bb fd 32 08 bc 5d c5 ba 3c 45 5e d4 3c
       -0.0063302363 -0.008312938 0.022799188 0.025923857
000090 7a bc 7f 39 68 a7 11 3d c5 3c b4 bb bb 31 bc 3c
       0.00024388908 0.03556004 -0.0055004084 0.022972932
0000a0 88 65 cd ba 5a ec 02 3a b8 93 fc 3c 78 74 15 bc
       -0.0015670517 0.00049943256 0.030832157 -0.009122007
0000b0 5e 29 c6 3c 8f 1e 29 3d f4 bf 42 3c 01 9a 30 bc
       0.024189647 0.04128891 0.0118865855 -0.010778905
0000c0 fc f1 72 3c 3d d8 02 3b ba 04 79 bc 90 5a bd 3c
       0.014828201 0.0019965314 -0.015198881 0.023114473
0000d0 99 cd 33 bc 32 55 3f bc 4f f6 d0 bb 0e 3f 6b bb
       -0.010974311 -0.011678027 -0.0063770185 -0.0035895738
0000e0 5a 0e cc bb 79 d0 fc 3b b5 02 b0 bb 8a d4 f2 3c
       -0.006227297 0.0077152816 -0.0053714165 0.029642362
0000f0 c6 0c 9f bc e3 08 fc 3c 13 5f a9 bc be 76 c1 3c
       -0.01941527 0.030765956 -0.020675218 0.023616191
000100 29 4e 92 bc 43 ad da 3c 87 b0 59 bc 34 d4 ad 3c
       -0.017859535 0.026693946 -0.013286716 0.02121935
000110 47 5c 2c bd 67 b0 36 3c b5 31 39 3c f5 93 21 bd
       -0.04208019 0.011150456 0.011303355 -0.039447743
000120 cb 33 ab 3c 3d 5e 9b bb 58 76 5e bc c2 7f 5d 3c
       0.02089872 -0.0047414587 -0.01357802 0.013519229
000130 e7 98 72 3c 26 96 47 3a 6c b6 f4 3c a4 e8 cc 3c
       0.014806963 0.00076136214 0.029872142 0.025013275
000140 1e b8 b1 3c a5 f4 ef ba 58 7a 15 bd 0d 58 09 3d
       0.02169424 -0.0018307163 -0.03649363 0.033531237
000150 27 25 de 3c 2f 93 95 3b 6b b3 c8 3c 5c 76 1f 3c
       0.027117325 0.004564665 0.024499616 0.009732809
000160 e3 48 8e 3a 73 82 fb 3c 95 5b e2 3c 2f c6 36 3c
       0.0010855462 0.030701851 0.02763156 0.011155649
000170 d0 9f be 3c 33 27 4c 3c a0 17 10 3d d8 a0 fd 3c
       0.023269564 0.012460518 0.03517878 0.030960485
000180 3e 89 2b bc 9c eb fc 3c b1 fd a9 3c 88 ba 03 3d
       -0.010469733 0.030874066 0.020750852 0.032160312
000190 36 94 26 3c 9f 97 15 bb 57 d4 b3 3c 2a 88 a1 bb
       0.010167172 -0.002282597 0.021951837 -0.004929562
0001a0 4f 5a 2b 3c eb 0d 99 bc 5c d1 af 3c 87 63 29 bc
       0.010458543 -0.018683394 0.021462135 -0.010338671
0001b0 59 29 af bc c8 8b ed 3c ef e1 e0 3c 28 be 2d bc
       -0.02138202 0.028997317 0.027451484 -0.010604419
0001c0 0a ce 14 3c 23 02 f0 3c 9f ce f1 3b d3 28 53 3c
       0.009082327 0.029297894 0.0073793675 0.012888151
0001d0 f2 f7 ef 3c e0 50 28 3c c9 a4 d1 bc d0 c5 20 bd
       0.029293034 0.010273188 -0.025591271 -0.03925115
0001e0 8e f0 f3 3c e3 86 12 bc c9 3d ec 3b 3b 09 5d 3c
       0.029777791 -0.008943292 0.007209514 0.01349097
0001f0 ba a1 c7 bc 9e 4c b8 3c e7 40 06 3d 07 f2 7c 3c
       -0.02436911 0.022497471 0.03277674 0.015438563

network_body._body_endoder.seq_layers.2.weight f4 [128, 128]
000000 c7 9e 02 bd 6c 01 10 3e b1 b7 94 3c a1 34 d6 bc
       -0.031889703 0.14063042 0.018153997 -0.026148142
000010 f9 2e ad 3c f3 0a e3 bd 81 a3 68 3d 67 15 04 be
       0.021140562 -0.11086073 0.056796554 -0.1289879
000020 25 c5 4c 3e 95 bf f7 3b b3 2d 3a bd 9a 94 89 3e
       0.1999708 0.00756068 -0.04545374 0.26871186
000030 68 49 02 be 79 1f dc bd f4 c0 18 bd 4c 9b c6 3d
       -0.12723315 -0.107481904 -0.03729339 0.09697589
000040 93 49 9b 3c 12 04 11 bd 6b 62 37 bd 66 09 aa bd
       0.018955981 -0.035404272 -0.044771593 -0.08302574
000050 46 77 98 3b 35 d2 51 3d 60 0b 03 3e b6 96 b8 3d
       0.0046528904 0.05122586 0.12797308 0.09013121
000060 61 09 c6 3d 42 47 0f be 5d 91 8a bc 25 ff c6 3d
       0.09669758 -0.13992026 -0.016915018 0.09716634
000070 2d a7 61 bd bf 55 57 be 0b 0b ca 3d be 38 a2 3d
       -0.055091072 -0.21028803 0.098653875 0.07920979
000080 6f 83 84 bc 71 9f 33 bc 67 7e 11 bd f1 6a 1a 3d
       -0.016175954 -0.010963307 -0.035520937 0.037699644
000090 e9 27 01 be 88 7d e3 3a be 2e 11 be 07 b4 ec 3b
       -0.12612881 0.0017356137 -0.14177987 0.0072236094
0000a0 05 ca 04 be 3a 34 5a bd 37 4d 1a bd f7 75 80 bc
       -0.1296769 -0.053272463 -0.037671294 -0.01568125
0000b0 65 a0 15 bd 79 40 f0 bd 1e 4b f4 3c a1 80 cb bb
       -0.036529917 -0.11731047 0.029820975 -0.006210402
0000c0 2b a7 8c bd ad 84 2d bd c0 0a 30 bd 9e 60 1d be
       -0.06867822 -0.042362858 -0.042979002 -0.15368888
0000d0 55 14 48 bd 60 3b 46 bd 02 71 e2 3d 04 58 0e 3e
       -0.048847515 -0.04839647 0.11056711 0.13900763
0000e0 56 8a 89 bd b7 85 af 3d b7 1d 8e bc 22 c1 fc 3c
       -0.067158386 0.08570426 -0.017348154 0.030853812
0000f0 7c 7f d2 bc 0b 6e d0 3c 45 0b d0 bd ab 0d b3 3c
       -0.025695555 0.025443098 -0.101583995 0.021857103
000100 1a 50 23 3e a4 9f 42 3d eb 16 26 bd 55 e4 dc bd
       0.15948525 0.047515526 -0.0405492 -0.107857384
000110 9a 17 11 3e e8 9c 9c bd ca 56 6e 3d 9d 12 7c bd
       0.1416916 -0.07647115 0.058188237 -0.06154119
000120 94 0f 46 bc ec ab 03 3e 24 82 45 bd 38 70 37 3d
       -0.012088675 0.12858552 -0.048219815 0.044784755
000130 16 77 1e be 5c ae 28 3d bf 98 64 3e 9e 65 09 3e
       -0.15475115 0.041181907 0.22323893 0.1341767
000140 97 9b 2a 3e ed 89 29 3c c7 67 a2 bd 37 61 6e 3d
       0.16660915 0.0103478255 -0.0792995 0.05819818
000150 b4 7b 99 3d dd 4f 84 3c fd b3 f4 bd 60 ad 06 3d
       0.074942976 0.016151363 -0.119483925 0.032880187
000160 24 d0 c4 3d cf 89 fc 3c d2 09 f8 3d 86 f2 04 be
       0.09610012 0.030827431 0.12111248 -0.1298314
000170 6d 21 1c be 08 d1 34 bd e5 f2 35 bd ee 30 2e 3e
       -0.15247126 -0.04414466 -0.044421095 0.17010853
000180 47 69 86 3c 2f 44 25 3e ce b8 73 3d a3 7d e8 bd
       0.016407622 0.16139291 0.059502415 -0.11352088
000190 4c db 16 3c c1 85 97 bd cb ae 87 3d ba 40 d0 3d
       0.009207558 -0.073985584 0.06625136 0.101685956
0001a0 f3 3f a4 3d 1e 20 02 bc a5 8d 0a be 89 39 3e bc
       0.0802001 -0.007942228 -0.13530596 -0.011610397
0001b0 16 3c 96 bd af 0e b4 bd 57 35 fb 3d b0 e2 02 3e
       -0.07335679 -0.08791863 0.12266033 0.12781787
0001c0 a3 ce 7b 3d f7 0f 60 3e 28 e6 00 3e 10 86 9e 3d
       0.06147636 0.2188109 0.12587798 0.07740414
0001d0 9c 0d 19 be 9e 2e 5a 3d c8 33 fa 3c ea 76 69 bd
       -0.14946598 0.053267114 0.03054227 -0.05699817
0001e0 f8 62 7f bd e3 3b 31 be 9d d9 1a bd ba 69 d8 bd
       -0.062350243 -0.17308001 -0.03780519 -0.10567041
0001f0 70 88 9f 3b 97 74 24 bb e8 82 41 bc 9b da c5 bd
       0.0048685595 -0.0025093907 -0.011810996 -0.09660836
000200 cf 99 59 3d b2 80 1b be 86 a3 9f bd 26 73 33 3e
       0.0531252 -0.15185812 -0.077948615 0.17524394
000210 ee 28 37 bd ca 1d e5 bd 29 00 f5 bc 25 c5 6e ba
       -0.044716768 -0.111873224 -0.029907303 -0.00091083563
000220 13 11 6b 3b c2 70 11 3d 66 ad b0 bd 3d 1c 13 bd
       0.0035868331 0.035507925 -0.08626823 -0.035915602
000230 70 0b 82 3d 6e eb 03 be 02 41 9b bc e6 80 99 bc
       0.06349838 -0.12882778 -0.018951897 -0.018738221
000240 c0 5e 7a bd 6b 6b f0 3d 3e ea df bd ed 6e 9a 3d
       -0.061125517 0.11739238 -0.1093335 0.07540689
000250 48 6a d6 bd 7c a3 1c bd e0 63 18 be 5e 97 00 be
       -0.1046949 -0.03824185 -0.1488185 -0.12557742
000260 d2 36 25 be 69 33 59 3d 50 e6 0d 3d ca 79 c8 3c
       -0.16134194 0.053027544 0.03464347 0.024472136
000270 09 6d d2 bd f0 ec 64 bd b0 83 6d be 07 0f dd 3c
       -0.10274703 -0.055890024 -0.23194766 0.026984705
000280 45 3b 59 bd 8d ab c0 bd 12 74 1a 3e f1 ab 0f be
       -0.05303504 -0.09407721 0.1508334 -0.14030434
000290 40 0a 0f bc 9a fe 8a ba ef 3c 86 bd e5 d8 cc bd
       -0.008730471 -0.0010604442 -0.06554591 -0.10002307
0002a0 c0 98 2a 3e 65 83 c6 bb 33 d2 29 3d 53 a7 b2 bb
       0.16659832 -0.006058144 0.041460227 -0.0054520755
0002b0 bd f7 c0 bc c0 20 bc 3d 66 15 06 be 88 88 dc bc
       -0.02355563 0.09185934 -0.130941 -0.026920572
0002c0 25 b1 67 3c 6b 62 1c bd 76 b8 31 3d 75 b7 aa 3d
       0.014141356 -0.038179796 0.043388806 0.08335773
0002d0 d6 ab 00 3d d0 cb 0c bd 5b eb 83 3d e7 1f 1a be
       0.031413876 -0.03437406 0.06441375 -0.15051232
0002e0 fe 9a 23 3d 52 9e 41 bc 94 c8 d5 3c ad 0f 0c 3e
       0.039942734 -0.011817532 0.02609662 0.13677855
0002f0 9b a8 91 bd b8 e0 ce 3d 52 f2 af 3d bd 4d 90 3d
       -0.07112237 0.101014555 0.08591141 0.070460774
000300 76 69 22 bd 9c ee 02 3e eb 1f 03 bd 71 9d 19 3d
       -0.039651357 0.12786335 -0.03201286 0.037503663
000310 18 f8 19 3e fe 72 b6 3d b5 f7 14 bc 56 a6 4f 3d
       0.15036047 0.08908652 -0.009092261 0.05069574
000320 ce 1f be bd 00 67 c7 3d c5 8c f1 3d 62 73 92 3d
       -0.0928341 0.097364426 0.11794428 0.07150914
000330 b5 e9 57 bd d2 a1 67 3c ec b1 67 bd 8f 52 17 3e
       -0.052713115 0.014137702 -0.056566164 0.14777587
000340 06 44 9f 3b 14 93 82 be 73 1b 33 3d 57 b2 2b 3d
       0.004860404 -0.25502837 0.04372735 0.041918125
000350 f6 da 21 3d 52 31 a8 bd a2 47 bd 3d dd 53 3e 3c
       0.039515458 -0.08212532 0.092421785 0.011616674
000360 18 aa 5a bd 97 ae a3 bc 8a 77 2b bd 10 55 a2 3d
       -0.05338487 -0.019980712 -0.04186205 0.07926381
000370 7d b2 3c bd a0 75 03 bd 96 34 da bd 48 13 37 bd
       -0.046068657 -0.032094598 -0.10654561 -0.044696122
000380 09 5e a2 bd 1e f5 0f 3e f9 87 dc bc c2 46 b5 bd
       -0.07928092 0.14058349 -0.026920306 -0.088513866
000390 0f 71 83 bc d7 7c 1b be a3 1e 0a 3e 09 57 40 3d
       -0.016045121 -0.15184341 0.1348825 0.046958003
0003a0 54 78 90 bc 02 e5 60 bd d7 e6 ab 3d 2e 43 da bd
       -0.017635502 -0.0549059 0.083936386 -0.10657345
0003b0 ad c7 38 3d 50 7b 7b bd ca ba cb bd 46 8e e8 bc
       0.0451123 -0.061396897 -0.099477366 -0.028388154
0003c0 33 35 a3 bd 1a 2b 2e 3d 2f be 7b 3d 9a c2 c9 bd
       -0.07969131 0.042521574 0.06146067 -0.098515704
0003d0 a3 6e a8 bc 56 36 22 bd 47 9f 1d bd 87 7b 96 bd
       -0.020560568 -0.0396026 -0.038481977 -0.0734778
0003e0 6f 76 7a 3d fa e2 94 3d d2 c8 e5 3a 78 de 04 3e
       0.061148103 0.07269855 0.0017531163 0.1297549
0003f0 0c c2 eb bc aa f4 88 bc 82 79 5b bd 80 6d 14 3d
       -0.028779052 -0.016718227 -0.053582676 0.03623724

network_body._body_endoder.seq_layers.2.bias f4 [128]
000000 d3 35 5c 3c 08 35 06 3d 36 c3 67 3c 65 91 42 3b
       0.013440567 0.03276542 0.014145663 0.0029688713
000010 11 09 ee bb f2 df 31 3c 7f 4c 92 3b 6f 26 c3 bb
       -0.0072642644 0.010856615 0.0044646855 -0.0059555094
000020 f9 8b db bb 86 22 c4 3c 43 df 90 bb d6 8d 15 bc
       -0.0067000357 0.023942243 -0.004421146 -0.009128055
000030 6a 69 2a bc 42 e2 23 3d 2a 59 f0 3c 9d 34 24 bb
       -0.010401109 0.0400107 0.029339392 -0.0025055774
000040 7c fc bc 3c b2 b7 81 3b 2a 3b 3e 3c 5f 8c 45 3c
       0.023069613 0.0039586658 0.0116107855 0.012057393
000050 03 5f a2 3c ef 06 8b 38 ec 91 ee 3c 12 e2 14 3d
       0.019820696 6.629328e-05 0.029122315 0.03634841
000060 a7 4f 23 bc 72 63 ee ba 88 ef 7a 3c 8a 44 6d 3c
       -0.009967721 -0.0018187596 0.015315898 0.014481673
000070 a6 bc 31 bc d3 8b 72 ba d5 d7 dd 3c 64 cb 8f 39
       -0.0108482 -0.0009252403 0.027080456 0.00027426623
000080 99 db 22 3c bd 25 b7 3c 14 82 0a 3d 18 30 28 3a
       0.0099400515 0.022356862 0.03381546 0.0006415858
000090 87 0a 43 3d 6e 6f 7d b9 17 3f d7 3c 9a 97 d5 3b
       0.04761746 -0.00024169471 0.0262752 0.0065183165
0000a0 5a 9d 25 3d ab a5 b6 3b 67 54 f0 3c 84 b3 81 3c
       0.040433265 0.0055739484 0.029337121 0.01583267
0000b0 a3 16 29 3c 0e 59 84 3c 4b bd 43 bc 8c f5 1d 3b
       0.010320338 0.016155746 -0.011946986 0.0024102656
0000c0 86 cf 0f 3d 74 e7 7d bb 73 8f f0 3c c4 8e 61 3c
       0.03511002 -0.0038742693 0.029365277 0.013766948
0000d0 a3 15 99 3a 15 da cb 3c 08 60 a7 3c ab 7b 84 3c
       0.0011679422 0.024884263 0.020431533 0.01617225
0000e0 66 8d a7 3b c9 78 7c 3c e0 a0 84 3c 08 01 ce 3c
       0.0051132916 0.015409657 0.016189992 0.025146976
0000f0 b7 75 3e 3d 87 dd b2 3c 6c 06 bc ba a2 ec b3 3c
       0.04649898 0.021834148 -0.0014345176 0.021963421
000100 27 df b2 3c 93 61 9a 3b 8e 0a 2e 3d cb bd 78 3c
       0.021834923 0.004711339 0.042490534 0.015181969
000110 75 ce 43 3c 01 79 b8 3c da 7b ca 3c 9c e6 8a 3c
       0.011951079 0.022518637 0.02471726 0.016955666
000120 81 12 0f 3c 3e fb b0 3c b1 a2 62 3c 40 e9 94 3a
       0.008732439 0.021604177 0.013832734 0.0011361018
000130 32 fb 32 3c 72 35 ee 3c 7c 08 f7 3b 67 b3 f8 3b
       0.010924147 0.02907822 0.007538853 0.007589746
000140 43 c2 73 ba 8e 68 2b bb 33 72 19 3d 90 48 6b bb
       -0.00092986616 -0.0026154849 0.037462424 -0.0035901405
000150 da 83 c1 3c 99 20 fc 3b 08 13 0c 3d 47 f5 1d 3c
       0.023622442 0.0076943156 0.034197837 0.009640998
000160 ee ca 80 3c 4a d7 b0 3c 39 a0 a5 3b 97 92 b9 3c
       0.015721764 0.021587033 0.0050545004 0.022652907
000170 83 49 4c 3b aa 57 be bb 79 0f 88 3c ce 2b 68 3c
       0.0031171746 -0.00580879 0.01660894 0.0141706
000180 68 24 0f 3c e7 b9 d1 3c 15 f5 57 3c c8 85 a5 3c
       0.008736707 0.02560134 0.013180991 0.020205393
000190 74 fc fa 3a d1 7a 91 3c 65 67 d4 3c 74 e4 0d 3d
       0.0019148723 0.017758759 0.025928209 0.034641698
0001a0 17 62 4a bb 0b 2b 3f 3c 16 d6 40 3b 88 63 65 3c
       -0.003088122 0.011667977 0.002942448 0.014000781
0001b0 ee 33 aa 3c 49 e6 2c 3d d6 1e 68 bc d1 f0 1f 3d
       0.020776715 0.042211805 -0.014167508 0.03904802
0001c0 73 03 24 3c 6c fa d1 3b 2f cd 2e bc 45 71 8d 3c
       0.010010588 0.0064080264 -0.010669037 0.017265925
0001d0 8f 4a 66 3c e3 05 14 3d f7 4f 9f 3c f8 5b 92 3c
       0.014055862 0.036138427 0.01944731 0.01786612
0001e0 d0 1b 26 3c f4 8a 8b 3c 1a 98 d9 3c eb 20 e2 3c
       0.010138467 0.017034031 0.026561785 0.027603587
0001f0 46 fc 23 3a 6a 85 01 3b bb 79 5e bb 0f 98 08 bc
       0.0006255548 0.001976336 -0.0033947069 -0.008337035

action_model._continuous_distribution.log_sigma f4 [1, 2]
000000 7f b7 ec bc b1 23 87 3c
       -0.028896092 0.016496511

action_model._continuous_distribution.mu.weight f4 [2, 128]
000000 33 4e 48 3d 79 51 97 bd ed 8c 9e 3d 5d b8 55 3d
       0.0489027 -0.073885866 0.07741723 0.052177776
000010 94 f0 29 3d 0c b5 89 3d 1f 6f 08 bd 6a 9e 17 bc
       0.0414892 0.06723985 -0.0333091 -0.009254077
000020 1a 40 57 bc 5c c7 0f bd e4 59 32 bb 72 72 af 3c
       -0.013137842 -0.035102233 -0.0027214224 0.021416876
000030 a6 7a cb ba 8a 87 a7 bd c9 85 77 3d 5b b3 71 bc
       -0.0015524223 -0.08180149 0.06043032 -0.014752234
000040 66 4f 91 3d 61 fa 1c 3d 71 e7 23 bc 31 ce 1f 3d
       0.07095222 0.038324717 -0.01000391 0.039015
000050 2c 83 1c bd 4c e9 01 3d 93 25 4e 3d 8c a0 75 bd
       -0.038211033 0.03171663 0.050328802 -0.059967563
000060 e2 78 c1 bb fb ea 93 3c 6e 5a 1d bd b9 d9 e4 bc
       -0.005904303 0.018056383 -0.03841632 -0.02793585
000070 f9 0e 2e 3c e7 23 1b bc f5 6a 44 3d 1d 8a 1b 3d
       0.010623687 -0.009469009 0.047953565 0.037973512
000080 91 0c 05 bd 27 a1 1a bd 08 1a a6 bd 01 22 2a 3d
       -0.032482687 -0.037751343 -0.08110434 0.041536335
000090 57 8c 82 bd 67 0c 23 bd 4e 03 4c bd fc b5 f8 bc
       -0.06374424 -0.03980675 -0.04980784 -0.030360214
0000a0 a2 f1 83 3d 46 25 2b 3d 90 1d 0a bd 48 a7 c4 3d
       0.06442572 0.041783594 -0.0337196 0.09602219
0000b0 d0 df 51 3d 52 fb 86 3d ec a4 9c 3c c5 18 7a 3b
       0.051238835 0.06590904 0.01912161 0.0038161736
0000c0 4b a4 92 3d fe b6 eb 3c 65 fb 7c bd 32 e5 ce ba
       0.07160243 0.02877378 -0.061763186 -0.0015784858
0000d0 1f 48 08 3d e1 2d 28 bd e3 3b 4d 3c fe 33 8e bc
       0.033271905 -0.04105938 0.012526485 -0.017358776
0000e0 9f ba 04 3d 3c 86 06 3d b2 e7 71 3d 24 69 82 3d
       0.03240454 0.03284286 0.059058852 0.0636771
0000f0 73 ed 64 bd d1 aa ce 3d e1 3e 8c 3c 30 de 3a bd
       -0.05589051 0.100911744 0.017119827 -0.04562205
000100 d3 e8 24 bd 4a 2b f5 3b cb d6 69 bd 81 21 22 3d
       -0.0402611 0.007481967 -0.05708961 0.039582733
000110 0c 37 49 bd d3 c7 e5 bc 39 38 de bc b4 04 69 3d
       -0.049124762 -0.028049385 -0.027126418 0.05688925
000120 e4 43 a5 ba 38 ae c5 bc 8f d7 f4 bc 4b 17 19 bd
       -0.0012608734 -0.024130926 -0.029887943 -0.03737573
000130 c6 42 0e 3d 3e 97 91 bd 8a c3 35 3d f1 21 00 3d
       0.03473165 -0.07108925 0.044375934 0.03128237
000140 10 ad 63 3c 6c d6 59 3d ee be 74 bd 64 39 89 3d
       0.013896242 0.053183004 -0.059752397 0.067003995
000150 a9 60 aa 3d af 85 09 3d 07 73 4a bd 7e 67 33 3d
       0.08319218 0.033574756 -0.049426105 0.04379987
000160 73 cc 41 3d c3 4a c8 bc 78 aa a4 3d 05 b6 3c 3d
       0.04731412 -0.024449712 0.08040327 0.046072025
000170 be 55 6e 3d a4 0c 46 3d 1b 3e 1c bd f2 88 66 3d
       0.05818724 0.0483519 -0.038145166 0.056282945
000180 96 1c 9d 3c 36 62 00 bd 5f 87 34 3d c6 77 ec bc
       0.01917867 -0.03134366 0.044074412 -0.028865706
000190 fa 1c 81 3d e3 3c f5 bc 01 ca 52 bd c5 53 62 bd
       0.06304355 -0.02993626 -0.051462177 -0.05525567
0001a0 03 7c c6 bc 21 7b 9e 3d 9e 27 cb 3c d1 25 bd bc
       -0.024229055 0.07738329 0.024799164 -0.023089321
0001b0 d5 91 28 bd 68 90 59 bd 08 6d c7 3c a7 c7 75 bd
       -0.0411547 -0.053116232 0.024343982 -0.060004856
0001c0 92 2f a9 bc 62 d6 d9 bc dd 43 7b 3b 1d 22 c7 3c
       -0.020652566 -0.026591484 0.003834001 0.024308259
0001d0 2c 64 c3 bc 37 75 22 bd a9 79 bd bc f3 68 46 3d
       -0.023851477 -0.039662566 -0.023129301 0.04843993
0001e0 0d 28 32 3d 4c ba 0c bd 8b 4b 00 bd d1 90 2b bd
       0.043495227 -0.034357354 -0.031322043 -0.041886155
0001f0 a4 38 dc 3c a6 b2 fd bb ed a5 f3 3c fb 23 d4 3b
       0.026882477 -0.007742244 0.029742206 0.006474016
000200 6e 8c 8a 3c 39 8c 5d bc 47 83 6e bc 93 5f 94 3c
       0.016912665 -0.013522201 -0.014557666 0.01811198
000210 ac e8 1c 3d 7e 7c da bb 9a 9c 73 3c cb ec 91 3c
       0.03830783 -0.0066676727 0.01486888 0.017813107
000220 de 7f ee 3a 35 6f e1 bc cc 8d 8d ba 46 2b 13 bc
       0.0018196066 -0.027518848 -0.0010799705 -0.008982485
000230 86 48 7a 3b ac 4a 41 bb d8 e6 cd 3c 30 66 20 3d
       0.00381902 -0.002949397 0.025134489 0.039159954
000240 57 5c a7 3a 2f 6b 2e 3c 83 33 04 bd b0 e7 24 bb
       0.0012768608 0.010645672 -0.032275688 -0.002516251
000250 69 ea 85 bc 20 5a 26 bd 5e f8 f3 bb 12 88 5f bc
       -0.016347127 -0.040613294 -0.007445379 -0.0136432815
000260 5b 5b e3 3c f0 9f 40 ba cb 12 7f 3c 80 35 00 bd
       0.027753523 -0.00073480513 0.015568445 -0.03130102
000270 09 30 82 ba a6 18 86 3b 5f ed 68 3c 02 16 27 ba
       -0.0009932528 0.004092294 0.01421675 -0.0006373824
000280 82 3c b3 3b 90 17 05 bd 3d 3b 95 bb a1 02 d1 3c
       0.0054698596 -0.032493174 -0.004554181 0.025513949
000290 b2 53 a9 bc 08 f0 47 3c b3 31 86 b8 a3 87 b3 3b
       -0.020669792 0.012203224 -6.398875e-05 0.0054788156
0002a0 54 4a 49 3c 81 8f 32 3b ed 97 4f bc d5 2f 52 3c
       0.012285788 0.002724618 -0.012670499 0.012828787
0002b0 34 c1 1f bc 90 47 70 bb fd 25 06 3c a2 48 98 bb
       -0.009750653 -0.0036663748 0.008187768 -0.0046473304
0002c0 26 3e 51 3c c6 f1 e7 b9 06 29 98 bb 96 7f 9d bc
       0.012771165 -0.0004423989 -0.0046435622 -0.019225877
0002d0 4a ea 2f 3c a7 0e 8e 3b 9e af 27 bc 0e 6c d1 bb
       0.010737011 0.004335243 -0.0102347415 -0.006391055
0002e0 75 4e c7 bc 7a 7f a2 ba c5 2c 9a 3c b8 ff a7 bb
       -0.024329403 -0.001239761 0.018820176 -0.0051269196
0002f0 80 d0 c2 bc e1 b0 80 3c 61 18 1e bc 79 16 5e 3b
       -0.023781061 0.015709342 -0.009649367 0.0033887906
000300 e2 0e 0e bd a0 23 cf bc 7d 10 2d bc 9f 1e 9a bc
       -0.034682162 -0.025285542 -0.010563013 -0.01881343
000310 ff 5f 62 3c a1 47 8a bc 4e 18 45 bc 2a 42 87 3c
       0.013816833 -0.016879858 -0.0120297205 0.016511042
000320 68 ac 22 bd e7 e4 c3 bc 59 d8 4b bb e1 78 fe 3b
       -0.0397152 -0.02391286 -0.0031104295 0.0077658747
000330 84 d5 b6 bc db 14 27 bb b0 cb c0 3b 2e b4 56 3a
       -0.022318609 -0.0025494609 0.0058836564 0.0008190301
000340 17 0e e3 3b 67 d0 13 3b dd db 5f bb d7 45 12 3d
       0.00692917 0.0022554637 -0.0034158148 0.035711136
000350 eb ba 4e 3a 53 40 8d bd 20 2a 3e bd d8 00 04 bd
       0.00078861293 -0.068970345 -0.046426892 -0.032227367
000360 52 b1 0a 3b 5d 70 31 bc 62 9d b1 bc 5b b9 40 bc
       0.002116282 -0.010830012 -0.021681491 -0.011762942
000370 44 f3 ac 3c 8b 6e c7 3c 23 75 02 3c ef 29 fb 3c
       0.021112092 0.024344703 0.007962498 0.030659644
000380 54 c9 cd bc 0d 58 d7 3a c1 1c 35 bd 83 90 38 bd
       -0.025120415 0.001642944 -0.044216875 -0.045059692
000390 8d fc 89 3c 91 f6 12 bd 49 a7 9c ba cb 37 ad bc
       0.016844058 -0.035879675 -0.001195171 -0.021144768
0003a0 34 3a ce 3c b6 62 5d 3c 87 60 36 bc 99 bf f8 bc
       0.025174238 0.013512304 -0.011131412 -0.030364798
0003b0 f3 81 7c 3c 9e cc 5f bc fe 24 dd 3c 78 f2 65 bc
       0.015411842 -0.013659624 0.026995178 -0.01403486
0003c0 ef b1 79 bc 83 2b 3e 3b 7f 02 97 3c 6a cd a6 bc
       -0.015240177 0.0029017634 0.018433807 -0.020361621
0003d0 4a 34 15 bc e0 a5 63 bb 40 30 23 bd df 84 30 3b
       -0.009106705 -0.003473632 -0.039840937 0.0026934666
0003e0 8d f6 9a bc 5f 6a 26 3c 9f 14 da bc 0a 98 31 bc
       -0.018916393 0.010157197 -0.026621161 -0.010839472
0003f0 10 de 9d bb d0 6b 0d 3c 11 9f 10 3d a2 0d 68 3d
       -0.0048177317 0.0086316615 0.035307948 0.056653626

action_model._continuous_distribution.mu.bias f4 [2]
000000 cd b0 4a bc 76 a7 27 bc
       -0.012371254 -0.010232797

action_model._discrete_distribution.branches.0.weight f4 [1, 128]
000000 e7 30 3a bc 58 37 f8 bb 9d d5 24 bb a2 9c 54 bb
       -0.011364198 -0.007574957 -0.0025151737 -0.0032441993
000010 7b 1b 90 3b e7 d3 c8 3a 8b c0 04 bc 7b f0 af 3a
       0.004397807 0.0015321941 -0.008102546 0.0013423109
000020 a0 b0 f9 ba 1f 6f eb 3b 5f 9c fb bb de 14 43 3c
       -0.0019049831 0.0071848775 -0.007678553 0.011906831
000030 8b bc e4 bb e7 21 14 bc 62 c6 b1 39 e3 7c 7e 3a
       -0.006980484 -0.009041286 0.00033907878 0.00097079406
000040 43 d3 bc bb ba 5f 09 bc cd c9 3d 3b 53 4c 25 bc
       -0.005762489 -0.008384639 0.0028959394 -0.010088998
000050 27 43 d5 3a d0 4a ee 3b 3b 0c 02 bc a5 1d 31 bc
       0.0016270623 0.007272102 -0.007937486 -0.01081029
000060 db a9 cd 3c f1 d8 ae ba c0 ab 5f 3c 9a bd 4d ba
       0.025105407 -0.00133398 0.013651788 -0.0007848382
000070 cc 8e be 3a ef c4 c1 bb c7 0a 3a bc 5f 64 c5 b8
       0.0014538406 -0.005913369 -0.011355109 -9.4123876e-05
000080 97 c0 23 bb 93 fa 08 3c c7 4a b6 39 f3 44 16 3c
       -0.0024986619 0.008360523 0.0003476946 0.009171712
000090 cd ee e3 bc 27 7d 8c bb 12 f6 e9 39 02 e6 b2 3b
       -0.02782383 -0.0042873803 0.0004462456 0.005459548
0000a0 02 18 ff 3b 45 54 fd 3a 1a 71 4a 3c cb 07 0e 3a
       0.0077848444 0.0019327482 0.012356067 0.00054180314
0000b0 af 76 eb 3b a1 51 34 3c 85 9a e0 3b 36 eb 2c bc
       0.007185779 0.01100579 0.0068543577 -0.0105541255
0000c0 52 fd d2 39 63 d4 89 3b c8 33 bf 3b 81 06 33 3b
       0.0004024306 0.0042062267 0.00583503 0.002731711
0000d0 f4 d3 a1 3c 56 45 37 bc 75 33 97 bb 37 96 1f 3a
       0.019754387 -0.011185965 -0.0046142885 0.00060877524
0000e0 75 45 18 bc 7e c5 80 3a 01 7a 93 bb f0 64 7c 3b
       -0.009293904 0.0009824482 -0.004500628 0.0038512312
0000f0 70 22 9d bc e0 c9 5e bc 55 e8 68 ba 08 d2 2b 3c
       -0.01918146 -0.013597935 -0.0008884718 0.010487087
000100 a1 e7 b1 3b 96 1c 04 bc 7a 86 f9 3b 25 a1 9b bb
       0.0054292236 -0.008063456 0.007614908 -0.0047494345
000110 9a 27 f4 3b 60 71 4e bb 38 16 7c 3c 3b 89 9f bc
       0.00745101 -0.0031500682 0.015386157 -0.019474616
000120 47 b5 53 ba 32 72 33 bb 60 5a ee bb c7 a2 81 bb
       -0.00080760237 -0.0027381298 -0.007273957 -0.003956172
000130 f0 6f a8 bc 22 d4 26 bc 33 44 75 3b 67 c7 e2 3b
       -0.020561188 -0.010182412 0.0037424683 0.0069207433
000140 da d0 5b 3b 5b 2c 88 3c 65 8e 9f ba 8f ec 0e 3b
       0.0033541233 0.016622713 -0.0012173174 0.002180848
000150 9b d2 9f 3a aa 31 ac b9 c7 51 a3 3a 46 f3 83 ba
       0.0012193503 -0.000328434 0.0012460285 -0.0010067008
000160 d9 2e ae ba 7a 53 95 bb f6 a1 ac bb 88 04 ff ba
       -0.0013289108 -0.0045570703 -0.0052683307 -0.0019456306
000170 fa da 06 3c ff 95 01 bb a7 c5 5c bc 67 ea db bb
       0.008230919 -0.0019773243 -0.013474858 -0.0067112925
000180 3b 28 74 3c 1f 01 01 bc ca fc 7d 3c 9f 6a 02 bb
       0.01490217 -0.007873802 0.015502164 -0.0019899977
000190 fb f6 3b 3b 62 79 58 3c 09 f5 14 3c 4f dc 9d bb
       0.0028681147 0.013212534 0.009091624 -0.0048175226
0001a0 e5 35 2c 3a 15 df 21 3b 95 f9 8a 3c 4d 80 89 3b
       0.000656931 0.0024699618 0.016964713 0.004196203
0001b0 a5 d6 74 bc fb 33 5f ba ae 67 12 3c b4 74 31 bc
       -0.014943753 -0.00085145206 0.008935852 -0.010831047
0001c0 ef 54 36 3c 47 6f 36 3c 9b 83 90 3c 2a a4 fd ba
       0.011128648 0.011134929 0.01764088 -0.0019351293
0001d0 62 b3 67 bc eb 55 f8 3b 91 ab 1c 3b 75 bf 6d bc
       -0.014141889 0.0075786016 0.0023905972 -0.014510979
0001e0 be aa c2 bb 1f e0 70 3c 72 74 b4 3b f0 8b 83 39
       -0.005940764 0.014701872 0.0055070454 0.0002509053
0001f0 a2 2f 0a bc 50 de 50 bb 77 c5 99 3b 7e bd 05 bc
       -0.008434208 -0.003187079 0.004692729 -0.008162854

exp_avg f4 [128, 6]
000000 f0 e8 69 b9 be 2b 28 b8 00 00 00 00 03 8b dd b8
       -0.00022307388 -4.009506e-05 0.0 -0.00010563994
000010 be 2b 28 b8 a1 5b 20 39 c2 07 8d 38 eb 6d 47 38
       -4.009506e-05 0.00015292923 6.724849e-05 4.7547666e-05
000020 00 00 00 00 e4 20 ac b8 e9 6d 47 38 d4 6b b0 38
       0.0 -8.2077255e-05 4.754766e-05 8.4124185e-05
000030 ab 63 fb 38 0b 2b 95 b7 00 00 00 00 45 3e 74 b8
       0.00011987177 -1.7782228e-05 0.0 -5.8232126e-05
000040 0b 2b 95 b7 b8 f2 84 b8 3c dd b1 b8 9c bc 80 37
       -1.7782228e-05 -6.3394604e-05 -8.481226e-05 1.5346617e-05
000050 00 00 00 00 85 eb 50 b9 9f bc 80 37 41 b4 7c 39
       0.0 -0.00019924164 1.5346623e-05 0.00024099743
000060 a5 36 85 b9 73 90 d7 b7 00 00 00 00 74 52 de b8
       -0.0002540845 -2.5697262e-05 0.0 -0.00010601143
000070 73 90 d7 b7 89 76 54 39 ca 03 3a 39 55 54 25 38
       -2.5697262e-05 0.00020262053 0.00017739754 3.9417606e-05
000080 00 00 00 00 06 01 ba b8 59 54 25 38 85 e9 1d b9
       0.0 -8.869362e-05 3.941762e-05 -0.0001505968
000090 0c 06 e8 b7 a9 df 16 37 00 00 00 00 e3 4d a5 b8
       -2.7659371e-05 8.992772e-06 0.0 -7.882321e-05
0000a0 a9 df 16 37 0d e2 4b 38 e1 a1 48 b8 9e 44 50 35
       8.992772e-06 4.8609498e-05 -4.7834477e-05 7.758589e-07
0000b0 00 00 00 00 50 1f 24 b9 f8 46 50 35 b6 fb 83 38
       0.0 -0.00015651924 7.758931e-07 6.2934516e-05
0000c0 f4 bc 6e b8 24 16 f4 37 00 00 00 00 d1 e3 28 b9
       -5.6919598e-05 2.9097377e-05 0.0 -0.00016106597
0000d0 24 16 f4 37 b5 57 1d 39 3d 38 b6 37 95 a2 b7 36
       2.9097377e-05 0.0001500536 2.1722279e-05 5.472752e-06
0000e0 00 00 00 00 ab 73 8f 37 9e a2 b7 36 b6 b4 95 b8
       0.0 1.710079e-05 5.472756e-06 -7.138534e-05
0000f0 7c c1 81 b9 60 f7 4b b8 00 00 00 00 2b ee f0 37
       -0.00024748954 -4.8629357e-05 0.0 2.8721135e-05
000100 60 f7 4b b8 48 5e 09 39 bc ec 48 38 15 ff 09 b7
       -4.8629357e-05 0.0001310046 4.7904192e-05 -8.225227e-06
000110 00 00 00 00 49 50 12 b8 12 ff 09 b7 b9 6a 0d b7
       0.0 -3.4883884e-05 -8.2252245e-06 -8.429103e-06
000120 de 33 de b8 b0 e8 22 37 00 00 00 00 f2 ef fb b8
       -0.00010595446 9.710129e-06 0.0 -0.00012013306
000130 b0 e8 22 37 ab 8f d8 38 ef cb 83 b7 85 27 69 35
       9.710129e-06 0.00010326443 -1.5711381e-05 8.685677e-07
000140 00 00 00 00 2b fb 85 b8 eb 25 69 35 77 bd ba 38
       0.0 -6.388718e-05 8.685444e-07 8.904462e-05
000150 d5 15 de b9 3c f7 f3 b8 00 00 00 00 45 93 22 b8
       -0.00042359406 -0.00011633194 0.0 -3.8760965e-05
000160 3c f7 f3 b8 a6 61 09 39 56 cf 38 39 1c 84 0d 38
       -0.00011633194 0.00013101715 0.00017624846 3.3740056e-05
000170 00 00 00 00 d7 59 69 b7 23 84 0d 38 56 d2 c8 b6
       0.0 -1.39088e-05 3.374008e-05 -5.984951e-06
000180 46 88 05 39 08 fe 80 36 00 00 00 00 0a e4 52 37
       0.00012734634 3.8442704e-06 0.0 1.257007e-05
000190 08 fe 80 36 fa 77 dc b8 ac 7d 43 b8 a5 db 91 b6
       3.8442704e-06 -0.00010512765 -4.6608664e-05 -4.3469067e-06
0001a0 00 00 00 00 cf 63 23 b8 93 db 91 b6 63 f9 2e 38
       0.0 -3.8955182e-05 -4.3468985e-06 4.1717092e-05
0001b0 97 6e 39 38 a9 e0 1a b7 00 00 00 00 b4 38 8c 38
       4.4210432e-05 -9.231423e-06 0.0 6.686282e-05
0001c0 a9 e0 1a b7 64 6c 08 b9 f1 65 7d b8 fc 3c 25 b5
       -9.231423e-06 -0.0001301035 -6.041484e-05 -6.1556034e-07
0001d0 00 00 00 00 37 66 ef b7 53 3d 25 b5 1a 50 9c 38
       0.0 -2.8538618e-05 -6.155653e-07 7.45358e-05
0001e0 22 15 45 38 a0 36 e9 36 00 00 00 00 18 48 11 b8
       4.698814e-05 6.9503003e-06 0.0 -3.4637837e-05
0001f0 a0 36 e9 36 4c 65 74 37 5a 1f 29 b6 75 10 f8 b5
       6.9503003e-06 1.4567118e-05 -2.5201211e-06 -1.848223e-06
000200 00 00 00 00 91 5f fb b7 80 10 f8 b5 0d 5e a4 b7
       0.0 -2.9966033e-05 -1.8482242e-06 -1.959412e-05
000210 b4 5b 9b 38 3a e5 1f b8 00 00 00 00 52 d7 9d 38
       7.408057e-05 -3.8122038e-05 0.0 7.52645e-05
000220 3a e5 1f b8 70 bb 91 b8 6c 80 1a b6 55 42 c3 37
       -3.8122038e-05 -6.949052e-05 -2.302254e-06 2.32767e-05
000230 00 00 00 00 64 d6 82 b6 55 42 c3 37 0b 69 a6 38
       0.0 -3.8992603e-06 2.32767e-05 7.9350626e-05
000240 4a 37 28 b7 6a a7 2b 38 00 00 00 00 64 8c d2 b8
       -1.0026453e-05 4.0925494e-05 0.0 -0.0001003973
000250 6a a7 2b 38 6e 18 16 39 02 8c 6c b9 83 9f 63 b8
       4.0925494e-05 0.00014314216 -0.00022558871 -5.4269574e-05
000260 00 00 00 00 34 31 f9 b7 88 9f 63 b8 45 bc 11 39
       0.0 -2.9706025e-05 -5.4269593e-05 0.00013898413
000270 49 55 35 b8 0b 68 f0 36 00 00 00 00 fe dd f6 b8
       -4.323319e-05 7.1646696e-06 0.0 -0.00011771543
000280 0b 68 f0 36 fa 68 27 39 b7 2d 0a b9 f0 af 28 b8
       7.1646696e-06 0.00015965468 -0.00013177736 -4.0218176e-05
000290 00 00 00 00 46 5f 4c b8 f3 af 28 b8 f1 5c eb 38
       0.0 -4.872612e-05 -4.0218187e-05 0.00011222985
0002a0 ed 7e 5b 37 df f4 03 b8 00 00 00 00 0b 8d 94 38
       1.3082969e-05 -3.1460888e-05 0.0 7.083461e-05
0002b0 df f4 03 b8 61 fb b4 b8 50 02 98 b9 8b 2d a4 b8
       -3.1460888e-05 -8.629892e-05 -0.00028993422 -7.8286124e-05
0002c0 00 00 00 00 a1 58 d6 37 8f 2d a4 b8 a1 04 57 38
       0.0 2.5552059e-05 -7.828615e-05 5.1264306e-05
0002d0 54 fa e4 38 63 83 d1 37 00 00 00 00 19 5d 28 b6
       0.000109185145 2.4975923e-05 0.0 -2.508814e-06
0002e0 63 83 d1 37 e7 24 8c b8 73 a8 48 37 57 fe 43 37
       2.4975923e-05 -6.682594e-05 1.1960149e-05 1.1682124e-05
0002f0 00 00 00 00 a1 60 12 b8 57 fe 43 37 8a 16 f4 37
       0.0 -3.4899105e-05 1.1682124e-05 2.9097562e-05
000300 a7 b7 36 37 62 8b 99 37 00 00 00 00 c5 2f ab b8
       1.0890805e-05 1.8303926e-05 0.0 -8.162813e-05
000310 62 8b 99 37 07 78 c2 38 5e 40 26 b8 09 5e c8 b5
       1.8303926e-05 9.272998e-05 -3.963743e-05 -1.4928529e-06
000320 00 00 00 00 fd fd 79 38 9d 5e c8 b5 78 31 0c 38
       0.0 5.960277e-05 -1.4928697e-06 3.3424672e-05
000330 65 8f 12 b9 8f 69 2a b6 00 00 00 00 2c 55 bf b8
       -0.00013977064 -2.5393417e-06 0.0 -9.123454e-05
000340 8f 69 2a b6 06 ce f2 38 41 8f 75 b8 74 28 d8 b7
       -2.5393417e-06 0.00011577834 -5.8545967e-05 -2.5768044e-05
000350 00 00 00 00 c2 e6 30 b8 76 28 d8 b7 57 68 5a 37
       0.0 -4.217658e-05 -2.5768048e-05 1.3018106e-05
000360 91 cd 41 b9 92 61 4a b7 00 00 00 00 60 18 2c b9
       -0.00018482494 -1.2062856e-05 0.0 -0.00016412279
000370 92 61 4a b7 08 7c f7 38 8a c9 d8 38 5a 99 59 b7
       -1.2062856e-05 0.000118009804 0.00010337222 -1.2969913e-05
000380 00 00 00 00 5a e9 d4 b7 3d 99 59 b7 60 22 d7 b8
       0.0 -2.5381032e-05 -1.29698865e-05 -0.00010258402
000390 3d 8d 80 b7 ea a6 1e b8 00 00 00 00 cc 65 2c 38
       -1.5324558e-05 -3.7825586e-05 0.0 4.11028e-05
0003a0 ea a6 1e b8 cc 86 0b b9 c2 ba ae 37 36 11 4b b7
       -3.7825586e-05 -0.00013306289 2.0829382e-05 -1.210375e-05
0003b0 00 00 00 00 8d 41 ed 37 17 11 4b b7 4a c6 85 b8
       0.0 2.8283126e-05 -1.2103722e-05 -6.3788684e-05
0003c0 89 72 a5 b8 6d 1e 22 b7 00 00 00 00 82 f4 3e b8
       -7.889147e-05 -9.6630365e-06 0.0 -4.5527246e-05
0003d0 6d 1e 22 b7 a8 5e 3a 38 01 2b b9 38 30 21 bb 37
       -9.6630365e-06 4.443401e-05 8.8294975e-05 2.2307591e-05
0003e0 00 00 00 00 2d bf d5 37 2d 21 bb 37 db 5f 6a b7
       0.0 2.5480602e-05 2.2307586e-05 -1.3969805e-05
0003f0 9e f7 62 b8 d8 15 29 38 00 00 00 00 2a 97 0f b9
       -5.411321e-05 4.0313083e-05 0.0 -0.00013693856

exp_avg_sq f4 [128, 6]
000000 62 fb a8 34 f6 3a 47 33 00 00 00 00 33 aa c9 34
       3.1475344e-07 4.6386923e-08 0.0 3.7563004e-07
000010 f6 3a 47 33 85 c3 76 34 7d bb 6c 33 1e 0e ec 31
       4.6386923e-08 2.2981665e-07 5.511855e-08 6.870109e-09
000020 00 00 00 00 82 6e 3d 33 20 0e ec 31 9e 08 f9 32
       0.0 4.4105498e-08 6.87011e-09 2.8991334e-08
000030 5b 7b 03 35 e6 72 93 33 00 00 00 00 fa e4 15 35
       4.898081e-07 6.866121e-08 0.0 5.584003e-07
000040 e6 72 93 33 02 09 c4 34 3c 91 6a 34 3a 59 5c 33
       6.866121e-08 3.65144e-07 2.1845784e-07 5.1303893e-08
000050 00 00 00 00 2f 8e c8 34 38 59 5c 33 95 01 30 34
       0.0 3.7356355e-07 5.1303886e-08 1.6391853e-07
000060 44 24 c0 34 e8 ad 91 33 00 00 00 00 be 48 02 35
       3.5789174e-07 6.783722e-08 0.0 4.853463e-07
000070 e8 ad 91 33 23 52 7c 34 24 dd bd 34 10 dd 7c 33
       6.783722e-08 2.349921e-07 3.5364894e-07 5.8874377e-08
000080 00 00 00 00 57 32 01 35 08 dd 7c 33 c0 bb ad 34
       0.0 4.81295e-07 5.887435e-08 3.2360367e-07
000090 84 ef 34 33 e8 3c ba 31 00 00 00 00 4d 5c 69 33
       4.2127354e-08 5.4202367e-09 0.0 5.4333487e-08
0000a0 e8 3c ba 31 7a ab ee 32 54 39 1c 34 35 a9 d5 32
       5.4202367e-09 2.7784825e-08 1.4549488e-07 2.487341e-08
0000b0 00 00 00 00 bd 25 44 34 38 a9 d5 32 c0 df d1 33
       0.0 1.8267652e-07 2.4873415e-08 9.773021e-08
0000c0 c4 9a b8 34 cb 44 77 33 00 00 00 00 50 ec d9 34
       3.4385278e-07 5.7571736e-08 0.0 4.059134e-07
0000d0 cb 44 77 33 77 52 4e 34 d7 36 e6 33 a6 c6 76 32
       5.7571736e-08 1.9215246e-07 1.0720185e-07 1.4364252e-08
0000e0 00 00 00 00 ed 49 01 34 a5 c6 76 32 b6 b9 af 33
       0.0 1.2040955e-07 1.4364251e-08 8.182853e-08
0000f0 f6 df 95 34 7f 91 4e 33 00 00 00 00 e5 c4 d1 34
       2.7916366e-07 4.809544e-08 0.0 3.9072543e-07
000100 7f 91 4e 33 cd 6e 7c 34 7b 69 18 34 8f af 85 32
       4.809544e-08 2.3509638e-07 1.4194477e-07 1.5563073e-08
000110 00 00 00 00 0a 7a 1a 34 8f af 85 32 36 8b eb 33
       0.0 1.4386765e-07 1.5563073e-08 1.09683626e-07
000120 26 67 c2 34 ca 0f 60 33 00 00 00 00 62 27 ee 34
       3.6210366e-07 5.2168424e-08 0.0 4.435961e-07
000130 ca 0f 60 33 51 bf 74 34 a3 2a 21 33 93 2a b0 31
       5.2168424e-08 2.2793871e-07 3.752451e-08 5.1271143e-09
000140 00 00 00 00 ee c8 12 33 93 2a b0 31 62 41 d1 32
       0.0 3.417602e-08 5.1271143e-09 2.4360535e-08
000150 06 f4 8a 34 5c c4 35 33 00 00 00 00 4b 33 9d 34
       2.5882053e-07 4.2320934e-08 0.0 2.928085e-07
000160 5c c4 35 33 34 8b 28 34 b4 8c 80 33 1d ff 23 32
       4.2320934e-08 1.5696861e-07 5.986058e-08 9.545855e-09
000170 00 00 00 00 7a 88 c5 33 1c ff 23 32 9d 9c 1e 33
       0.0 9.198352e-08 9.545854e-09 3.692968e-08
000180 c0 d4 8b 34 dd fd 3e 33 00 00 00 00 35 75 b8 34
       2.6045564e-07 4.446871e-08 0.0 3.435795e-07
000190 dd fd 3e 33 31 5c 2c 34 f6 98 e7 31 6e 98 c7 30
       4.446871e-08 1.6052287e-07 6.7403745e-09 1.4522479e-09
0001a0 00 00 00 00 0b 76 26 32 71 98 c7 30 c8 8a c0 31
       0.0 9.689312e-09 1.4522482e-09 5.603713e-09
0001b0 af 1d 5e 34 74 de 03 33 00 00 00 00 74 6c 8d 34
       2.068616e-07 3.0703134e-08 0.0 2.6342207e-07
0001c0 74 de 03 33 98 66 3c 34 01 0b 1a 34 1a 7e 9e 32
       3.0703134e-08 1.7546188e-07 1.4346371e-07 1.8450965e-08
0001d0 00 00 00 00 71 01 2b 34 19 7e 9e 32 38 cf 02 34
       0.0 1.592614e-07 1.8450963e-08 1.2182579e-07
0001e0 d5 4e 82 32 a1 35 1b 31 00 00 00 00 f0 46 9e 32
       1.516984e-08 2.2585953e-09 0.0 1.842588e-08
0001f0 a1 35 1b 31 33 1e 5b 32 fd cd 0c 32 01 d5 e1 30
       2.2585953e-09 1.2754344e-08 8.195909e-09 1.6431444e-09
000200 00 00 00 00 35 4a 82 32 06 d5 e1 30 5c 0b 0b 32
       0.0 1.5167737e-08 1.643145e-09 8.093448e-09
000210 f2 fa 6c 34 95 7f 1a 33 00 00 00 00 2a b4 a2 34
       2.2070506e-07 3.5971954e-08 0.0 3.0305938e-07
000220 95 7f 1a 33 4b 91 3e 34 a7 78 80 33 f5 83 23 32
       3.5971954e-08 1.7747986e-07 5.982411e-08 9.517852e-09
000230 00 00 00 00 c6 ed bf 33 f6 83 23 32 1c bf 34 33
       0.0 8.937381e-08 9.517853e-09 4.208333e-08
000240 d0 58 91 34 25 73 2d 33 00 00 00 00 71 b0 9c 34
       2.7072974e-07 4.0384425e-08 0.0 2.9185642e-07
000250 25 73 2d 33 da c7 13 34 2f 58 6b 34 de 85 20 33
       4.0384425e-08 1.3763147e-07 2.1918162e-07 3.7374654e-08
000260 00 00 00 00 a0 0a 8a 34 e0 85 20 33 79 93 16 34
       0.0 2.5712234e-07 3.737466e-08 1.4023489e-07
000270 fe b7 49 34 93 ac ea 32 00 00 00 00 1e ee 3b 34
       1.878652e-07 2.7319663e-08 0.0 1.7502359e-07
000280 93 ac ea 32 f8 39 d3 33 5f cd 6f 33 5f 09 12 32
       2.7319663e-08 9.8359976e-08 5.5833308e-08 8.500449e-09
000290 00 00 00 00 e3 40 58 33 5c 09 12 32 79 4a 1a 33
       0.0 5.0350433e-08 8.500447e-09 3.592365e-08
0002a0 83 21 01 34 64 28 9c 32 00 00 00 00 df 8f 35 34
       1.2026253e-07 1.8179158e-08 0.0 1.6909279e-07
0002b0 64 28 9c 32 23 20 be 33 06 47 c2 33 b7 50 70 32
       1.8179158e-08 8.85341e-08 9.046748e-08 1.3988191e-08
0002c0 00 00 00 00 70 61 d4 33 ae 50 70 32 c4 5d 66 33
       0.0 9.889743e-08 1.3988183e-08 5.3636327e-08
0002d0 6c 5c ad 33 2d 89 41 32 00 00 00 00 43 80 db 33
       8.072752e-08 1.1265269e-08 0.0 1.0221313e-07
0002e0 2d 89 41 32 54 60 79 33 ba e2 d7 31 d5 65 88 30
       1.1265269e-08 5.806244e-08 6.2830994e-09 9.924245e-10
0002f0 00 00 00 00 7f 06 ec 31 d5 65 88 30 37 d9 9d 31
       0.0 6.8692425e-09 9.924245e-10 4.593996e-09
000300 79 c7 9e 33 31 e2 6e 32 00 00 00 00 35 ae 00 34
       7.393732e-08 1.3904853e-08 0.0 1.1984305e-07
000310 31 e2 6e 32 03 ea 7a 33 b2 94 fb 32 dd 83 cf 31
       1.3904853e-08 5.8420493e-08 2.9287865e-08 6.039484e-09
000320 00 00 00 00 2c 17 80 33 dc 83 cf 31 ba 6e 0c 33
       0.0 5.9646794e-08 6.0394836e-09 3.2696995e-08
000330 23 81 52 34 a8 75 f8 32 00 00 00 00 0f dc 68 34
       1.9604754e-07 2.8924504e-08 0.0 2.168674e-07
000340 a8 75 f8 32 a3 f7 e4 33 37 ee 55 32 72 54 9a 30
       2.8924504e-08 1.0662122e-07 1.2452396e-08 1.1228976e-09
000350 00 00 00 00 9e eb 0a 32 71 54 9a 30 42 7f cb 31
       0.0 8.08623e-09 1.1228974e-09 5.922545e-09
000360 fe 12 e9 34 7e ff 89 33 00 00 00 00 5c 10 08 35
       4.341345e-07 6.4260334e-08 0.0 5.0687754e-07
000370 7e ff 89 33 9d 39 99 34 40 49 b2 34 4e ef 60 33
       6.4260334e-08 2.854039e-07 3.320838e-07 5.237171e-08
000380 00 00 00 00 5f d0 e1 34 4d ef 60 33 06 37 80 34
       0.0 4.2061126e-07 5.2371707e-08 2.3881893e-07
000390 e3 70 1b 34 74 dc e8 32 00 00 00 00 51 b6 86 34
       1.4476568e-07 2.7108605e-08 0.0 2.5092098e-07
0003a0 74 dc e8 32 c7 0e 03 34 df 16 a9 33 87 bb 3e 32
       2.7108605e-08 1.2205702e-07 7.873836e-08 1.1102094e-08
0003b0 00 00 00 00 89 95 c5 33 86 bb 3e 32 c9 0d 5e 33
       0.0 9.200728e-08 1.11020935e-08 5.170094e-08
0003c0 3f fa 07 33 8f d5 c8 31 00 00 00 00 6d 2a 42 33
       3.1659734e-08 5.845045e-09 0.0 4.520773e-08
0003d0 8f d5 c8 31 2c de 9e 32 f7 70 61 32 9c be c9 30
       5.845045e-09 1.8494653e-08 1.3122409e-08 1.4678849e-09
0003e0 00 00 00 00 35 46 4f 32 9a be c9 30 f5 39 f5 31
       0.0 1.2064949e-08 1.4678847e-09 7.1370274e-09
0003f0 01 fe ba 34 dd 6b 56 33 00 00 00 00 a5 77 ba 34
       3.4830012e-07 4.992386e-08 0.0 3.4732253e-07

exp_avg f4 [128]
000000 b5 2b a8 b8 e8 6d c7 38 18 2b 15 b8 8a bc 00 38
       -8.019005e-05 9.509531e-05 -3.5564502e-05 3.069317e-05
000010 7c 90 57 b8 5e 54 a5 38 a6 df 96 37 1b 46 d0 35
       -5.1394556e-05 7.883528e-05 1.7985538e-05 1.5517611e-06
000020 1d 16 74 38 a4 a2 37 37 6a f7 cb b8 1a ff 89 b7
       5.8194728e-05 1.0945518e-05 -9.725879e-05 -1.6450464e-05
000030 92 e8 a2 37 58 27 e9 35 35 f7 73 b9 20 84 8d 38
       1.9420204e-05 1.7371303e-06 -0.00023266378 6.748014e-05
000040 62 fd 00 37 b4 db 11 b7 7f e0 9a b7 96 3d a5 b5
       7.68839e-06 -8.693827e-06 -1.846277e-05 -1.2311382e-06
000050 b9 36 69 37 38 10 78 b6 3d e5 9f b8 5d 42 43 38
       1.3900623e-05 -3.696432e-06 -7.62441e-05 4.655343e-05
000060 6f a7 ab 38 83 9f e3 b8 eb 67 70 37 f4 af a8 b8
       8.185102e-05 -0.00010853915 1.432931e-05 -8.043638e-05
000070 de f4 83 b8 88 2d 24 b9 61 83 51 38 51 fe c3 37
       -6.292177e-05 -0.0001565722 4.995184e-05 2.3364237e-05
000080 6c 8b 19 38 ed 5d 48 b6 7c 6a aa b6 73 28 58 b8
       3.660789e-05 -2.9856994e-06 -5.078791e-06 -5.1536084e-05
000090 d8 61 ca b7 5d 99 d9 b7 e6 a6 9e b8 3b 11 cb b7
       -2.4125839e-05 -2.5939831e-05 -7.565114e-05 -2.420751e-05
0000a0 65 1e a2 b7 34 21 3b 38 e6 15 a9 38 bb 80 f4 b7
       -1.9326058e-05 4.4615197e-05 8.062627e-05 -2.9147011e-05
0000b0 8a ca 3b b7 26 59 2d b7 d4 db d5 36 08 d8 be b6
       -1.1193226e-05 -1.033236e-05 6.373486e-06 -5.6875906e-06
0000c0 4a 94 ba b7 e4 48 93 38 6a 2c b3 b7 66 86 32 38
       -2.224198e-05 7.023083e-05 -2.1359145e-05 4.2563675e-05
0000d0 f3 c8 e5 b8 20 66 bc 38 9d a4 10 b7 62 20 8e 35
       -0.000109570006 8.983561e-05 -8.621396e-06 1.0589249e-06
0000e0 bf 44 2b 38 6c 71 fb 37 82 c3 7c 38 5b 85 1b b5
       4.08336e-05 2.9974348e-05 6.0263563e-05 -5.793606e-07
0000f0 7e a6 0c 38 3b 1d de 37 b4 6c e8 b7 dc 66 b1 36
       3.353366e-05 2.6478074e-05 -2.7707174e-05 5.2869855e-06
000100 9c a2 e6 35 14 3f 48 b9 2a 8f 93 b8 2e e1 bd b7
       1.7183661e-06 -0.00019096985 -7.0361726e-05 -2.2635413e-05
000110 d2 25 eb 36 4c 7d 0e b8 21 c4 11 b9 50 14 6e 37
       7.0079486e-06 -3.397213e-05 -0.00013901341 1.4190635e-05
000120 32 c7 7a 37 b4 20 5d b8 72 26 3e 36 c4 a9 2a b8
       1.494754e-05 -5.2720963e-05 2.8334584e-06 -4.0689265e-05
000130 15 5e 65 36 cb 12 4c b8 96 15 56 b8 2b ac 85 b8
       3.4178422e-06 -4.8654892e-05 -5.104168e-05 -6.374003e-05
000140 38 79 af b8 ea 70 ae b7 f8 1b 0b 38 4c 5e cd b8
       -8.367229e-05 -2.0794996e-05 3.316623e-05 -9.792726e-05
000150 0e b3 c8 b8 2d a1 1e b8 ed 1c 95 b9 77 fb 8c 37
       -9.570095e-05 -3.7820242e-05 -0.00028441046 1.6806398e-05
000160 e3 2d e6 b8 4f 64 43 b9 53 b4 20 b9 64 3e 8c 36
       -0.00010975802 -0.00018634017 -0.00015325965 4.1795884e-06
000170 de e9 15 b9 8b a4 d6 37 6e d9 1a 38 68 8c 3d b8
       -0.0001429687 2.558741e-05 3.691896e-05 -4.5191875e-05
000180 d7 d6 ae b8 54 9d 9f b8 f3 1c 76 38 01 47 fd 37
       -8.3369836e-05 -7.6110155e-05 5.867793e-05 3.0193014e-05
000190 d1 9b a6 38 f4 4b af 38 f1 33 24 38 8a c1 0a 38
       7.94452e-05 8.358798e-05 3.914902e-05 3.308201e-05
0001a0 d6 3d 01 39 96 bd 59 b8 eb 54 b9 b8 14 21 ba b8
       0.00012325434 -5.1913397e-05 -8.8373046e-05 -8.8753324e-05
0001b0 70 63 64 b7 f5 8a 82 b8 14 a7 bf b6 21 9b 22 38
       -1.3613011e-05 -6.224766e-05 -5.711694e-06 3.8768285e-05
0001c0 44 8e 50 37 fc a6 57 38 d6 d5 53 b8 1e fe 11 b8
       1.243089e-05 5.141551e-05 -5.050547e-05 -3.480736e-05
0001d0 b8 b7 20 39 05 2a 4a 35 26 2e 9f 37 1d f0 80 b7
       0.0001532723 7.531201e-07 1.8975767e-05 -1.53706e-05
0001e0 d9 4f b9 b8 8b c0 d3 b7 03 c0 23 b3 97 f5 b2 b7
       -8.83636e-05 -2.524282e-05 -3.812603e-08 -2.1333615e-05
0001f0 c9 c6 b4 36 3d ab 16 b6 d5 2a ec b6 7e c0 fd b8
       5.3875597e-06 -2.2451416e-06 -7.0383344e-06 -0.000120998346
