Lofty2024/results/MoveToPoint7/MoveToPoint/MoveToPoint-122464.pt (torch, 486266 bytes, 40 tensors)

discrete_act_size_vector f4 [1, 2]
9.0 9.0
00000000: 0000 1041 0000 1041

network_body._body_endoder.seq_layers.0.weight f4 [128, 12]
0.2512533 -0.21443847 0.17164697 0.040549986 0.10237276 -0.45200056 -0.009010891 -0.4207934
-0.17476946 0.4351532 -0.1875899 0.8131348 -0.10934667 -0.24838525 0.52203643 -0.1673012
0.21033983 -0.11776697 0.42561483 -0.048320334 -0.100226924 -0.07302468 0.38200778 -0.23809783
-0.13256247 0.7097156 0.017548686 -0.1253505 -0.2099004 -0.36149672 -0.3399237 -0.15568325
-0.20713712 0.3029457 0.14068304 -0.7657832 -0.09044551 0.40358615 0.14997147 -0.10061287
0.3794396 0.10300315 0.0858034 0.13474804 -0.036084447 -0.041409235 -0.38396794 -0.22739823
0.0075186226 -0.14206181 0.12294201 -0.063667536 -0.5940093 0.55971336 -0.34891602 0.17096828
-0.065955 -0.030640623 -0.66517115 -0.28570774 -0.1903031 -0.0760976 0.2246553 0.2935232
0.16237563 0.13832217 0.18653505 -0.25022987 0.028636811 -0.16132036 0.060093213 -0.042391066
0.28014714 -0.20215689 -0.008075436 -0.32236767 0.052219663 -0.60283786 0.11603703 -0.17006642
-0.4871711 -0.055596735 0.21606651 0.21514611 -0.40580046 0.15626687 -0.22477786 -0.04990792
-0.16183951 -0.13793188 -0.34253892 0.7798925 -0.44338736 -0.21345578 0.8299691 0.3303453
0.3757294 -0.15187486 -0.61672306 0.21417677 0.22867514 0.50435114 0.24850923 -0.032324903
0.083528236 -0.21910311 -0.121209525 -0.14950638 -0.0935304 0.051625114 -0.09541779 0.14502926
0.1651595 -0.418283 -0.22424981 0.29548228 0.28896624 -0.028032212 -0.045991257 -0.09154493
-0.16838719 0.14268449 0.18154791 0.3962561 0.20633492 0.29925746 -0.0785924 -0.60001254
0.29768106 0.29027322 -0.15329097 -0.4011475 -0.352721 -0.2687743 -0.05335495 -0.024358299
-0.2591482 0.07046408 0.1964356 0.09268653 0.21827878 -0.046205156 -0.5503135 0.0332309
-0.06354637 0.3974519 -0.4528679 -0.14761645 0.8607694 0.041779324 -0.188204 -0.37121746
-0.68917537 -0.038830888 -0.046234004 0.16967107 -0.28359413 0.13808258 0.34776783 -0.035182223
-0.3477597 -0.20010926 -0.40793648 0.24848856 0.18723197 -0.21739298 0.02743468 0.5057127
-0.45472348 0.962325 -0.2713617 -0.36014932 0.3793388 -0.42472178 -0.59717995 -0.11934087
0.25903276 0.09053601 -0.3605617 0.50936496 0.06651519 0.03526944 -0.13549317 0.29342467
0.56703454 0.1854371 0.2979173 0.12534072 -0.4358326 -0.30524203 0.16588624 -0.056637593
-0.1986546 -0.036952402 -0.07362478 -0.29842547 -0.37774128 -0.064262055 0.4154538 0.0023787227
0.354722 -0.9146427 -0.15253705 -0.05613976 -0.14128433 0.08100123 0.30012605 -0.046658468
-0.006765182 -0.40482962 0.4174143 -0.16465484 0.2098307 -0.2967779 -0.022259993 0.06430534
-0.23219931 0.21214005 0.39358246 0.29880312 -0.30462715 0.12789817 -0.17091385 -0.06152417
-0.23725483 0.3281883 -0.28090137 -0.16609624 -0.10331147 0.4163914 -0.6621786 -0.27224925
0.3016803 0.0017894787 -0.2640406 -0.4912337 -0.06310273 0.1327313 -0.18281302 0.15366066
0.256325 -0.33761603 0.40663698 0.09473731 -0.49323404 0.32307127 -0.6168783 0.3034056
0.29854557 -0.025196807 -0.20206258 -0.043462034 0.4775686 0.2385609 -0.5365177 -0.022140196
00000000: 46a4 803e c295 5bbe 39c4 2f3e be17 263d
00000010: cfa8 d13d 9e6c e7be 6ba2 13bc 3c72 d7be
00000020: c4f6 32be 66cc de3e 9117 40be 9a29 503f
00000030: 26f1 dfbd b458 7ebe 2ea4 053f 0151 2bbe
00000040: 5363 573e cf2f f1bd 30ea d93e 8beb 45bd
00000050: c643 cdbd f78d 95bd 8696 c33e ebcf 73be
00000060: 75be 07be ecaf 353f 43c2 8f3c e25b 00be
00000070: 21f0 56be 1916 b9be 7b0a aebe 6e6b 1fbe
00000080: c11b 54be b31b 9b3e 370f 103e 5e0a 44bf
00000090: 7f3b b9bd d8a2 ce3e 1f92 193e 1f0e cebd
000000a0: e845 c23e 51f3 d23d b1b9 af3d 64fb 093e
000000b0: 49cd 13bd bb9c 29bd 7297 c4be 15db 68be
000000c0: c75e f63b a778 11be 05c9 fb3d 2064 82bd
000000d0: fe10 18bf 6049 0f3f 1fa5 b2be 4f12 2f3e
000000e0: 6a13 87bd 0b02 fbbc a848 2abf 4948 92be
000000f0: d1de 42be 0fd9 9bbd 0a0c 663e ac48 963e
00000100: cc45 263e 54a4 0d3e 0b03 3f3e 211e 80be
00000110: bf97 ea3c 2a31 25be 4d24 763d 41a2 2dbd
00000120: 726f 8f3e 3702 4fbe d54e 04bc 600d a5be
00000130: 49e4 553d 9553 1abf d3a4 ed3d e425 2ebe
00000140: 7e6e f9be 67b9 63bd 8a40 5d3e 434f 5c3e
00000150: 14c5 cfbe 6c04 203e 2b2c 66be 3f6c 4cbd
00000160: 42b9 25be 043e 0dbe 4361 afbe 09a7 473f
00000170: ab03 e3be 2794 5abe db78 543f 0523 a93e
00000180: 9b5f c03e 1585 1bbe 90e1 1dbf 2851 5b3e
00000190: d129 6a3e 281d 013f 3479 7e3e 1e67 04bd
000001a0: da10 ab3d 915c 60be b33c f8bd 3318 19be
000001b0: de8c bfbd db74 533d 676a c3bd 8d82 143e
000001c0: 921f 293e 3029 d6be bea1 65be 7449 973e
000001d0: 62f3 933e cfa3 e5bc 5461 3cbd e97b bbbd
000001e0: b16d 2cbe e21b 123e b2e7 393e 14e2 ca3e
000001f0: 7649 533e 4638 993e 0df5 a0bd 6c9a 19bf
00000200: a769 983e b19e 943e 4ff8 1cbe 3563 cdbe
00000210: d997 b4be c99c 89be b88a 5abd 0e8b c7bc
00000220: 13af 84be 794f 903d 6a26 493e 6fd2 bd3d
00000230: 7984 5f3e 9e41 3dbd 58e1 0cbf 201d 083d
00000240: 9924 82bd d17e cb3e 4dde e7be c428 17be
00000250: 625b 5c3f cc20 2b3d 8db8 40be 3710 bebe
00000260: cc6d 30bf 230d 1fbd de5f 3dbd 41be 2d3e
00000270: 4033 91be 8565 0d3e a00e b23e 3c1b 10bd
00000280: 8f0d b2be 71e9 4cbe 0ddd d0be c973 7e3e
00000290: bdb9 3f3e 449c 5ebe b2be e03c 6376 013f
000002a0: 84d1 e8be ee5a 763f ecef 8abe 7e65 b8be
000002b0: b238 c23e 2275 d9be c9e0 18bf fc68 f4bd
000002c0: f19f 843e f26a b93d 8b9b b8be be65 023f
000002d0: 1e39 883d b076 103d b9be 0abe c23b 963e
000002e0: 2d29 113f 39e3 3d3e 9e88 983e 5159 003e
000002f0: 7325 dfbe af48 9cbe 15de 293e d2fc 67bd
00000300: 1d6c 4bbe 675b 17bd 97c8 96bd 39cb 98be
00000310: 4e67 c1be d39b 83bd 5cb6 d43e 58e4 1b3b
00000320: 1f9e b53e 0626 6abf ac32 1cbe cef2 65bd
00000330: d7ac 10be f9e3 a53d 1faa 993e f31c 3fbd
00000340: 76ae ddbb d445 cfbe 54b7 d53e 479b 28be
00000350: dcdd 563e 46f3 97be 975a b6bc 85b2 833d
00000360: a8c5 6dbe 3e3b 593e a483 c93e b9fc 983e
00000370: 17f8 9bbe bdf7 023e 0a04 2fbe c500 7cbd
00000380: eef2 72be 4c08 a83e 4ed2 8fbe 2215 2abe
00000390: f794 d3bd 4131 d53e 8984 29bf 4164 8bbe
000003a0: d775 9a3e f18c ea3a 5430 87be fc82 fbbe
000003b0: 013c 81bd b7ea 073e 5633 3bbe 3859 1d3e
000003c0: 083d 833e 02dc acbe b932 d03e a305 c23d
000003d0: 2c89 fcbe 9969 a53e bceb 1dbf fb57 9b3e
000003e0: f7da 983e 8969 cebc 7ee9 4ebe 3f05 32bd
000003f0: df83 f43e 4f49 743e 3959 09bf 5b5f b5bc

network_body._body_endoder.seq_layers.0.bias f4 [128]
-0.050710656 0.06867866 0.03154432 0.064618684 -0.036318723 -0.0067265183 -0.06261376 0.06279265
-0.057054922 0.03574671 -0.051346567 0.008466956 0.05481098 0.061283078 0.10486426 0.016367255
0.017600767 0.05767431 -0.0031525334 0.048021335 -0.040405624 0.020610562 0.03141622 0.07532766
-0.0182401 0.079123214 -0.09398884 -0.016124845 0.07240934 0.08947344 0.0015624181 0.12529129
-0.048493076 0.054980848 -0.04102012 -0.030858943 -0.06576012 0.07720029 -0.06892825 0.024173476
-0.035396244 0.016172517 0.041458547 0.02072308 -0.028727068 0.03800228 0.05418458 0.004046561
0.072781615 -0.0331889 0.069885135 -0.017345104 0.026864326 -0.048859034 0.066652894 0.074884444
-0.07964462 0.018009404 -0.053323872 -0.06509182 -0.03566323 0.01177202 0.09744025 -0.031602632
0.041222174 -0.0144240605 0.038295656 0.15967955 0.0007631646 0.02192753 0.0066912915 0.007462373
-0.051740218 0.060003597 -0.040685035 0.0010857525 -0.03206195 0.007034515 0.09773514 -0.0069323303
0.031384747 0.020410826 -0.012566147 -0.020071466 0.0048456825 0.0026240288 0.03631543 -0.076383345
-0.06893513 0.009735324 -0.06842316 -0.021309527 -0.0060199886 0.028010765 -0.07560988 -0.04880834
0.108682364 0.04602377 -0.046954267 0.05797588 -0.0068664197 0.021765474 -0.0818283 0.09974089
0.0086888 0.03978418 -0.013522389 -0.016956314 -0.011210565 -0.041321583 0.018974287 -0.049506783
-0.018822346 0.059998784 -0.024993906 0.021869397 -0.0016924434 -0.012797325 -0.036473244 -0.044212572
-0.0075024967 -0.08767433 -0.095626645 0.037288345 -0.057552338 -0.014760963 0.018538935 -0.042362567
00000000: fab5 4fbd 66a7 8c3d 9e34 013d cd56 843d
00000010: f1c2 14bd 206a dcbb a53b 80bd 6f99 803d
00000020: 6cb2 69bd 246b 123d c750 52bd fdb8 0a3c
00000030: 7a81 603d f703 7b3d 13c3 d63d 9f14 863c
00000040: 7c2f 903c e63b 6c3d bc9a 4ebb 05b2 443d
00000050: 5e80 25bd 7bd7 a83c 4bae 003d 6345 9a3d
00000060: 436c 95bc 5a0b a23d 397d c0bd 4018 84bc
00000070: 594b 943d da3d b73d 0dca cc3a 5c4c 003e
00000080: ada0 46bd 9933 613d b704 28bd e5cb fcbc
00000090: 3ead 86bd 301b 9e3d 412a 8dbd 7407 c63c
000000a0: a7fb 10bd 3a7c 843c 70d0 293d 73c3 a93c
000000b0: 0755 ebbc 47a8 1b3d a6f0 5d3d 0499 843b
000000c0: 870e 953d 16f1 07bd f01f 8f3d 5217 8ebc
000000d0: 9312 dc3c 6920 48bd 5081 883d 045d 993d
000000e0: b81c a3bd 7588 933c 226a 5abd dc4e 85bd
000000f0: 9b13 12bd 6edf 403c c18e c73d c371 01bd
00000100: 95d8 283d e552 6cbc e8db 1c3d 0983 233e
00000110: 1c0f 483a 5da1 b33c 9f42 db3b ec86 f43b
00000120: 8ded 53bd 55c6 753d 5aa5 26bd cf4f 8e3a
00000130: 6453 03bd ca81 e63b 5c29 c83d 9a28 e3bb
00000140: 4b8d 003d 9b34 a73c 3ee2 4dbc ea6c a4bc
00000150: 88c8 9e3b e6f7 2b3b 7dbf 143d df6e 9cbd
00000160: dd2d 8dbd e980 1f3c 7121 8cbd 5191 aebc
00000170: 5343 c5bb d576 e53c 5ad9 9abd 41eb 47bd
00000180: dc94 de3d 6c83 3c3d 1e53 40bd 1e78 6d3d
00000190: b4ff e0bb 824d b23c 9995 a7bd f444 cc3d
000001a0: 785b 0e3c bcf4 223d 038d 5dbc f8e7 8abc
000001b0: 85ac 37bc d240 29bd f76f 9b3c a0c7 4abd
000001c0: 5231 9abc 49c1 753d 05c0 ccbc 7327 b33c
000001d0: fad4 ddba dfab 51bc f864 15bd 3e18 35bd
000001e0: 81d7 f5bb 998e b3bd e7d7 c3bd aabb 183d
000001f0: 00bc 6bbd f7d7 71bc f7de 973c 5f84 2dbd

network_body._body_endoder.seq_layers.2.weight f4 [128, 128]
-0.14272402 0.042296197 0.018125916 -0.007973352 0.03868665 -0.06118032 0.16100143 -0.22462487
0.02176332 -0.08641771 0.031532016 0.008924045 0.13803317 0.039460525 -0.27343628 -0.12956744
0.0387989 0.049858946 0.08127858 0.06526223 0.094998665 0.123816885 0.0046596685 0.101649135
0.083829656 0.107235454 -0.017371675 0.038332693 0.06464516 0.122843124 -0.030220289 -0.020700596
0.0748347 -0.056149345 -0.09436216 -0.011979072 -0.23640625 -0.05677496 -0.16872711 0.0021554246
-0.006630376 -0.044784766 0.061103422 -0.16658026 0.044907566 0.05900215 0.07238109 0.107564054
0.047425076 0.024672136 0.010594983 0.047101036 -0.0008522129 0.046561718 0.067781046 -0.028827265
0.0144217415 0.041658368 -0.06451227 0.04461823 -0.021899896 0.10163385 -0.08072485 0.044433992
0.04379872 -0.120657034 -0.022151312 -0.24841747 -0.015933875 0.100819 0.09928032 0.04031044
0.09006979 0.033837046 0.078835964 0.039197557 -0.04134279 0.13319804 0.15738392 -0.21652249
0.07944908 -0.116379514 -0.033643015 -0.14672783 -0.00887644 0.08919616 -0.0048762714 0.029449644
0.06961292 0.041258328 0.066084005 0.029796124 -0.102233514 -0.10662599 0.030158766 0.09329535
-0.120735854 -0.16717598 -0.014042787 0.09187589 -0.09971825 -0.007452597 -0.1097264 0.14424495
0.0076625585 -0.0074681295 -0.20583153 -0.019123785 0.08852376 0.013998096 -0.061039746 -0.103975125
0.03110153 -0.07548621 0.012892671 0.12022278 -0.16520005 -0.109541535 -0.22187966 -0.10780569
-0.05430838 0.014990052 -0.09114229 0.09116141 0.040114164 0.042990714 -0.047325872 -0.19760038
0.036701262 -0.13459155 0.26028112 0.0013058806 0.039683823 -0.10263659 -0.07220857 -0.09773955
0.1071067 0.10434587 0.03487777 0.14796792 0.045470513 0.00795291 0.025114108 0.1722642
0.11788355 0.0958534 -0.055852897 -0.21865998 0.21897385 -0.024271231 0.12908486 0.14444555
0.01635186 0.05311414 -0.007797608 -0.04372846 0.072488666 -0.09795123 -0.041002873 0.0030962862
0.18981166 -0.1587642 -0.01620461 -0.04985194 0.06829883 -0.02694395 0.1603704 -0.16693139
0.081970155 -0.08602803 0.01401464 -0.024907783 -0.10151912 0.0038876012 0.056604564 0.040149502
-0.035367288 0.09877045 -0.036448523 -0.14903887 0.051189456 -0.003145864 0.18449949 0.1287736
0.103382654 0.06355357 -0.018157342 0.2494578 -0.094371825 0.037405185 -0.22174108 0.018387482
-0.027180433 0.19605319 -0.1404974 -0.07494452 -0.056179762 -0.002849061 -0.019935263 -0.123500854
0.16546519 0.11185198 0.05965773 -0.1567389 -0.00024258671 0.060782544 -0.13462341 -0.34266663
0.022058656 0.053482953 -0.031776074 -0.08179267 -0.0656574 0.0053000147 -0.112453364 -0.09718753
-0.17563388 -0.04161654 -0.14277999 0.05735942 0.07714943 0.12312048 -0.0068576545 -0.11583193
0.04244711 -0.05376105 -0.0756802 0.0850779 -0.011153569 0.050193727 -0.12577574 0.13515049
0.05261516 -0.13020086 0.04169441 0.13072553 -0.03424862 -0.14057925 0.11056635 0.14570265
-0.090567954 -0.013228197 0.050565943 0.110169284 -0.04738552 0.16487508 -0.08030721 -0.11328568
0.0774694 -0.041203987 -0.046336334 0.12420061 0.019418735 0.14753504 -0.01881586 -0.12370502
00000000: 3f26 12be c73e 2d3d cd7c 943c aaa2 02bc
00000010: e575 1e3d 3798 7abd 8fdd 243e 1004 66be
00000020: fd48 b23c c5fb b0bd b727 013d 2836 123c
00000030: 9158 0d3e 5ca1 213d d7ff 8bbe 54ad 04be
00000040: 98eb 1e3d e538 4c3d 6275 a63d 34a8 853d
00000050: a98e c23d b593 fd3d 22b0 983b 6c2d d03d
00000060: e2ae ab3d 439e db3d 0b4f 8ebc be02 1d3d
00000070: af64 843d 2d95 fb3d 8a90 f7bc 4c94 a9bc
00000080: ef42 993d dbfc 65bd f340 c1bd df43 44bc
00000090: 7b14 72be dc8c 68bd cdc6 2cbe 0642 0d3b
000000a0: a043 d9bb 3b70 37bd 9547 7a3d 0494 2abe
000000b0: fff0 373d 3dac 713d 893c 943d 8b4a dc3d
000000c0: cc40 423d 381d ca3c 9496 2d3c 04ed 403d
000000d0: 0a67 5fba 80b7 3e3d cad0 8a3d 2827 ecbc
000000e0: 2b49 6c3c f7a1 2a3d 021f 84bd 9bc1 363d
000000f0: 6967 b3bc 6825 d03d 1253 a5bd 6b00 363d
00000100: 4966 333d 091b f7bd ab76 b5bc 2661 7ebe
00000110: c287 82bc 317a ce3d 7b53 cb3d 8f1c 253d
00000120: 8376 b83d b798 0a3d c074 a13d 9e8d 203d
00000130: 0f57 29bd 1165 083e 4029 213e 12b8 5dbe
00000140: 33b6 a23d 6258 eebd 42cd 09bd d23f 16be
00000150: 7d6e 11bc 7aac b63d 21c9 9fbb 6140 f13c
00000160: 3891 8e3d 7efe 283d 0d57 873d 0017 f43c
00000170: ce5f d1bd ba5e dabd 840f f73c a211 bf3d
00000180: 5c44 f7bd 2e30 2bbe b813 66bc 6d29 bc3d
00000190: 1539 ccbd ea34 f4bb 3cb8 e0bd f3b4 133e
000001a0: 3316 fb3b 36b7 f4bb 80c5 52be 7ca9 9cbc
000001b0: f24b b53d 4558 653c d004 7abd e9f0 d4bd
000001c0: a3c8 fe3c 8498 9abd c83b 533c 5c37 f63d
000001d0: 342a 29be 5057 e0bd 6c34 63be 3bc9 dcbd
000001e0: 7772 5ebd d698 753c cfa8 babd d5b2 ba3d
000001f0: c04e 243d 0817 303d c6d8 41bd c157 4abe
00000200: 1054 163d 5ed2 09be 9143 853e 152a ab3a
00000210: 818b 223d 2233 d2bd 16e2 93bd ac2b c8bd
00000220: c25a db3d 4ab3 d53d fedb 0e3d e784 173e
00000230: 4a3f 3a3d ec4c 023c 1abc cd3c 0766 303e
00000240: ee6c f13d ca4e c43d 02c6 64bd 67e8 5fbe
00000250: ae3a 603e 76d4 c6bc d22e 043e 89e9 133e
00000260: 56f4 853c 368e 593d 1483 ffbb 9d1c 33bd
00000270: f074 943d a89a c8bd a1f2 27bd 10eb 4a3b
00000280: fd5d 423e 1593 22be 88bf 84bc 8c31 4cbd
00000290: 42e0 8b3d 8fb9 dcbc 2338 243e 10f0 2abe
000002a0: f8df a73d 772f b0bd a99d 653c 680b ccbc
000002b0: 42e9 cfbd 20c7 7e3b 30da 673d ce73 243d
000002c0: 4add 10bd 2948 ca3d 0c4b 15bd a59d 18be
000002d0: 09ac 513d d72a 4ebb 6fed 3c3e 3add 033e
000002e0: 49ba d33d 6028 823d b5be 94bc de71 7f3e
000002f0: 0446 c1bd 2e36 193d 1810 63be 58a1 963c
00000300: 80a9 debc 2bc2 483e 8dde 0fbe 837c 99bd
00000310: c01c 66bd 50b7 3abb 474f a3bc 04ee fcbd
00000320: b56f 293e a712 e53d aa5b 743d 2a80 20be
00000330: e05e 7eb9 1ef7 783d b8da 09be 0072 afbe
00000340: 5bb4 b43c f110 5b3d a127 02bd ea82 a7bd
00000350: 6377 86bd bfab ad3b f34d e6bd 410a c7bd
00000360: 5ed9 33be 1b76 2abd eb34 12be b6f1 6a3d
00000370: 8500 9e3d 9726 fc3d 2db6 e0bb 4a39 edbd
00000380: 05dd 2d3d 8c34 5cbd 38fe 9abd 523d ae3d
00000390: 76bd 36bc f097 4d3d 5bcb 00be e464 0a3e
000003a0: fe82 573d 6053 05be c2c7 2a3d eadc 053e
000003b0: 4848 0cbd 02f4 0fbe 9c70 e23d 1333 153e
000003c0: b17b b9bd 14bb 58bc 3c1e 4f3d 6fa0 e13d
000003d0: 5217 42bd 03d5 283e 1b78 a4bd 5302 e8bd
000003e0: 47a8 9e3d 83c5 28bd 2bcb 3dbd e45c fe3d
000003f0: 0a14 9f3c 6d13 173e b823 9abc 0f59 fdbd

network_body._body_endoder.seq_layers.2.bias f4 [128]
-0.02149728 0.0022878812 -0.02995544 0.011762592 0.028578833 -0.016898926 0.058560032 0.035867147
0.028196773 0.016705878 0.0828326 0.01803462 0.009978221 0.04036121 0.032391712 -0.023111928
-0.023370167 -0.04786968 0.013973073 0.016859971 -0.04141632 -0.014124491 -0.0073218555 0.028309861
-0.0043070726 0.0167352 -0.052022513 0.033392336 0.05353719 -0.015897876 0.023447609 -0.012065018
0.044005 0.03195963 0.032893095 -0.010404993 -0.003285951 0.004120967 0.085064895 -0.024994954
0.027806278 0.024797212 -0.02455728 0.0050858436 0.037413873 0.009046398 -0.046568982 0.014194443
-0.067633465 0.032098763 -0.023632204 -0.031650245 0.04073229 0.007977506 -0.035902 -0.032376483
-0.020104542 -0.009747992 -0.022398904 0.054841492 -0.031948615 0.009319055 -0.00037253456 -0.098740704
-0.01312092 -0.018940339 -0.013187001 0.01324021 0.06124684 0.027126847 0.03719582 -0.008303442
0.027105529 0.055689275 0.00522695 -0.009442487 0.014707248 0.041299343 0.01974259 0.016135985
0.0035692554 -0.004112525 0.104606025 0.031277623 0.0619249 -0.053037435 -0.016790042 -0.02411874
-0.07952601 -0.0032373888 0.05467062 -0.047012277 -0.031192902 -0.020500766 0.05155792 0.015276195
0.019340362 -0.015895432 0.008838203 0.047794722 -0.042819496 0.027039733 0.02488553 -0.042096246
0.04577033 0.02308435 -0.0057959454 -0.029010296 0.07978484 0.0140097495 0.029759035 -0.015493803
-0.038777336 0.061480794 0.028457977 -0.033954304 0.036233757 0.028017947 -0.010754644 0.009501568
-0.0050292662 0.01570485 0.065682076 0.008961719 -0.04052491 0.034409963 0.04857242 0.0060619563
00000000: 101b b0bc 47f0 153b 1c65 f5bc e3b7 403c
00000010: 281e ea3c 9e6f 8abc a5dc 6f3d 6ee9 123d
00000020: ebfc e63c c4da 883c 23a4 a93d 57bd 933c
00000030: b17b 233c cc51 253d 2cad 043d 3a55 bdbc
00000040: cb72 bfbc ff12 44bd 51ef 643c ec1d 8a3c
00000050: 29a4 29bd 696a 67bc 2dec efbb 15ea e73c
00000060: 5822 8dbb 4218 893c 8f15 55bd 67c6 083d
00000070: d049 5b3d 433c 82bc 3315 c03c 5aac 45bc
00000080: 963e 343d 1ae8 023d e9ba 063d b479 2abc
00000090: 1c59 57bb 2d09 873b 8136 ae3d 38c2 ccbc
000000a0: fec9 e33c 8623 cb3c 592c c9bc 26a7 a63b
000000b0: 4a3f 193d 5837 143c 1ebf 3ebd cf8f 683c
000000c0: 6a83 8abd fe79 033d 5398 c1bc b0a3 01bd
000000d0: e7d6 263d 16b4 023c fa0d 13bd 349d 04bd
000000e0: 48b2 a4bc 0bb6 1fbc e87d b7bc 79a1 603d
000000f0: 8ddc 02bd f3ae 183c be50 c3b9 9138 cabd
00000100: 21f9 56bc c528 9bbc 4b0e 58bc 77ed 583c
00000110: f7dd 7a3d 1f39 de3c a55a 183d 290b 08bc
00000120: 6a0c de3c 701a 643d d646 ab3b a9b4 1abc
00000130: abf6 703c 8029 293d 36bb a13c 9d2f 843c
00000140: 2bea 693b 5cc2 86bb af3b d63d f71c 003d
00000150: f7a4 7d3d c83d 59bd 458b 89bc aa94 c5bc
00000160: 88de a2bd 5f2a 54bb 4dee 5f3d f28f 40bd
00000170: 4288 ffbc 39f1 a7bc 662e 533d 0149 7a3c
00000180: ae6f 9e3c 2337 82bc 1cce 103c 66c4 433d
00000190: 7f63 2fbd 6e82 dd3c bddc cb3c 1d6d 2cbd
000001a0: ab79 3b3d 641b bd3c eaeb bdbb 00a7 edbc
000001b0: 3c66 a33d 2689 653c 38c9 f33c b8d9 7dbc
000001c0: fcd4 1ebd 49d3 7b3d b420 e93c ab13 0bbd
000001d0: d969 143d e585 e53c 3f34 30bc 77ac 1b3c
000001e0: 8bcc a4bb 75a7 803c 5384 863d 2dd4 123c
000001f0: 73fd 25bd 76f1 0c3d e0f3 463d 60a3 c63b

action_model._discrete_distribution.branches.0.weight f4 [9, 128]
0.0055950484 0.0057003214 0.007444837 0.003316372 -0.004544339 -0.007305771 -0.010236826 -0.013943027
-0.009292558 -0.015184593 -0.00070318807 0.006073364 0.0022746492 -0.0020937535 -0.008029337 0.0044745924
-0.0013494197 0.002601324 -0.0033489538 0.0045400537 -0.013191822 -0.010253763 0.013654648 -0.0010349914
-0.007985108 -0.004033674 0.02015974 0.022093907 -0.035083245 -0.0053727976 0.010024978 0.01063455
0.01078212 -0.00015932448 0.00490923 0.0017662147 -0.014396012 0.011699285 0.022069335 0.0018784002
-0.009164185 -0.0062530274 0.008324015 -0.011841686 -0.002919244 -0.011315666 0.0063408576 -0.0011478685
-0.008840216 0.00046740152 0.013595017 -0.004913239 -0.0038189825 0.0074720453 0.00891161 -0.002777713
-0.014878677 0.005134314 -0.0053032283 -0.0026244358 -0.004162991 0.00609783 0.006724264 -0.0034621134
0.008792497 -0.0001906698 0.0038233509 -0.0017999625 -0.011399942 -0.00037247298 0.01200842 -0.0025812231
-0.012150398 -0.006596247 0.017765379 -0.014282945 0.008152297 -0.018172212 -0.0058753616 -0.005517041
-0.009808938 0.003377689 -0.011456428 0.0018189421 0.012780621 0.004844342 0.008834933 -0.011517446
-0.0017100848 -0.0003028492 -0.018951073 -0.0019135773 0.0071855993 0.008373621 0.0022442131 0.015119346
0.0063108737 0.0023165892 0.0014485276 0.008001961 -0.00037589358 0.0033601653 -0.008511928 0.0050367885
-0.007000759 0.02290587 -0.00077487633 -0.0005715918 0.026394665 0.00011803536 -0.002629182 0.0009058436
0.002096545 0.00752683 0.010054012 -0.011099606 -0.0014539313 -0.0003253363 -0.0066559273 0.005025744
-0.01237027 -0.01065207 0.0015709441 -0.010244346 -0.021577297 0.0037606673 0.002621201 0.005593459
-0.043580335 0.017302876 -0.050980218 0.024325674 -0.14437489 -0.053477883 -0.06732312 -0.106612645
-0.12593538 -0.07077831 -0.11241668 0.031078365 -0.059799466 0.022991564 -0.093079254 -0.008062004
-0.019125935 0.056110226 -0.063239895 0.008745633 -0.043517288 0.047229085 0.03516932 -0.056444515
0.011548457 -0.024806319 -0.014066463 -0.062190905 -0.21800074 0.04996856 -0.044939134 0.051028714
-0.044621833 -0.29319218 -0.08271998 -0.044085864 0.05318987 -0.06308224 0.052517686 0.0046724346
-0.075520664 -0.07806528 0.014912679 -0.09602037 -0.06742483 -0.11327835 -0.018635564 -0.209945
0.014756984 -0.05538819 -0.0045024413 -0.052614015 0.0010365231 -0.030638738 -0.023772892 -0.1467149
0.013903327 -0.016007373 0.032409173 -0.04505815 -0.10042451 -0.11313972 -0.076426774 -0.05979784
-0.052064143 0.043864556 -0.039644316 -0.12220514 -0.045623917 -0.179333 -0.12880892 -0.015797019
-0.12754704 -0.07165662 -0.029718231 -0.014301614 -0.05163596 -0.108857654 0.010318475 -0.106013216
0.012515099 0.045425158 -0.007953808 -0.017062666 -0.043333218 0.019060556 0.0032860418 -0.036078192
0.019066295 -0.023557154 -0.04565334 -0.05933257 0.042227533 0.010107264 -0.16884387 -0.059469745
0.054323632 -0.0016462231 -0.030263016 -0.010645694 -0.064779796 -0.041136023 -0.08866923 -0.021395117
0.028429877 -0.11582374 0.030663002 -0.054030422 -0.024305856 -0.19417562 0.00945894 -0.0066188886
-0.027400421 0.0010488551 -0.13532372 0.03402349 -0.01891701 -0.02717298 0.03687021 0.010158815
-0.14544635 -0.013891565 -0.044790655 0.0358804 0.05390632 -0.08128708 -0.05773881 -0.014535672
00000000: ab56 b73b c3c9 ba3b d2f3 f33b 7d57 593b
00000010: aee8 94bb 4065 efbb 5cb8 27bc 4b71 64bc
00000020: d03f 18bc cdc8 78bc 2756 38ba 1203 c73b
00000030: 4812 153b 5b37 09bb 7b8d 03bc 9a9f 923b
00000040: 03df b0ba fa7a 2a3b 1f7a 5bbb bbc4 943b
00000050: 8322 58bc 66ff 27bc bfb7 5f3c 8ca8 87ba
00000060: f8d3 02bc e92c 84bb 0a26 a53c 48fe b43c
00000070: 73b3 0fbd 4b0e b0bb ce3f 243c 893c 2e3c
00000080: 7da7 303c 5710 27b9 9bdd a03b 5580 e73a
00000090: 40dd 6bbc 5cae 3f3c c0ca b43c a734 f63a
000000a0: 6125 16bc 32e6 ccbb 7361 083c a203 42bc
000000b0: ca50 3fbb 5865 39bc f8c6 cf3b 1374 96ba
000000c0: 8ed6 10bc 920d f539 a2bd 5e3c 3cff a0bb
000000d0: e547 7abb 0fd8 f43b 0002 123c 4a0a 36bb
000000e0: b2c5 73bc bf3d a83b b4c6 adbb bafe 2bbb
000000f0: b369 88bb 4ed0 c73b 3757 dc3b a0e4 62bb
00000100: 680e 103c 89ee 47b9 2f91 7a3b b8ec ebba
00000110: d3c6 3abc 7a48 c3b9 f7be 443c bd29 29bb
00000120: 7712 47bc 5525 d8bb b388 913c 0303 6abc
00000130: 3691 053c e4dd 94bc 1b86 c0bb 4bc8 b4bb
00000140: abb5 20bc 385c 5d3b beb3 3bbc 9269 ee3a
00000150: cf65 513c 49bd 9e3b 65c0 103c abb3 3cbc
00000160: ed24 e0ba bbc7 9eb9 483f 9bbc 00d1 faba
00000170: 2d75 eb3b 8331 093c a613 133b 22b7 773c
00000180: 72cb ce3b ebd1 173b 85dc bd3a a81a 033c
00000190: 9513 c5b9 3836 5c3b 9d75 0bbc a50b a53b
000001a0: 9f66 e5bb 17a5 bb3c 1221 4bba e0d6 15ba
000001b0: a039 d83c c089 f738 5b4e 2cbb 2376 6d3a
000001c0: 3066 093b a0a3 f63b 95b9 243c 1fdb 35bc
000001d0: d791 beba e691 aab9 f719 dabb ffae a43b
000001e0: acac 4abc 0586 2ebc 23e8 cd3a e7d7 27bc
000001f0: dfc2 b0bc 8775 763b 75c8 2b3b 5649 b73b
00000200: 4b81 32bd c3be 8d3c a2d0 50bd a346 c73c
00000210: 03d7 13be a00b 5bbd b4e0 89bd bb57 dabd
00000220: 34f5 00be 38f4 90bd b73a e6bd 0e98 fe3c
00000230: 49f0 74bd ce58 bc3c 56a0 bebd 7f16 04bc
00000240: fead 9cbc d6d3 653d eb83 81bd d849 0f3c
00000250: 2f3f 32bd 4973 413d b40d 103d 5d32 67bd
00000260: bd35 3d3c 9f36 cbbc 0677 66bc e4bb 7ebd
00000270: 963b 5fbe d5ab 4c3d 1912 38bd 7c03 513d
00000280: 62c5 36bd 491d 96be 1869 a9bd 6193 34bd
00000290: 9fdd 593d 4331 81bd c91c 573d 391b 993b
000002a0: 94aa 9abd b1e0 9fbd 4f54 743c 54a6 c4bd
000002b0: 0716 8abd 7bfe e7bd 9ca9 98bc d2fb 56be
000002c0: 47c7 713c bade 62bd 3789 93bb cb81 57bd
000002d0: f2db 873a 17fe fabc 5ebf c2bc 6e3c 16be
000002e0: c8ca 633c e521 83bc 7bbf 043d e58e 38bd
000002f0: 5eab cdbd ccb5 e7bd a485 9cbd 94ee 74bd
00000300: 3641 55bd 52ab 333d 1462 22bd b046 fabd
00000310: 25e0 3abd 12a3 37be 7ce6 03be c068 81bc
00000320: b19b 02be b5c0 92bd a673 f3bc 5151 6abc
00000330: 3a80 53bd c3f0 debd d20e 293c 751d d9bd
00000340: 210c 4d3c bb0f 3a3d b050 02bc 01c7 8bbc
00000350: 2c7e 31bd e224 9c3c a25a 573b bac6 13bd
00000360: eb30 9c3c effa c0bc fffe 3abd b506 73bd
00000370: c7f6 2c3d f098 253c 68e5 2cbe 8c96 73bd
00000380: 7582 5e3d 15c6 d7ba 25ea f7bc 476b 2ebc
00000390: 45ab 84bd 3f7e 28bd 3798 b5bd d044 afbc
000003a0: c6e5 e83c ff34 edbd fa30 fb3c 014f 5dbd
000003b0: 131d c7bc f9d5 46be abf9 1a3c 43e3 d8bb
000003c0: d976 e0bc bd79 893a 4d92 0abe 375c 0b3d
000003d0: d8f7 9abc df99 debc 3805 173d 2971 263c
000003e0: e3ef 14be 7299 63bc 6876 37bd 54f7 123d
000003f0: e0cc 5c3d d779 a6bd 887f 6cbd 0727 6ebc

action_model._discrete_distribution.branches.0.bias f4 [9]
0.0 -0.04748007 -0.051416263 -0.093050756 0.02831329 0.04956071 -0.06452075 0.011278195
0.037067134
00000000: 0000 0000 767a 42bd dc99 52bd 6591 bebd
00000010: 46f1 e73c 2c00 4b3d 7423 84bd 2ec8 383c
00000020: b5d3 173d

action_model._discrete_distribution.branches.1.weight f4 [9, 128]
-0.008578555 -0.0015683079 0.041382205 0.05638364 -0.01032706 0.08591852 -0.07657615 -0.04243683
-0.006851374 0.016694508 -0.07590825 -0.0631954 0.065171935 -0.04299187 0.012608328 0.093118235
-0.075102575 -0.07474551 0.013607363 0.008192866 -0.03872506 0.12506667 0.034932263 -0.07177391
-0.07459196 0.071976066 0.021540046 0.05232497 0.07847154 -0.05339436 0.055107832 -0.044305798
-0.0030115761 0.04141971 -0.1009998 0.095113434 -0.08583819 0.04998018 -0.009776302 0.04427064
0.07069966 0.06207213 0.0045143804 0.033767324 0.014499159 0.022379741 0.059604276 -0.025708452
0.014658432 -0.04645506 -0.06099577 -0.00569914 0.018999169 0.021059819 0.031526286 -0.0035342514
0.05893452 0.029456805 0.085840374 0.07818865 0.040173925 0.057383146 0.03844419 0.004753392
-0.0637961 0.04638703 -0.053241886 0.11974239 0.06959301 0.052902512 0.058420036 0.028684469
0.041731812 0.08994201 0.062267072 -0.007105964 0.033294737 0.06622567 0.03398472 -0.04978101
0.032239627 -0.014371506 0.009413325 0.032398626 -0.08947776 0.0039700903 0.051584773 -0.04265732
0.011301077 0.11809076 -0.019266438 0.029581515 0.03256579 0.0036777263 0.06844415 0.085842654
0.01229811 -0.0641083 -0.10365181 -0.032036535 0.04142359 0.07213142 0.057319954 0.009547241
0.011400083 0.0784135 0.040260706 -0.026491933 0.01835917 0.020443054 0.055251323 0.08621115
-0.007554706 0.017043568 0.08679477 0.013436173 0.121438034 0.052786067 -0.108337 -0.0041156313
0.0089555625 0.100835934 0.025229922 -0.027876733 -0.05676077 0.044333845 -0.13804242 0.07281854
-0.005055413 -0.063563235 0.033409707 0.011445938 0.059703775 -0.00425884 0.03279171 0.06355678
0.06309472 0.03861761 0.096453354 0.07333095 -0.055594824 -0.11632148 0.051682904 -0.0642676
0.07994542 -0.012787746 0.07093919 0.09251968 0.048050832 -0.09622643 0.06445341 0.069515295
-0.002924342 0.043420084 -0.056803215 0.05529031 0.027164128 0.014544231 0.06047884 -0.018208483
0.03676931 0.04764292 -0.008864088 0.02084904 -0.057793695 -0.009071961 0.02645907 0.027435753
0.058572143 0.06630748 -0.0037186148 0.11540268 0.10393486 0.054315373 0.07248809 0.056340307
0.024568243 0.106481954 -0.05932657 0.08997473 0.020322967 0.039169822 0.018364292 0.050708286
-0.12706056 -0.013218766 -0.13076048 0.081379116 0.03413134 0.031029224 0.061614554 -0.01794636
0.06424331 0.06505173 0.03539238 -0.022698369 0.045426883 0.08160791 0.09888751 0.006653953
-0.01025223 0.07288241 0.04752483 -0.021064257 0.064114735 0.044794798 -0.052455 -0.0292759
0.009761502 0.005516844 -0.0033896395 0.020986184 0.042799693 0.00038680717 -0.031829942 0.053494267
0.027722199 -0.022500707 0.09231166 0.03971248 0.0040025697 0.03966013 0.05976815 -0.04308034
-0.032307792 0.05122685 0.07006737 0.05503399 -0.03220584 0.06440362 -0.04127874 -0.035137005
0.04555114 -0.03459907 -0.035875056 0.005437377 0.03736832 0.0075895167 0.024748774 -0.02242679
0.0006379443 0.039680663 0.035953116 0.01668675 -0.04991967 0.01982418 0.03332792 0.023871837
0.054571074 -0.079515375 0.018113153 0.053541463 -0.0262731 0.03998042 0.072452195 -0.035791714
00000000: 118d 0cbc ae8f cdba 6380 293d 88f2 663d
00000010: d432 29bc 0df6 af3d f5d3 9cbd 3ed2 2dbd
00000020: 7e81 e0bb ecc2 883c c975 9bbd 976c 81bd
00000030: dd78 853d 3e18 30bd 2993 4e3c c6b4 be3d
00000040: 61cf 99bd 2d14 99bd 6bf1 5e3c 5f3b 063c
00000050: 2b9e 1ebd 7a11 003e 2215 0f3d 33fe 92bd
00000060: abc3 98bd 3068 933d c074 b03c b552 563d
00000070: b0b5 a03d 0bb4 5abd c0b8 613d ff79 35bd
00000080: dd5d 45bb b7a7 293d fcd8 cebd d5ca c23d
00000090: efcb afbd 04b8 4c3d c82c 20bc 2155 353d
000000a0: fcca 903d 593f 7e3d 5eed 933b 9b4f 0a3d
000000b0: e18d 6d3c b855 b73c 9d23 743d 889a d2bc
000000c0: ec29 703c a947 3ebd b3d6 79bd dabf babb
000000d0: 25a4 9b3c a485 ac3c b521 013d e69e 67bb
000000e0: 5365 713d 664f f13c 14cd af3d 5f21 a03d
000000f0: 6a8d 243d 970a 6b3d a877 1d3d 58c2 9b3b
00000100: 88a7 82bd 5400 3e3d 2a14 5abd 803b f53d
00000110: c886 8e3d 4eb0 583d d949 6f3d b1fb ea3c
00000120: faee 2a3d 8433 b83d c20b 7f3d 25d9 e8bb
00000130: 1060 083d 53a1 873d 9033 0b3d 2ce7 4bbd
00000140: b30d 043d 7776 6bbc 593a 1a3c 6cb4 043d
00000150: 1e40 b7bd 8817 823b 8e4a 533d 71b9 2ebd
00000160: 2728 393c 92d9 f13d a6d4 9dbc ef54 f23c
00000170: b563 053d 0206 713b 722c 8c3d 46ce af3d
00000180: 037e 493c 364b 83bd 6647 d4bd be38 03bd
00000190: c8ab 293d a3b9 933d 54c8 6a3d 086c 1c3c
000001a0: 6ac7 3a3c 4297 a03d 69e8 243d 9c05 d9bc
000001b0: f865 963c 3178 a73c 364f 623d 798f b03d
000001c0: 788d f7bb f49e 8b3c 75c1 b13d 6523 5c3c
000001d0: 81b4 f83d 3436 583d cadf ddbd 6bdc 86bb
000001e0: 5aba 123c 1283 ce3d fbae ce3c bf5d e4bc
000001f0: fb7d 68bd 6897 353d fe5a 0dbe e321 953d
00000200: e1a7 a5bb 712d 82bd 9ed8 083d be87 3b3c
00000210: f28b 743d bd8d 8bbb 9a50 063d 0f2a 823d
00000220: ce37 813d 802d 1e3d 5689 c53d 8a2e 963d
00000230: 66b7 63bd f539 eebd 74b1 533d bb9e 83bd
00000240: 6dba a33d b283 51bc 9148 913d f57a bd3d
00000250: f3d0 443d 5d12 c5bd 2600 843d 095e 8e3d
00000260: 51a6 3fbb 42d9 313d 7daa 68bd 1878 623d
00000270: 4e87 de3c ed4a 6e3c a9b8 773d f529 95bc
00000280: 6a9b 163d 3925 433d ae3a 11bc 9bcb aa3c
00000290: 15b9 6cbd 90a2 14bc b1c0 d83c f2c0 e03c
000002a0: 58e9 6f3d 37cc 873d 01b4 73bb 3e58 ec3d
000002b0: cddb d43d cc79 5e3d a374 943d 18c5 663d
000002c0: 5743 c93c 3613 da3d 6b00 73bd ac44 b83d
000002d0: 5a7c a63c 8970 203d b670 963c 7eb3 4f3d
000002e0: 2a1c 02be 8693 58bc 13e6 05be 18aa a63d
000002f0: 4ecd 0b3d 0031 fe3c 8b5f 7c3d 3f04 93bc
00000300: ff91 833d d739 853d 9af7 103d eef1 b9bc
00000310: 8a11 3a3d 0c22 a73d 8985 ca3d 6709 da3b
00000320: f8f8 27bc 5f43 953d 65a9 423d f38e acbc
00000330: 964e 833d c07a 373d 0edb 56bd 03d4 efbc
00000340: b5ee 1f3c a4c6 b43b b724 5ebb 38eb ab3c
00000350: bb4e 2f3d 61cc ca39 1d60 02bd ce1c 5b3d
00000360: aa19 e33c 6753 b8bc e50d bd3d 8ea9 223d
00000370: fd27 833b a972 223d 73cf 743d 0375 30bd
00000380: 2d55 04bd 3fd3 513d 7b7f 8f3d 526b 613d
00000390: 45ea 03bd 0ce6 833d e513 29bd d2eb 0fbd
000003a0: d593 3a3d c1b7 0dbd b9f1 12bd 062c b23b
000003b0: 860f 193d 7bb1 f83b f1bd ca3c 63b8 b7bc
000003c0: b83b 273a 3188 223d 9343 133d a7b2 883c
000003d0: 9178 4cbd 5266 a23c db82 083d df8e c33c
000003e0: eb85 5f3d f5d8 a2bd 0962 943c 4b4e 5b3d
000003f0: af3a d7bc 82c2 233d d161 943d 559a 12bd

action_model._discrete_distribution.branches.1.bias f4 [9]
0.03785132 0.011881917 -0.029700052 0.005550726 -0.0019053407 0.025807692 0.018971356 -0.025475936
0.01853732
00000000: fc09 1b3d 5fac 423c 864d f3bc dde2 b53b
00000010: a0bc f9ba a76a d33c d169 9b3c e9b2 d0bc
00000020: 94db 973c

exp_avg f4 [128, 12]
0.0007321224 0.00016108369 0.00023265775 -0.0009745814 0.00016108369 0.0009939538 0.0018371784 0.00014431462
-1.6947837e-05 -0.00047817468 0.00014431462 0.001271839 -0.008843096 -0.0006825309 -0.006956104 -0.0043267654
-0.0006825309 -0.016078003 -0.009215412 -0.0007875802 -0.0071744635 -0.0038406427 -0.0007875802 -0.016422546
-0.005043122 -0.00041371872 -0.0025298365 -0.003665776 -0.00041371872 0.0015009332 -0.0041419407 -0.0003495329
-0.0023332539 -0.0027125562 -0.0003495329 0.0011467752 0.00062646443 1.8995761e-05 -4.170623e-05 0.0007481365
1.8995761e-05 -0.0009350903 -0.00043197384 -0.00018501772 -0.00053200393 0.0008693184 -0.00018501772 -0.0009479657
0.0014795744 0.00010501981 0.0012843951 0.001361732 0.00010501981 0.0014152849 0.0013887535 9.701096e-05
0.0012005948 0.0013396522 9.701096e-05 0.0013115472 -0.0003912211 -1.6057371e-06 0.000106686784 -0.000564331
-1.6057371e-06 0.0016429407 0.0007565947 0.00017913619 0.0010952819 -0.0011428291 0.00017913619 0.003050509
-0.00034137027 -0.00010564446 0.00018411623 -9.776572e-05 -0.00010564446 0.0008218658 -0.0004123698 -0.00017224032
-9.664413e-06 2.9760678e-05 -0.00017224032 0.0011980691 4.6900324e-05 -4.6213638e-05 0.000109868306 0.00028147842
-4.6213638e-05 0.00019773701 -0.00067395717 -0.00019595373 2.5155285e-05 0.0007064426 -0.00019595373 0.00019370727
0.016861973 0.0014350661 0.009530177 0.008003985 0.0014350661 0.016125346 0.015542754 0.0012587192
0.00894632 0.007578886 0.0012587192 0.017127613 -0.003984568 -0.0002935233 -0.0021783535 -0.0031577144
-0.0002935233 0.0011031223 -0.0036661052 -0.00023780097 -0.0016365118 -0.0028735108 -0.00023780097 0.0012720922
-0.0080459565 -0.0005770299 -0.0017545861 -0.003032462 -0.0005770299 -0.0071707456 -0.008200884 -0.00056418596
-0.0015679116 -0.0037849408 -0.00056418596 -0.0069089513 5.9750528e-05 8.634294e-06 0.00023694485 0.001024774
8.634294e-06 2.7061873e-05 0.004063324 0.0006515405 0.0029790718 -0.00029520743 0.0006515405 0.0025869168
0.00040051644 -1.2534546e-05 0.00033720222 0.00037612038 -1.2534546e-05 0.0009977816 0.001013373 7.163727e-05
0.0006046857 0.0004445337 7.163727e-05 0.0009862883 0.004770618 0.0003244752 0.003705022 0.004134121
0.0003244752 0.004507149 0.003657922 0.00031101922 0.004271934 0.0031946984 0.00031101922 0.0040354603
7.062219e-05 -7.929889e-05 -0.0002940478 0.00030814236 -7.929889e-05 -0.00047253803 -0.0030647428 -0.0003367809
-0.001846531 -0.00055496494 -0.0003367809 -0.0032384153 0.018554265 0.0014476645 0.0076558576 0.008681049
0.0014476645 0.018750524 0.017206019 0.0013509487 0.0069983266 0.008315056 0.0013509487 0.019098898
-0.00074341707 -4.696315e-05 -0.0006496023 -0.00013905784 -4.696315e-05 -0.0010970476 -0.000658278 5.593428e-05
0.00027314253 6.323215e-06 5.593428e-05 0.0014431835 -0.00486045 -0.0005065359 -0.0009965015 -0.0013724357
-0.0005065359 -0.0021397448 -0.0047575724 -0.0003441612 -0.0004328443 -0.0029345711 -0.0003441612 -0.0021303878
-0.004815755 -0.00032229137 -0.00037578418 -0.004138866 -0.00032229137 0.0048508937 -0.003231146 -0.00018574596
-1.4873686e-05 -0.0026807676 -0.00018574596 0.00451732 0.0005663059 4.624468e-05 0.00035482013 0.00040870023
4.624468e-05 0.000708503 0.0006004631 4.035403e-05 0.0004636817 0.00046846038 4.035403e-05 0.0007975674
-0.011637337 -0.0010132868 -0.005662201 -0.0048188264 -0.0010132868 -0.014045085 -0.011698405 -0.0009944008
-0.0052585066 -0.0049647326 -0.0009944008 -0.013364535 2.9916995e-05 6.642995e-06 -6.475329e-05 0.00014337224
00000000: e7eb 3f3a 93e8 2839 97f5 7339 0d7b 7fba
00000010: 93e8 2839 8e47 823a 7acd f03a 2953 1739
00000020: 342b 8eb7 85b3 fab9 2953 1739 d6b3 a63a
00000030: a2e2 10bc e0eb 32ba 08f0 e3bb 8ac7 8dbb
00000040: e0eb 32ba 04b6 83bc 3dfc 16bc 9d75 4eba
00000050: c317 ebbb 4bb3 7bbb 9d75 4eba 9388 86bc
00000060: c640 a5bb 63e8 d8b9 9dcb 25bb 843d 70bb
00000070: 63e8 d8b9 f6ba c43a 1eb9 87bb 8341 b7b9
00000080: 81e9 18bb 24c5 31bb 8341 b7b9 644f 963a
00000090: 5139 243a 1659 9f37 b9ed 2eb8 971e 443a
000000a0: 1659 9f37 d920 75ba 8c7a e2b9 5101 42b9
000000b0: 2e76 0bba f8e2 633a 5101 42b9 e780 78ba
000000c0: 47ee c13a 153e dc38 2659 a83a 257c b23a
000000d0: 153e dc38 1581 b93a d606 b63a 5d72 cb38
000000e0: 475d 9d3a 4597 af3a 5d72 cb38 39e8 ab3a
000000f0: cf1c cdb9 b584 d7b5 08bd df38 9def 13ba
00000100: b584 d7b5 f157 d73a 3656 463a 81d6 3b39
00000110: 908f 8f3a fbca 95ba 81d6 3b39 0ceb 473b
00000120: f1f9 b2b9 708d ddb8 530f 4139 9207 cdb8
00000130: 708d ddb8 7b72 573a 5633 d8b9 699b 34b9
00000140: 5624 22b7 92a6 f937 699b 34b9 8708 9d3a
00000150: d7b6 4438 84d5 41b8 1969 e638 6593 9339
00000160: 84d5 41b8 a057 4f39 80ac 30ba ee78 4db9
00000170: 9004 d337 8f30 393a ee78 4db9 e61d 4b39
00000180: 1f22 8a3c d418 bc3a 7624 1c3c 2523 033c
00000190: d418 bc3a 4d19 843c 09a7 7e3c 9cfb a43a
000001a0: 9693 123c 4e58 f83b 9cfb a43a 354f 8c3c
000001b0: fb90 82bb 08e4 99b9 b5c2 0ebb a8f1 4ebb
000001c0: 08e4 99b9 a496 903a 0a43 70bb 365a 79b9
000001d0: 3980 d6ba 8351 3cbb 365a 79b9 55bc a63a
000001e0: 30d3 03bc d243 17ba 24fa e5ba 45bc 46bb
000001f0: d243 17ba 93f8 eabb 005d 06bc e1e5 13ba
00000200: 6282 cdba c50c 78bb e1e5 13ba 7c64 e2bb
00000210: a49c 7a38 03dc 1037 6674 7839 b651 863a
00000220: 03dc 1037 ee02 e337 a225 853b 25cc 2a3a
00000230: 883c 433b 12c6 9ab9 25cc 2a3a 4389 293b
00000240: 68fc d139 774b 52b7 84ca b039 0632 c539
00000250: 774b 52b7 ffc7 823a 28d3 843a f73b 9638
00000260: c583 1e3a 4e10 e939 f73b 9638 5846 813a
00000270: d852 9c3b 531e aa39 f4cf 723b 8577 873b
00000280: 531e aa39 b5b0 933b bfb9 6f3b 4b10 a339
00000290: 94fb 8b3b 255e 513b 4b10 a339 e53b 843b
000002a0: 001b 9438 444d a6b8 6d2a 9ab9 2b8e a139
000002b0: 444d a6b8 fbbe f7b9 dad9 48bb f891 b0b9
000002c0: 4d07 f2ba 117b 11ba f891 b0b9 983b 54bb
000002d0: 1dff 973c 8fbf bd3a fddd fa3b f53a 0e3c
000002e0: 8fbf bd3a b39a 993c a3f3 8c3c 5112 b13a
000002f0: 3852 e53b df3b 083c 5112 b13a 4b75 9c3c
00000300: e0e1 42ba 4cfa 44b8 134a 2aba 0ed0 11b9
00000310: 4cfa 44b8 cfca 8fba 4a90 2cba fa9a 6a38
00000320: 9234 8f39 012c d436 fa9a 6a38 3429 bd3a
00000330: 6944 9fbb 0cc9 04ba 0b9d 82ba 4de3 b3ba
00000340: 0cc9 04ba f63a 0cbb 69e5 9bbb 8970 b4b9
00000350: 61ef e2b9 ef51 40bb 8970 b4b9 fa9d 0bbb
00000360: 7bcd 9dbb 37f9 a8b9 e604 c5b9 539f 87bb
00000370: 37f9 a8b9 3ff4 9e3b a2c1 53bb cdc4 42b9
00000380: ff89 79b7 d1af 2fbb cdc4 42b9 0706 943b
00000390: 2574 143a d9f6 4138 2707 ba39 d146 d639
000003a0: d9f6 4138 d5ba 393a 6668 1d3a cf41 2938
000003b0: 4e1a f339 b09b f539 cf41 2938 d813 513a
000003c0: 87aa 3ebc 43d0 84ba fc89 b9bb 3fe7 9dbb
000003d0: 43d0 84ba 5b1d 66bc abaa 3fbc 8e56 82ba
000003e0: 8d4f acbb 32af a2bb 8e56 82ba ecf6 5abc
000003f0: 42f6 fa37 e4e6 de36 28cc 87b8 3156 1639

exp_avg_sq f4 [128, 12]
0.00025921548 3.003224e-06 0.00016643484 0.00011006095 3.003224e-06 0.00031732352 0.00028241545 3.5306423e-06
0.00021223203 0.00011472268 3.5306423e-06 0.00040507872 0.00074429094 8.045309e-06 0.00045030648 0.0001998857
8.045309e-06 0.0009294899 0.0008107752 8.87757e-06 0.00046755446 0.00023284992 8.87757e-06 0.0009575693
0.001386754 1.0146685e-05 0.00013289426 0.0010130618 1.0146685e-05 0.00016188262 0.0014138151 1.0372552e-05
0.00013397356 0.0010295545 1.0372552e-05 0.00016455575 0.00014915814 2.084871e-06 8.2071085e-05 5.7302692e-05
2.084871e-06 0.00013362886 0.00018071762 2.4303974e-06 8.731616e-05 7.281971e-05 2.4303974e-06 0.00013664471
2.7927328e-05 5.296845e-07 4.4027925e-05 7.5909124e-06 5.296845e-07 8.328703e-05 2.8307833e-05 5.4331366e-07
4.4343135e-05 7.763905e-06 5.4331366e-07 8.349468e-05 0.00013080511 1.5663655e-06 0.000105558865 3.7953014e-05
1.5663655e-06 0.00018547993 0.00014534766 1.810544e-06 0.00011924922 4.0693558e-05 1.810544e-06 0.00021067142
7.67559e-05 8.034666e-07 6.4837286e-06 5.0159182e-05 8.034666e-07 8.603549e-06 8.499521e-05 9.158315e-07
9.176977e-06 5.224693e-05 9.158315e-07 1.9937026e-05 4.7453855e-06 5.344485e-07 1.9257993e-06 2.2838467e-06
5.344485e-07 6.3858333e-06 1.8522376e-05 1.6260452e-06 3.3928896e-05 6.863835e-06 1.6260452e-06 9.879882e-05
0.00084591896 6.6999646e-06 0.00017974716 0.0004636793 6.6999646e-06 0.00048455267 0.000875791 7.0025326e-06
0.00018632537 0.00047791505 7.0025326e-06 0.00050718285 0.000544008 4.1157764e-06 9.2062764e-05 0.00039028534
4.1157764e-06 6.547724e-05 0.00056699465 5.0465346e-06 0.00018369398 0.00039688207 5.0465346e-06 0.0001773143
0.00029840434 2.4440624e-06 0.00012555398 0.0001303697 2.4440624e-06 0.0003195414 0.00030819318 2.5255465e-06
0.0001263855 0.00013659212 2.5255465e-06 0.00032170114 7.731667e-05 1.1746772e-06 0.00010123787 8.393022e-06
1.1746772e-06 0.00017025883 0.00018162759 3.2343946e-06 0.00021744453 3.3629312e-05 3.2343946e-06 0.00036009855
1.2297137e-05 9.7722e-07 1.7247453e-06 6.6010475e-06 9.7722e-07 4.8784163e-06 1.409976e-05 1.0413489e-06
2.3952846e-06 7.482469e-06 1.0413489e-06 6.1541964e-06 0.00012110406 2.6085543e-06 0.0002311299 3.1965803e-05
2.6085543e-06 0.0003988801 0.00020781571 4.404641e-06 0.00037018242 5.5613335e-05 4.404641e-06 0.0006613951
2.10143e-06 4.372784e-07 2.893582e-05 1.8192156e-06 4.372784e-07 5.720332e-05 0.00017208444 3.5328821e-06
0.0002530084 3.7833623e-05 3.5328821e-06 0.00053506624 0.0012848661 1.1183466e-05 0.0003603613 0.0005021263
1.1183466e-05 0.001179331 0.0013248834 1.18715925e-05 0.0003678843 0.0005238251 1.18715925e-05 0.0012055754
0.00015208135 2.6725495e-06 0.0001578251 1.1078334e-05 2.6725495e-06 0.00029077442 0.0002506914 4.5479424e-06
0.00023882203 2.4959967e-05 4.5479424e-06 0.0004584586 0.0005096498 4.364259e-06 0.00012800451 0.0002579087
4.364259e-06 0.00028374014 0.0005404682 5.26344e-06 0.00018440954 0.00026732794 5.26344e-06 0.00036656627
0.0010722005 7.720626e-06 0.00018933672 0.00075326883 7.720626e-06 0.0001643781 0.0011069776 8.012505e-06
0.00019191517 0.0007785213 8.012505e-06 0.0001698824 4.638106e-06 1.3564545e-07 9.813936e-07 2.2429447e-06
1.3564545e-07 2.7833207e-06 7.2598295e-06 3.304086e-07 9.840296e-06 3.5383064e-06 3.304086e-07 3.0010886e-05
0.00036357468 4.060441e-06 0.00022978625 7.615039e-05 4.060441e-06 0.0006782707 0.0003676665 4.3782625e-06
0.00026506148 7.7864024e-05 4.3782625e-06 0.0007222727 5.1364655e-06 4.501102e-07 2.2651959e-07 4.019771e-06
00000000: 50e7 8739 ff8a 4936 0385 2e39 86d0 e638
00000010: ff8a 4936 715e a639 2911 9439 f9ef 6c36
00000020: 9a8a 5e39 4597 f038 f9ef 6c36 bf60 d439
00000030: 851c 433a 57fa 0637 1d17 ec39 6998 5139
00000040: 57fa 0637 03a9 733a 348a 543a dff0 1437
00000050: 1922 f539 2d29 7439 dff0 1437 6305 7b3a
00000060: bec3 b53a ae3b 2a37 8859 0b39 b7c8 843a
00000070: ae3b 2a37 09bf 2939 c34f b93a c605 2e37
00000080: 417b 0c39 1ef2 863a c605 2e37 998c 2c39
00000090: 5567 1c39 d0e9 0b36 941d ac38 4c58 7038
000000a0: d0e9 0b36 b91e 0c39 047f 3d39 e919 2336
000000b0: 821d b738 c9b6 9838 e919 2336 4948 0f39
000000c0: 7b45 ea37 a42f 0e35 a0aa 3838 71b5 fe36
000000d0: a42f 0e35 62aa ae38 9c76 ed37 3bd8 1135
000000e0: 14fd 3938 b841 0237 3bd8 1135 dd19 af38
000000f0: bb28 0939 e93b d235 7c5f dd38 bd2f 1f38
00000100: e93b d235 647d 4239 7768 1839 d101 f335
00000110: 7015 fa38 60ae 2a38 d101 f335 aee7 5c39
00000120: 03f8 a038 cead 5735 ce8e d936 0362 5238
00000130: cead 5735 f657 1037 753f b238 76d7 7535
00000140: d1f6 1937 b723 5b38 76d7 7535 703e a737
00000150: 8d3a 9f36 0577 0f35 fb3c 0136 3044 1936
00000160: 0577 0f35 e445 d636 8060 9b37 7d3e da35
00000170: e04e 0e38 e54f e636 7d3e da35 3632 cf38
00000180: a9c0 5d3a 42d0 e036 837a 3c39 fb19 f339
00000190: 42d0 e036 8f0b fe39 5795 653a 4cf7 ea36
000001a0: 5660 4339 ac90 fa39 4cf7 ea36 77f4 043a
000001b0: c29b 0e3a 401a 8a36 d211 c138 369f cc39
000001c0: 401a 8a36 d350 8938 5ea2 143a 6755 a936
000001d0: fa9d 4039 9c14 d039 6755 a936 72ed 3939
000001e0: 2773 9c39 ac04 2436 24a7 0339 dab3 0839
000001f0: ac04 2436 1f88 a739 fd94 a139 8f7c 2936
00000200: 5986 0439 2b3a 0f39 8f7c 2936 ffa9 a839
00000210: 1225 a238 9aa9 9d35 ab4f d438 c1cf 0c37
00000220: 9aa9 9d35 8287 3239 4973 3e39 7a0e 5936
00000230: d201 6439 330d 0d38 7a0e 5936 9ccb bc39
00000240: cd4f 4e37 0629 8335 cc7d e735 917e dd36
00000250: 0629 8335 47b1 a336 028e 6c37 7ac4 8b35
00000260: adbe 2036 eb11 fb36 7ac4 8b35 2580 ce36
00000270: 3ff9 fd38 9f0e 2f36 765b 7239 0513 0638
00000280: 9f0e 2f36 c820 d139 1be9 5939 94cb 9336
00000290: 0b15 c239 5d42 6938 94cb 9336 7961 2d3a
000002a0: 4b06 0d36 16c3 ea34 33bb f237 c62b f435
000002b0: 16c3 ea34 99ed 6f38 9171 3439 7416 6d36
000002c0: 36a6 8439 8baf 1e38 7416 6d36 b043 0c3a
000002d0: f468 a83a 9fa0 3b37 e0ee bc39 20a1 033a
000002e0: 9fa0 3b37 c893 9a3a b6a7 ad3a 1a2c 4737
000002f0: 98e0 c039 4f51 093a 1a2c 4737 6604 9e3a
00000300: 0778 1f39 0d5a 3336 da7d 2539 15dd 3937
00000310: 0d5a 3336 1573 9839 3b6f 8339 879a 9836
00000320: 4d6c 7a39 1f61 d137 879a 9836 465d f039
00000330: 059a 053a b370 9236 f338 0639 eb37 8739
00000340: b370 9236 f5c2 9439 35ae 0d3a 9b9c b036
00000350: 0f5e 4139 2628 8c39 9b9c b036 b12f c039
00000360: 1489 8c3a d687 0137 b088 4639 0477 453a
00000370: d687 0137 e95c 2c39 0118 913a 726d 0637
00000380: d63c 4939 ae15 4c3a 726d 0637 7622 3239
00000390: 07a1 9b36 f0a5 1134 6db8 8335 7f85 1636
000003a0: f0a5 1134 16c9 3a36 7699 f336 0363 b134
000003b0: c017 2537 a473 6d36 0363 b134 e3bf fb37
000003c0: 2b9e be39 ec3e 8836 c7f2 7039 eeb2 9f38
000003d0: ec3e 8836 facd 313a 5dc3 c039 fde8 9236
000003e0: f3f7 8a39 ee4a a338 fde8 9236 e756 3d3a
000003f0: e759 ac36 ada6 f134 3b39 7334 92e1 8636

exp_avg f4 [128]
0.00028862924 -0.0015751604 -0.0006990658 -0.00037003544 0.00019402192 0.00035827237 -0.00034448065 -0.00039190747
0.0025174385 -0.00047560193 -0.0011283719 0.001303081 0.00014327453 0.00062203844 -0.0006735618 0.0027018974
0.00011186856 -0.0006883224 -0.00037149191 8.070806e-05 -0.0019888016 0.00010292967 -8.69023e-05 0.001970224
-0.002865827 -0.0001762415 0.00019671328 0.00017819309 -0.00064917974 -0.0010585004 0.00092719635 0.00015155204
0.0004814911 -0.0008674451 0.00023740488 0.00056612265 -6.060235e-05 0.0026290356 -0.00037827436 -0.0026668564
-0.0013802364 0.0031633892 0.0028369557 0.0019500785 0.00041581114 -0.00041111716 -0.00056762516 -0.00016893039
0.0020714584 0.00094628695 0.0008093046 0.0020558487 -0.0018390958 0.0012738423 -0.0018926405 0.0024391327
-0.00026400006 -0.0037063386 0.0005912121 0.00095955096 0.0005596002 0.00092599535 -0.0014866224 -0.00012823314
-0.00044177665 -0.00020807335 0.00039324115 -0.0005468593 -0.0009196856 -0.0022649833 -0.00025574115 -0.00084892445
-0.0012730438 0.00016760392 -0.0001551125 3.4871893e-05 -8.423022e-05 0.0012377393 0.0012385891 0.0017234088
0.0005818242 -0.00064535113 -0.0003552463 0.0016248238 -0.00058340613 0.00014017674 -0.00026505263 -0.0014101025
0.0006232342 0.0013945515 -0.00016512265 0.00090746256 0.0022335062 -0.0009096367 -0.00022794612 0.00022469014
0.0006215089 0.0023625586 0.0016951564 -0.0020406959 0.0027593842 -0.0040823556 0.00039227013 -0.000615806
0.0013796767 6.8278877e-07 0.000997502 0.0007966876 0.0017192604 0.00030998883 -0.0005038919 -0.00079286686
-0.00010288468 -0.0004904592 -0.00046275652 -0.0003350508 0.0019713237 -0.0007531346 -0.0018374999 -0.00067638553
0.00045403128 -0.0010303253 0.00040686718 -0.0005939018 0.00075496786 -0.00019347828 0.0014343561 0.00048531996
00000000: 2953 9739 9d75 ceba 8341 37ba 5101 c2b9
00000010: 5d72 4b39 81d6 bb39 699b b4b9 ee78 cdb9
00000020: 9cfb 243b 365a f9b9 e1e5 93ba 25cc aa3a
00000030: f73b 1639 4b10 233a f891 30ba 5112 313b
00000040: fa9a ea38 8970 34ba cdc4 c2b9 cf41 a938
00000050: 8e56 02bb f2db d738 513f b6b8 e01e 013b
00000060: 99d0 3bbb 78cd 38b9 d244 4e39 58d9 3a39
00000070: b72d 2aba 61bd 8aba 180f 733a f1e9 1e39
00000080: a470 fc39 4165 63ba e3ef 7839 d967 143a
00000090: 472f 7eb8 e64b 2c3b 2053 c6b9 6dc6 2ebb
000000a0: 0ce9 b4ba dd50 4f3b 38ec 393b c799 ff3a
000000b0: 3a01 da39 368b d7b9 aecc 14ba e822 31b9
000000c0: 4ec1 073b 3e10 783a 8327 543a 6bbb 063b
000000d0: d10d f1ba 0ef7 a63a 7a12 f8ba dbd9 1f3b
000000e0: 7d69 8ab9 0be6 72bb 93fb 1a3a 608a 7b3a
000000f0: 22b2 123a 7fbe 723a c5da c2ba 5276 06b9
00000100: 429e e7b9 442e 5ab9 ef2b ce39 1b5b 0fba
00000110: 0e17 71ba 1d70 14bb ff14 86b9 5b8a 5eba
00000120: 43dc a6ba d6be 2f39 b2a5 22b9 6943 1238
00000130: c1a4 b0b8 a43b a23a 2758 a23a 01e4 e13a
00000140: 9085 183a c82c 29ba 5a40 bab9 0af8 d43a
00000150: b9ef 18ba 68fc 1239 c3f6 8ab9 30d3 b8ba
00000160: 8a60 233a 62c9 b63a c624 2db9 c8e2 6d3a
00000170: 0460 123b b074 6eba d204 6fb9 cd9a 6b39
00000180: c2ec 223a 28d5 1a3b 0330 de3a 32bd 05bb
00000190: c9d6 343b 48c5 85bb 9ba9 cd39 0b6e 21ba
000001a0: 45d6 b43a e348 3735 9dbe 823a cdd8 503a
000001b0: ce58 e13a ff85 a239 9d17 04ba 65d8 4fba
000001c0: cbc3 d7b8 2992 00ba 219e f2b9 c2a9 afb9
000001d0: 5331 013b 026e 45ba 44d8 f0ba 774f 31ba
000001e0: 0c0b ee39 fb0b 87ba ca50 d539 13b0 1bba
000001f0: 09e9 453a 6ee0 4ab9 0101 bc3a 8b72 fe39
