Lofty2024/results/MoveToPlayerRandom2/MoveToPlayer/MoveToPlayer-373705.onnx (onnx, 78290 bytes, 8 tensors)

network_body._body_endoder.seq_layers.0.weight f4 [128, 6]
0	0xbde69902	-0.11259653
1	0x3f48375f	0.7820949
2	0x3de02ff4	0.10946646
3	0x3ef3bd9f	0.47605607
4	0xbdb4a20b	-0.0881997
5	0x3e88f641	0.26750377
6	0xbe855682	-0.26042563
7	0xbe888d3c	-0.26670253
8	0x3ed09d3b	0.40744957
9	0x3ccecc79	0.025243985
10	0x3f156775	0.5836099
11	0x3d23c7e7	0.039985564
12	0x3e8b565e	0.2721433
13	0xbe115410	-0.14192224
14	0xbf2b29e9	-0.66860825
15	0xbdb30cb5	-0.08742658
16	0x3f6272a6	0.8845619
17	0xbda831ca	-0.082126215
18	0x3f001690	0.5003443
19	0x3deef48a	0.11667736
20	0xbf89896e	-1.0745065
21	0xbf307b90	-0.6893854
22	0xbdb4e63d	-0.08832977
23	0x3e033bc3	0.12815766
24	0x3ee8ed36	0.45493478
25	0x3e646196	0.22302851
26	0xbeafbf1e	-0.34325498
27	0x3e6cbc22	0.23118642
28	0xbefbc2b2	-0.49171978
29	0xbec22f60	-0.3792677
30	0xbe9dff5f	-0.30858895
31	0x3d9d9a5d	0.07695458
32	0x3f2d651d	0.6773241
33	0x3d9b644e	0.07587491
34	0xbdd38986	-0.10328965
35	0xbe013dd2	-0.12621239
36	0x3f249227	0.6428551
37	0xbf2d0b4d	-0.6759537
38	0xbf97a8d2	-1.1848395
39	0x3958219e	0.00020611889
40	0xbe3057e6	-0.1722103
41	0x3e86fee4	0.2636634
42	0xbcf2fd92	-0.029661927
43	0xbe2d8c7d	-0.16948123
44	0xbdfb2b2e	-0.12264095
45	0x3e4be752	0.1991246
46	0xbf518990	-0.8185053
47	0xbe85706a	-0.26062328
48	0xbf0b6a8b	-0.54459447
49	0x3f7d44ba	0.98932993
50	0xbebc1a1f	-0.3673868
51	0xbe55e53e	-0.2088823
52	0x3e986177	0.2976186
53	0xbef00c22	-0.46884257
54	0xbe321236	-0.1738976
55	0x3e7f1980	0.24912071
56	0x3f16203d	0.5864294
57	0x3e78aab6	0.24283871
58	0x3eb6a014	0.35669005
59	0xbe8ed991	-0.27900365
60	0xbd9c9c97	-0.07647055
61	0xbf38cd80	-0.7218857
62	0x3ee2fb1c	0.44332206
63	0x3ed57984	0.41694272
64	0xbe3e4424	-0.18580681
65	0xbeedfbeb	-0.4648126
66	0x3e2e7473	0.1703661
67	0x3e0e4937	0.13895117
68	0xbe6f1035	-0.23346026
69	0x3dea461e	0.11439155
70	0xbda0727f	-0.078343384
71	0x3e3ece6d	0.18633433
72	0xbe9821c3	-0.29713258
73	0xbe0dcc61	-0.13847496
74	0x3ee099ea	0.43867427
75	0xbf15bb9c	-0.58489394
76	0x3ec65f31	0.387445
77	0xbce1934e	-0.02753606
78	0xbe03e3cf	-0.12879871
79	0xbea49c9a	-0.32150728
80	0x3ed6a731	0.41924432
81	0x3e68e847	0.22744857
82	0x3d232ad5	0.03983577
83	0x3f815da5	1.0106703
84	0x3e6f6a7e	0.23380467
85	0xbe6e8daf	-0.23296236
86	0x3e8cf4d4	0.2753054
87	0xbf445989	-0.7669912
88	0xbea3a0ec	-0.3195871
89	0x3f3febae	0.74968994
90	0x3ca63783	0.020290142
91	0xbeb9c4be	-0.36282915
92	0xbf18f226	-0.5974449
93	0x3df299bf	0.11845731
94	0xbdb6ace7	-0.08919697
95	0xbe827d8f	-0.2548642
96	0xbeaf342b	-0.34219489
97	0x3f325565	0.6966155
98	0xbed11345	-0.40835014
99	0xbf12f193	-0.57399863
100	0xbdcf5d7f	-0.10125255
101	0x3e8310fb	0.25598893
102	0xbed291d9	-0.41126898
103	0xbf1f48e0	-0.62220573
104	0xbe07348f	-0.13203643
105	0x3f08eeea	0.53489554
106	0x3f207ecf	0.62693495
107	0xbde64a4a	-0.11244638
108	0x3e447d5c	0.19188446
109	0x3eaecb30	0.34139395
110	0xbdbc828a	-0.09204586
111	0x3dcafcd3	0.09911504
112	0x3f4d9fc4	0.8032191
113	0xbea294c0	-0.31754112
114	0xbe69ab9f	-0.22819375
115	0x3f8abcb9	1.0838844
116	0x3dc126ed	0.09431253
117	0x3e1575f2	0.14595774
118	0xbeb299b0	-0.3488288
119	0xbf07d067	-0.5305237
120	0x3ed66176	0.41871232
121	0x3ee6b9f4	0.45063746
122	0xbc4379c7	-0.011930889
123	0xbe17bc8b	-0.14818017
124	0x3ef04ffc	0.46936023
125	0xbecfbfd9	-0.40576056
126	0xbdf94fc4	-0.12173417
127	0x3ea16866	0.31524962
128	0xbe615648	-0.2200557
129	0x3e9a9e5a	0.30198938
130	0x3dd90c65	0.10598067
131	0xbf22053c	-0.6328924
132	0xbd820c1f	-0.06349968
133	0xbeb245a5	-0.3481876
134	0xbf0c6a2d	-0.5484951
135	0xbe8a5c24	-0.27023423
136	0xbec2bc4b	-0.3803428
137	0xbe0435cb	-0.12911145
138	0xbdc3c006	-0.0955811
139	0x3e0ed4b3	0.13948326
140	0xbdc8f3b8	-0.09812111
141	0xbebf1fc0	-0.3732891
142	0x3d7f7efe	0.06237697
143	0x3cc23637	0.023707492
144	0x3d38132a	0.04494015
145	0xbdb10ab2	-0.08644618
146	0x3e284a7b	0.16434662
147	0x3d05190d	0.032494593
148	0x3f2f7c9c	0.68549514
149	0x3e4f0814	0.20217925
150	0xbeb95bc8	-0.36202836
151	0x3e94c8b9	0.2905939
152	0xbef5fd0d	-0.48044625
153	0x3e07fcc2	0.13280013
154	0x3e83a308	0.2571032
155	0xbeb45557	-0.3522136
156	0xbf3d7b1b	-0.7401597
157	0xbe496adf	-0.19669674
158	0x3d8bf5aa	0.06833966
159	0xbed07a20	-0.40718174
160	0x3e3a4753	0.1819127
161	0x3d2e99cf	0.042627152
162	0x3d8a7e77	0.067624025
163	0x3e7585c1	0.23976804
164	0xbf0e63ed	-0.55621225
165	0x3ddaf4e4	0.106912404
166	0xbde3ecdc	-0.11129162
167	0x3eb3ecba	0.35141546
168	0xbdc409a2	-0.0957215
169	0x3e149fa4	0.14514023
170	0xbec85ad1	-0.39131787
171	0x3e66b667	0.22530518
172	0xbc1fc547	-0.009751624
173	0xbecc823c	-0.3994311
174	0xbe38f433	-0.18061905
175	0xbea3c355	-0.31984964
176	0xbe99c40d	-0.30032387
177	0xbcbed0d5	-0.023292938
178	0x3e8bad65	0.27280727
179	0xbd99ae48	-0.07503945
180	0x3e984987	0.29743597
181	0x3f6fca1b	0.93667763
182	0x3ef8a040	0.4855976
183	0x3de3aa7e	0.11116503
184	0xbe956da3	-0.2918521
185	0xbf8325bb	-1.024589
186	0x3e1f1206	0.15534219
187	0x3e2cfb14	0.16892654
188	0xbf14afa1	-0.5808049
189	0xbed5a776	-0.41729325
190	0xbe4c48e3	-0.19949679
191	0xbef2461a	-0.47319108
192	0xbebbe81d	-0.36700526
193	0xbdd1ea99	-0.10249824
194	0xbcea0f11	-0.028571637
195	0xbf2d59dc	-0.6771524
196	0xbf364d99	-0.71212155
197	0xbf19ecac	-0.6012676
198	0x3c936526	0.017992567
199	0x3ee98ce7	0.45615312
200	0x3df69f2c	0.120420784
201	0xbdd36b6f	-0.10323226
202	0x3e00012a	0.12500444
203	0x3f8a8961	1.0823175
204	0xbd1c1171	-0.03810257
205	0xbf044ed9	-0.5168281
206	0xbd5a48b7	-0.053292003
207	0x3eaa3055	0.3324
208	0x3cd9f240	0.026604772
209	0xbe08c9f5	-0.1335829
210	0xbeeb511e	-0.45960325
211	0xbfb49ce2	-1.4110377
212	0x3e8c797d	0.27436438
213	0x3f299366	0.6624054
214	0xbf9094ae	-1.1295373
215	0x3f3c0b71	0.7345496
216	0x3d5a5252	0.053301163
217	0xbded26f6	-0.11579697
218	0xbc9fc673	-0.019503808
219	0xbda487b5	-0.080336966
220	0xbdd31654	-0.10306993
221	0x3e937a7f	0.28804395
222	0xbf0e0e22	-0.55490315
223	0x3f04dd55	0.51900226
224	0x3dd05a28	0.10173446
225	0xbdbcbdea	-0.09215911
226	0xbda20648	-0.07911354
227	0xbd1d36ee	-0.038382463
228	0x3eaa953a	0.33316976
229	0xbf48d6a5	-0.7845252
230	0x3e89ff0c	0.26952398
231	0xbf0b8d56	-0.54512537
232	0xbea89c09	-0.32931545
233	0x3ed519fa	0.4162138
234	0xbe165c2d	-0.146836
235	0xbd9868d5	-0.0744187
236	0xbe597448	-0.21235764
237	0x3f06f176	0.5271219
238	0x3e8f5582	0.27994925
239	0xbf25dba1	-0.6478825
240	0xbf3027bc	-0.6881063
241	0x3ecdaac2	0.4016934
242	0x3ef33607	0.47502157
243	0x3ee5ce91	0.4488416
244	0xbe20d309	-0.15705504
245	0xbdecccac	-0.115624756
246	0x3f0ff3a2	0.5623113
247	0x3e8fb770	0.2806964
248	0xbf0a38b7	-0.5399279
249	0xbf47b6d6	-0.7801336
250	0x3c12e3c4	0.008965436
251	0x3c495a02	0.012289526
252	0xbf0319a2	-0.5121099
253	0xbec2daa8	-0.38057446
254	0x3ed03d08	0.40671563
255	0x3ed765b0	0.4206977

network_body._body_endoder.seq_layers.0.bias f4 [128]
0	0x3bfaba0d	0.0076515735
1	0x3b58bf28	0.0033072922
2	0x3c37a3ff	0.011208533
3	0x3d5e2d2a	0.05424229
4	0x3cb00dc8	0.021490946
5	0xbca8a8fd	-0.020588392
6	0x3d7a4d8c	0.06110911
7	0xbc71cd07	-0.014758355
8	0x3a81689e	0.0009873097
9	0x3c761667	0.01501999
10	0xbc4b2e18	-0.012401126
11	0x3cbd63d7	0.023118896
12	0x3b7a144d	0.0038159073
13	0x3cd6cbe6	0.026220273
14	0x3bf6848b	0.0075231246
15	0xbb38155e	-0.0028088908
16	0x3d24378c	0.040092036
17	0x3c2927d6	0.010324439
18	0x3b52e72f	0.0032181253
19	0x3b79fc04	0.0038144598
20	0xb9a8e096	-0.00032210787
21	0x3c37a362	0.011208387
22	0x3b942168	0.004520584
23	0x3cf19194	0.029488362
24	0x3ca3b439	0.019983398
25	0x3cc3c37b	0.023896923
26	0xbc5f302b	-0.013622324
27	0x3cac01e4	0.020996995
28	0x3cf94237	0.030427082
29	0x3c6e589f	0.014547496
30	0x3c388a40	0.01126343
31	0x3c676689	0.014123567
32	0xba861911	-0.0010230859
33	0x3c82fcdf	0.015989719
34	0xbba7553d	-0.0051065967
35	0x3cbe8cee	0.02326056
36	0xbb386d4f	-0.0028141325
37	0xbc2ed05b	-0.010669793
38	0xbb754af3	-0.0037428706
39	0xb9b13e75	-0.00033806605
40	0x3b1c6330	0.0023862831
41	0x3bcba89a	0.006215167
42	0x3c394f3e	0.011310397
43	0x3d3e7e1d	0.04650699
44	0x3cbac89e	0.02280074
45	0xbb3bf495	-0.0028679718
46	0x3d1a2cf9	0.037640546
47	0x3cb37d1a	0.021910239
48	0xbb478182	-0.0030442183
49	0xbb348115	-0.002754276
50	0x3ccb7a38	0.024838552
51	0xbc88fc94	-0.016722001
52	0x3a814428	0.0009862231
53	0xbb9f8e1b	-0.004869235
54	0xbba4424b	-0.0050127856
55	0x3b9b78fa	0.004744646
56	0x3cc6a396	0.024247926
57	0x3b51acf2	0.0031993953
58	0x3cd59996	0.026074212
59	0xbc81a8b6	-0.015827518
60	0x3b499a0d	0.0030761987
61	0x3ccac021	0.024749817
62	0x3d04f52e	0.032460384
63	0x3cee947e	0.029123541
64	0x3b9ac00a	0.0047226
65	0x3c89da3e	0.016827699
66	0x3be64078	0.0070267282
67	0xbb31aec8	-0.0027112234
68	0x3c8f0f91	0.017463477
69	0xbb8557e7	-0.0040693167
70	0x3c7ce347	0.0154350465
71	0x3c6d7c98	0.0144950375
72	0x3ced4225	0.028962204
73	0xbafa8e99	-0.0019115984
74	0xbc68baca	-0.01420469
75	0xbca5fdae	-0.020262565
76	0xbbf7fe97	-0.0075681913
77	0x3c057cd5	0.008147438
78	0x3a990023	0.0011673014
79	0xbc2bc704	-0.010484461
80	0xbc61b0d6	-0.013775071
81	0xbc0b6c28	-0.008509673
82	0x3d36640b	0.044529002
83	0xbaed0793	-0.0018083922
84	0xbc3b1ed9	-0.011420929
85	0xbba6aafd	-0.0050863014
86	0x3ce6bd37	0.028166397
87	0x3bb7de7f	0.0056112404
88	0x3b1357e9	0.0022482818
89	0x3d3acd89	0.04560617
90	0x3c93b83a	0.018032182
91	0xbc0a8aea	-0.008455971
92	0x3cc0dce7	0.023542834
93	0x3abc708c	0.0014376803
94	0xbbde379f	-0.006781533
95	0x3b788056	0.003791829
96	0xbc5c629c	-0.013451245
97	0x3abcab75	0.001439436
98	0xbc59b629	-0.013288059
99	0x3b2471f4	0.0025092335
100	0x3bed3e17	0.0072400677
101	0xbc841803	-0.01612473
102	0xbc3438e3	-0.010999891
103	0x3c2252a7	0.009907401
104	0x3d4c35c2	0.049855955
105	0xbc8f3313	-0.017480409
106	0x3c952c6a	0.018209655
107	0x3bd9a693	0.0066421716
108	0xbcdff8fd	-0.027340407
109	0x3b823646	0.003973755
110	0x3c897e01	0.016783716
111	0xbbe8a5ea	-0.0070998566
112	0x3ca0e26a	0.019639213
113	0xbbfbd537	-0.0076853293
114	0x3bcc74e6	0.0062395213
115	0x3c90c877	0.017673714
116	0x3caf9223	0.021431988
117	0x3cdb30ce	0.02675667
118	0x3cb9a052	0.022659454
119	0xbcfdd7a2	-0.03098661
120	0x3daab8eb	0.083360516
121	0x3ce9865f	0.028506456
122	0x3a93264f	0.0011226627
123	0xbbe5f861	-0.0070181345
124	0x3bba6fd8	0.0056896023
125	0x3c9595a7	0.018259836
126	0x3d049981	0.032372955
127	0xbc108446	-0.008820599

network_body._body_endoder.seq_layers.2.weight f4 [128, 128]
0	0xbdf8a1e8	-0.12140256
1	0xbba5cb9b	-0.005059672
2	0xbddf75e4	-0.10911158
3	0xbdaf06fd	-0.08546255
4	0x3dd3133b	0.10306402
5	0xbc26789a	-0.01016059
6	0xbdfe89c4	-0.124286205
7	0xbd8cecc5	-0.06881098
8	0xbdc157dc	-0.09440586
9	0x3d58b910	0.052910864
10	0xbd4a82d8	-0.04944119
11	0x3d1a9ba7	0.037746098
12	0x3de507b2	0.111831084
13	0x3c1e1d38	0.009650521
14	0x3e347baa	0.17625299
15	0xbe7158cf	-0.23569034
16	0xbd781cbf	-0.06057429
17	0x3de36700	0.1110363
18	0x3d6539d6	0.05596336
19	0xbe4121cf	-0.18860553
20	0xbe0babbb	-0.13639729
21	0x3c3d0416	0.011536619
22	0xbdd7d199	-0.105380245
23	0x3d2962fe	0.041354172
24	0x3e4df8f2	0.20114496
25	0xbccae8a0	-0.024769127
26	0xbd12acfd	-0.035809506
27	0xbd73495b	-0.05939613
28	0xbdc97751	-0.09837211
29	0xbd7ec078	-0.06219527
30	0x3c83ca96	0.016087811
31	0xbde8da36	-0.113697454
32	0x3dc7e892	0.09761156
33	0xbd6c669d	-0.057715047
34	0x3dd2d213	0.10293975
35	0xbddc745a	-0.1076438
36	0x3df106cc	0.117688745
37	0x3d8225a6	0.06354837
38	0x3d6ce118	0.057831854
39	0xba659369	-0.00087576226
40	0xbc807c68	-0.015684322
41	0xbdce1e25	-0.10064343
42	0xbc5e8a98	-0.013582848
43	0xbd7872ce	-0.06065636
44	0x3c470d91	0.012149231
45	0x3d16d807	0.036827113
46	0xbdec6ad5	-0.11543814
47	0x3dc5ac29	0.096519776
48	0x3dac7c13	0.08422103
49	0x3d271572	0.040791936
50	0xbc6c3034	-0.014415789
51	0x3e1fea52	0.1561673
52	0x3ce9fa13	0.028561627
53	0x3e85c16d	0.26124135
54	0x3b783721	0.0037874656
55	0xbc3bbc14	-0.011458416
56	0xbdb82891	-0.089921124
57	0xbdb04fd0	-0.08608973
58	0x3d855b23	0.065115236
59	0x3d971666	0.07377319
60	0xbd361624	-0.04445471
61	0x3dfb9b80	0.12285519
62	0x3d13b305	0.0360594
63	0x3b868dce	0.00410626
64	0xbd538fc0	-0.051650763
65	0xbde2f3f6	-0.11081688
66	0x3c853b87	0.016263736
67	0x3dc0331a	0.09384747
68	0xbcf5829f	-0.029969512
69	0x3d7180fe	0.058960907
70	0xbd882286	-0.0664721
71	0x3c87227a	0.016495932
72	0x3da84442	0.08216144
73	0x3e01a080	0.12658882
74	0x3d6b976c	0.057517454
75	0xbc25e887	-0.01012624
76	0xbdf78d9c	-0.12087557
77	0xbe3dd2d0	-0.1853745
78	0x3d1eee8d	0.03880172
79	0xbc43388d	-0.011915338
80	0x3d43b6ef	0.04778188
81	0x3dd9ee28	0.10641128
82	0xbe19c5f3	-0.15016918
83	0x3dc8c523	0.09803226
84	0xbcc24865	-0.023716161
85	0xbcc18016	-0.023620646
86	0x3d92a4c0	0.0716033
87	0xbd51ba3e	-0.051203005
88	0xbde29aa4	-0.110646516
89	0xbdeee91f	-0.11665558
90	0x3d09a11e	0.03360092
91	0x3dbf3d44	0.09337857
92	0xbe229868	-0.15878451
93	0xbd49ef24	-0.049300328
94	0xbe00a35d	-0.12562318
95	0xbe4dbc43	-0.20091347
96	0xbe4f99f9	-0.2027358
97	0xbe72602e	-0.23669502
98	0xbe36b283	-0.17841534
99	0x3d852bd2	0.06502499
100	0xbd6ceeab	-0.0578448
101	0x3de7a53c	0.11310813
102	0x3dbb7898	0.09153861
103	0x3c68cf70	0.014209613
104	0xbceb8439	-0.028749572
105	0xbdb08f9b	-0.086211406
106	0xbdab4a03	-0.08363726
107	0xbe894eab	-0.2681783
108	0x3cb90e09	0.0225897
109	0x3be3be7c	0.0069501977
110	0xbd07de49	-0.033170972
111	0x3d855983	0.06511214
112	0xbe0c9f28	-0.13732588
113	0xbcccc836	-0.024997812
114	0x3b918206	0.004440549
115	0x3e3ad94d	0.18246956
116	0x3dbc32f0	0.09189403
117	0xbb633b27	-0.0034672709
118	0x3d92256e	0.071360454
119	0x3d976966	0.0739315
120	0xbe1625e8	-0.14662898
121	0x3bf501d2	0.0074770236
122	0x3e6e4b66	0.2327095
123	0x3e186d7a	0.14885512
124	0x3ddf1eb6	0.108945295
125	0xbdbd70a1	-0.09249998
126	0x3c91ca25	0.017796585
127	0x3dde9a7a	0.10869308
128	0xbc93124c	-0.01795306
129	0xbc9db426	-0.01925094
130	0xbc8c76de	-0.017146524
131	0x3e53987e	0.2066364
132	0x3e0e8ebb	0.13921635
133	0xbd9e7cbf	-0.07738637
134	0x3d89dc26	0.06731443
135	0xbd8b4948	-0.06801087
136	0xbd01de56	-0.031706177
137	0xbdaf9f6d	-0.0857533
138	0xbdbf36e0	-0.093366385
139	0xbd2f76ce	-0.04283791
140	0xbd5b8a5f	-0.053598758
141	0xbd2f62b3	-0.042818736
142	0x3d29de8c	0.041472003
143	0x3cd5e210	0.026108772
144	0xbdbb7b2e	-0.09154354
145	0x3e6db8f2	0.23215082
146	0x3e43fb3d	0.19138809
147	0x3d9868b9	0.07441849
148	0xbdb66763	-0.08906438
149	0x3d206653	0.039160084
150	0xbe00e1b8	-0.12586105
151	0x3d9a5551	0.07535804
152	0x3e133d66	0.1437889
153	0xbe112396	-0.14173731
154	0xbdd8d516	-0.10587518
155	0xbc11d9eb	-0.008902053
156	0xbd773df8	-0.060361832
157	0xbe085f05	-0.13317497
158	0x3e0a26f3	0.1349142
159	0x3e2f532f	0.17121576
160	0x3db8dc63	0.090264104
161	0x3cbcef76	0.023063403
162	0xbdacb587	-0.08433061
163	0xbda63645	-0.0811582
164	0x3d2c25f5	0.042028386
165	0x3e06e13a	0.13171855
166	0xbd75151a	-0.059834577
167	0xbdfe8954	-0.12428537
168	0xbdaf9318	-0.08572978
169	0x3dd2eab2	0.10298671
170	0xbe602220	-0.21888018
171	0x3c16c160	0.009201378
172	0xbc39ea17	-0.011347315
173	0xbc414e16	-0.011798402
174	0xbd0f190a	-0.03493599
175	0x3d62e0b0	0.05539006
176	0x3d0dbef8	0.03460595
177	0xbe01d199	-0.12677611
178	0x3e38ea2d	0.18058081
179	0xbe0e22bd	-0.13880439
180	0xbe13241b	-0.14369242
181	0xbd3aea3b	-0.045633536
182	0xbe60891d	-0.21927305
183	0xbe387bdd	-0.18016
184	0x3d1ed4d6	0.038777195
185	0xbd47d5ac	-0.048787758
186	0xbcff71a3	-0.031182116
187	0x3d399015	0.045303423
188	0x3c9210dd	0.017830307
189	0xbe0135de	-0.12618205
190	0x3d2d7ce2	0.042355426
191	0xbd814f93	-0.06314006
192	0xbdbfff99	-0.09374923
193	0xbd8d7ed2	-0.06908955
194	0xbcef14d8	-0.029184744
195	0x3dba30ea	0.09091361
196	0x3dd4c53c	0.10389182
197	0x3d798b72	0.060924
198	0xbc3c423f	-0.011490404
199	0xbdc903b1	-0.09815157
200	0x3e5e47d7	0.21707092
201	0x3daedd01	0.08538247
202	0x3d6b31d3	0.057420563
203	0x3cb8f5c3	0.022578126
204	0xbe1e6ba7	-0.15470754
205	0xbda06f66	-0.078337476
206	0xbdf47d7a	-0.11937995
207	0xbe28ea2f	-0.16495584
208	0xbd981af7	-0.07427018
209	0xbe1ccbf4	-0.15312177
210	0xbc98f0a5	-0.018669436
211	0x3d24703b	0.040146094
212	0xbd13899d	-0.03601991
213	0x3d32f8fd	0.043694485
214	0x3d34bb00	0.04412365
215	0x3dc1b305	0.094579734
216	0xbc91a6d2	-0.017779741
217	0xbe0bb9de	-0.13645121
218	0x3c8d3299	0.01723604
219	0x3c98afa9	0.018638449
220	0xbdc9641b	-0.09833547
221	0xbcf25ea3	-0.029586142
222	0xbcf078de	-0.029354509
223	0x3dac6a2e	0.0841869
224	0xbdbbe9b1	-0.091754325
225	0xbd6bb5ba	-0.057546355
226	0xbdac49ef	-0.08412539
227	0xbdba5c9f	-0.09099697
228	0xbd3de352	-0.046359368
229	0xbe279104	-0.16363913
230	0xbbd3b2fa	-0.0064605447
231	0x3d60e31c	0.05490409
232	0xbe726892	-0.23672703
233	0xbdf24117	-0.11828821
234	0x3cae4220	0.021271765
235	0xbc4f03ca	-0.012635181
236	0xbd19c146	-0.037537836
237	0x3d1a4070	0.03765911
238	0xbd22b03b	-0.039718848
239	0x3cd9c0da	0.026581217
240	0xbba8632e	-0.0051387763
241	0xbce99f61	-0.02851838
242	0x3e551c60	0.20811605
243	0xbcb94b71	-0.022618981
244	0x3dc9e265	0.098576345
245	0xbd438d80	-0.047742367
246	0xbd3e22be	-0.04641985
247	0xbe537d49	-0.20653261
248	0xbc978264	-0.018494792
249	0x3cb31532	0.021860693
250	0xbd959d66	-0.07305412
251	0xbc491102	-0.012272121
252	0x3d52aba8	0.051433235
253	0x3cdd0e29	0.026984291
254	0x3cc91f05	0.024550924
255	0xbd64c9b4	-0.05585642

network_body._body_endoder.seq_layers.2.bias f4 [128]
0	0x3cd795dd	0.026316578
1	0x3cf6ae68	0.03011246
2	0x3c3ce4cf	0.011529162
3	0xbc569c0c	-0.013098728
4	0x3bbf1d2e	0.005832336
5	0x3cfb2c46	0.03066076
6	0x3c2089a1	0.009798438
7	0xba938d40	-0.0011257306
8	0x3bd39b2c	0.006457707
9	0x3b6c8eef	0.0036095937
10	0x3c2ae350	0.010430172
11	0x3c4cf0c3	0.012508574
12	0xbbb81358	-0.0056175403
13	0xbb8a3726	-0.004218
14	0x3d1c3039	0.038131926
15	0x3d1edab9	0.03878281
16	0x3c818587	0.015810741
17	0x3bac76d4	0.005263189
18	0xbc3e1ec1	-0.011604012
19	0x3c9bcd33	0.019018745
20	0x3c3d4dfa	0.011554236
21	0x3b346129	0.0027523732
22	0x3c67d9f1	0.014151082
23	0x3c999974	0.01874993
24	0x3aa8fc1f	0.0012892521
25	0x3a86220d	0.0010233537
26	0xbb923aa1	-0.0044625555
27	0x39c6b266	0.0003789842
28	0x3d19bd4e	0.03753405
29	0x3bf6bb31	0.007529639
30	0x3cefdf45	0.029281268
31	0x3c0137e0	0.007886857
32	0x3cca2090	0.02467373
33	0xb84c4be7	-4.870808e-05
34	0xbae78824	-0.0017664474
35	0x3c84add4	0.016196169
36	0x3b540798	0.003235316
37	0x3c928f3c	0.017890565
38	0x3c3418a3	0.010992202
39	0x3cb9980b	0.022655508
40	0x3b1995f8	0.0023435336
41	0x3c872b5d	0.01650017
42	0x3c1b2db5	0.009471347
43	0xbad98b3f	-0.0016597285
44	0xbb26fee4	-0.0025481516
45	0x3b273e3e	0.0025519277
46	0x3b0a7443	0.0021126426
47	0xbb62d216	-0.0034610084
48	0xbbf638c9	-0.0075140935
49	0x3c967354	0.01836554
50	0x3c8899bf	0.016674874
51	0x3c9bda57	0.019025011
52	0x3b164399	0.0022928475
53	0x3ceace30	0.028662771
54	0x3bf931b4	0.007604802
55	0xba79d18a	-0.000952982
56	0x3c2c3040	0.010509551
57	0xbc307783	-0.010770681
58	0x3c0d5cff	0.008628129
59	0x3b2c8289	0.0026322922
60	0xbc5e41ae	-0.013565464
61	0x3c61cba7	0.013781465
62	0x3b97f989	0.004637901
63	0x3cb6e417	0.022325559
64	0xbbb769a7	-0.0055973115
65	0x3cd1da87	0.025616897
66	0xbab4d71e	-0.001379702
67	0xbbd85c2c	-0.0066027846
68	0x3ce218d8	0.027599737
69	0x3c44bdc5	0.012008135
70	0x3d2feb82	0.042949207
71	0x3d06afe6	0.032882594
72	0x3cc9c99d	0.02463227
73	0x3c0f8de9	0.008761861
74	0x3c4a452d	0.012345594
75	0x3b8c86ab	0.0042885146
76	0x3bb2e998	0.0054599755
77	0x3b4a556c	0.003087367
78	0x3b536dd1	0.00322615
79	0x3cc5fe07	0.024168981
80	0xbb972bdf	-0.004613384
81	0xbb9515b2	-0.0045497054
82	0x3a820f48	0.0009922767
83	0x3ce29f34	0.027663805
84	0x3bfb57f2	0.007670396
85	0x3bfb4e17	0.007669221
86	0x3c64f32d	0.013973993
87	0x3d182eb0	0.0371539
88	0x3b1ebe99	0.0024222492
89	0x3ce10414	0.027467765
90	0x3c878ba7	0.016546084
91	0x3b0304b3	0.0019991815
92	0x3a6ce2ee	0.00090365007
93	0x3c7da99f	0.015482335
94	0xbbc15f8f	-0.005901284
95	0xbc24cff8	-0.010059349
96	0x3cc71678	0.024302706
97	0x3c2cb0a9	0.010540166
98	0x3c60ac8a	0.0137130115
99	0xbba7606b	-0.0051079295
100	0x3ca74de4	0.020422883
101	0x3c45111f	0.012028008
102	0x3b14ab4f	0.0022685116
103	0x3b2afa8c	0.002608928
104	0x3d02cf17	0.031935778
105	0x3a494cd9	0.00076789927
106	0x3b9eb50d	0.0048433603
107	0x3b37a84c	0.0028023897
108	0x3ca5a6ad	0.020221079
109	0x3c68a93b	0.014200504
110	0x3cae0f4d	0.02124753
111	0xbc0f7b2c	-0.008757394
112	0x3c47a0ca	0.012184331
113	0x3bcc9623	0.0062434836
114	0x3ccc0d50	0.024908692
115	0x3c849f98	0.016189381
116	0x3cb8ebbe	0.022573348
117	0xbbe5d03a	-0.007013348
118	0x3baf655a	0.005352658
119	0xbc0bcd67	-0.008532858
120	0x3c8d06be	0.017215129
121	0xbbd1a90d	-0.0063983263
122	0xbb919153	-0.004442373
123	0xbbc0d278	-0.005884465
124	0xbaf3aea3	-0.0018591475
125	0xbae85ae7	-0.0017727286
126	0x3bc6e1e6	0.0060694097
127	0xbb0f1de4	-0.0021837885

action_model._continuous_distribution.log_sigma f4 [1, 2]
0	0xbd49e507	-0.049290683
1	0x3cd4200e	0.025894191

action_model._continuous_distribution.mu.weight f4 [2, 128]
0	0xbd1e6d88	-0.038678676
1	0x3d3771bb	0.044786196
2	0xbd19b6c9	-0.037527833
3	0xba7164a2	-0.0009208416
4	0xbd2ff0e7	-0.04295435
5	0x3d19c1dc	0.037538394
6	0xbd978229	-0.07397873
7	0xbb32994a	-0.0027252012
8	0x3c62f33f	0.01385194
9	0xbbebee3f	-0.007200032
10	0xbd3466bb	-0.044043284
11	0x3d13ed89	0.036115203
12	0x3ba325a9	0.0049788547
13	0x3c14ea3f	0.009089052
14	0x3d221309	0.039568935
15	0x3d4d74cb	0.05016021
16	0xbd83bde6	-0.06432705
17	0x3c9f1bbb	0.019422403
18	0xbba08d90	-0.004899688
19	0x3d4a6a88	0.049418002
20	0x3d45670d	0.04819398
21	0xbd0a4f40	-0.033766985
22	0x3ce0f22b	0.027459225
23	0x3d0260ab	0.03183047
24	0xbcf89083	-0.030342346
25	0xbc3a83fe	-0.011384008
26	0x3bc71861	0.0060759042
27	0x3c06d8b8	0.008230381
28	0x3d501152	0.050797768
29	0x3d2c1158	0.042008728
30	0x3d95543e	0.072914585
31	0xbd0588c4	-0.032601133
32	0x3d6019c6	0.05471208
33	0xbbcbcf23	-0.006219761
34	0xbc1b3f6a	-0.009475568
35	0x3ba0e79e	0.0049104234
36	0x3cc45b3d	0.023969287
37	0x3ce60549	0.028078692
38	0xbd40204a	-0.046905793
39	0xbd77b490	-0.060474932
40	0xbd0c836f	-0.034305032
41	0x3d3374dd	0.04381262
42	0x3cd05991	0.025433334
43	0xbc1cf6f4	-0.009580363
44	0x3c4751b2	0.012165474
45	0x3c583937	0.013197235
46	0xbb93b940	-0.0045081675
47	0xbd2a249b	-0.041538816
48	0xbb5064ed	-0.0031798438
49	0xbd5ccf3c	-0.05390857
50	0x3d26eccb	0.040753167
51	0x3ca2bf77	0.019866688
52	0xbc1dffdb	-0.00964352
53	0xbdbdf69c	-0.09275553
54	0xbd7399b8	-0.05947277
55	0x3c556277	0.013023964
56	0x3c92a008	0.017898574
57	0xbc186d6d	-0.009303433
58	0x3d29ec08	0.041484863
59	0x3cb1629f	0.021653472
60	0xbb567792	-0.0032725078
61	0x3d8ebc45	0.06969503
62	0xbc74da02	-0.014944555
63	0x3d30ffad	0.04321258
64	0x3bb5c66f	0.005547337
65	0xbda12932	-0.078691855
66	0x3c3b32ce	0.011425687
67	0xbc6841cf	-0.014175846
68	0xbd86aab5	-0.065755285
69	0x3d453200	0.048143387
70	0x3d721b14	0.059107855
71	0x3cda5b77	0.026654942
72	0x3cfc2353	0.030778563
73	0x3c900ae5	0.01758332
74	0x3cd770ea	0.026298959
75	0x3d637a59	0.0555366
76	0x3cab4b0e	0.020909812
77	0xbd1702ad	-0.036867786
78	0xbceb4a6d	-0.028722012
79	0x3d940e4f	0.07229292
80	0xbc74cac5	-0.014940922
81	0x3b708384	0.0036699483
82	0xbcc82a9b	-0.024434378
83	0x3d6baec6	0.057539724
84	0xbd8eafc9	-0.06967122
85	0x3cd738b7	0.026272161
86	0xbc9f9936	-0.019482236
87	0x3d7c9310	0.061663687
88	0x3c80714c	0.015679024
89	0x3c661f98	0.0140456185
90	0xbd2d00f5	-0.04223724
91	0xbd067559	-0.032826755
92	0xbcbd13e2	-0.02308077
93	0xbd1253df	-0.035724517
94	0xbc4ffdac	-0.012694757
95	0xbbeac194	-0.0071641896
96	0x3d4212fc	0.047381386
97	0x3ac76c36	0.0015214744
98	0x3d42cb97	0.04755744
99	0xbce955b2	-0.028483246
100	0xbd8a7638	-0.0676083
101	0xbc9326c3	-0.017962819
102	0xbcd10ee5	-0.025519798
103	0xbb4fc88a	-0.0031705224
104	0x3d22c76a	0.039740957
105	0x3c33c15b	0.0109713925
106	0xbd14a869	-0.03629342
107	0x3c368b2e	0.011141581
108	0x3cc2ac01	0.023763658
109	0xbd5cc1a6	-0.053895615
110	0x3c00f845	0.007871692
111	0xbc4ead8e	-0.012614621
112	0xbd0c85a5	-0.03430714
113	0xbd14ced9	-0.036330078
114	0xbd5a74f4	-0.05333419
115	0x3d5315fd	0.05153464
116	0x3d31b1c7	0.043382432
117	0x3b6e7649	0.0036386421
118	0x3ca127f7	0.019672377
119	0xbc8b4122	-0.016998831
120	0x3cf44e9c	0.02982264
121	0xbcf7a8b6	-0.030231815
122	0x37b0ea99	2.1090078e-05
123	0xbcdd5610	-0.027018577
124	0xbc61da16	-0.013784906
125	0xbceef736	-0.029170614
126	0x3ca90826	0.020633768
127	0xbb9d84d3	-0.0048070936
128	0xbbb0d36a	-0.0053962963
129	0x3bff2405	0.0077862763
130	0xbc457bf4	-0.0120534785
131	0x3c022e88	0.007945664
132	0xbc855e1e	-0.01628023
133	0x3c92ad0d	0.017904783
134	0x3c21c20e	0.009872926
135	0xbc27ccaa	-0.010241667
136	0xbc8ddf14	-0.017318286
137	0xbc9e4069	-0.019317823
138	0xbcd36210	-0.025803596
139	0xbc1a19ca	-0.009405563
140	0x3a9ffa42	0.001220532
141	0x3c8e7747	0.01739086
142	0xbb034279	-0.0020028634
143	0xbbdd09a3	-0.0067455336
144	0x3af03890	0.0018327404
145	0x3d4d9db0	0.05019921
146	0x3c1d230f	0.009590878
147	0x3d14a761	0.036292437
148	0x3ce5d295	0.028054515
149	0x3c59f25a	0.01330241
150	0x3c74c1c2	0.014938774
151	0x3c223d02	0.009902241
152	0xbb6b5d55	-0.0035913785
153	0xbc8a2f81	-0.016868355
154	0x3a1409c7	0.0005647209
155	0xbc1bbbd4	-0.009505231
156	0xbb2f7a45	-0.002677576
157	0xbcb3a827	-0.021930767
158	0xbc9fdc33	-0.019514179
159	0x3b4aa5de	0.0030921618
160	0xbc1d2fd0	-0.009593919
161	0x3ce8fc37	0.028440578
162	0x3ae593d6	0.0017515372
163	0xbd197026	-0.03746047
164	0xbcb76c9a	-0.022390652
165	0xbca4d899	-0.020122813
166	0xbb39bd7a	-0.0028341697
167	0xbce9db04	-0.028546818
168	0x3c26a79c	0.010171797
169	0x3ce62f12	0.028098617
170	0x3d191fc3	0.037383806
171	0xb9c73b99	-0.00038000642
172	0x3c4047de	0.0117358845
173	0x3c20257a	0.00977456
174	0xbccb0288	-0.02478148
175	0x3ca68a50	0.020329624
176	0x3ca87338	0.020562753
177	0xbb97cd3b	-0.0046326197
178	0x3d05b7fe	0.03264617
179	0xbbd109d9	-0.0063793478
180	0xbb454d4c	-0.0030105887
181	0x3bae3f84	0.0053176302
182	0xbb660a7c	-0.0035101464
183	0x3d3b5802	0.045738228
184	0xbc947e50	-0.018126637
185	0x3cdb8f32	0.02680168
186	0xbbbf435d	-0.0058368878
187	0xbba95d2e	-0.0051685786
188	0x3c844087	0.01614405
189	0xbc107531	-0.008817003
190	0xbcc6ffe1	-0.024291934
191	0xbbadda0c	-0.005305534
192	0x3ce8a130	0.028397173
193	0x3a80ddb3	0.0009831697
194	0x3d345f64	0.044036284
195	0x3b94fa3a	0.004546431
196	0x3a802f11	0.0009779652
197	0xb8bffe21	-9.154925e-05
198	0x3c87fc75	0.016599873
199	0x3c89d7ca	0.016826529
200	0xbb2f2e2d	-0.0026730404
201	0x3cd6eb00	0.026235104
202	0xbcc84166	-0.024445247
203	0x3bcd081a	0.0062570693
204	0x3cd6dbd2	0.026227865
205	0x3c6a788d	0.014310968
206	0xbb532dad	-0.003222327
207	0x3c43deac	0.011954945
208	0x3c8e1892	0.0173457
209	0x3cabebf8	0.020986542
210	0xbc614de7	-0.0137514835
211	0xbc214c78	-0.009844892
212	0x3a174a60	0.00057712756
213	0x3d40a77e	0.047034733
214	0xbd073efe	-0.03301906
215	0x3ca92a91	0.02065018
216	0x3c248fd9	0.010044062
217	0x3c685e46	0.014182633
218	0xba8d5d99	-0.001078534
219	0x3b06e6b1	0.002058428
220	0xbb2f7eda	-0.002677849
221	0xbd0d5ad9	-0.034510467
222	0x3a88f932	0.0010450243
223	0x39eb5afc	0.00044890482
224	0xbc273513	-0.010205525
225	0xbd820e56	-0.063503906
226	0xbcbf660b	-0.023364088
227	0xbc062f31	-0.008189962
228	0x3b91afcb	0.004446005
229	0xbcd41af4	-0.025891759
230	0x3b36d576	0.0027898229
231	0xbc7ae418	-0.015313171
232	0xbbe39580	-0.006945312
233	0xbc9b0dd7	-0.018927498
234	0xbc2f2664	-0.010690305
235	0xbb223d36	-0.0024755723
236	0x3c85d4ff	0.016336916
237	0xbc919d45	-0.017775187
238	0xbcb3eff3	-0.021965003
239	0x3b832700	0.004002452
240	0xbd74b2ac	-0.059740707
241	0x3b8292f6	0.0039848043
242	0xbb0fbd6a	-0.0021932968
243	0x3993e298	0.0002820685
244	0xbbb7bb39	-0.0056070355
245	0x3bcf3d83	0.0063244714
246	0x3a7a5c29	0.0009550476
247	0x3ccb275b	0.02479904
248	0xbc8a5e64	-0.016890712
249	0x3cd8fa17	0.02648644
250	0x3d092797	0.03348502
251	0xbb027a77	-0.001990942
252	0xbbe420c3	-0.0069619133
253	0x3c6485e1	0.013947935
254	0xbaa7b1ea	-0.0012794111
255	0xbc8f69e5	-0.01750655

action_model._continuous_distribution.mu.bias f4 [2]
0	0x3adbaa6b	0.0016759163
1	0xbbb94db3	-0.0056550144

action_model._discrete_distribution.branches.0.weight f4 [1, 128]
0	0xbc9dfb7f	-0.019284962
1	0x3bcb2a25	0.0062000924
2	0xbc0c901b	-0.008579279
3	0xb9ef7c3f	-0.00045678203
4	0x3c3cb77c	0.011518355
5	0x3c0a7cb7	0.008452586
6	0xbc4f6bf3	-0.012660014
7	0xb9face6a	-0.00047837506
8	0x3c46585a	0.012106026
9	0xbce48547	-0.027895583
10	0xba7d81dd	-0.0009670535
11	0xbb851058	-0.004060786
12	0xbb44ff81	-0.0030059519
13	0xbbda622d	-0.0066645355
14	0xb992e3e6	-0.00028017088
15	0x3b523b97	0.0032078975
16	0xbb42da57	-0.0029732191
17	0x3a6b90c0	0.0008986108
18	0x3c6c856a	0.014436105
19	0x3c46e9c3	0.012140694
20	0x3c7ff732	0.015622901
21	0xbc465972	-0.012106286
22	0x3a9dc3ab	0.0012036463
23	0xbb2a706b	-0.0026006948
24	0x3c6f6bc8	0.014613099
25	0xbbc2da91	-0.0059464653
26	0xbb3e92ff	-0.0029079316
27	0xbbe4e0b8	-0.0069847964
28	0x3c33bbf6	0.010970106
29	0x3bc87d00	0.006118417
30	0x3bc08451	0.0058751483
31	0x3b205efc	0.0024470678
32	0xbc564ae0	-0.013079375
33	0x3c057fc1	0.008148135
34	0xbb501630	-0.0031751506
35	0x3c14cbb9	0.009081774
36	0xbc7b9fb5	-0.015357901
37	0xbb957bdd	-0.004561885
38	0xba63baa2	-0.0008687173
39	0x3bf8c2f7	0.007591601
40	0xbcac145d	-0.021005804
41	0xbc73cbf0	-0.014880165
42	0xbbcaa4f7	-0.006184216
43	0x3c2e1297	0.010624549
44	0x3b956344	0.0045589525
45	0x3b43db80	0.002988547
46	0xbb688423	-0.003547915
47	0xbb92f27d	-0.0044844733
48	0x3a670380	0.0008812472
49	0xbc9f0f50	-0.019416481
50	0xbc7ca4ba	-0.015420133
51	0x3c52e43a	0.012871796
52	0xbb8adec7	-0.004237983
53	0xbc0c015d	-0.008545247
54	0xbb961d73	-0.0045811473
55	0x3c47ce4f	0.012195184
56	0xbb47d3b3	-0.0030491173
57	0x3c4091f5	0.011753549
58	0xbbbe8ed4	-0.0058153663
59	0xbb6f3513	-0.003650014
60	0x3bad4889	0.005288188
61	0xbc377569	-0.011197426
62	0xbb192f15	-0.002337401
63	0x3cb2101c	0.021736197
64	0xbcc92b30	-0.024556726
65	0xbb8adb70	-0.004237585
66	0x3bf3a4d5	0.007435421
67	0xbc23c3b5	-0.009995391
68	0xbba912a8	-0.0051596947
69	0x3c8ba4b8	0.017046317
70	0xbbf50795	-0.0074777105
71	0x3b6773cd	0.0035316825
72	0xbbbd9ee8	-0.0057867654
73	0xbc42468b	-0.011857639
74	0x3b918e3a	0.0044420036
75	0x3923bd4b	0.00015615408
76	0x3a95f72b	0.001144146
77	0xb9d0f80d	-0.00039857664
78	0xbca74cc3	-0.020422345
79	0xbbc25957	-0.0059310603
80	0xbba2b277	-0.0049651223
81	0x3bf38e1f	0.0074327136
82	0x3bc861df	0.006115183
83	0x3cd871c8	0.026421443
84	0x3a53766b	0.0008066657
85	0x3a820869	0.0009920719
86	0x3ae6987b	0.001759305
87	0x3c4f56f3	0.012655008
88	0xbb8e9d57	-0.0043522525
89	0x3ca34f45	0.01993526
90	0xbb4c9186	-0.0031214668
91	0x3bc4427b	0.0059893704
92	0xbb4557f7	-0.0030112246
93	0xbc88d65f	-0.016703783
94	0x3b76526b	0.0037585746
95	0x3bb3bcd9	0.005485159
96	0xbb46555d	-0.0030263283
97	0x3c16e987	0.009210951
98	0x3bc852ea	0.0061133998
99	0x3bed279b	0.0072373874
100	0x3b3f738d	0.002921316
101	0xbc3b8a4c	-0.011446547
102	0x3b68dc37	0.003553165
103	0x3b889252	0.0041678334
104	0xbc827fa4	-0.015930004
105	0x3c1385c0	0.009004056
106	0xbcb893d6	-0.022531431
107	0xbc08871f	-0.008332997
108	0xbc2cf0d3	-0.010555464
109	0xba79c76d	-0.0009528313
110	0xbc9fe068	-0.019516185
111	0xbb6562fb	-0.0035001624
112	0xbae82708	-0.0017711828
113	0x3be2bd10	0.0069195107
114	0xbc59ad7d	-0.013285992
115	0x3c217b54	0.009856064
116	0x3b9d18f6	0.0047942353
117	0xbc46a9c2	-0.012125434
118	0xbbe9aa08	-0.007130865
119	0x3b59a95a	0.0033212514
120	0x3b83a561	0.0040175174
121	0x3c30544b	0.0107622845
122	0x3b96dbfa	0.00460386
123	0xbc4927b0	-0.012277529
124	0xbb8ca57f	-0.0042921896
125	0xbc7a95ab	-0.015294473
126	0xb91c00fb	-0.00014877685
127	0xbc417231	-0.0118070105
