Lofty2024/results/MoveToPlayerTurn/MoveToPlayer/MoveToPlayer-499942.onnx (onnx, 78290 bytes, 8 tensors)

network_body._body_endoder.seq_layers.0.weight f4 [128, 6]
-0.80037373 -0.19746345 0.6792019 -0.5163583 0.11734313 0.3114606 0.12921156 -0.29461533
-0.5444713 -0.35553864 0.49721512 0.15413642 -0.60395545 0.37567326 0.7218871 -0.41469792
0.31420052 -0.74672747 0.44110915 0.10080043 -0.4058667 0.3492715 0.62054735 0.3550841
-0.14933723 0.07990517 0.26653087 0.061939195 0.3064345 0.25752205 -0.90236473 -0.2522569
-0.020911807 0.01239341 0.20955792 -0.035243396 -0.15095073 0.28023458 0.069861434 -0.30643675
0.35844156 -0.87341833 -0.21557912 0.16313376 0.24799933 -0.3201186 0.18788426 -0.26749197
-0.3127808 0.21257319 0.5883573 0.11268795 -0.31200138 -0.023605585 1.127782 -0.1461777
0.30579382 -0.62806964 -0.8886631 0.071177594 0.6070223 -0.06186447 -0.36996257 -0.5736215
0.020620016 0.22425751 -0.2978227 0.17206137 -0.39130777 0.29534814 0.5681611 -0.10923458
0.06547033 -0.9216419 0.8581908 0.37646276 0.20623724 -0.1204316 -0.9770417 -0.10350546
-0.28010905 -0.008170037 0.010108182 -0.65128255 -0.72664994 0.06701762 -0.70962465 0.555723
0.06257835 -0.49042788 0.07381225 0.53114146 0.5673787 0.31397375 -0.49712557 0.041449558
-0.1528193 -0.2790546 0.46292397 -0.07312752 0.8415581 -0.8842087 0.3556506 0.9518938
-0.04429448 0.9473924 -0.77051437 -0.03426502 0.41430652 0.22215596 0.9064603 -0.63704413
-0.8669634 -0.6943375 -0.4866325 0.14798285 -0.57554674 -0.077855766 -0.033142485 0.24767561
-0.12617463 -0.11895381 0.81934935 -0.7193211 -0.33132315 -0.024441913 0.6242307 -0.04679404
-0.51243424 -0.124489136 -0.46435934 0.045143437 -0.19830771 -0.6607181 0.21221648 -0.2004086
0.19227149 -0.6338886 -0.5499557 -1.1045351 -0.14687805 0.33178633 0.1705799 0.21129914
-0.31653485 0.3969173 -0.39291972 0.321791 0.34957603 0.48936474 -0.22781317 -0.20276445
-0.36548883 -0.13194187 -0.07183061 -0.4688242 -0.5337615 0.46088386 0.95632195 0.038638692
0.85221905 -0.22271919 0.9535241 -0.696341 0.26135802 0.3915226 0.6063779 -0.75702286
-0.42937717 0.1063444 0.47781977 0.28368747 -0.31124038 -0.58927697 0.17182186 -0.4804542
0.66129225 0.35034335 0.53458494 0.018004812 -0.14224693 -0.20522787 0.59684837 -0.3830629
0.47934029 0.17956842 -0.9089772 -0.14102119 -0.10011681 0.49550322 0.31881872 -0.77333075
-0.5436769 0.49800986 0.14974488 0.80425036 0.62008506 -0.65367985 0.8619451 0.24746862
-0.650216 0.23788889 0.1313726 0.17577678 -0.23775294 -0.039285865 -0.4004448 -0.6793431
0.9864742 0.5910676 -1.2062229 0.64958245 0.048108056 -0.03836528 0.66152966 0.20748603
-0.23583944 0.49513933 -0.6227908 -0.20067677 -0.017723095 0.14462166 0.42205033 -0.21825652
0.2955893 -0.1641847 -0.11841453 0.85340446 -1.1479648 0.28718737 -0.72041935 0.160289
0.15333699 -0.18956129 -0.28390867 -0.010505543 0.20560205 0.16781749 0.29913035 -0.30749953
-0.18716565 0.15593322 -0.35060215 -0.0551853 -0.39242718 0.6431447 0.14341807 0.27576134
0.36287448 0.15826637 -0.017571354 0.14197378 0.44404045 -0.42631683 0.143031 0.30633676
00000000: 4be5 4cbf dc33 4abe 2de0 2d3f 0f30 04bf
00000010: 9851 f03d c477 9f3e 0950 043e d2d7 96be
00000020: 7962 0bbf 2909 b6be fb92 fe3e f0d5 1d3e
00000030: d39c 1abf 3f58 c03e 98cd 383f 4953 d4be
00000040: e4de a03e 8829 3fbf 0fd9 e13e 7570 ce3d
00000050: c3cd cfbe b7d3 b23e 31dc 1e3f 95cd b53e
00000060: dceb 18be 52a5 a33d bc76 883e f4b3 7d3d
00000070: fce4 9c3e eed9 833e 6001 67bf d127 81be
00000080: 3d4f abbc bb0d 4b3c 5a96 563e 615b 10bd
00000090: d492 1abe e87a 8f3e 8313 8f3d 47e5 9cbe
000000a0: a785 b73e 5898 5fbf c6c0 5cbe 890c 273e
000000b0: 89f3 7d3e 96e6 a3be bb64 403e b5f4 88be
000000c0: ce24 a0be c9ac 593e 969e 163f f1c8 e63d
000000d0: a5be 9fbe 8060 c1bc 295b 903f 9baf 15be
000000e0: 0291 9c3e 2cc9 20bf 6d7f 63bf 8fc5 913d
000000f0: d065 1b3f 9965 7dbd bc6b bdbe dcd8 12bf
00000100: 4feb a83c c3a3 653e 387c 98be db30 303e
00000110: 7e59 c8be df37 973e 0173 113f 61b6 dfbd
00000120: 4f15 863d b9f0 6bbf 64b2 5b3f babf c03e
00000130: db2f 533e d8a4 f6bd 681f 7abf acfa d3bd
00000140: 746a 8fbe 9edb 05bc ca9c 253c 74ba 26bf
00000150: bb05 3abf 8940 893d f6a9 35bf dd43 0e3f
00000160: 1429 803d 5d19 fbbe e02a 973d e3f8 073f
00000170: bb3f 113f 2bc1 a03e 3e87 febe 03c7 293d
00000180: aa7c 1cbe 3fe0 8ebe 5f04 ed3e e2c3 95bd
00000190: 5a70 573f 805b 62bf d617 b63e 50af 733f
000001a0: 216e 35bd 4f88 723f 6e40 45bf 7a59 0cbd
000001b0: fc1f d43e da7c 633e c80d 683f 5315 23bf
000001c0: 50f1 5dbf 1ac0 31bf e527 f9be d188 173e
000001d0: 0857 13bf d872 9fbd 6ac0 07bd ad9e 7d3e
000001e0: ec33 01be 0e9e f3bd e1c0 513f 6d25 38bf
000001f0: 30a3 a9be 683a c8bc 95cd 1f3f 1bab 3fbd
00000200: e42e 03bf 29f4 febd 82c0 edbe 53e8 383d
00000210: 2d11 4bbe d224 29bf 474f 593e e937 4dbe
00000220: d1e2 443e 8646 22bf e6c9 0cbf 6861 8dbf
00000230: 3367 16be e6df a93e 7fac 2e3e cd5e 583e
00000240: db10 a2be bf38 cb3e c62c c9be cac1 a43e
00000250: a1fb b23e 048e fa3e db47 69be 7ca1 4fbe
00000260: 5a21 bbbe c51b 07be ed1b 93bd ba09 f0be
00000270: 98a4 08bf f8f8 eb3e 84d1 743f 9b43 1e3d
00000280: 072b 5a3f 8010 64be 281a 743f 6743 32bf
00000290: b8d0 853e a675 c83e 953b 1b3f 40cc 41bf
000002a0: 53d7 dbbe 18cb d93d cba4 f43e 7c3f 913e
000002b0: e65a 9fbe dbda 16bf 12f2 2f3e 18fe f5be
000002c0: 734a 293f 3460 b33e 8fda 083f d47e 933c
000002d0: 2ea9 11be 4127 52be 0ecb 183f d220 c4be
000002e0: 176c f53e c9e0 373e bbb2 68bf dc67 10be
000002f0: 0b0a cdbd 99b2 fd3e 353c a33e 01f9 45bf
00000300: 692e 0bbf 26fb fe3e b956 193e 5ae3 4d3f
00000310: e5bd 1e3f 9057 27bf 6fa8 5c3f 6a68 7d3e
00000320: 8e74 26bf 2599 733e 8a86 063e d4fe 333e
00000330: 8275 73be 37ea 20bd 1a07 cdbe 6ee9 2dbf
00000340: 9389 7c3f 3550 173f 8365 9abf 094b 263f
00000350: f40c 453d e924 1dbd 025a 293f 3877 543e
00000360: e57f 71be e782 fd3e 386f 1fbf 367e 4dbe
00000370: 0630 91bc b317 143e fb16 d83e a37e 5fbe
00000380: 7b57 973e 0920 28be 5183 f2bd b778 5a3f
00000390: 83f0 92bf 390a 933e 676d 38bf cd22 243e
000003a0: 5f04 1d3e 5b1c 42be 7a5c 91be 711f 2cbc
000003b0: 5889 523e 59d8 2b3e 9d27 993e 9470 9dbe
000003c0: 5aa8 3fbe f5ac 1f3e 2082 b3be fb09 62bd
000003d0: 37ec c8be 22a5 243f 30dc 123e 9730 8d3e
000003e0: afca b93e 9410 223e cdf1 8fbc 9361 113e
000003f0: 4559 e33e 3346 dabe b876 123e 2cd8 9c3e

network_body._body_endoder.seq_layers.0.bias f4 [128]
0.021792132 -0.003501394 0.0035901011 0.007829354 0.00036410574 0.025519077 0.009940636 0.024225745
-0.0041244156 -0.004091927 0.022372711 0.032072436 -0.016585555 0.01230236 0.0007475382 0.0015027144
0.014380909 0.0053503136 -0.032095313 0.03261496 0.024664868 0.017480198 0.030297535 0.072479025
-0.011654484 0.011929231 -0.004251736 0.0076327827 0.0065729455 -0.013671048 0.033312194 0.011791501
0.0019132145 -0.011622001 -0.012384369 0.03655781 0.025662553 -0.0077308896 0.06483164 0.02755012
-0.012845321 0.026806619 0.018857878 0.021125155 0.01884299 0.030436866 0.01901951 -0.032080874
0.0009028758 -0.0012577882 -0.009257326 0.022298232 -1.892881e-05 -0.025592456 0.018881753 -0.005943324
0.004615141 0.026654093 -0.0010989862 0.0016604514 -0.00871574 0.02275625 -0.015280886 0.040294003
-0.01721585 0.0008749327 0.00023563037 0.05592103 0.002869714 0.01971058 0.02057271 0.018828176
0.011234645 0.038481165 0.022981487 -0.00086155324 0.03879493 0.012981944 0.0083416775 0.0029174462
-0.009075539 -0.008798337 -0.04709166 0.010615836 0.026821384 0.019614693 0.020743875 -0.02405646
0.04499553 -0.00994973 0.019021489 0.09064801 -0.009740002 0.02684629 0.0168636 -0.024552302
0.00873977 -0.0067937947 0.012539062 0.00978317 -0.00125351 -0.014134963 0.038549405 0.015793577
0.008446938 -0.011401787 -0.01798839 -0.004212996 -0.0033657495 -0.005852052 -0.0073775416 -0.00090747856
0.01951693 0.01852764 0.0020863663 0.062463567 0.017454859 0.01711886 -0.015958024 0.0022188763
0.02992218 -0.0319284 0.021388497 0.009146497 0.021365454 -0.01583261 0.012523542 0.01645025
00000000: 6a85 b23c a577 65bb e747 6b3b b146 003c
00000010: 72e5 be39 620d d13c 0dde 223c 1275 c63c
00000020: 1b26 87bb 9215 86bb fa46 b73c 635e 033d
00000030: 6ede 87bc d68f 493c 70f6 433a baf6 c43a
00000040: e79d 6b3c af51 af3b 6076 03bd 4497 053d
00000050: fa0d ca3c a232 8f3c 8932 f83c e26f 943d
00000060: 73f2 3ebc d272 433c 2652 8bbb 6c1c fa3b
00000070: dd61 d73b 88fc 5fbc 5e72 083d 2431 413c
00000080: d3c4 fa3a 356a 3ebc cfe7 4abc a4bd 153d
00000090: 463a d23c 6753 fdbb 73c6 843d cab0 e13c
000000a0: 2e75 52bc 8e99 db3c d67b 9a3c a90e ad3c
000000b0: 9d5c 9a3c bc56 f93c cece 9b3c 3c67 03bd
000000c0: f8ae 6c3a 5edc a4ba 0aac 17bc c8aa b63c
000000d0: 4fc9 9eb7 45a7 d1bc e8ad 9a3c 37c0 c2bb
000000e0: 9c3a 973b af59 da3c dc0b 90ba 81a3 d93a
000000f0: 77cc 0ebc 516b ba3c ae5c 7abc 530b 253d
00000100: 4108 8dbc bd5b 653a 8c13 7739 730d 653d
00000110: d011 3c3b 1578 a13c 1a88 a83c 8c3d 9a3c
00000120: 8411 383c 6d9e 1d3d ac43 bc3c dcd9 61ba
00000130: 6fe7 1e3d 38b2 543c 88ab 083c a032 3f3b
00000140: 92b1 14bc e626 10bc 2fe3 40bd 0bee 2d3c
00000150: 85b8 db3c feae a03c 0fef a93c 0e12 c5bc
00000160: 3c4d 383d 3104 23bc f4d2 9b3c aaa5 b93d
00000170: 8894 1fbc c0ec db3c 8825 8a3c e921 c9bc
00000180: 4131 0f3c 7b9e debb a370 4d3c 9749 203c
00000190: d14c a4ba 5596 67bc fbe5 1d3d 8861 813c
000001a0: 0765 0a3c 90ce 3abc 635c 93bc 2c0d 8abb
000001b0: e893 5cbb 92c2 bfbb 4ebf f1bb dbe3 6dba
000001c0: f8e1 9f3c 47c7 973c 6bbb 083b ccd9 7f3d
000001d0: 7efd 8e3c da3c 8c3c 67ba 82bc 916a 113b
000001e0: 5c1f f53c 5bc7 02bd ee36 af3c 30db 153c
000001f0: 9b06 af3c 64b3 81bc 8b2f 4d3c adc2 863c

network_body._body_endoder.seq_layers.2.weight f4 [128, 128]
-0.12939875 -0.029900696 0.035759304 -0.047825307 -0.037600555 -0.010968567 0.06425274 0.04312785
-0.00935812 0.21178944 0.029102884 0.010387583 0.009433532 0.12851526 -0.0019502376 -0.014257913
-0.013405041 0.063905105 -0.00014815152 0.019057035 -0.11701275 0.03143602 0.015519039 -0.08095111
-0.04273114 0.019985715 0.036742624 0.04969587 0.07712295 -0.026897794 -0.19597419 0.020745436
0.08162384 -0.08172923 0.046832133 0.14694478 -0.011589754 0.06480056 0.03257824 -0.06602681
-0.1067441 -0.21030103 0.09449984 -0.10498445 -0.11321767 -0.018546034 -0.088985115 -0.090231836
-0.045494154 0.06382393 0.084531054 -0.03168483 0.104480505 0.05635648 0.019636491 0.10681398
0.004882201 0.13860542 -0.18086083 -0.043919623 0.00019510987 0.028880691 0.08638025 -0.104150854
0.13459104 0.13988778 0.022932416 0.12108479 0.055704292 -0.11569289 0.029289136 0.03516835
-0.098247215 0.06857022 0.108792536 -0.016718725 -0.14330244 0.05991513 -0.040310625 -0.0006451791
0.048632205 -0.120996244 -0.020595273 0.011123207 0.21382481 -0.020593153 0.06932986 -0.0701774
-0.040891703 0.010155973 -0.12161162 -0.028956477 -0.008621596 0.077222064 0.13168 0.024922248
0.11649292 0.017766263 -0.047364283 -0.12627177 0.042964865 0.026585296 0.09567185 -0.105155356
0.18976018 -0.0072724214 0.015800685 0.18120784 -0.046870008 0.022938682 -0.050764628 -0.0077527557
0.04762808 0.0605243 -0.009512121 -0.028952971 0.022892771 -0.17632596 -0.0019374869 -0.015955474
0.031196462 -0.06045893 -0.12538515 -0.15459909 0.10428386 0.051522586 0.014590803 0.05957656
0.02506517 0.008977405 -0.050070096 0.0049484894 0.019551963 -0.13067453 0.15190333 -0.033803165
0.0014516619 -0.18237932 -0.021046443 -0.03969479 0.086892076 0.07146437 0.07823 0.014584411
-0.06015181 -0.1091831 -0.060431994 -0.14085935 0.00687966 -0.09279234 0.0530688 -0.077989295
0.15818548 -0.025699474 0.017587792 -0.028043212 0.12525414 -0.103268705 -0.06718791 0.25811625
-0.055689584 -0.12370022 0.02975964 -0.07944288 0.004849205 0.07156029 -0.06583613 -0.019481564
-0.067223065 0.16427614 0.032057494 0.093277454 0.07277321 0.119368225 -0.008613565 -0.0053774444
0.068385266 -0.047323488 -0.25749522 0.0668618 -0.10164252 0.1068913 -0.08771882 -0.0974857
0.044108838 0.08511896 -0.06827376 -0.0590362 -0.035540186 0.11931521 0.018441882 -0.00096957467
-0.031323247 0.1127109 0.014614352 -0.033997316 0.10255902 -0.029132724 -0.1194549 -0.025651267
-0.08970164 -0.10909776 0.021857683 -0.017348105 -0.052833416 -0.008982085 -0.02372905 0.036748588
-0.08640433 -0.16117902 -0.0038876988 -0.06690917 0.12294693 -0.017973294 -0.08976401 -0.040567566
0.06260874 0.02767216 0.004210058 -0.03599267 0.11684861 -0.07595118 0.13231932 0.07675663
0.12288836 0.0023177457 0.0777489 -0.088502415 0.07574924 -0.019352932 -0.09106631 0.018346282
-0.05309069 0.14016633 0.111872494 0.104396224 0.1364954 0.11762493 -0.090452924 -0.09698374
-0.0325363 0.047926296 0.06771194 -0.14340372 0.057518523 -0.06872653 0.08394206 -0.024609145
-0.043302305 0.017164795 -0.04672654 -0.103940845 0.13391596 -0.013812325 -0.021853432 -0.051835567
00000000: 1b81 04be 4ef2 f4bc 5978 123d 78e4 43bd
00000010: 0a03 1abd 81b5 33bc f196 833d d4a6 303d
00000020: cd52 19bc 55df 583e 2c69 ee3c ae30 2a3c
00000030: 1a8f 1a3c 8199 033e 1d9f ffba 069a 69bc
00000040: d1a0 5bbc aee0 823d 1f59 1bb9 801d 9c3c
00000050: 61a4 efbd 0ec3 003d 9143 7e3c b2c9 a5bd
00000060: d906 2fbd 15b9 a33c 6f7f 163d e68d 4b3d
00000070: a3f2 9d3d c358 dcbc 75ad 48be 55f2 a93c
00000080: 662a a73d a861 a7bd 0dd3 3f3d b178 163e
00000090: f4e2 3dbc 28b6 843d c370 053d 1039 87bd
000000a0: a79c dabd 2759 57be 2289 c13d 1602 d7bd
000000b0: aade e7bd daed 97bc d43d b6bd 78cb b8bd
000000c0: 1458 3abd 1fb6 823d 9e1e ad3d f4c7 01bd
000000d0: e0f9 d53d 0dd6 663d b5dc a03c 4ac1 da3d
000000e0: dffa 9f3b 94ee 0d3e 9533 39be 10e5 33bd
000000f0: 6896 4c39 3397 ec3c 21e8 b03d 0b4d d5bd
00000100: 3cd2 093e be3e 0f3e c3dc bb3c 4dfb f73d
00000110: 2f2a 643d 65f0 ecbd c5ef ef3c b00c 103d
00000120: d635 c9bd 8b6e 8c3d 9fce de3d b5f5 88bc
00000130: e0bd 12be 9169 753d c11c 25bd 3d21 29ba
00000140: 9032 473d e1cc f7bd 6bb7 a8bc 1d3e 363c
00000150: e4f4 5a3e f9b2 a8bc d0fc 8d3d 2bb9 8fbd
00000160: 0f7e 27bd 3d65 263c 830f f9bd 2236 edbc
00000170: 9841 0dbc 9a26 9e3d 1fd7 063e be29 cc3c
00000180: d793 ee3d 8e8a 913c 0d01 42bd 634d 01be
00000190: edfb 2f3d 68c9 d93c 9aef c33d b15b d7bd
000001a0: 7e50 423e 7e4d eebb 7070 813c 8c8e 393e
000001b0: c4fa 3fbd e7e9 bb3c 92ee 4fbd d40a febb
000001c0: a915 433d 54e8 773d bad8 1bbc c82e edbc
000001d0: 9f89 bb3c cb8e 34be 46f3 fdba 0eb5 82bc
000001e0: b98f ff3c c8a3 77bd f764 00be 394f 1ebe
000001f0: c792 d53d 5909 533d 430e 6f3c 8d06 743d
00000200: 7955 cd3c f715 133c 4d16 4dbd f026 a23b
00000210: 702b a03c 8bcf 05be 8c8c 1b3e 3075 0abd
00000220: b145 be3a a5c1 3abe 9769 acbc 0197 22bd
00000230: 79f4 b13d e95b 923d 0d37 a03d 74f3 6e3c
00000240: bf61 76bd 649b dfbd 8a87 77bd 6f3d 10be
00000250: c56e e13b e909 bebd ac5e 593d dab8 9fbd
00000260: 60fb 213e b487 d2bc 4614 903c e1ba e5bc
00000270: 9f42 003e 8b7e d3bd d199 89bd d027 843e
00000280: c31a 64bd 8a56 fdbd 7dca f33c f3b2 a2bd
00000290: 14e6 9e3b 348e 923d 18d5 86bd cd97 9fbc
000002a0: 3fac 89bd 0138 283e b84e 033d 4008 bf3d
000002b0: 1f0a 953d 5477 f43d e91f 0dbc 4635 b0bb
000002c0: 930d 8c3d 46d6 41bd 6ad6 83be d7ee 883d
000002d0: f429 d0bd d3e9 da3d eda5 b3bd 95a6 c7bd
000002e0: 78ab 343d d952 ae3d 1dd3 8bbd f1cf 71bd
000002f0: 9692 11bd 885b f43d 6e13 973c 0e2b 7eba
00000300: ce4c 00bd f9d4 e63d 0971 6f3c c540 0bbd
00000310: 770a d23d c0a7 eebc c5a4 f4bd 9b22 d2bc
00000320: 7eb5 b7bd a56e dfbd e20e b33c 9d1d 8ebc
00000330: da67 58bd 9829 13bc 6d63 c2bc b085 163d
00000340: c1f4 b0bd 1d0c 25be c3c8 7ebb ad07 89bd
00000350: 9acb fb3d bb3c 93bc 31d6 b7bd 2d2a 26bd
00000360: 0339 803d bab0 e23c 87f4 893b 0d6d 13bd
00000370: 534e ef3d 4b8c 9bbd b77e 073e 9432 9d3d
00000380: e4ac fb3d 52e5 173b d13a 9f3d c140 b5bd
00000390: 6b22 9b3d 0a8a 9ebc f980 babd f14a 963c
000003a0: a075 59bd c387 0f3e 681d e53d b0cd d53d
000003b0: 73c5 0b3e 57e5 f03d 623f b9bd 699f c6bd
000003c0: c944 05bd 5d4e 443d 8fac 8a3d 6dd8 12be
000003d0: 8b98 6b3d 7fc0 8cbd d1e9 ab3d 1e99 c9bc
000003e0: c25d 31bd 2f9d 8c3c 5464 3fbd f0de d4bd
000003f0: 4421 093e 174d 62bc f805 b3bc 8851 54bd

network_body._body_endoder.seq_layers.2.bias f4 [128]
-0.0022193722 0.0015765395 0.002449305 -0.0035427066 3.6252789e-06 0.010664061 0.004301975 -0.005939986
0.025676493 -0.016297458 0.025822235 0.0006476807 0.016686296 0.023032244 -0.018011756 0.002559562
0.008961452 0.004653743 -0.004118078 0.0022419733 0.0013627815 0.00060507 0.023907915 0.0066184774
-0.0031364786 0.024436645 -0.011531693 -0.0034481066 0.021261174 -0.004592635 0.009136764 -0.011303591
0.006792813 -0.0065841745 0.0038441105 0.007814821 0.020321455 0.0006359581 0.0077333436 -0.002966683
-0.0010242243 0.025876956 0.010885479 0.025849048 -0.0048633935 -0.0103344275 -0.006049074 0.010026495
0.009168809 -0.0020349482 -0.003709295 0.014179243 0.006763202 0.00043388642 0.017936038 -0.004538701
-0.0036114021 0.008264525 0.024922958 -0.002133631 -0.0061287777 -0.009381496 -0.0030489506 -0.002893241
-0.0028499977 0.0038700686 0.0017431257 0.010465677 0.022080254 -0.0025924575 0.023978982 -0.003715125
0.0074048745 0.0008331439 0.005727015 0.0058516646 0.004079165 0.0038363016 -0.0019548673 0.014578089
0.033131883 0.011288361 0.0077117123 -0.0025298626 0.001947248 0.03897173 0.007395733 -0.003309128
0.0023599758 -0.004048063 0.00014732363 0.026214244 0.027623652 0.031023568 0.023059387 0.012073972
0.0017327848 -0.0045777885 0.0037951295 -0.005532428 0.0063013444 -0.007595639 0.004176526 -0.006257402
-0.011638834 0.00049347733 0.008760626 -0.003181336 -0.00043137805 -0.0018214608 -0.004388663 -0.0034706146
0.0025061509 0.0029989292 0.025917294 0.025170764 0.00983777 0.007843487 0.00990227 0.015140345
-0.0023179636 0.012062478 0.014571697 0.026021298 -0.0043933378 0.008186845 -0.0010182337 -0.0070195342
00000000: e372 11bb e3a3 ce3a 8584 203b c12c 68bb
00000010: d149 7336 50b8 2e3c 95f7 8c3b 37a4 c2bb
00000020: 8257 d23c 3f82 85bc 2789 d33c 1ec9 293a
00000030: b3b1 883c 1eae bc3c 648d 93bc 53be 273b
00000040: 0ed3 123c 6d7e 983b f1f0 86bb 12ee 123b
00000050: 5c9f b23a 8f9d 1e3a 88da c33c d0df d83b
00000060: 618d 4dbb 5c2f c83c 6def 3cbc a1f9 61bb
00000070: ea2b ae3c d17d 96bb 5eb2 153c b232 39bc
00000080: 3f96 de3b 0fc0 d7bb 79ed 7b3b bc09 003c
00000090: 2e79 a63c 6db6 263a fd67 fd3b ae6c 42bb
000000a0: 443f 86ba e9fb d33c 0259 323c 62c1 d33c
000000b0: 1a5d 9fbb bb51 29bc 5037 c6bb 2b46 243c
000000c0: c638 163c c45c 05bb a517 73bb 0e50 683c
000000d0: da9d dd3b 407b e339 99ee 923c 62b9 94bb
000000e0: 46ad 6cbb ee67 073c 3b2b cc3c 63d4 0bbb
000000f0: ead3 c8bb d9b4 19bc e7d0 47bb 879c 3dbb
00000100: 07c7 3abb faa0 7d3b 9879 e43a 3b78 2b3c
00000110: a6e1 b43c 38e6 29bb 926f c43c 7479 73bb
00000120: 97a4 f23b 5767 5a3a afa9 bb3b 52bf bf3b
00000130: 84aa 853b 766a 7b3b 3b1d 00bb f0d8 6e3c
00000140: 4cb5 073d d1f2 383c 88b2 fc3b 0dcc 25bb
00000150: cd3a ff3a d2a0 1f3d e857 f23b f5dd 58bb
00000160: d3a9 1a3b 9da5 84bb e37a 1a39 41bf d63c
00000170: ff4a e23c 2325 fe3c 0ae7 bc3c e9d1 453c
00000180: 9c1e e33a 4601 96bb b5b7 783b 5f49 b5bb
00000190: 827b ce3b d7e4 f8bb 3ddb 883b e40a cdbb
000001a0: cfb0 3ebc b45c 013a bb88 0f3c f67d 50bb
000001b0: 952a e2b9 15be eeba c6ce 8fbb 4073 63bb
000001c0: 3c3e 243b af89 443b 8150 d43c eb32 ce3c
000001d0: 992e 213c f881 003c 213d 223c 360f 783c
000001e0: fae8 17bb b3a1 453c 21be 6e3c 9e2a d53c
000001f0: fdf5 8fbb 1e22 063c 4176 85ba 1f04 e6bb

action_model._continuous_distribution.log_sigma f4 [1, 2]
-0.116053954 0.00626792
00000000: b2ad edbd 2063 cd3b

action_model._continuous_distribution.mu.weight f4 [2, 128]
0.03023709 0.022533981 0.01261387 0.013448529 -0.030880766 0.04702627 0.032499205 0.021312421
-0.07458932 0.041961677 -0.05169514 0.0014969256 0.04606616 0.0381615 -0.022881374 -0.024864046
0.06865497 0.023451569 0.007352813 -0.050404835 -0.008150185 -0.008823837 0.044270817 0.033872988
0.021727417 -0.063934244 0.00030778046 -0.016975481 -0.058869608 0.004391332 0.01053635 0.074125275
-0.013880628 -0.005559976 0.03453965 0.08176196 -0.0831777 0.009560398 0.048719957 -0.0071458714
-0.034145646 0.06327235 0.026016884 -0.06869626 -0.0057600145 0.013774487 0.00087519496 -0.027264625
0.02704402 -0.045717847 0.00721907 -0.046642065 -0.075167336 0.022589674 -0.0416723 -0.039095107
0.005446955 -0.02027285 0.09306568 0.04484193 0.039967388 0.069090836 -0.021682756 -0.021880593
-0.013263071 0.02454024 0.03129792 0.018806705 -0.037159678 -0.043720417 0.019015888 -0.009882875
0.08895844 0.002168356 0.039587036 0.011852067 -0.037209045 -0.02967188 -0.054981314 0.06421544
0.050721698 -0.06592093 0.025219984 0.016113011 0.030786272 -0.099137485 0.04415103 0.027961623
-0.03652639 0.052354835 -0.019759824 0.046037316 -0.05932875 -0.05887759 -0.062117916 0.02529511
0.043060884 -0.0008043989 -0.016796913 -0.0026157554 0.023399184 -0.04379747 0.02674193 0.047311127
-0.029370079 -0.0012340172 0.026215628 -0.017320484 0.0138960015 0.008856321 -0.009723555 -0.0031715436
-0.039908104 0.019532336 0.029904803 -0.09038151 0.03656596 -0.025863787 -0.026957892 0.05444701
0.0060845283 0.04300652 0.05400328 -0.054282796 -0.014785957 -0.06270276 -0.024982596 0.0049755583
0.017994372 -0.0077894237 0.018329248 -0.020795982 0.011161012 -0.012836339 0.0122814 0.00977811
0.0010969397 0.004767098 0.010707614 0.012479878 0.011828841 -0.011036731 -0.003316999 0.027733004
-0.0049167736 -0.01251454 -0.0020503474 -0.023885362 0.017933503 0.016359212 -0.011929587 -0.015858063
0.009420318 -0.01678638 -0.0007736334 -0.02024366 0.021553556 -0.00068128936 0.0117903575 -0.0084606325
0.035286948 -0.023797624 -0.0055173137 -0.007830007 0.03105701 0.025671136 -0.0038046893 -0.010786091
0.00692894 0.012045837 0.0076613068 -0.012843461 -0.0031414165 0.01471294 -0.012244123 -0.0032744512
-0.025618564 -0.0089864805 0.015417176 -0.015359383 -0.004361384 -0.022009527 -0.002832309 0.015131857
-0.018376114 0.009269736 0.070277475 -0.02416149 0.02855243 -0.02236815 -0.0066301734 -0.020788142
-0.010967818 0.008622029 0.011076558 0.02721123 0.009676362 -0.013973831 -0.0018456469 -0.027974764
0.005812691 0.021344267 -0.0037899779 0.016904203 -0.004451935 0.008131894 -0.0140610505 -0.0012208074
0.013275451 0.0026054524 -0.0028772731 -0.010891622 0.0077876314 0.013469909 -0.020687955 -0.018123759
-0.005508969 0.013929707 0.0004696911 0.016187707 -0.009143525 0.008582284 -0.008411822 -0.033682093
0.005967067 -0.021681102 0.0056830104 -0.014013995 0.020954184 0.008168122 0.018297423 -0.00090093585
0.015030443 -0.031809337 -0.00052891526 -0.007859223 -0.00755647 -0.002745413 -0.003782573 -0.011919654
0.0068008355 0.004037745 -0.023835655 0.017540041 0.027140629 0.011013124 -0.0011756079 -0.009572572
-0.0074326093 -0.014129842 0.01942773 -0.014292532 -0.023600379 -0.028828055 -0.0024886774 -0.008792714
00000000: c6b3 f73c 2f99 b83c 68aa 4e3c 3857 5c3c
00000010: a9f9 fcbc 9e9e 403d e31d 053d 6397 ae3c
00000020: 49c2 98bd 02e0 2b3d 48be 53bd 7d34 c43a
00000030: dfaf 3c3d 3c4f 1c3d b871 bbbc afaf cbbc
00000040: fa9a 8c3d 811d c03c deef f03b 4d75 4ebd
00000050: 5b88 05bc db91 10bc 5155 353d 67be 0a3d
00000060: b2fd b13c f5ef 82bd 985d a139 2a10 8bbc
00000070: 4221 71bd 2ae5 8f3b a8a0 2c3c fece 973d
00000080: 936b 63bc 7630 b6bb 7379 0d3d d172 a73d
00000090: 1259 aabd 37a3 1c3c 948e 473d ea27 eabb
000000a0: 4edc 0bbd ef94 813d 5c21 d53c a0b0 8cbd
000000b0: 81be bcbb 63ae 613c 576d 653a 105a dfbc
000000c0: 6c8b dd3c a342 3bbd f38d ec3b c00b 3fbd
000000d0: 55f1 99bd fb0d b93c 93b0 2abd 3122 20bd
000000e0: 5f7c b23b 3f13 a6bc 3899 be3d 2cac 373d
000000f0: d8b4 233d 7f7f 8d3d 09a0 b1bc ee3e b3bc
00000100: 5a4d 59bc 9d08 c93c 3f32 003d 8510 9a3c
00000110: bf34 18bd 2e14 33bd 35c7 9b3c c8eb 21bc
00000120: d82f b63d fa1a 0e3b 0426 223d 2c2f 423c
00000130: 8368 18bd 7112 f3bc 1634 61bd 6283 833d
00000140: 8ec1 4f3d 8d01 87bd 249a ce3c 6fff 833c
00000150: 7e33 fc3c 9808 cbbd b6d7 343d c60f e53c
00000160: b29c 15bd 0672 563d 5bdf a1bc a091 3c3d
00000170: b402 73bd a129 71bd 5b6f 7ebd b137 cf3c
00000180: 9c60 303d 4cde 52ba ae99 89bc 186d 2bbb
00000190: a5af bf3c fa64 33bd e411 db3c 50c9 413d
000001a0: 8599 f0bc bfbe a1ba 28c2 d63c b0e3 8dbc
000001b0: 0eac 633c 1a1a 113c 8c4f 1fbc acd9 4fbb
000001c0: ae76 23bd 4702 a03c ebfa f43c f119 b9bd
000001d0: 30c6 153d 4be0 d3bc ccd6 dcbc d403 5f3d
000001e0: b960 c73b 9b27 303d 8b32 5d3d a357 5ebd
000001f0: cc40 72bc 4e6a 80bd 4da8 ccbc 020a a33b
00000200: ef68 933c 6c3e ffbb 3827 963c 565c aabc
00000210: addc 363c 824f 52bc ed37 493c 5e34 203c
00000220: 30c7 8f3a 5135 9c3b fd6e 2f3c 6778 4c3c
00000230: c1cd 413c 68d3 34bc 0262 59bb 5330 e33c
00000240: e31c a1bb c909 4dbc 1f5f 06bb 3cab c3bc
00000250: 48e9 923c c103 863c 5174 43bc c5e8 81bc
00000260: ad57 1a3c 9783 89bc a9cd 4aba 08d6 a5bc
00000270: 1591 b03c 8e98 32ba 582c 413c 779e 0abc
00000280: 0c89 103d 3cf3 c2bc 95ca b4bb 6e49 00bc
00000290: 456b fe3c 464c d23c 1858 79bb 25b8 30bc
000002a0: 290c e33b e75b 453c b30b fb3b 616d 52bc
000002b0: 39e0 4dbb 8b0e 713c 939b 48bc 2d98 56bb
000002c0: 06de d1bc 083c 13bc 5398 7c3c eca5 7bbc
000002d0: f1e9 8ebb 534d b4bc 439e 39bb 9ceb 773c
000002e0: 8189 96bc 17e0 173c a3ed 8f3d 51ee c5bc
000002f0: c9e6 e93c 693d b7bc ed41 d9bb e54b aabc
00000300: 5db2 33bc 6943 0d3c 747a 353c 16ea de3c
00000310: 9b89 1e3c 7ff2 64bc a2e9 f1ba 552b e5bc
00000320: 6378 be3b 2cda ae3c 4761 78bb af7a 8a3c
00000330: 8ae1 91bb a33b 053c 5260 66bc 8003 a0ba
00000340: 4781 593c 3dc0 2a3b a290 3cbb c672 32bc
00000350: 632f ff3b e5b0 5c3c c979 a9bc 4778 94bc
00000360: 9584 b4bb 6d39 643c df40 f639 159c 843c
00000370: b9ce 15bc b59c 0c3c bdd1 09bc 3cf6 09bd
00000380: 6387 c33b 919c b1bc 8c38 ba3b f59a 65bc
00000390: 1ca8 ab3c 96d3 053c 7ae4 953c c82c 6cba
000003a0: 3f42 763c 824a 02bd e7a6 0aba f8c3 00bc
000003b0: 449c f7bb 63ec 33bb 0be5 77bb a74a 43bc
000003c0: 8bd9 de3b 0f4f 843b fe42 c3bc 22b0 8f3c
000003d0: 0656 de3c 6470 343c db16 9aba 47d6 1cbc
000003e0: 3f8d f3bb da80 67bc e726 9f3c 392b 6abc
000003f0: 9555 c1bc d028 ecbc 1419 23bb 510f 10bc

action_model._continuous_distribution.mu.bias f4 [2]
5.900696e-06 0.004012135
00000000: 98fe c536 3a78 833b

action_model._discrete_distribution.branches.0.weight f4 [1, 128]
0.00906557 -0.010053173 -0.007817604 -0.0020631878 0.008122884 -0.0072919414 -0.001457354 -0.008462484
-0.00521544 -0.0010917435 -0.017345084 0.008086695 -0.00632552 -0.007967616 -0.0034241998 -0.0066041234
-0.010949152 -2.0799518e-05 -0.011949795 -0.022061883 -0.0046093967 0.008231114 -0.0094590625 0.0021477253
-0.008467645 -0.00082105707 -0.012599922 -0.021629367 -0.0060555805 0.01305636 0.0028401504 0.0042147827
0.0062697665 -0.0012702225 0.010690377 4.186195e-05 -0.0042576683 0.0047639427 0.0063148695 -0.0034416572
0.008541767 0.003752425 -0.0032949112 0.0050247866 0.007284216 -0.014688899 0.007904485 0.009859628
-0.0038224582 0.004918156 -0.010201631 0.0049875276 -0.0095411595 0.0013689509 -0.004994971 -0.003406652
0.0133429235 -0.004656763 0.008845223 -0.0028202615 0.007284624 -0.009609089 0.001589744 0.011230847
-0.0034816612 0.0053242845 0.0051432396 -0.018572569 0.0057107457 -0.007946896 -0.012428379 -0.008092715
0.0023219157 0.0059845587 -0.0114940945 0.01176545 -0.014967945 0.008375718 0.011754124 -0.01158149
0.018738892 0.012050175 0.02526207 0.010510514 -0.001809487 0.0071138307 0.0074156686 -0.010050609
-0.007032446 -0.007681962 -0.010737073 0.026945015 0.0064906287 0.0046546464 0.0056379247 0.01562931
0.0017950245 0.0035680209 -0.003676254 0.0009161954 0.007202927 -0.010624881 -0.013440137 0.004181025
-0.017939556 -0.0034005467 0.013108852 0.0038639817 0.020324541 0.032403354 0.0053044986 -0.00017863684
0.0033225392 -0.0041378397 -0.0014159122 -0.0028417814 0.007962272 -0.016002765 0.011417841 -0.011982544
-0.0044224937 -0.005921599 -0.007589463 0.0030723386 -0.0082294 0.015287739 -0.0065168366 0.0010213786
00000000: c287 143c 10b6 24bc 6815 00bc 8c36 07bb
00000010: d815 053c 3df1 eebb b004 bfba 3ba6 0abc
00000020: 48e6 aabb d518 8fba 4717 8ebc 0f7e 043c
00000030: 4f46 cfbb 9b8a 02bc 8a68 60bb 6767 d8bb
00000040: 1264 33bc a07a aeb7 13c9 43bc 1fbb b4bc
00000050: 6c0a 97bb cbdb 063c 2ffa 1abc dac0 0c3b
00000060: e1bb 0abc 353c 57ba e76f 4ebc 1230 b1bc
00000070: e46d c6bb 58ea 553c d121 3a3b 291c 8a3b
00000080: 9d72 cd3b 987d a6ba b126 2f3c ed94 2f38
00000090: e983 8bbb d91a 9c3b f7ec ce3b 6d8d 61bb
000000a0: c4f2 0b3c 3feb 753b 70ef 57bb f7a6 a43b
000000b0: 6fb0 ee3b b5a9 70bc d081 013c 478a 213c
000000c0: 3582 7abb 7c28 a13b be24 27bc 6a6e a33b
000000d0: 8652 1cbc 5f6e b33a dbac a3bb 2342 5fbb
000000e0: 479c 5a3c c297 98bb 8eeb 103c 23d4 38bb
000000f0: dbb3 ee3b 716f 1dbc f55e d03a 9601 383c
00000100: 952c 64bb 5677 ae3b 9f88 a83b 8025 98bc
00000110: 3521 bb3b b333 02bc 66a0 4bbc 4f97 04bc
00000120: 482b 183b 1e1a c43b ba51 3cbc e0c3 403c
00000130: 1d3c 75bc 4f3a 093c 5f94 403c 4ac0 3dbc
00000140: 4e82 993c 196e 453c 67f2 ce3c 4a34 2c3c
00000150: 4f2c edba 231b e93b 23ff f23b 4fab 24bc
00000160: 6f70 e6bb f8b8 fbbb 8cea 2fbc cbbb dc3c
00000170: 57af d43b 0186 983b 57be b83b 0a09 803c
00000180: 0747 eb3a 75d5 693b 4fed 70bb d52c 703a
00000190: 8806 ec3b fb13 2ebc 0534 5cbc fb00 893b
000001a0: faf5 92bc b5db 5ebb 83c6 563c db3a 7d3b
000001b0: a77f a63c 61b9 043d 5cd1 ad3b 7650 3bb9
000001c0: f5be 593b b796 87bb 2196 b9ba 2e3d 3abb
000001d0: 3074 023c 3b18 83bc e511 3b3c 6f52 44bc
000001e0: 91ea 90bb f909 c2bb 08b1 f8bb 4a59 493b
000001f0: 9bd4 06bc 6d79 7a3c 308b d5bb c7df 853a
