Lofty2024/results/TestMoveToPointNew/MoveToPoint/MoveToPoint-185870.onnx (onnx, 89178 bytes, 9 tensors)

discrete_act_size_vector f4 [1, 2]
9.0 9.0
00000000: 0000 1041 0000 1041

network_body._body_endoder.seq_layers.0.weight f4 [128, 12]
-0.08256417 -0.2756822 -0.25090653 0.16951865 -0.1837263 -0.26083824 -0.038011197 -0.14232148
-0.1155544 0.17891312 -0.4097449 -0.2744561 0.5756566 -0.043374322 0.13949275 0.15762888
-0.048170976 0.09353406 0.32044572 0.5255393 0.27153593 -0.12670241 0.2503863 0.04443006
0.120751545 -0.28979403 -0.19730505 -0.1011421 -0.42250764 0.6341168 -0.37114212 -0.22466208
-0.20287156 0.22509553 -0.33658203 0.14326425 0.49752322 -0.28441814 0.22169995 0.0049693803
-0.010682488 0.2569911 0.04584713 0.10715699 0.3484563 0.08517965 0.021387976 -0.29981777
-0.46735287 -0.31415012 -0.15179206 -0.4362211 -0.07146154 -0.048685886 0.044799004 -0.33797577
0.27870455 -0.25107872 -0.4577779 0.047899175 0.36914143 0.19596858 0.060636047 0.124723315
0.3543646 -0.35375652 0.24313633 0.31991696 -0.0056030913 0.37349436 0.46663266 0.18538554
-0.38656956 -0.38121364 0.12030673 -0.6464883 0.0979779 -0.15077671 0.05370143 -0.018422915
0.09748443 0.28661367 0.3817544 -0.41096693 -0.27665642 -0.13295268 -0.018091725 -0.29957858
-0.2239494 0.21975747 -0.33749482 -0.18642983 -0.2359353 -0.57684714 -0.13335758 -0.5350396
-0.27591428 -0.06462169 -0.07608886 0.06960193 0.062097453 -0.055949334 -0.272194 0.27005765
-0.1118485 -0.30924782 -0.20967083 0.085150495 0.02486326 -0.13068411 -0.0388663 -0.6394227
0.010756052 -0.08299236 0.13994522 0.072693415 0.0042244736 0.42363337 -0.13866696 -0.1901153
0.26378945 -0.19696005 -0.05074178 -0.36308062 -0.07313913 0.33571863 0.2863612 -0.074235275
-0.10672129 -0.6656484 0.30664262 0.058282506 -0.031993076 -0.28563663 -0.21973991 0.3522619
0.50681615 0.3489364 -0.2737067 0.22028658 0.484669 0.068734534 -0.31082952 -0.0038590643
-0.13006084 0.06921091 -0.04252451 -0.2936554 0.6630148 -0.39180663 0.48084387 0.111545786
0.34246057 0.050169993 0.3484598 0.3133594 -0.111023754 -0.14752404 0.1232071 -0.21597078
-0.13320418 0.05961071 -0.10674884 -0.1563085 -0.22373037 -0.21010837 0.0024074204 0.22361706
0.33326334 0.076114975 -0.37310717 0.32063475 0.13709696 -0.029062798 0.0037089544 -0.42035168
0.17646699 -0.30162895 0.1689177 -0.22094692 0.17907028 0.14551856 0.06574275 -0.052545294
0.19028194 -0.091630556 0.5799213 0.18352525 0.11198656 0.18413576 0.12685223 0.2444313
-0.38663742 0.44886348 -0.0566742 0.14530285 0.11899804 -0.018519452 -0.26778775 -0.010917462
-0.08263086 -0.020819973 0.43718082 0.1990004 -0.13101259 0.298997 -0.20035498 0.0030305614
0.03850831 0.009754748 -0.012500026 -0.4849599 0.56240547 -0.3433364 0.5970199 -0.772327
0.36377823 -0.17588337 -0.44803602 0.2093296 -0.020352844 0.31995964 0.10832768 -0.2449117
0.16962302 -0.036323152 -0.038371228 -0.2601001 -0.48264697 0.07821145 0.021586686 -0.06987829
0.30705205 -0.107219405 -0.40867564 -0.35713375 0.2531676 0.17920846 0.48623306 0.11645913
-0.07924217 -0.3227308 0.38724443 0.3177438 -0.44229653 -0.3270117 0.35478082 0.4153913
-0.102925025 -0.23596057 0.16517718 0.30621523 -0.33216754 0.046271425 -0.2783027 0.07381793
00000000: 6717 a9bd 3826 8dbe d276 80be 4c96 2d3e
00000010: bf22 3cbe 978c 85be a1b1 1bbd b9bc 11be
00000020: c9a7 ecbd 0035 373e 15ca d1be 8385 8cbe
00000030: 3b5e 133f 46a9 31bd 30d7 0e3e 7769 213e
00000040: ee4e 45bd c98e bf3d 7611 a43e be89 063f
00000050: c206 8b3e 47be 01be a232 803e 4bfc 353d
00000060: 964c f73d e25f 94be 560a 4abe 9723 cfbd
00000070: ec52 d8be 7b55 223f 5706 bebe d10d 66be
00000080: 90bd 4fbe 717f 663e 7b54 acbe ddb3 123e
00000090: 5dbb fe3e 419f 91be 5005 633e 2fd6 a23b
000000a0: 9a05 2fbc 5694 833e 33ca 3b3d 2075 db3d
000000b0: dd68 b23e ab72 ae3d d635 af3c b781 99be
000000c0: e048 efbe 49d8 a0be 616f 1bbe 5f58 dfbe
000000d0: 6e5a 92bd da6a 47bd 297f 373d 290b adbe
000000e0: 5db2 8e3e 648d 80be dd61 eabe ed31 443d
000000f0: 1b00 bd3e fdab 483e 815d 783d f06e ff3d
00000100: 476f b53e 931f b5be bbf8 783e 28cc a33e
00000110: 239a b7bb a73a bf3e 7aea ee3e b5d5 3d3e
00000120: 72ec c5be 6f2e c3be 6063 f63d 4280 25bf
00000130: a3a8 c83d 3665 1abe 08f6 5b3d a7eb 96bc
00000140: eba5 c73d 07bf 923e 5075 c33e 426a d2be
00000150: e9a5 8dbe bf24 08be 1935 94bc 5d62 99be
00000160: fe52 65be 1a08 613e 1fcc acbe 76e7 3ebe
00000170: 0699 71be 41ac 13bf e48e 08be 5bf8 08bf
00000180: a344 8dbe 6058 84bd 7ad4 9bbd 758b 8e3d
00000190: e659 7e3d 212b 65bd 035d 8bbe ff44 8a3e
000001a0: d410 e5bd bb55 9ebe f3b3 56be 6263 ae3d
000001b0: 09ae cb3c 0ed2 05be 4532 1fbd 35b1 23bf
000001c0: 273a 303c e6f7 a9bd cd4d 0f3e 49e0 943d
000001d0: 746d 8a3b 79e6 d83e b6fe 0dbe 96ad 42be
000001e0: 690f 873e e5af 49be 9dd6 4fbd b4e5 b9be
000001f0: f8c9 95bd 50e3 ab3e ef9d 923e aa08 98bd
00000200: b190 dabd ef67 2abf 4300 9d3e a3b9 6e3d
00000210: 2c0b 03bd f73e 92be 8003 61be ac5b b43e
00000220: b4be 013f cba7 b23e 4923 8cbe ce92 613e
00000230: 8926 f83e b1c4 8c3d 0c25 9fbe 5be8 7cbb
00000240: ab2e 05be 73be 8d3d 2e2e 2ebd 005a 96be
00000250: 57bb 293f e19a c8be 2b31 f63e 1e72 e43d
00000260: fe56 af3e 0d7f 4d3d 5369 b23e a570 a03e
00000270: 6c60 e3bd 8b10 17be 0154 fc3d 7227 5dbe
00000280: ad66 08be 5c2a 743d 239f dabd 560f 20be
00000290: 9319 65be a626 57be d0c5 1d3b dffb 643e
000002a0: 7ea1 aa3e 2be2 9b3d e707 bfbe 3d2a a43e
000002b0: 2563 0c3e 1b15 eebc ee11 733b 5638 d7be
000002c0: c3b3 343e 1c6f 9abe c3f8 2c3e e93f 62be
000002d0: 335e 373e d102 153e 23a4 863d bc39 57bd
000002e0: 45d9 423e cda8 bbbd b975 143f 0bee 3b3e
000002f0: 3659 e53d 168e 3c3e 8de5 013e 334c 7a3e
00000300: 57f5 c5be 6fd1 e53e 3523 68bd 45ca 143e
00000310: 3fb5 f33d 1bb6 97bc 7a1b 89be 28df 32bc
00000320: 5e3a a9bd a68e aabc 2ad6 df3e c3c6 4b3e
00000330: 2a28 06be 2316 993e db29 4dbe 629c 463b
00000340: e4ba 1d3d 61d2 1f3c e9cc 4cbc aa4c f8be
00000350: cef9 0f3f cac9 afbe 4cd6 183f 39b7 45bf
00000360: 2441 ba3e c51a 34be fa64 e5be 805a 563e
00000370: 02bb a6bc c0d1 a33e e7da dd3d 22ca 7abe
00000380: a8b1 2d3e 96c7 14bd 262b 1dbd d72b 85be
00000390: 811d f7be 532d a03d 90d6 b03c 591c 8fbd
000003a0: ed35 9d3e d995 dbbd ef3d d1be 3cda b6be
000003b0: 2f9f 813e 6c82 373e 8af3 f83e 2082 ee3d
000003c0: b849 a2bd f93c a5be e744 c63e 51af a23e
000003d0: b174 e2be 146e a7be d5a5 b53e 2bae d43e
000003e0: 5bca d2bd a69f 71be 3524 293e 3ec8 9c3e
000003f0: dd11 aabe 1b87 3d3d b17d 8ebe db2d 973d

network_body._body_endoder.seq_layers.0.bias f4 [128]
-0.06050931 0.023116808 -0.1635274 -0.043856986 -0.011432597 -0.045592688 0.12762387 -0.06295367
-0.07563361 -0.04105682 -0.04264731 -0.024838472 0.04658908 -0.108886465 -0.023160873 -0.064250715
-0.016489029 -0.00866458 0.053758055 -0.010955611 -0.05937136 0.009890221 -0.023167377 0.07144014
-0.03269865 -0.013655071 0.0099147875 -0.06384848 -0.113635436 0.010784468 -0.010972792 -0.056921694
-0.03207875 -0.005105994 0.014817275 0.06384288 -0.022136813 -0.027278522 0.041777063 -0.013325662
-0.013471873 0.04216225 -0.06331183 0.07747697 -0.0048271264 -0.06712065 0.017925877 0.021298612
0.07460586 0.0059071337 -0.031475708 -0.04162835 0.045613803 -0.10802107 0.023813117 0.029251102
-0.008653806 0.06356591 -0.09002165 0.032046087 -0.04973129 -0.04673894 -0.050430566 -0.075172044
0.028886868 0.014343783 -0.00282831 -0.059159666 -0.10215543 -0.074050054 0.026054025 0.012836283
-0.050941706 -0.04478545 -0.03118001 -0.05728608 -0.03832419 0.00011847676 -0.07293465 -0.03507063
0.010895768 -0.012476205 -0.055317935 -0.035656698 -0.00487056 0.019897096 -0.04834444 0.052292738
-0.05955304 -0.030668044 -0.109460115 -0.020130537 -0.010639126 0.030309997 0.033207085 -0.098350406
0.012367276 -0.08068697 -0.047097877 0.064812906 -0.07482921 -0.115439825 0.0047946996 -0.0006545865
-0.04347787 -0.06824548 -0.046148717 -0.01916433 -0.0070258426 0.001577651 -0.072911 -0.057625785
0.0072483853 -0.022559745 -0.10373105 0.055369206 0.02590897 -0.051560275 0.056176905 -0.023338215
0.048980102 -0.0056496663 -0.004382689 -0.039482344 -0.041590586 0.11636283 -0.124797754 -0.14608906
00000000: 9cd8 77bd 765f bd3c ba73 27be 62a3 33bd
00000010: ca4f 3bbc 66bf 3abd d5af 023e dbed 80bd
00000020: cbe5 9abd 322b 28bd f2ae 2ebd 0d7a cbbc
00000030: 31d4 3e3d deff debd dfbb bdbc e195 83bd
00000040: 0014 87bc e2f5 0dbc 6831 5c3d 2a7f 33bc
00000050: 622f 73bd 980a 223c 83c9 bdbc 354f 923d
00000060: 05ef 05bd 85b9 5fbc a271 223c fec2 82bd
00000070: b2b9 e8bd 56b1 303c 3ac7 33bc b926 69bd
00000080: 0265 03bd 2f50 a7bb 28c4 723c 0ec0 823d
00000090: 4358 b5bc 3577 dfbc 6d1e 2b3d e153 5abc
000000a0: 21b9 5cbc 53b2 2c3d a2a9 81bd 3fac 9e3d
000000b0: df2c 9ebb 8d76 89bd 4ad9 923c 6d7a ae3c
000000c0: f5ca 983d a190 c13b acec 00bd 7d82 2abd
000000d0: 8ad5 3a3d 273a ddbd ba13 c33c 02a0 ef3c
000000e0: b1c8 0dbc d82e 823d 455d b8bd c242 033d
000000f0: 0ab3 4bbd 5571 3fbd 4890 4ebd cdf3 99bd
00000100: 27a4 ec3c 3002 6b3c 2b5b 39bb 6851 72bd
00000110: de36 d1bd 8ea7 97bd 406f d53c 464f 523c
00000120: 40a8 50bd f370 37bd 386d ffbc cfa4 6abd
00000130: d3f9 1cbd ba76 f838 c35e 95bd 39a6 0fbd
00000140: 2a84 323c ff68 4cbc 0f95 62bd c20c 12bd
00000150: 3899 9fbb 3cff a23c d204 46bd e930 563d
00000160: e3ed 73bd 8d3b fbbc a02c e0bd cce8 a4bc
00000170: bb4f 2ebc ac4c f83c 2704 083d f06b c9bd
00000180: 1da0 4a3c 363f a5bd b4e9 40bd a1bc 843d
00000190: 0f40 99bd b76b ecbd db1c 9d3b 8e98 2bba
000001a0: da15 32bd 49c4 8bbd 7006 3dbd 83fe 9cbc
000001b0: 0a39 e6bb 2fc9 ce3a 5d52 95bd 0409 6cbd
000001c0: dd83 ed3b 37cf b8bc f270 d4bd d2ca 623d
000001d0: 0c3f d43c de30 53bd c119 663d c92f bfbc
000001e0: 5c9f 483d d620 b9bb a99c 8fbb 3db8 21bd
000001f0: e45a 2abd a34f ee3d f795 ffbd 5f98 15be

network_body._body_endoder.seq_layers.2.weight f4 [128, 128]
0.06457843 -0.071986645 0.03416455 -0.1692194 -0.03667342 0.028330285 -0.026064513 -0.064062305
0.003606651 -0.044077758 0.025082031 -0.11851452 -0.22414616 0.011399519 0.097393714 -0.101079464
-0.12756763 -0.06932439 -0.18285048 0.042814184 -0.085551254 0.09136594 0.044429 -0.12290186
-0.12538217 0.13435273 -0.008386124 0.0069362554 -0.012378478 -0.02251279 -0.07681786 -0.0712423
0.03525553 -0.06613088 0.097899176 -0.0436483 -0.07544295 0.00013163823 -0.251914 -0.13632691
0.27699134 -0.21599591 0.045294903 0.019534094 0.03331371 0.061575856 -0.04157381 0.0076610553
0.07511971 -0.17850818 -0.013667345 0.016267177 -0.100160606 -0.01477719 0.13893004 0.002791536
0.0145819895 0.11029165 -0.049009465 -0.003948097 -0.06955696 0.076095484 0.013295323 0.06605371
0.032974068 0.01288636 -0.02490816 0.02960972 -0.16439152 0.087680504 -0.102352604 -0.06629906
-0.0064340476 -0.06989665 0.023266127 -0.03373121 -0.06164718 -0.05821714 0.033839352 -0.022449365
0.03196852 -0.03266689 0.117292695 -0.08715882 -0.085150346 0.05600199 -0.11881302 0.05206734
0.045568 -0.03366458 -0.06433416 0.23591055 -0.12271886 0.16787308 -0.044088583 -0.021785012
0.227243 0.1430867 -0.00029466033 -0.19753051 -0.08247081 -0.08393385 -0.022185938 -0.13246451
0.032780975 0.14560126 -0.07626772 -0.12155038 -0.050552502 0.1084871 0.1509162 0.1343392
-0.038623616 -0.1322244 0.042059645 0.06566827 -0.16164501 0.14157815 -0.039021313 -0.07344977
-0.11968999 -0.18604301 0.30521518 -0.11060605 0.035883706 0.0486672 0.05468862 0.044659615
-0.011619958 -0.2184067 -0.08523403 -0.36800852 -0.020770801 -0.02620133 -0.12482635 -0.08685924
-0.033112053 0.07751442 -0.022865256 0.07252161 -0.16764565 -0.01602503 -0.21672183 -0.06831119
-0.040419552 -0.0051481263 -0.07788435 0.25136775 -0.09284639 0.09056515 0.019801486 0.09183807
0.17922339 0.1451812 0.15944526 0.21822076 0.09523119 0.2235992 0.10730496 0.008075299
0.08030448 -0.19027528 0.06028406 -0.15608944 0.035462737 -0.24392621 -0.035229634 -0.15024683
0.004377478 -0.20750067 0.010706362 -0.011008616 -0.028766109 -0.08181751 -0.0671848 -0.28610244
-0.08568899 -0.07396432 -0.10333391 -0.079928346 -0.13285466 -0.020042289 0.12559652 -0.14863496
-0.16512391 -0.12380885 0.101068325 0.0029870584 0.100734726 -0.08701566 0.0755686 -0.10551703
-0.073032826 -0.13980006 -0.3080184 -0.08785253 -0.088776216 0.07261841 0.081802964 0.09549492
0.116233006 -0.04747745 -0.08063172 -0.15120494 -0.011622632 -0.1563883 -0.012506524 -0.12709464
-0.1576447 0.19497073 -0.09619572 -0.13617392 0.09133702 0.035376854 0.04734076 0.100116044
-0.04655508 0.029616732 0.12372204 -0.052693952 0.0628546 0.008411467 0.26192912 0.010300642
-0.14946571 -0.08625185 0.055041656 0.027527664 -0.15875511 0.02146272 -0.009471156 -0.093037516
-0.047054406 -0.18722254 0.02626127 -0.15238242 -0.1762606 0.07528381 -0.14814444 -0.18938321
0.16329797 -0.079808496 -0.035237458 -0.1415347 -0.12574098 -0.104791254 0.12942772 -0.14641167
-0.14153993 0.21387011 0.035347685 0.015448774 0.0042660297 0.0733493 -0.04583646 0.055797134
00000000: b241 843d bc6d 93bd 21f0 0b3d da47 2dbe
00000010: de36 16bd ea14 e83c 3f85 d5bc 1933 83bd
00000020: 905d 6c3b e18a 34bd d578 cd3c beb7 f2bd
00000030: 9286 65be 0cc5 3a3c 5b76 c73d c002 cfbd
00000040: 17a1 02be f2f9 8dbd 283d 3bbe ed5d 2f3d
00000050: 7f35 afbd 111e bb3d 2ffb 353d f8b3 fbbd
00000060: 2f64 00be c393 093e f465 09bc 8749 e33b
00000070: 1acf 4abc be6c b8bc af52 9dbd 7ce7 91bd
00000080: 1a68 103d a06f 87bd 5d7f c83d 8fc8 32bd
00000090: d581 9abd 5e08 0a39 dffa 80be 4899 0bbe
000000a0: cfd1 8d3e 082e 5dbe 2687 393d f705 a03c
000000b0: f573 083d f736 7c3d 4d49 2abd 9709 fb3b
000000c0: 5dd8 993d d9ca 36be 00ed 5fbc be42 853c
000000d0: 0121 cdbd 071c 72bc ad43 0e3e 34f2 363b
000000e0: 4ce9 6e3c 97e0 e13d 26be 48bd 0a5f 81bb
000000f0: e173 8ebd f3d7 9b3d a0d4 593c 2b47 873d
00000100: d10f 073d 5021 533c 330c ccbc 1590 f23c
00000110: 4056 28be d691 b33d 3e9e d1bd cdc7 87bd
00000120: b4d4 d2bb fa25 8fbd 9b98 be3c bd29 0abd
00000130: c181 7cbd 1975 6ebd 229b 0a3d bbe7 b7bc
00000140: 6cf1 023d b8cd 05bd 2737 f03d 5380 b2bd
00000150: 4e63 aebd 5862 653d 3e54 f3bd 9044 553d
00000160: 83a5 3a3d dfe3 09bd a1c1 83bd 8992 713e
00000170: 0754 fbbd ece6 2b3e 3b96 34bd 7b76 b2bc
00000180: 64b2 683e 5285 123e a47c 9ab9 7045 4abe
00000190: 75e6 a8bd 83e5 abbd 49bf b5bc c7a4 07be
000001a0: 5845 063d 7f18 153e 4032 9cbd 68ef f8bd
000001b0: 2410 4fbd 7c2e de3d c789 1a3e 3790 093e
000001c0: cc33 1ebd d565 07be bc46 2c3d 167d 863d
000001d0: 4586 25be ddf9 103e d0d4 1fbd d56c 96bd
000001e0: 0720 f5bd 0f82 3ebe 2a45 9c3e 6d85 e2bd
000001f0: cbfa 123d 4257 473d 2d01 603d 00ed 363d
00000200: a361 3ebc 02a6 5fbe 2e8f aebd 9d6b bcbe
00000210: 8727 aabc 2ca4 d6bc f5a4 ffbd 42e3 b1bd
00000220: 81a0 07bd e1bf 9e3d eb4f bbbc 3686 943d
00000230: 4dab 2bbe ec46 83bc 54ec 5dbe bde6 8bbd
00000240: f98e 25bd 9db1 a8bb d581 9fbd 46b3 803e
00000250: 4026 bebd 397a b93d ba36 a23c 9915 bc3d
00000260: 5686 373e 61aa 143e 9e45 233e 4375 5f3e
00000270: 9208 c33d 30f7 643e b4c2 db3d 424e 043c
00000280: ad76 a43d 86d7 42be 6bec 763d e9d5 1fbe
00000290: 6041 113d cbc7 79be f34c 10bd 4eda 19be
000002a0: f270 8f3b 0e7b 54be bd69 2f3c 7b5d 34bc
000002b0: e7a6 ebbc f08f a7bd 2f98 89bd 057c 92be
000002c0: b67d afbd 9b7a 97bd bba0 d3bd 79b1 a3bd
000002d0: 0d0b 08be ba2f a4bc 609c 003e c333 18be
000002e0: 3e16 29be 7f8f fdbd e9fc ce3d 86c2 433b
000002f0: 024e ce3d 4435 b2bd b6c3 9a3d 5019 d8bd
00000300: 3c92 95bd bf27 0fbe 96b4 9dbe 07ec b3bd
00000310: 4ed0 b5bd f6b8 943d 5088 a73d d792 c33d
00000320: 920b ee3d b777 42bd 3e22 a5bd 78d5 1abe
00000330: da6c 3ebc 4124 20be 2ae8 4cbc 1925 02be
00000340: 9d6d 21be 68a6 473e 4302 c5bd 2d71 0bbe
00000350: e70e bb3d 52e7 103d 62e8 413d a409 cd3d
00000360: 8ab0 3ebd ca9e f23c fb61 fd3d 9dd5 57bd
00000370: eab9 803d 40d0 093c 931b 863e 06c4 283c
00000380: 8a0d 19be cfa4 b0bd 5c73 613d b281 e13c
00000390: b390 22be 96d2 af3c e82c 1bbc 748a bebd
000003a0: 1fbc 40bd 44b7 3fbe e021 d73c 230a 1cbe
000003b0: a97d 34be 662e 9a3d 2db3 17be aced 41be
000003c0: 9537 273e a372 a3bd 2755 10bd 79ee 10be
000003d0: 3ec2 00be cc9c d6bd b388 043e f1ec 15be
000003e0: d8ef 10be c400 5b3e bcc8 103d db1c 7d3c
000003f0: 0dca 8b3b 2838 963d 03bf 3bbd 898b 643d

network_body._body_endoder.seq_layers.2.bias f4 [128]
0.009533488 -0.11661662 -0.07191305 -0.06698976 0.0052530286 0.008240276 -0.045073252 0.021046568
-0.0035785823 -0.063061915 -0.09851618 -0.046405543 -0.033296358 -0.111096956 -0.10515554 -0.08510883
-0.09523323 0.015493262 0.00080907065 -0.038023427 -0.014044546 -0.04229456 -0.10441707 -0.002463253
0.026950348 -0.013533532 -0.0495274 0.017063798 0.016694695 -0.06877298 0.022231374 0.012278123
0.014884039 -0.04672499 -0.029560635 -0.02081435 -0.009329394 -0.09518408 0.017685289 -0.03717301
0.06571372 0.019142544 0.040730383 0.0009018893 -0.095086165 -0.011892957 -0.055975184 0.04318456
-0.06538537 0.012144553 -0.06604851 -0.03879334 -0.07544592 -0.06542198 -0.028801199 0.04769221
-0.08968128 -0.028328361 -0.045196727 -0.09412998 -0.004072939 -0.08863941 0.022372808 -0.019459711
-0.050428648 0.005470207 -0.011355603 0.015064551 0.05039585 -0.034032714 0.0017059931 0.010379226
-0.031287026 0.03538329 -0.01153502 -0.0016536356 -0.006435573 -0.015735012 -0.084980436 -0.046182916
-0.08312213 0.044146344 0.00804815 -0.037829354 -0.025371563 -0.07413801 -0.005180609 -0.021350322
-0.044516537 0.022709342 -0.06437485 0.0019471458 -0.101107545 -0.016957212 -0.03878016 0.021527577
-0.015574111 -0.02447979 -0.022718616 -0.04403923 -0.014013555 -0.014906077 -0.025513127 -0.09952435
-0.0025725542 -0.074603796 -0.04930532 -0.064129695 -0.056991737 -0.038060542 0.038509708 0.03042302
-0.08242626 -0.010704271 -0.12839735 0.051011305 0.0352299 -0.064908266 -0.077976905 0.024037775
-0.013450059 0.00776905 -0.042400453 -0.015631823 -0.026189853 -0.06613257 -0.066420875 -0.0294924
00000000: 5932 1c3c b2d4 eebd 2647 93bd ed31 89bd
00000010: 9921 ac3b 3902 073c bb9e 38bd da69 ac3c
00000020: a686 6abb 9b26 81bd dac2 c9bd bd13 3ebd
00000030: c361 08bd cd86 e3bd ca5b d7bd 8a4d aebd
00000040: a409 c3bd 73d7 7d3c d017 543a 74be 1bbd
00000050: 181b 66bc 0f3d 2dbd 9ed8 d5bd 876e 21bb
00000060: fac6 dc3c bfbb 5dbc 3edd 4abd 61c9 8b3c
00000070: 50c3 883c d9d8 8cbd 921e b63c 2e2a 493c
00000080: 2fdc 733c b462 3fbd 2529 f2bc db82 aabc
00000090: 51da 18bc dfef c2bd bde0 903c ba42 18bd
000000a0: ea94 863d d3d0 9c3c e7d4 263d c46c 6c3a
000000b0: 89bc c2bd adda 42bc 3c46 65bd 4be2 303d
000000c0: c4e8 85bd f2f9 463c 7144 87bd c4e5 1ebd
000000d0: 6483 9abd f6fb 85bd 7ef0 ebbc e858 433d
000000e0: d2aa b7bd e110 e8bc 3420 39bd 38c7 c0bd
000000f0: 4a76 85bb 9488 b5bd 2e47 b73c f969 9fbc
00000100: 458e 4ebd 6c3f b33b da0c 3abc 4ed1 763c
00000110: e16b 4e3d e365 0bbd a19b df3a a10d 2a3c
00000120: d326 00bd 12ee 103d 61fd 3cbc cebe d8ba
00000130: 80e1 d2bb b6e6 80bc 390a aebd 4c2a 3dbd
00000140: ef3b aabd ccd2 343d 63dc 033c f4f2 1abd
00000150: 06d8 cfbc abd5 97bd 19c2 a9bb dfe6 aebc
00000160: f956 36bd f108 ba3c f6d6 83bd 5f37 ff3a
00000170: 7911 cfbd dae9 8abc f2d7 1ebd 9a5a b03c
00000180: 8e2a 7fbc d789 c8bc 641c babc 7b62 34bd
00000190: 1c99 65bc 9e38 74bc e800 d1bc 6cd3 cbbd
000001a0: 4c98 28bb e0c9 98bd 60f4 49bd 6e56 83bd
000001b0: 2b70 69bd 5fe5 1bbd 5bbc 1d3d b239 f93c
000001c0: 19cf a8bd f760 2fbc 987a 03be 3bf1 503d
000001d0: 3a4d 103d a0ee 84bd 5bb2 9fbd deea c43c
000001e0: a35d 5cbc 8493 fe3b 19ac 2dbd 4f0e 80bc
000001f0: 1a8c d6bc 8370 87bd ab07 88bd 0c9a f1bc

action_model._discrete_distribution.branches.0.weight f4 [9, 128]
-0.020812374 0.0024154733 0.0010790762 0.011269351 0.0016833832 0.009466494 0.00015581863 -0.0027472156
0.0018852573 0.00021090731 -0.0034669202 -0.0025301655 -0.0006611245 0.012039758 0.0027882524 -0.0053153127
0.009578443 0.006310401 -0.011413816 0.003439862 -0.017188264 0.0043855594 -0.0044080736 0.00998605
-0.021276372 -0.0016538342 0.0005069555 -0.006871076 -0.0024835314 -0.0006057167 0.010888604 -0.011259611
-0.002932155 0.011740382 -0.00016005893 -0.0057352846 -0.0033422473 -0.0064077005 -0.0021352132 0.0008694455
-0.009763044 -0.015781455 -0.0067661027 0.010536258 -0.008194818 -0.010911825 0.00089753943 0.00030133635
-0.0036287196 -0.012017226 0.0035896108 0.0036385586 0.0036902204 -0.016460506 0.006362952 0.00051145436
-0.0006517732 -0.0022947355 -0.004730501 0.0052737314 0.005244733 0.011799748 0.0090048015 0.011719022
0.015489851 -0.020897998 -0.005003209 -0.003619114 0.010343566 0.001605661 0.01454844 0.009867827
0.0073978165 -0.014148018 -0.0046471576 0.007402985 0.0143996095 -0.00804885 0.0137655875 -0.008544794
0.0085185645 -0.0038942394 -0.012832704 0.007767854 0.0062537114 0.0015722824 -0.013326476 0.0013354652
-0.013572536 0.0067071454 0.02261795 -0.0016281501 -0.009678892 0.001926124 0.013143772 -0.0072023273
0.015516621 0.006970993 -0.0076192776 -0.006805057 -0.00036078267 0.006934137 -0.0013635438 -0.00062317395
0.0041143745 0.0070687043 0.009048595 0.0011496565 0.016939953 -0.0026845727 0.011810609 -0.0114234425
-0.0015535367 0.025199113 -0.002137343 -0.0061232327 0.00701558 -0.015006629 -0.0025751626 -0.001555535
0.0017272137 0.0138612045 -3.8974763e-06 -0.0033737663 -0.0021738063 -0.017216217 -0.011270828 0.013250741
0.0075205076 -0.01066006 0.0051184413 -0.018113574 0.00476423 0.0012875817 0.010346267 -0.008550784
0.0043026465 0.0132905785 -0.012797211 0.008569545 -0.0030343886 0.0018865726 0.004639881 -0.0020060781
0.0097845 -0.009695432 -0.0026790153 -0.001068376 0.008354931 -0.0057327375 -0.0041333428 -0.007201828
0.0023179036 -0.0050835917 0.0036954393 -0.0007400368 -0.014466198 0.0024793237 -0.0043613035 0.0020320618
0.015573844 -0.003903864 -0.006474106 0.0022750406 0.0016845253 -0.011633361 0.026176853 0.0022778718
-0.0103677325 0.010913443 -0.008967915 -0.0042177355 0.0026065572 0.009616891 0.012216119 -0.0033080825
0.0031414533 -0.008053159 -0.0017825536 -0.010112099 -0.009754551 -0.0008010386 -0.0071463743 0.017091025
0.0009480592 0.00088525034 0.012177485 -0.013282283 0.006763719 -0.00011581532 -0.010537957 -0.007969065
0.0065509747 -0.005210249 -0.002369449 0.008454422 0.01016702 -0.0035797213 -0.0066242735 0.006476781
0.009146073 -0.010399371 0.005690334 -0.009908604 0.011843457 0.0017982416 -0.003661975 0.0041022263
0.0066685313 0.0044467845 0.0025795975 -0.0016464655 0.014772447 -0.00017137821 -0.014100228 -0.020197418
0.0076686367 -0.011783734 0.0102390135 0.005472138 0.011223971 0.004938846 0.014326321 -0.016451005
-0.0094706705 0.004316267 0.00026455676 -0.021199767 -0.016791914 -0.0038735883 -0.0027137888 -0.0035651796
0.010491869 -0.0022742427 0.0012628407 -0.0041108243 -0.0042743185 -5.538391e-05 0.010782892 -0.0026690692
0.006637799 0.014376134 -0.0092241345 -0.008367255 -0.0041658496 -0.0075874673 0.00039462867 -0.01733323
0.00479146 -0.0032256402 -0.0055389996 0.0048081335 0.010531584 0.009930669 0.007537973 -0.0098530715
00000000: b67e aabc eb4c 1e3b ca6f 8d3a 15a3 383c
00000010: f8a4 dc3a 5b19 1b3c 3f63 2339 a10a 34bb
00000020: bd1a f73a 0027 5d39 4535 63bb 22d1 25bb
00000030: 504f 2dba 6842 453c 1dbb 363b 132c aebb
00000040: e7ee 1c3c 7bc7 ce3b 0401 3bbc 4f6f 613b
00000050: 67ce 8cbc bdb4 8f3b 9a71 90bb 889c 233c
00000060: c94b aebc 78c5 d8ba 35e5 043a c326 e1bb
00000070: bec2 22bb f6c8 1eba 1e66 323c 3b7a 38bc
00000080: 6629 40bb bb5a 403c 7ed5 27b9 0eef bbbb
00000090: 9b09 5bbb b0f7 d1bb efee 0bbb 80eb 633a
000000a0: 2df5 1fbc 1c48 81bc 2fb6 ddbb 45a0 2c3c
000000b0: 8f43 06bc 83c7 32bc da48 6b3a aefc 9d39
000000c0: d0cf 6dbb e6e3 44bc ad3f 6b3b e274 6e3b
000000d0: a0d7 713b 2fd8 86bc 4f80 d03b 1f13 063a
000000e0: c2db 2aba 4663 16bb 5202 9bbb 44cf ac3b
000000f0: 02dc ab3b bb53 413c e088 133c 2401 403c
00000100: 25c9 7d3c 4732 abbc f6f1 a3bb a82e 6dbb
00000110: 0f78 293c 0b75 d23a 955c 6e3c abac 213c
00000120: 6269 f23b 17cd 67bc 2f47 98bb bd94 f23b
00000130: 57ec 6b3c 53df 03bc 0f89 613c 77ff 0bbc
00000140: 7391 0b3c 7f36 7fbb 4340 52bc 7b89 fe3b
00000150: efeb cc3b 0b15 ce3a 4b57 5abc c70a af3a
00000160: 585f 5ebc 9dc7 db3b 4749 b93c a767 d5ba
00000170: 3794 1ebc ff75 fc3a fa58 573c 8001 ecbb
00000180: 6d39 7e3c ed6c e43b 22ab f9bb f5fc debb
00000190: 6e27 bdb9 c237 e33b f0b8 b2ba 7f5c 23ba
000001a0: e0d1 863b 97a0 e73b 8f40 143c 12b0 963a
000001b0: a8c5 8a3c a8ef 2fbb 4981 413c 6429 3bbc
000001c0: 0ba0 cbba 5f6e ce3c aa12 0cbb 66a5 c8bb
000001d0: f3e2 e53b 5dde 75bc 0fc4 28bb 18e3 cbba
000001e0: ad63 e23a 1b1a 633c 11c7 82b6 681a 5dbb
000001f0: 6b76 0ebb 0609 8dbc 47a9 38bc a319 593c
00000200: 976e f63b 88a7 2ebc 99b8 a73b eb62 94bc
00000210: 421d 9c3b 13c4 a83a 6483 293c 9618 0cbc
00000220: 37fd 8c3b bac0 593c 65ab 51bc 4767 0c3c
00000230: 98dc 46bb df46 f73a 250a 983b 6878 03bb
00000240: 2b4f 203c 97d9 1ebc 6b92 2fbb c008 8cba
00000250: 1fe3 083c b0d9 bbbb fe70 87bb 50fd ebbb
00000260: f8e7 173b 4294 a6bb 2f2f 723b 07ff 41ba
00000270: a203 6dbc 267c 223b 44e9 8ebb 572c 053b
00000280: 7029 7f3c f8d7 7fbb bd24 d4bb d918 153b
00000290: 4acb dc3a da99 3ebc d770 d63c 5948 153b
000002a0: 6cdd 29bc 4cce 323c 29ee 12bc ee34 8abb
000002b0: c6d2 2a3b 2a90 1d3c 1e26 483c 6acc 58bb
000002c0: d7e0 4d3b 66f1 03bc 93a4 e9ba 38ad 25bc
000002d0: 8dd1 1fbc cafc 51ba 222c eabb 7a02 8c3c
000002e0: 2d87 783a 2510 683a 1384 473c ef9d 59bc
000002f0: 30a2 dd3b e0e1 f2b8 65a7 2cbc ae90 02bc
00000300: 8fa9 d63b bdba aabb c248 1bbb 6a84 0a3c
00000310: 9393 263c c299 6abb 6f10 d9bb 2d3b d43b
00000320: 69d9 153c 2062 2abc fb75 ba3b b357 22bc
00000330: 0f0b 423c fab2 eb3a bffd 6fbb f86b 863b
00000340: b283 da3b 55b6 913b 770e 293b 37ce d7ba
00000350: 2208 723c fdb3 33b9 a504 67bc 0e75 a5bc
00000360: 3049 fb3b 9010 41bc 89c1 273c 9f4f b33b
00000370: bfe4 373c 0bd6 a13b f2b8 6a3c 42c4 86bc
00000380: df2a 1bbc 796f 8d3b 35b4 8a39 22ab adbc
00000390: 328f 89bc 07dc 7dbb d2d9 31bb caa5 69bb
000003a0: 17e6 2b3c 760b 15bb e785 a53a 18b4 86bb
000003b0: 950f 8cbb 054c 68b8 baaa 303c 8deb 2ebb
000003c0: e581 d93b e089 6b3c d320 17bc d016 09bc
000003d0: ae81 88bb 4aa0 f8bb 2ae6 ce39 6bfe 8dbc
000003e0: ae01 9d3b 4365 53bb 7f80 b5bb 8c8d 9d3b
000003f0: aa8c 2c3c 3fb4 223c 1a01 f73b c76e 21bc

action_model._discrete_distribution.branches.0.bias f4 [9]
0.0 0.0 0.0 0.0 0.0 0.022882016 -0.029362915 0.044969276
-0.033989083
00000000: 0000 0000 0000 0000 0000 0000 0000 0000
00000010: 0000 0000 1173 bb3c 7f8a f0bc b431 383d
00000020: 2338 0bbd

action_model._discrete_distribution.branches.1.weight f4 [9, 128]
0.0450565 0.03942 -0.06353843 -0.018945388 0.0700013 -0.018701391 0.047203586 0.068315774
0.055968333 0.052796964 -0.017435985 -0.13940233 -0.069485694 -0.0081610195 0.026808469 0.060919907
0.041510813 -0.0021167279 0.026127703 0.023998588 0.020310452 -0.09382879 0.022591239 -0.07215276
-0.080926694 0.041303895 0.030653847 0.022987507 -0.006852937 -0.058844794 -0.007409183 0.011875226
-0.06943674 -0.0005079123 0.04022576 -0.03814922 -0.01155215 -0.03619313 -0.055848785 0.048532832
0.04465476 -0.0060373666 -0.09728713 -0.03260867 0.0484137 -0.0035558287 -0.08390093 0.01905974
0.0038114365 -0.093998134 -0.03926943 0.061868258 -0.0013580448 0.07834039 -0.10461398 0.04139329
0.024678744 0.0024328986 -0.023407266 -0.014126917 -0.073605224 -0.00055117655 -0.035784747 0.051873296
0.02191273 0.054557245 -0.042351812 -0.019498229 0.058211226 -0.05388714 -0.0037428231 0.013176231
0.049295437 0.07037626 -0.024102101 -0.0843314 -0.00071464037 0.05152203 -0.04415852 0.0069629145
0.043837097 -0.063840546 -0.07374477 0.043933578 -0.065700114 -0.014691744 -0.061639477 -0.09621973
0.0008846486 0.031901665 3.8487495e-05 0.046337694 0.026444549 -0.02655006 -0.07625305 0.014081071
-0.054901596 0.012254467 -0.015870823 0.018846376 0.071466774 0.003105788 -0.078865156 0.0036836478
-0.015342913 -0.049069837 -0.021534387 0.043066747 0.005610738 0.038652398 0.0021234725 0.037128896
0.035671305 -0.042836692 -0.043797463 0.09884183 0.036098007 0.0192514 0.005361287 -0.09362098
-0.09563353 -0.04061721 0.057944383 0.017707922 0.11519932 0.007432319 -0.0040498096 0.011740904
-0.051893502 0.0706076 0.054940958 0.02534433 0.027148157 0.04081878 0.055692464 -0.1106687
0.030497467 0.069027744 0.008257161 0.001391299 -0.003770413 0.011386747 0.08293908 0.033388525
0.023022337 -0.18092178 0.040801015 -0.059857167 -0.0759148 0.031050408 0.05711677 0.0012982172
0.18842521 -0.06693958 0.07115875 -0.04317547 -0.15974544 0.023122942 0.056298684 0.006067031
0.06762626 -0.047451865 -0.05880854 0.00862529 -0.011612466 0.039675687 0.0012705288 0.07493214
0.00746076 -0.20740232 0.08849553 -0.025942167 0.07799732 -0.029320214 0.052397005 -0.038222473
0.06467803 0.009205893 -0.051915385 0.047276046 0.034586564 0.007705286 0.0073078275 0.02115359
0.090296075 0.064976014 -0.02644879 0.064241365 0.062603764 -0.005811162 -0.011411249 -0.038235772
-0.068902686 -0.020276453 0.09607597 -0.14098041 -0.041728 0.09660557 0.09465593 -0.17322718
-0.029323848 0.049081583 0.005678588 -0.027706342 -0.12635049 -0.020553373 0.05622006 0.057382062
0.01309849 0.035681948 0.033186525 -0.04114371 0.033809233 0.08176658 0.07776079 -0.05258869
0.01659251 0.046463694 0.041760672 -0.03228679 0.07290718 0.03790635 0.0059559285 -0.023528887
0.069588065 -0.14971839 -0.017072422 -0.019178811 -0.03699382 -0.053064108 0.0767522 0.022590615
-0.072186045 -0.011582398 -0.031773202 -0.03583789 -0.00632589 0.03518159 -0.19895835 0.005454823
-0.006349502 0.019549625 0.053682152 -0.072796814 -0.016127417 -0.016813539 0.06739765 0.066227786
0.122373104 -0.040270556 0.021151451 -0.17305635 0.06681884 -0.039902423 0.08055681 -0.002464172
00000000: 2a8d 383d de76 213d 7020 82bd 5c33 9bbc
00000010: d75c 8f3d a933 99bc 8c58 413d 24e9 8b3d
00000020: 0d3f 653d a141 583d e9d5 8ebc 7cbf 0ebe
00000030: 844e 8ebd ccb5 05bc 6f9d db3c 2787 793d
00000040: 3e07 2a3d cdb8 0abb c409 d63c b098 c43c
00000050: 1b62 a63c 4f29 c0bd 4311 b93c d4c4 93bd
00000060: e5bc a5bd 462e 293d c71d fb3c 4c50 bc3c
00000070: 9a8e e0bb 3d07 71bd bbc8 f2bb 4f90 423c
00000080: d934 8ebd 6b25 05ba c4c3 243d 5b42 1cbd
00000090: 3b45 3dbc 3f3f 14bd b2c1 64bd 5dca 463d
000000a0: e9e7 363d 1ad5 c5bb 7a3e c7bd ab90 05bd
000000b0: 724d 463d e808 69bb 40d4 abbd 2c23 9c3c
000000c0: 4bc9 793b 1882 c0bd fbd8 20bd 9269 7d3d
000000d0: 6c00 b2ba ed70 a03d db3f d6bd 038c 293d
000000e0: 142b ca3c 4471 1f3b 98c0 bfbc 9674 67bc
000000f0: 56be 96bd d57c 10ba 0793 12bd 1879 543d
00000100: 5382 b33c 6b77 5f3d 1879 2dbd c0ba 9fbc
00000110: e56e 6e3d c3b8 5cbd 274a 75bb 1ee1 573c
00000120: 03ea 493d 6e21 903d c571 c5bc f1b5 acbd
00000130: b456 3bba c408 533d 90df 34bd 2929 e43b
00000140: 878e 333d d5be 82bd 7f07 97bd b2f3 333d
00000150: c88d 86bd a4b5 70bc ad79 7cbd da0e c5bd
00000160: c3e7 673a 52ab 023d a26d 2138 98cc 3d3d
00000170: 3da2 d83c 837f d9bc 8f2a 9cbd 4bb4 663c
00000180: 7fe0 60bd f6c6 483c 8703 82bc b763 9a3c
00000190: 2c5d 923d 7a8a 4b3b 0e84 a1bd 5b69 713b
000001a0: d760 7bbc 74fd 48bd e268 b0bc c266 303d
000001b0: 48da b73b fa51 1e3d f529 0b3b 7814 183d
000001c0: 131c 123d 8775 2fbd f864 33bd 966d ca3d
000001d0: 81db 133d 1db5 9d3c bcad af3b 5bbc bfbd
000001e0: 83db c3bd 3b5e 26bd 1757 6d3d 3410 913c
000001f0: 9fed eb3d d08a f33b 44b4 84bb ec5c 403c
00000200: 488e 54bd b89a 903d c509 613d ea9e cf3c
00000210: d065 de3c 9831 273d c81d 643d 45a6 e2bd
00000220: d3d5 f93c 6b5e 8d3d 0b49 073c 3f5c b63a
00000230: 0919 77bb 7a8f 3a3c f7db a93d 68c2 083d
00000240: 5799 bc3c 8f43 39be f71e 273d ca2c 75bd
00000250: 3879 9bbd 6d5d fe3c 46f3 693d f128 aa3a
00000260: 8af2 403e 9e17 89bd aebb 913d c3d8 30bd
00000270: 4f94 23be 536c bd3c 7399 663d f2cd c63b
00000280: a37f 8a3d e35c 42bd 39e1 70bd 1751 0d3c
00000290: 3642 3ebc f982 223d df87 a63a 0676 993d
000002a0: 6479 f43b 4661 54be 253d b53d ab84 d4bc
000002b0: 0fbd 9f3d f230 f0bc 3e9e 563d 2b8f 1cbd
000002c0: ea75 843d 50d4 163c 3aa5 54bd 87a4 413d
000002d0: a4aa 0d3d a07c fc3b 8076 ef3b 4b4a ad3c
000002e0: 26ed b83d 2512 853d 22ab d8bc fa90 833d
000002f0: 6736 803d 8f6b bebb 3ff6 3abc 1d9d 1cbd
00000300: da1c 8dbd ce1a a6bc 7ac3 c43d 2b5d 10be
00000310: fbea 2abd 24d9 c53d f8da c13d 7762 31be
00000320: 9138 f0bc c509 493d 7313 ba3b 69f8 e2bc
00000330: 0662 01be 8c5f a8bc 0147 663d 7409 6b3d
00000340: 0d9b 563c 3c27 123d 98ee 073d 4f86 28bd
00000350: 8d7b 0a3d 3d75 a73d 0d41 9f3d 3d67 57bd
00000360: 04ed 873c b750 3e3d 3d0d 2b3d 273f 04bd
00000370: 5c50 953d b043 1b3d f329 c33b a7bf c0bc
00000380: 3084 8e3d c74f 19be 77db 8bbc e21c 9dbc
00000390: d586 17bd c059 59bd 4230 9d3d f40f b93c
000003a0: 47d6 93bd 19c4 3dbc 9e24 02bd c0ca 12bd
000003b0: 6949 cfbb 921a 103d bdbb 4bbe 5fbe b23b
000003c0: 7c0f d0bb 8926 a03c d1e1 5b3d 7f16 95bd
000003d0: a51d 84bc 8cbc 89bc c707 8a3d 6fa2 873d
000003e0: c09e fa3d bdf2 24bd cf45 ad3c af35 31be
000003f0: 51d8 883d b970 23bd f8fa a43d f27d 21bb

action_model._discrete_distribution.branches.1.bias f4 [9]
0.013400068 -0.05231169 0.034794457 -0.04171726 0.053369362 0.0 0.0 0.0
0.0
00000000: f58b 5b3c c844 56bd a284 0e3d b8df 2abd
00000010: d599 5a3d 0000 0000 0000 0000 0000 0000
00000020: 0000 0000
