Lofty2024/results/Test13/MoveToPlayer/checkpoint.pt (torch, 459810 bytes, 36 tensors)

network_body._body_endoder.seq_layers.0.weight f4 [128, 12]
00000000: bbca 5b3d 4bb2 7bbe 5ee0 05be fed0 cb3e
00000010: 368c bfbe 9fca 033e 868b b2be 5935 413e
00000020: 47ec 8cbe d51f dbbd 3204 b83d 53c9 133f
00000030: 9d47 8abe 30b8 b0be 938e 59be 4634 a1bd
00000040: 5e82 8ebd 5ab2 63ba 7e35 e33c f452 67be
00000050: 436e 233e 48e9 473e af91 b03d 93a1 0d3e
00000060: 01ce ec3e 3712 da3e 9b46 c6bd 0322 3e3e
00000070: 3db0 babe 6332 28be 76e7 223b b95d 8d3e
00000080: 23e7 d1bc c3e4 c53d e4f4 01be 2b4f 4d3d
00000090: 2ff8 e73d fab7 df3d d6d7 78be 4593 ab3d
000000a0: 2b88 ac3e a7ef b33e 6f99 613e 34c1 7ebc
000000b0: 023b c63e e28f 8dbe f571 923d b519 86be
000000c0: a5ee 11be 92e6 053f 253b 253e 23e0 e63d
000000d0: e690 a43d fa53 1abf 9ed0 653e 01a3 4ebe
000000e0: 0ba1 023f 1367 173f e920 233e 3fba 9c3e
000000f0: 51e7 9e3e fc2e 963e 4a6d 04bf e185 2b3d
00000100: 4aa0 313d 6abe b8bc 1fa3 553e ef77 ecbd
00000110: 7b87 46bf 9700 d6bc a666 a8bd 7fec 763e
00000120: c04d 52be f353 d4be d2c3 383d 7f8a 9d3e
00000130: 08c3 3b3e 931d f83d 934b ca3d 3996 f6bd
00000140: 3219 b8bc c147 d6bd a044 55be 2bc3 39be
00000150: abae 1bbc f8a5 153f f262 d8be 22ed ef3c
00000160: b1ff 0abe 6d4b 89be 1a63 c03d b6ca 053f
00000170: e76a 3abd d5d2 d53e ca61 0e3e e86e 293e
00000180: b39a 67bd 88dd 9ebd fbec 92bc c5d6 6e3d
00000190: 3487 76bd c540 9fbd ac11 0ebe c22b 4b3e
000001a0: fd51 cebd 0702 233f 941c 28bc 6b15 db3d
000001b0: c0d1 4bbd 88a7 233d e2b6 333e 4ee3 883e
000001c0: d53a dabe cec5 97be 7116 d53d c808 5a3e
000001d0: ccad 303d 349d 0fbe 9bf4 593e 440c cd3d
000001e0: d203 7bbe a483 9c3c dc51 26be ae55 143e
000001f0: fe07 1cbf 5675 873e 0596 fabd 2faa 84be
00000200: 115b 82bd 8a7e 4dbe d0ee 4e3b 1ce3 703d
00000210: 02ae 92be 2d5a 783e d998 99be 8ce0 56be
00000220: f671 f33d a580 5fbc 95be cb3e 4129 c8be
00000230: 237f 5a3e 7f6f 093e df05 5abe b93e febe
00000240: 320d babe 1947 8bbe e2cd 173e edb6 b6be
00000250: 061d 05bf 659a 9fbe 812c 673e 2df7 193e
00000260: a444 18be 448d 1a3f afa4 8f3d 44d9 07be
00000270: eb31 f33d b5f0 5cbe 9f4a ef3d cbee 243d
00000280: 44c6 4a3e 5dcd cdbe c353 1c3e 7b41 a7be
00000290: c6f1 893e 7fdc 84bd bfee 8d3e ba14 03bf
000002a0: afbb 9abe a6e7 eabe de0a 40be 2642 083e
000002b0: 1406 093f 4bd5 9bbe 124e 293d 6b0f b5bd
000002c0: d58c aabe 4653 f9bd d54a c73d f840 5fbe
000002d0: 0925 45be 9c52 4ebe 241f 713d 5d4b 3abe
000002e0: e03e ed3d c262 dd3e 3a4d ff3d 77b1 12bf
000002f0: 263d b83d 1d61 ca3e 9ac7 803e 343a 433e
00000300: 3fee 03bf b22c 1cbd 274b 353e 1593 f1be
00000310: e216 abbc 2de1 5fbe a7b8 e1bd 8092 cb3d
00000320: 16cf 0f3f 52e7 d43d a45e 193d 025e c83e
00000330: 1830 58be fb03 87bd 0224 edbe 97e0 193e
00000340: d1d1 d33d 79c1 6ebe 0cac 62be 9262 96be
00000350: 86ac 323e e905 f93d f151 ae3e 5c4d fcbc
00000360: 9963 b9be 0adf 3a3c a8b9 5ebe fab9 e53d
00000370: 2acd 0c3d cb8b d2bb d6f8 2ebe 0d87 b2bd
00000380: 10d1 9c3e f9f7 9fbe 737f c5be 56a5 b63d
00000390: 0e43 8c3d bd6e 413d 292f 003f 5eb2 863e
000003a0: 398a 1f3d 532a 113f 6f71 b73e f5c6 0cbc
000003b0: df99 593e 64c8 5e3d d245 07be 80d6 b03e
000003c0: dc92 a6be b1be c0bd 1af2 c9bd 282a 04bc
000003d0: b785 84be 855c 56be b909 f03e 1db9 1d3f
000003e0: 0ae3 e8be b89f 0ebe de15 433c 3ba6 42be
000003f0: e7a9 433e 431d 053e 1bd1 82be 2a3c 7bbe
0.053660136 -0.24579732 -0.1307387 0.39807886 -0.3741166 0.12870263 -0.34872073 0.18868007
-0.27524015 -0.10699431 0.08985175 0.5772907 -0.27007762 -0.34515524 -0.21245794 -0.078712985
-0.06958459 -0.0008685939 0.027735468 -0.22590238 0.1596003 0.19522583 0.08621537 0.13831167
0.46250919 0.42592022 -0.09681436 0.18567662 -0.36462584 -0.16425471 0.00248572 0.27610567
-0.02562291 0.096627735 -0.12691075 0.05012433 0.11326634 0.109237626 -0.24301085 0.08377699
0.33697638 0.35143778 0.22031187 -0.015548993 0.38716894 -0.27648836 0.07150642 -0.26191488
-0.14251192 0.5230495 0.16135843 0.112732194 0.0803545 -0.6028439 0.22442862 -0.20179369
0.5102698 0.59141654 0.15930523 0.30610844 0.31035855 0.2933272 -0.5172926 0.041875724
0.043365754 -0.022551734 0.20863007 -0.11546313 -0.77550477 -0.026123328 -0.08222704 0.24113654
-0.20537472 -0.41470298 0.045108624 0.30769727 0.18336117 0.12115016 0.09877696 -0.120403714
-0.022472952 -0.10462905 -0.2082696 -0.18140857 -0.009502093 0.58456373 -0.4226299 0.029287878
-0.13574101 -0.26815358 0.09393902 0.5226244 -0.045512106 0.41762415 0.13904491 0.16546214
-0.056544017 -0.077570975 -0.017935267 0.05831029 -0.060187533 -0.07776026 -0.13873929 0.19840911
-0.10074232 0.6367497 -0.01026072 0.106974445 -0.04976058 0.039954692 0.17550233 0.2673592
-0.4262301 -0.296431 0.10404671 0.21292412 0.043134496 -0.14024812 0.21284716 0.10012105
-0.24513176 0.01910574 -0.16242164 0.14485809 -0.60949695 0.26456708 -0.12235645 -0.2591109
-0.06365026 -0.20067802 0.0031575449 0.05881034 -0.28648382 0.2425315 -0.29999426 -0.20984095
0.11886971 -0.013641511 0.3979384 -0.39093974 0.21337561 0.13421439 -0.21291302 -0.4965723
-0.36338192 -0.2720268 0.14824632 -0.35686436 -0.5199741 -0.3117248 0.2257557 0.15035696
-0.14869934 0.60371804 0.07013833 -0.13266474 0.118747555 -0.21576197 0.11684155 0.040266793
0.19802195 -0.40195742 0.15266328 -0.32667145 0.2694227 -0.06487369 0.2772121 -0.512035
-0.30221316 -0.4587986 -0.18754146 0.13306484 0.535249 -0.30436167 0.04133422 -0.08840831
-0.3331057 -0.12174086 0.0973107 -0.21802127 -0.19252409 -0.201487 0.05886759 -0.18192811
0.11584258 0.4323941 0.12465902 -0.5730204 0.08996038 0.39527217 0.25152284 0.19065171
-0.5153541 -0.038128562 0.1770445 -0.47182527 -0.020884935 -0.21863241 -0.11021548 0.09940052
0.56175363 0.10395683 0.037443772 0.39134222 -0.21112096 -0.06592556 -0.46316534 0.1502708
0.10342754 -0.23315991 -0.22135943 -0.29372078 0.17448625 0.121593304 0.3404689 -0.030798607
-0.362088 0.011405716 -0.2175051 0.11217113 0.034375347 -0.006425356 -0.17087111 -0.08717165
0.30628252 -0.31243876 -0.385738 0.08918254 0.06848727 0.04722475 0.5007196 0.26307958
0.03895018 0.56705207 0.3582873 -0.008592357 0.21250103 0.054390326 -0.13210228 0.3453865
-0.3253392 -0.094113715 -0.0986063 -0.008066691 -0.25883266 -0.20933731 0.46882418 0.61610585
-0.45485717 -0.13928115 0.011907069 -0.19008724 0.19107781 0.12999444 -0.2555016 -0.2453467

network_body._body_endoder.seq_layers.0.bias f4 [128]
00000000: a15c 063b 96f5 163b 88bd 52bb 83a0 13ba
00000010: 4c07 f539 7d0b daba 8b4b ecb8 4f44 0c3b
00000020: 7f5b 8d3b 21fa 273b d2db 14bb e63a 073a
00000030: 2a63 613a 1094 2fb9 defd c93a 48b2 f0b9
00000040: d984 e6ba 7f29 15bb 9176 c5ba 05a9 943b
00000050: 3c72 bbba d32b 2b3a 79c7 0abb 92a0 cd3a
00000060: 0253 bfba 4e6e 883a 3ff1 9fb9 0c23 9c3a
00000070: a670 c03a 7bda 37ba ccf0 413b db02 673b
00000080: 24d1 b83a b627 08ba 60b6 883a 21b9 d5ba
00000090: 708b b6b8 4d75 5abb 38b2 343b 0fcb ae3a
000000a0: 8208 5139 7b19 1f3b a35d a7ba 1fb0 44b9
000000b0: 85ec 6b3b 17e2 e5b7 e792 be3a 9b9f 81bb
000000c0: cfc9 9f3a d19b 52bb ed64 473b 1d45 dcba
000000d0: b96d 6f3b 8d49 13bb c474 023b 6dff 6e3b
000000e0: 70f9 303b 09ce e53a fa72 f2ba 3da2 22bb
000000f0: 1ba0 5d3a c67a a8ba abdf e2ba 719c ee3a
00000100: 14e3 333b 1549 92bb 7c11 86ba 2da3 14b9
00000110: 3b7c b03a eba6 693b a459 45ba ae66 b738
00000120: 2bc7 5a38 ef09 a93a a945 543b edee 37ba
00000130: 1b00 42bb b056 8e3a 0285 ceba 2e34 e5ba
00000140: 9c12 853b 54be 063b 90e4 45bb 58dd c8ba
00000150: 7124 c3ba f67c 4fba 0c37 f13a 952a 34b8
00000160: f3af 833b 5bcd 94ba 01bc 41bb e0d4 823b
00000170: d12d db3a 9149 8e3a 353f 123b a6f3 6e3b
00000180: 0bdc 4eba 2912 bcb8 e03c 0dbb 9003 0f3b
00000190: 5af6 4a3b d2ff 063b a756 dcba 52b5 3139
000001a0: aeb8 caba 6078 073b fec3 67bb 3ca4 613a
000001b0: 7080 673b ae82 c2ba ad0a 2938 c3a9 633a
000001c0: 12bf 81ba 741f 8dbb b0e3 48b9 58f2 513b
000001d0: daf3 12bb 82f7 09ba 3a33 c63a 776f 53bb
000001e0: 36a4 12b9 441e a93a a696 23bb 2311 1e3b
000001f0: 888c 973b e0fc 83b8 b2f9 533b 8ff3 4b3a
0.0020501988 0.0023034564 -0.0032156426 -0.0005631523 0.00046735478 -0.0016635504 -0.00011267428 0.002140302
0.0043138857 0.0025631266 -0.002271403 0.0005158618 0.00085978454 -0.00016744458 0.0015410741 -0.00045909197
-0.0017587199 -0.002276033 -0.0015065243 0.0045367503 -0.0014301012 0.00065296626 -0.0021176024 0.0015688112
-0.0014596882 0.001040885 -0.00030506586 0.00119123 0.0014682009 -0.0007013452 0.002959299 0.0035249505
0.0014100415 -0.00051939057 0.0010430329 -0.0016305783 -8.7044085e-05 -0.0033334077 0.0027572047 0.0013335663
0.00019934963 0.0024276662 -0.0012768995 -0.00018757627 0.003599913 -2.7404209e-05 0.001453963 -0.003955794
0.0012190881 -0.003213633 0.0030425147 -0.0016805265 0.0036533906 -0.002247426 0.0019906024 0.0036468164
0.0027004145 0.0017532717 -0.00184974 -0.002481594 0.00084543385 -0.0012853972 -0.001730909 0.0018204582
0.0027448582 -0.0044642785 -0.00102286 -0.00014175168 0.0013464758 0.003565247 -0.0007528311 8.7452456e-05
5.216074e-05 0.0012896637 0.0032390154 -0.0007016499 -0.0029602114 0.0010859575 -0.0015756192 -0.0017486864
0.0040610563 0.0020560222 -0.0030196048 -0.0015324755 -0.001488818 -0.0007915044 0.0018403246 -4.2955002e-05
0.0040187775 -0.0011352705 -0.0029561522 0.003992662 0.0016722028 0.0010855665 0.0022315506 0.0036461144
-0.00078910653 -8.967921e-05 -0.0021551177 0.0021822192 0.003096959 0.0020599258 -0.0016810492 0.00016947582
-0.0015466416 0.0020671114 -0.0035364623 0.00086075417 0.0035324357 -0.0014839971 4.0302682e-05 0.0008684659
-0.0009898862 -0.004306728 -0.00019158307 0.0032035317 -0.002242318 -0.0005263017 0.0015121468 -0.0032262483
-0.00013984818 0.0012902697 -0.002496162 0.00241191 0.004624907 -6.2936684e-05 0.0032344875 0.00077801285

network_body._body_endoder.seq_layers.2.weight f4 [128, 128]
00000000: 9af2 3d3d 666c 4fbd 56cb a83c 45f9 05bd
00000010: 1290 10bd ad49 373e 8f17 47be 8a55 c6bd
00000020: 9f61 323e 3b1c 0d3e aaef c73d b786 8cbc
00000030: 378b 6a3c 8673 d2ba 9250 99bd 5efc 8fbc
00000040: 9e81 a7bd 433f 6e3d 80b8 c63c 1c55 513c
00000050: 778f 3dbe 7f31 a03c 98d5 343d e1fd 4c3e
00000060: 66fe aa3b 2430 1fbd 1d5d 0dbe 04fa debc
00000070: d92e d63b f6e5 e4bd b9a3 0b3d 584f 48bd
00000080: d40b 13bd 5271 f93b 9598 003c 84f3 a3bc
00000090: 6cc6 233d 9d50 183e 0b8c 9c3d 749f a1bd
000000a0: 899d 86bd c3c8 243d d1e9 0cbd 8bd3 f83d
000000b0: dd06 dfbd 1a59 ed3d 82b5 003e ff99 31be
000000c0: 11a0 d1bc 69f2 023e 3387 a53d 19eb 953d
000000d0: 5222 b4bc 5d8c bb3c cab9 e4bc 9225 2f3e
000000e0: 479b d43d 5fd5 803d 5694 86bd 0fd7 cdbd
000000f0: 2217 e93d fe28 60bd 80f4 583d 23ca 003e
00000100: 0b2a 023d 85c3 49bc e8ce dcbb 28e9 9bbe
00000110: d401 a2bd 5c0f a93d bf2f a5bc ea8f 913d
00000120: 0ce1 edbc 6705 913c fa64 0ebd 0558 d8bd
00000130: 8911 c73b b048 413d 2bb0 2bbe 4ef6 473e
00000140: 352f 74bd d4a5 3dbc 2b94 edbb 64e8 a43c
00000150: 4e98 a63c 9637 c9bd 5085 873d 73a7 e53c
00000160: dcc1 62bd 4b0a 993d b116 2a3c cad2 7bbd
00000170: d9e9 073c eea4 5cbc 35a9 96bc e2b9 4dbc
00000180: 5fa9 523e f94d 0fbb d503 abbd a683 df3d
00000190: 0e94 25bd 9716 cdbd a158 c53d 8edd 4dbc
000001a0: e304 b43d c889 fc3b 888f 6e3d 5fcb da3d
000001b0: 36e6 f1bb bfbd ad3d 8853 0c3c 7b98 97bd
000001c0: 8302 b4bc 4232 e33d 5099 923d f2fe dfbd
000001d0: c64e 9f3d b6b6 bc3d 92f6 72bd c6d6 b53d
000001e0: 1d80 403d 8fd8 313d 4080 a6bd c217 11bd
000001f0: 4ed9 f43b 6e46 14be eb35 0f3e 0cbd cabd
00000200: e66f dd3d dab8 06be e29e 3abd bfa7 533d
00000210: f4b8 80bb 0318 053e e864 ee3b 2daf 1fbb
00000220: e3d4 0f3e 02b4 c03d 1a03 e0bd 68aa 1bbc
00000230: 02b6 95bc 08e6 0bbe 896e cf3c d348 1b3d
00000240: af47 f13d 641d 14bd 5262 7bbd a8af ccbc
00000250: e24a 5ebe e1a4 fe3d 3302 c2bc 98b5 14be
00000260: b4f6 1e3e 7438 ef3d 1d85 c93d 402d 90bd
00000270: 8c69 4ebd 7a0b c83c c1a5 123d 4200 7fbc
00000280: e130 c0bd 76ca dd3d eebd bc3d aa92 083e
00000290: 02a3 0a3d df32 9f3d f4c4 1fbd b13a 9fbd
000002a0: ace4 643e fdc6 bb3d 3705 3bbd e3cf b43c
000002b0: be63 bbbb da09 05be d7e1 c1bb 27ab 88bd
000002c0: 3d9e eb3d f14a 393e 3e1b 4ebd 2112 433e
000002d0: e1da 113e 8389 c73d 045f 2cbe ed5d b4bd
000002e0: 77dc 4a3d f6ce eebd 9464 563d 7d98 d5bd
000002f0: 3184 d43d d18c 303e 0b71 f33c 1bc4 9b3d
00000300: d9b8 413e 6a8c 223d b48b 593c b045 093e
00000310: 8528 593d 40d6 3dbe e3b3 aabd 16dc 953d
00000320: 5e93 8b3d 25d0 e9bc d287 0ebd 64a1 76bd
00000330: 40cb 903d 9db4 29be e085 cc39 e3e7 0a3d
00000340: 2c52 e43d cf31 78bd bc12 54bd 20a2 c03d
00000350: 16a2 103e 8916 b53c 5bbf 5d3c 2ebc c0bd
00000360: e5ee 5fbd 6853 3ebd 16ba 053e de92 e83c
00000370: 6d49 f33d a0cd 2a3e e9c2 df3c 0464 9a3c
00000380: 281f 7dbc bcc9 34bd ae97 543d 5f2e f7bc
00000390: d9d9 4abc 182a 26bd 2d23 81bd 5fdb bb3d
000003a0: 3d32 c13d 605f a13d d65d 2ebe 60ad 77bc
000003b0: 3ee3 453d 26ab 38bd d020 603b 2f01 88bd
000003c0: 0fec 083d bab6 813c 29ab 7a3d ec67 d23d
000003d0: 1054 e7bd 3c73 b73d 0692 c4bc f498 1c3d
000003e0: 682b 27bd 3b16 6bbd 5a85 b9bd fdc1 08be
000003f0: d91d dbbd de85 8fbd 6553 0f3d deb5 a8bd
0.04637394 -0.050640486 0.02060477 -0.032708425 -0.035293646 0.17899199 -0.1944258 -0.09684284
0.17420052 0.137803 0.09762509 -0.01715408 0.014315418 -0.0016056157 -0.07486071 -0.017576393
-0.081790194 0.0581658 0.024257898 0.012776639 -0.18511759 0.019554852 0.04414901 0.20018722
0.005218315 -0.03886427 -0.13805051 -0.027218826 0.0065363464 -0.11176674 0.034091685 -0.048903793
-0.035899952 0.007612386 0.007848878 -0.020013578 0.03998415 0.14874502 0.076438986 -0.078917414
-0.06573016 0.040230524 -0.034402672 0.121497236 -0.10889981 0.115892604 0.1256924 -0.17343901
-0.02558902 0.12787785 0.08082428 0.07320232 -0.021989021 0.022894079 -0.027920622 0.17104176
0.10381179 0.06290697 -0.065712616 -0.10050785 0.11381365 -0.054726593 0.05296755 0.12577109
0.031778377 -0.012314682 -0.0067385323 -0.30451322 -0.07910505 0.08254883 -0.020164369 0.071075276
-0.029037975 0.017702771 -0.034764268 -0.105636634 0.0060750884 0.04718846 -0.16766421 0.19527552
-0.059615333 -0.011575181 -0.007250329 0.020130344 0.020336296 -0.09825055 0.06617224 0.028033948
-0.05536066 0.07472666 0.010381387 -0.06148032 0.0082955 -0.013467057 -0.018391231 -0.012556525
0.20572422 -0.0021866544 -0.0835034 0.10913782 -0.0404244 -0.10014074 0.09636045 -0.01256503
0.087899946 0.0077068545 0.05824235 0.10683321 -0.0073821796 0.08483457 0.008564837 -0.0740213
-0.021973854 0.1109357 0.07158148 -0.10937299 0.07778697 0.09214537 -0.05931718 0.088788554
0.04699718 0.043419417 -0.081299305 -0.035423048 0.007472194 -0.14479992 0.13985412 -0.09899339
0.108123586 -0.13156453 -0.04556168 0.051673647 -0.003928298 0.12997441 0.0072752126 -0.0024365888
0.14046054 0.09409334 -0.109380916 -0.009501077 -0.018275265 -0.13661969 0.025321262 0.037911247
0.11781251 -0.03616084 -0.061373062 -0.024986103 -0.21708253 0.12433792 -0.02368269 -0.14522398
0.15523797 0.116806895 0.098398425 -0.07039881 -0.050393626 0.024419535 0.035802606 -0.015564026
-0.09384323 0.10829632 0.09215914 0.13337198 0.033846863 0.07773375 -0.03900619 -0.07774866
0.22352856 0.091688134 -0.04565927 0.022071784 -0.0057186773 -0.1299204 -0.005916815 -0.0667327
0.11504791 0.18094994 -0.05031895 0.19049884 0.14243652 0.09743025 -0.1683312 -0.088069774
0.049526658 -0.116605684 0.052342013 -0.104294755 0.10376776 0.17241217 0.029716989 0.076057635
0.1891817 0.03968469 0.013277937 0.1340549 0.053017158 -0.18538761 -0.08335092 0.07317369
0.068152174 -0.028541634 -0.034797497 -0.060212508 0.07070017 -0.16572805 0.00039009657 0.03391255
0.111484855 -0.060594376 -0.05177568 0.09405923 0.14124331 0.022105472 0.013534392 -0.094108924
-0.054671187 -0.04646626 0.13059267 0.028390344 0.11879239 0.16680002 0.02731462 0.01884652
-0.015449323 -0.0441377 0.051902466 -0.030173479 -0.0123810405 -0.040567487 -0.063055374 0.09172701
0.0943341 0.078795195 -0.17027983 -0.015117019 0.04831242 -0.045085095 0.0034199245 -0.06640851
0.033428248 0.015834201 0.061198387 0.10273728 -0.112953305 0.08957526 -0.02399541 0.038231805
-0.04081288 -0.057394248 -0.09058638 -0.1335525 -0.10699052 -0.07007955 0.03499164 -0.082378134

network_body._body_endoder.seq_layers.2.bias f4 [128]
00000000: b4b1 aa3a 7a76 153b bbe2 80ba b14e 25bb
00000010: 0086 643a ae5a d9ba 15ba faba e616 1939
00000020: b928 fb38 ba54 8cba 1387 083b 8a4c 15b9
00000030: 14c7 c0ba 8f90 1cb9 76d7 9839 1362 8f38
00000040: ec51 c13a a9b6 53bb 0c10 ac39 c854 c43a
00000050: 317f 6abb 0716 2c3b 7f36 3139 2577 c4ba
00000060: c074 0bbb 0cf0 4039 5701 833b a2ad e7b9
00000070: dabd a7ba 089b cc39 cbb2 e039 6716 1c3b
00000080: fd57 afba 666f 47bb eea0 4039 a0ff 75ba
00000090: cb45 33ba 340b 4abb d371 e8ba 83f9 82ba
000000a0: de15 b0ba 8206 c73a 5293 bcb8 26f3 09bb
000000b0: 6e0e 88b9 9044 dfba d903 683a 5273 4abb
000000c0: 14d7 58bb db61 d8ba cd82 793a d1cc 423b
000000d0: b695 05ba fe4c cf39 04a7 90b8 1d88 033a
000000e0: 80f9 1f3b 2ee0 473b 88c2 903a 6210 23bb
000000f0: 6a33 a33a 2293 e73a 3d77 c93a 62f9 38bb
00000100: 4121 d23a 65d4 87bb e01b 7bbb e512 613a
00000110: 123b 31ba 1f20 eeb9 34d2 aa3a 8f85 2339
00000120: 6730 2839 89f7 523a 7f65 9f39 f259 f0ba
00000130: a465 22ba 94c8 413a f9cb 5cb9 a1c4 dc3a
00000140: 644d 7f3a dc16 ff3a 8572 413b 7edb 9e38
00000150: 9532 d13a 29fc 06bb 7814 d138 405b dbba
00000160: fe27 d9ba 43bd 7cba ba64 533b 2ba7 1e3b
00000170: 803b dfba f253 683b 196b bbb9 0d28 44ba
00000180: 2da1 ca3a 7a33 1abb 559d c73a c48e 763b
00000190: 3715 77bb 34d6 a239 c868 1438 8a19 363b
000001a0: 7579 473b 9a11 1bbb 2a2f 02b9 86a0 c938
000001b0: dfcc f639 6987 3d3b 6999 a33a 10ba 9939
000001c0: 68af 2a3a 4ec2 81ba b26b 083b 0008 ecba
000001d0: ca6e 91bb 38ab 213b 0ce1 f239 6b1a 10bb
000001e0: 95a8 b7ba 5e98 8db9 33a2 2e3a 502e db3a
000001f0: 9de7 c4b9 94e7 0b3a 3bc4 073b 520e 3b3b
0.001302293 0.0022806213 -0.0009833196 -0.0025223906 0.00087174773 -0.0016582811 -0.0019128943 0.00014599747
0.00011976198 -0.0010706403 0.0020832464 -0.0001423826 -0.0014707767 -0.00014931172 0.0002915223 6.837039e-05
0.0014749146 -0.003230492 0.00032818352 0.001497888 -0.0035781378 0.0026258247 0.00016900337 -0.0014989121
-0.0021279305 0.00018399971 0.0039979625 -0.0004418912 -0.0012797669 0.0003902542 0.0004285782 0.0023817064
-0.0013377663 -0.003043139 0.00018370498 -0.00093840994 -0.0006838708 -0.0030829431 -0.0017734118 -0.0009992573
-0.0013434251 0.0015184435 -8.991979e-05 -0.0021049469 -0.00025950692 -0.0017033983 0.0008850671 -0.003089149
-0.003308718 -0.0016508655 0.0009518087 0.002972413 -0.0005095856 0.0003953948 -6.897564e-05 0.0005017536
0.0024410188 0.0030498612 0.0011044303 -0.002488159 0.0012451236 0.001766775 0.0015370619 -0.0028224816
0.0016031639 -0.0041451924 -0.0038316175 0.00085858844 -0.00067608163 -0.0004541883 0.0013032616 0.00015594646
0.0001603976 0.000804775 0.00030402464 -0.0018337353 -0.0006194955 0.0007392254 -0.0002105682 0.0016843268
0.000973901 0.0019461769 0.0029517722 7.574911e-05 0.0015960509 -0.0020597077 9.969709e-05 -0.0016735569
-0.0016567705 -0.00096412393 0.0032256083 0.0024208527 -0.0017031282 0.0035450426 -0.00035747213 -0.00074827747
0.0015459411 -0.0023529218 0.0015229384 0.0037621716 -0.0037701854 0.00031058642 3.5383535e-05 0.0027786219
0.0030437384 -0.0023661614 -0.00012415336 9.614327e-05 0.00047073417 0.0028919822 0.0012481633 0.0002932106
0.0006511123 -0.0009899826 0.0020816145 -0.0018007755 -0.004438256 0.0024668705 0.0004632551 -0.0021988403
-0.0014012033 -0.00027007138 0.0006661743 0.0016722176 -0.000375566 0.0005336937 0.0020716328 0.002854247

action_model._continuous_distribution.log_sigma f4 [1, 2]
00000000: f39a d83a 2865 a23a
0.0016525671 0.0012389766

action_model._continuous_distribution.mu.weight f4 [2, 128]
00000000: 47f5 fe3b 29bd 6b3a ad9d 93ba 7256 3a3b
00000010: b9ee 9abc 9e71 bbbb 0de7 70bc a7f3 16bc
00000020: 861f 0abd d8c9 2dbc 7123 dbbc c354 963c
00000030: 3dc2 a33c 50c8 b9bc b159 8c3b 816c 91bc
00000040: 996b 9b3b 92b6 173c 1e74 fdbc bfc8 b1bc
00000050: 440a 153c 9a25 323c d48e 773c b80c 963c
00000060: cee6 b93c f0f8 8bbc 27f1 fcba a1dc abbb
00000070: 1ab1 9b3c 3529 9dbb d3c9 a63c cb20 f6ba
00000080: 81d8 a53a c997 36bc 68d7 89bc f1e3 0e3c
00000090: 7d78 9abb 111a debc cf21 0fbd 0018 153c
000000a0: 7684 4d3c 208b bbbc 3643 d63c e52e 173c
000000b0: f2d1 86bb 3eb6 c2b8 b9d7 173c ace6 1d3c
000000c0: 99c8 343a 6817 6d3c 1fd5 8fbb 3941 12ba
000000d0: 734a 1ebc 0c74 d5bc 9963 0f3d c0f5 00bd
000000e0: 5552 933c 5c9c 173d 5577 48bc a89a 28bb
000000f0: 1d5a e5bc fd37 37bc ddd5 9abb dd30 283c
00000100: bb7d eb3b 950a b1bc 3ff9 eb39 1c19 7e3c
00000110: 9174 823c db95 b93b cfff 86bc f238 11bd
00000120: 1c90 0fbd 664a e6ba be5d 66bc a379 563c
00000130: d0b6 243b d808 393c 1fac 0cbd ab83 e43b
00000140: a442 66bc 4d90 06bd b182 17bc 415a c1bc
00000150: 3cfb 37bc 03b4 8f3c b46b 8fbc 0b4d 153d
00000160: 7afb f2ba e73e 13bc c24d 243c e45d efbb
00000170: 78db 1a3c bd82 d3bb 09ac 473c dfa5 2f3c
00000180: 3a1b a33c 4661 783c ef80 28bc 90c9 87bc
00000190: 9817 8d3a 9ddd bbbc 9826 76bc 98a8 47b9
000001a0: 2056 1fbc 64d6 453c ccc7 a73c 1389 0f3d
000001b0: c83a 2fbd 4ac8 40bc 2c1a f1bb c895 82bb
000001c0: 5913 5f3d 137c fe3c 38fe de3b 7712 98bb
000001d0: f82d 223c 8b1f c8bc ea79 91bc 36ab 36ba
000001e0: 7775 89bb 11ce cd3c e6ba b6bc 2be8 e7bc
000001f0: 3991 05bd 99df c93b c3ba efbb acb7 8f3c
00000200: a5cb 093b 34b4 6dbc 3bf3 06bd 5897 6939
00000210: a5fa 23bc 6b4c fabc 5cd9 06bd c27c 393c
00000220: 2ec3 27bb f1ca 753a 82e9 dbbc 235c c93a
00000230: 9d2c 9cbc 9abc 9cbb 6fc5 b53c acc2 97bc
00000240: 80f9 023c 9617 b3bc 1c70 e7bc 1301 4b3c
00000250: 6a2a e6bb af25 af3c 65b2 233c 444e 98bc
00000260: 5ef3 b6bc ca2d 8dbb 2084 d2bc 0213 1abc
00000270: 8a00 093d e682 323b eb25 103c 7640 19bb
00000280: 2bc5 92bc 0506 b1bc eb4e 97ba 3765 33ba
00000290: 4d26 803a 82b8 9bbc 4e68 88bc 3851 1d3b
000002a0: 54dc c0bc fc60 073c dbec 8b3c d585 f7bb
000002b0: 2c4f 8a39 1806 f1bc 8a60 ab3c cf8a 9cbc
000002c0: eaf2 33bc fee3 21bc 313a 723b 1096 0c3c
000002d0: 6679 14bb cebc 863b 0263 dabc de9e 833c
000002e0: 7d1f d53c ace9 fd3b 5e65 3fbc e4ab 3d39
000002f0: ef46 6c3c 806c 253c d35c 71bc 8b26 9fbc
00000300: b7ae 61bc 262a ef3c 8ed4 27bb 32b4 7cbc
00000310: ecaa d33b d668 353b e62e 30bc 431a 1a3b
00000320: a4b4 9b3b 958f 93ba 2d95 16bc 9491 1a3c
00000330: 41d3 963a dc5a 663c 48fd d9bc 8ec3 10bc
00000340: 707c ad3b 43af da3c c363 37bd 8e14 56bc
00000350: cc8f 7b3c 68ff 5fbc 7acd 07bc 2bb7 4cbc
00000360: 3328 bebc 4f42 30bc 4297 a23c faad 693c
00000370: 7dab 9e3b ba68 52bc e7b4 003c ddf5 edbb
00000380: b0ac bf3c c15d ecbb b1d0 c3bc 546d 2a3c
00000390: 0ca6 403b dcee d9ba 1b05 8b3a 62e8 b03b
000003a0: c37f b13c acc6 64bc 9df5 353c 0cf9 f13b
000003b0: 2dbf 893c 9c40 c93b 7be3 a23b 086d c8b9
000003c0: 991c 2f3c dea0 6bbc c371 113d 8bd6 42bc
000003d0: 9959 fe3c 590c cd3c fa1b 32bd cca5 1bbc
000003e0: 1f4c dbba 410a 613b c600 cc3b 3abc eabc
000003f0: 1fa7 0fbc 6c69 e8bb 335a 063c f04d bf3b
0.007780704 0.00089927256 -0.0011262201 0.0028432873 -0.01891266 -0.0057203313 -0.014703524 -0.009213365
-0.03372147 -0.010607205 -0.026750298 0.018350964 0.019990081 -0.022678524 0.004283153 -0.017751934
0.0047430512 0.009259837 -0.030939158 -0.021702169 0.009096686 0.010873223 0.0151097365 0.018316612
0.022693064 -0.017086476 -0.0019297943 -0.005244807 0.019005347 -0.004796172 0.02035991 -0.0018778084
0.0012653024 -0.011144587 -0.016826347 0.008721338 -0.0047140704 -0.027112039 -0.03494435 0.00909996
0.012543788 -0.022893488 0.026155096 0.009227489 -0.004114383 -9.284586e-05 0.009267741 0.009637516
0.00068963465 0.0144709125 -0.0043894197 -0.0005579177 -0.009661305 -0.026056312 0.035007093 -0.031484365
0.017983595 0.03701435 -0.012235482 -0.0025726948 -0.02799707 -0.011182782 -0.0047252015 0.010265556
0.007186619 -0.021611491 0.00045008396 0.015508916 0.015924724 0.005663616 -0.0164794 -0.035454698
-0.035049543 -0.001756978 -0.014060436 0.013090524 0.0025133379 0.011293612 -0.034343835 0.006973704
-0.014053974 -0.03285246 -0.009247468 -0.023602607 -0.011229333 0.017541891 -0.017507412 0.036450427
-0.0018538081 -0.008987165 0.0100283045 -0.007304894 0.0094517395 -0.006454794 0.0121870125 0.010720699
0.019910444 0.015159911 -0.010284646 -0.016575605 0.0010764478 -0.022932822 -0.01502385 -0.00019040925
-0.009725124 0.0120750405 0.020481013 0.035042834 -0.042780668 -0.011766503 -0.0073578563 -0.0039851405
0.05446181 0.031065023 0.0068052076 -0.004640873 0.009898655 -0.024429103 -0.017758328 -0.00069682614
-0.004194911 0.025122674 -0.022305917 -0.028308949 -0.0326092 0.006160688 -0.007315965 0.017543636
0.0021025923 -0.014508296 -0.032946806 0.00022276992 -0.010008489 -0.030554017 -0.032922134 0.0113212485
-0.0025598514 0.0009376249 -0.026844744 0.0015362542 -0.019064242 -0.0047832252 0.02218887 -0.018525444
0.007994056 -0.021861833 -0.0282517 0.012390393 -0.007024099 0.021380274 0.009991263 -0.018592007
-0.022332843 -0.004308437 -0.025697768 -0.009403946 0.03344778 0.0027238666 0.008798103 -0.002338437
-0.017916283 -0.021609316 -0.0011543905 -0.00068433903 0.000977704 -0.019008879 -0.016651299 0.002400471
-0.02354256 0.008262869 0.017080715 -0.007553796 0.000263804 -0.029421851 0.020920057 -0.019109158
-0.010983208 -0.009881018 0.0036960954 0.0085807 -0.0022655367 0.0041118627 -0.026658539 0.016066965
0.026015991 0.007748803 -0.011681883 0.00018088479 0.014421209 0.010096669 -0.014731604 -0.019427558
-0.013774565 0.029194903 -0.002560887 -0.015423821 0.0064595845 0.0027680895 -0.010753369 0.0023514188
0.0047517586 -0.0011258001 -0.00919084 0.009434123 0.001150705 0.0140597485 -0.026610032 -0.008835686
0.005294375 0.0266949 -0.044772875 -0.013066424 0.015354108 -0.013671733 -0.0082887355 -0.0124948425
-0.023212528 -0.010757997 0.019847516 0.014262671 0.0048422203 -0.012842352 0.0078556305 -0.007261975
0.023397774 -0.007213325 -0.023903223 0.010402042 0.0029395847 -0.0016626972 0.001060638 0.005398796
0.021667367 -0.013963383 0.011105922 0.007384425 0.016814793 0.0061417352 0.0049709654 -0.00038228207
0.010687971 -0.014381615 0.035508882 -0.011891971 0.031048583 0.025030302 -0.04348371 -0.009499978
-0.001673106 0.0034338387 0.006225678 -0.028654207 -0.008767872 -0.0070926454 0.008200216 0.0058381483

action_model._continuous_distribution.mu.bias f4 [2]
00000000: dc45 c1b9 3007 c23a
-0.00036863878 0.0014803167

exp_avg f4 [128, 12]
00000000: 372d 1435 372d 9434 d016 01b7 372d 94b5
00000010: 372d 9434 372d 94b5 e286 9f34 e286 1f34
00000020: 8e10 34b7 e286 1fb5 e286 1f34 e286 1fb5
00000030: f3ea 0237 f3ea 8236 ad0f 77b7 f3ea 82b7
00000040: f3ea 8236 f3ea 82b7 dcb5 eb36 dcb5 6b36
00000050: 7ce2 3eb7 dcb5 6bb7 dcb5 6b36 dcb5 6bb7
00000060: 013d 61b6 013d e1b5 4a6a 7fb7 013d e136
00000070: 013d e1b5 013d e136 976e 6cb6 976e ecb5
00000080: 01fb 60b7 976e ec36 976e ecb5 976e ec36
00000090: b338 09b7 b338 89b6 f0f8 aab7 b338 8937
000000a0: b338 89b6 b338 8937 e707 25b7 e707 a5b6
000000b0: 2270 b2b7 e707 a537 e707 a5b6 e707 a537
000000c0: 25b0 8837 25b0 0837 b546 5d37 25b0 08b8
000000d0: 25b0 0837 25b0 08b8 5ac9 8737 5ac9 0737
000000e0: 621b d537 5ac9 07b8 5ac9 0737 5ac9 07b8
000000f0: 2a94 d4b7 2a94 54b7 a271 f136 2a94 5438
00000100: 2a94 54b7 2a94 5438 d294 d4b7 d294 54b7
00000110: 46a5 ab37 d294 5438 d294 54b7 d294 5438
00000120: ed1f 3b36 ed1f bb35 3c89 b837 ed1f bbb6
00000130: ed1f bb35 ed1f bbb6 5aa4 f536 5aa4 7536
00000140: 301d 0e38 5aa4 75b7 5aa4 7536 5aa4 75b7
00000150: 0511 a3b6 0511 23b6 c946 13b8 0511 2337
00000160: 0511 23b6 0511 2337 79d4 b0b6 79d4 30b6
00000170: 0378 65b8 79d4 3037 79d4 30b6 79d4 3037
00000180: ed33 7f35 ed33 ff34 f1d3 0435 ed33 ffb5
00000190: ed33 ff34 ed33 ffb5 a32b 8f35 a32b 0f35
000001a0: 2bec 4435 a32b 0fb6 a32b 0f35 a32b 0fb6
000001b0: 99b4 b637 99b4 3637 2962 e036 99b4 36b8
000001c0: 99b4 3637 99b4 36b8 66a9 ba37 66a9 3a37
000001d0: 7ecb 8237 66a9 3ab8 66a9 3a37 66a9 3ab8
000001e0: dd53 4635 dd53 c634 2b89 0136 dd53 c6b5
000001f0: dd53 c634 dd53 c6b5 b6e1 9e35 b6e1 1e35
00000200: 0d40 b436 b6e1 1eb6 b6e1 1e35 b6e1 1eb6
00000210: eed2 9fb6 eed2 1fb6 430c 02b8 eed2 1f37
00000220: eed2 1fb6 eed2 1f37 2d97 e3b6 2d97 63b6
00000230: 8331 2ab8 2d97 6337 2d97 63b6 2d97 6337
00000240: 1e23 1137 1e23 9136 684c b137 1e23 91b7
00000250: 1e23 9136 1e23 91b7 7e0a 1937 7e0a 9936
00000260: 6354 1e38 7e0a 99b7 7e0a 9936 7e0a 99b7
00000270: 1736 2338 1736 a337 2f89 2939 1736 a3b8
00000280: 1736 a337 1736 a3b8 b1a8 3538 b1a8 b537
00000290: 78ef 8939 b1a8 b5b8 b1a8 b537 b1a8 b5b8
000002a0: 3ed7 c7b6 3ed7 47b6 1f0f 05b9 3ed7 4737
000002b0: 3ed7 47b6 3ed7 4737 d473 25b7 d473 a5b6
000002c0: de29 36b9 d473 a537 d473 a5b6 d473 a537
000002d0: ced5 1835 ced5 9834 86f7 e834 ced5 98b5
000002e0: ced5 9834 ced5 98b5 70b1 1835 70b1 9834
000002f0: 2e7d 8033 70b1 98b5 70b1 9834 70b1 98b5
00000300: b715 f2b7 b715 72b7 791f 8438 b715 7238
00000310: b715 72b7 b715 7238 b941 f3b7 b941 73b7
00000320: 5083 8b37 b941 7338 b941 73b7 b941 7338
00000330: 6af4 00b5 6af4 80b4 0d34 e4b6 6af4 8035
00000340: 6af4 80b4 6af4 8035 4bca 67b5 4bca e7b4
00000350: 7b04 07b7 4bca e735 4bca e7b4 4bca e735
00000360: c745 3935 c745 b934 2b22 c937 c745 b9b5
00000370: c745 b934 c745 b9b5 c212 1d36 c212 9d35
00000380: b5ed f337 c212 9db6 c212 9d35 c212 9db6
00000390: 765e 71b4 765e f1b3 5fa1 67b7 765e f134
000003a0: 765e f1b3 765e f134 e404 f7b3 e404 77b3
000003b0: 178e 86b7 e404 7734 e404 77b3 e404 7734
000003c0: e21c d2b7 e21c 52b7 a92f ebb6 e21c 5238
000003d0: e21c 52b7 e21c 5238 152f d1b7 152f 51b7
000003e0: 3ca1 23b8 152f 5138 152f 51b7 152f 5138
000003f0: a52b 2238 a52b a237 73bf 8e38 a52b a2b8
5.520009e-07 2.7600046e-07 -7.694311e-06 -1.1040019e-06 2.7600046e-07 -1.1040019e-06 2.9714198e-07 1.4857099e-07
-1.07326905e-05 -5.9428396e-07 1.4857099e-07 -5.9428396e-07 7.803307e-06 3.9016536e-06 -1.4725997e-05 -1.5606614e-05
3.9016536e-06 -1.5606614e-05 7.024717e-06 3.5123585e-06 -1.1377615e-05 -1.4049434e-05 3.5123585e-06 -1.4049434e-05
-3.3563122e-06 -1.6781561e-06 -1.5223932e-05 6.7126243e-06 -1.6781561e-06 6.7126243e-06 -3.5231112e-06 -1.7615556e-06
-1.3409882e-05 7.0462224e-06 -1.7615556e-06 7.0462224e-06 -8.179038e-06 -4.089519e-06 -2.03815e-05 1.6358075e-05
-4.089519e-06 1.6358075e-05 -9.836606e-06 -4.918303e-06 -2.127147e-05 1.9673213e-05 -4.918303e-06 1.9673213e-05
1.6294487e-05 8.1472435e-06 1.3189089e-05 -3.2588974e-05 8.1472435e-06 -3.2588974e-05 1.6187016e-05 8.093508e-06
2.540433e-05 -3.237403e-05 8.093508e-06 -3.237403e-05 -2.5341364e-05 -1.2670682e-05 7.1955883e-06 5.0682727e-05
-1.2670682e-05 5.0682727e-05 -2.534167e-05 -1.2670835e-05 2.046175e-05 5.068334e-05 -1.2670835e-05 5.068334e-05
2.7883755e-06 1.3941877e-06 2.1998414e-05 -5.576751e-06 1.3941877e-06 -5.576751e-06 7.320702e-06 3.660351e-06
3.388262e-05 -1.4641404e-05 3.660351e-06 -1.4641404e-05 -4.85976e-06 -2.42988e-06 -3.5113455e-05 9.71952e-06
-2.42988e-06 9.71952e-06 -5.269944e-06 -2.634972e-06 -5.4709624e-05 1.0539888e-05 -2.634972e-06 1.0539888e-05
9.5070465e-07 4.7535232e-07 4.948225e-07 -1.9014093e-06 4.7535232e-07 -1.9014093e-06 1.066703e-06 5.333515e-07
7.335936e-07 -2.133406e-06 5.333515e-07 -2.133406e-06 2.1780188e-05 1.0890094e-05 6.6871476e-06 -4.3560376e-05
1.0890094e-05 -4.3560376e-05 2.225181e-05 1.1125905e-05 1.5591966e-05 -4.450362e-05 1.1125905e-05 -4.450362e-05
7.3882785e-07 3.6941393e-07 1.930234e-06 -1.4776557e-06 3.6941393e-07 -1.4776557e-06 1.1837608e-06 5.918804e-07
5.3718745e-06 -2.3675216e-06 5.918804e-07 -2.3675216e-06 -4.7631247e-06 -2.3815624e-06 -3.1005835e-05 9.526249e-06
-2.3815624e-06 9.526249e-06 -6.7827264e-06 -3.3913632e-06 -4.057727e-05 1.3565453e-05 -3.3913632e-06 1.3565453e-05
8.65085e-06 4.325425e-06 2.1135624e-05 -1.73017e-05 4.325425e-06 -1.73017e-05 9.121954e-06 4.560977e-06
3.7748727e-05 -1.8243907e-05 4.560977e-06 -1.8243907e-05 3.8912603e-05 1.9456302e-05 0.00016168201 -7.782521e-05
1.9456302e-05 -7.782521e-05 4.331087e-05 2.1655434e-05 0.00026309094 -8.662174e-05 2.1655434e-05 -8.662174e-05
-5.9557196e-06 -2.9778598e-06 -0.00012689501 1.1911439e-05 -2.9778598e-06 1.1911439e-05 -9.861735e-06 -4.9308674e-06
-0.0001737247 1.972347e-05 -4.9308674e-06 1.972347e-05 5.693554e-07 2.846777e-07 4.3393464e-07 -1.1387108e-06
2.846777e-07 -1.1387108e-06 5.688262e-07 2.844131e-07 5.9832345e-08 -1.1376524e-06 2.844131e-07 -1.1376524e-06
-2.885876e-05 -1.442938e-05 6.300113e-05 5.771752e-05 -1.442938e-05 5.771752e-05 -2.8998462e-05 -1.4499231e-05
1.6631238e-05 5.7996924e-05 -1.4499231e-05 5.7996924e-05 -4.8039385e-07 -2.4019693e-07 -6.800989e-06 9.607877e-07
-2.4019693e-07 9.607877e-07 -8.634858e-07 -4.317429e-07 -8.04767e-06 1.7269716e-06 -4.317429e-07 1.7269716e-06
6.901941e-07 3.4509705e-07 2.3976978e-05 -1.3803882e-06 3.4509705e-07 -1.3803882e-06 2.3405742e-06 1.1702871e-06
2.9078548e-05 -4.6811483e-06 1.1702871e-06 -4.6811483e-06 -2.2479239e-07 -1.12396194e-07 -1.3806245e-05 4.4958477e-07
-1.12396194e-07 4.4958477e-07 -1.15027234e-07 -5.7513617e-08 -1.604021e-05 2.3005447e-07 -5.7513617e-08 2.3005447e-07
-2.50474e-05 -1.25237e-05 -7.009094e-06 5.00948e-05 -1.25237e-05 5.00948e-05 -2.4936666e-05 -1.2468333e-05
-3.901239e-05 4.987333e-05 -1.2468333e-05 4.987333e-05 3.8664457e-05 1.9332228e-05 6.806748e-05 -7.7328914e-05

exp_avg_sq f4 [128, 12]
00000000: 5dd5 382d 5dd5 382c ba4a 3b2e 5dd5 382e
00000010: 5dd5 382c 5dd5 382e 2afa 382d 2afa 382c
00000020: 307b 3f2e 2afa 382e 2afa 382c 2afa 382e
00000030: 7c46 702e 7c46 702d 43fe 112f 7c46 702f
00000040: 7c46 702d 7c46 702f f449 862e f449 862d
00000050: d8a8 1e2f f449 862f f449 862d f449 862f
00000060: 08a2 262f 08a2 262e e4fd 9f2f 08a2 2630
00000070: 08a2 262e 08a2 2630 cc1f 262f cc1f 262e
00000080: f7c4 982f cc1f 2630 cc1f 262e cc1f 2630
00000090: ef6d 0330 ef6d 032f c01f 4d30 ef6d 0331
000000a0: ef6d 032f ef6d 0331 7576 0b30 7576 0b2f
000000b0: 2ad8 5730 7576 0b31 7576 0b2f 7576 0b31
000000c0: 6c01 562e 6c01 562d 5eb7 fd2e 6c01 562f
000000d0: 6c01 562d 6c01 562f 1225 552e 1225 552d
000000e0: e03f 2e2f 1225 552f 1225 552d 1225 552f
000000f0: 4dee d130 4dee d12f ea2f a531 4dee d131
00000100: 4dee d12f 4dee d131 71af d230 71af d22f
00000110: d446 8e31 71af d231 71af d22f 71af d231
00000120: 98b3 5c2f 98b3 5c2e 610a 2a30 98b3 5c30
00000130: 98b3 5c2e 98b3 5c30 478b 592f 478b 592e
00000140: 8391 3830 478b 5930 478b 592e 478b 5930
00000150: 2c25 4d2f 2c25 4d2e 4284 e72f 2c25 4d30
00000160: 2c25 4d2e 2c25 4d30 c3f1 4a2f c3f1 4a2e
00000170: 06c5 f22f c3f1 4a30 c3f1 4a2e c3f1 4a30
00000180: bc63 462c bc63 462b 2292 052d bc63 462d
00000190: bc63 462b bc63 462d 3f99 442c 3f99 442b
000001a0: a845 152d 3f99 442d 3f99 442b 3f99 442d
000001b0: 76bb c72e 76bb c72d 7b79 822f 76bb c72f
000001c0: 76bb c72d 76bb c72f b1ad c42e b1ad c42d
000001d0: eea5 972f b1ad c42f b1ad c42d b1ad c42f
000001e0: dc5b 142c dc5b 142b 649b 1b2d dc5b 142d
000001f0: dc5b 142b dc5b 142d a3fc 522c a3fc 522b
00000200: ba3c 662d a3fc 522d a3fc 522b a3fc 522d
00000210: 33de c82f 33de c82e 50e6 5130 33de c830
00000220: 33de c82e 33de c830 c0a9 c92f c0a9 c92e
00000230: 47dd 5e30 c0a9 c930 c0a9 c92e c0a9 c930
00000240: adbf 842f adbf 842e 3af2 bc30 adbf 8430
00000250: adbf 842e adbf 8430 c157 822f c157 822e
00000260: e59b c330 c157 8230 c157 822e c157 8230
00000270: 64be af31 64be af30 7889 9832 64be af32
00000280: 64be af30 64be af32 7999 ab31 7999 ab30
00000290: dede a632 7999 ab32 7999 ab30 7999 ab32
000002a0: e829 e730 e829 e72f 5ba4 9931 e829 e731
000002b0: e829 e72f e829 e731 93b4 df30 93b4 df2f
000002c0: 5e16 af31 93b4 df31 93b4 df2f 93b4 df31
000002d0: b75f a22c b75f a22b 7dbf 182d b75f a22d
000002e0: b75f a22b b75f a22d 8e23 a22c 8e23 a22b
000002f0: fe77 212d 8e23 a22d 8e23 a22b 8e23 a22d
00000300: d4d2 6f31 d4d2 6f30 2e47 3732 d4d2 6f32
00000310: d4d2 6f30 d4d2 6f32 5b9d 6f31 5b9d 6f30
00000320: 77e5 3632 5b9d 6f32 5b9d 6f30 5b9d 6f32
00000330: 3b48 032f 3b48 032e 65bc 952f 3b48 0330
00000340: 3b48 032e 3b48 0330 e8c4 022f e8c4 022e
00000350: c9b9 862f e8c4 0230 e8c4 022e e8c4 0230
00000360: 704e b62e 704e b62d fde8 a02f 704e b62f
00000370: 704e b62d 704e b62f 0196 b12e 0196 b12d
00000380: 8609 b32f 0196 b12f 0196 b12d 0196 b12f
00000390: 0fd5 8a2d 0fd5 8a2c eeaf 092e 0fd5 8a2e
000003a0: 0fd5 8a2c 0fd5 8a2e 814d 8c2d 814d 8c2c
000003b0: 7e7c 102e 814d 8c2e 814d 8c2c 814d 8c2e
000003c0: 4a12 c630 4a12 c62f d854 3c31 4a12 c631
000003d0: 4a12 c62f 4a12 c631 9682 d830 9682 d82f
000003e0: 533e 4731 9682 d831 9682 d82f 9682 d831
000003f0: a7ee ab30 a7ee ab2f d792 8d31 a7ee ab31
1.0506565e-11 2.6266413e-12 4.2585248e-11 4.202626e-11 2.6266413e-12 4.202626e-11 1.0514737e-11 2.6286842e-12
4.3537784e-11 4.2058947e-11 2.6286842e-12 4.2058947e-11 5.4632285e-11 1.3658071e-11 1.3278005e-10 2.1852914e-10
1.3658071e-11 2.1852914e-10 6.106751e-11 1.5266878e-11 1.4430002e-10 2.4427005e-10 1.5266878e-11 2.4427005e-10
1.5155177e-10 3.7887943e-11 2.9102332e-10 6.062071e-10 3.7887943e-11 6.062071e-10 1.5108909e-10 3.777227e-11
2.778859e-10 6.0435634e-10 3.777227e-11 6.0435634e-10 4.781375e-10 1.1953437e-10 7.4623685e-10 1.91255e-09
1.1953437e-10 1.91255e-09 5.0736243e-10 1.2684061e-10 7.852373e-10 2.0294497e-09 1.2684061e-10 2.0294497e-09
4.865923e-11 1.2164807e-11 1.15376805e-10 1.9463692e-10 1.2164807e-11 1.9463692e-10 4.8463518e-11 1.21158795e-11
1.5847901e-10 1.9385407e-10 1.21158795e-11 1.9385407e-10 1.5274481e-09 3.8186201e-10 4.8075792e-09 6.1097922e-09
3.8186201e-10 6.1097922e-09 1.5329374e-09 3.8323436e-10 4.140796e-09 6.1317498e-09 3.8323436e-10 6.1317498e-09
2.0072688e-10 5.018172e-11 6.186039e-10 8.029075e-10 5.018172e-11 8.029075e-10 1.9785516e-10 4.946379e-11
6.7145595e-10 7.9142065e-10 4.946379e-11 7.9142065e-10 1.8657847e-10 4.664462e-11 4.211263e-10 7.463139e-10
4.664462e-11 7.463139e-10 1.8457684e-10 4.614421e-11 4.4159537e-10 7.3830736e-10 4.614421e-11 7.3830736e-10
2.8192856e-12 7.048214e-13 7.592623e-12 1.1277142e-11 7.048214e-13 1.1277142e-11 2.7938344e-12 6.984586e-13
8.485136e-12 1.11753376e-11 6.984586e-13 1.11753376e-11 9.082772e-11 2.270693e-11 2.373318e-10 3.6331088e-10
2.270693e-11 3.6331088e-10 8.943902e-11 2.2359755e-11 2.758464e-10 3.5775607e-10 2.2359755e-11 3.5775607e-10
2.1083057e-12 5.2707643e-13 8.845234e-12 8.433223e-12 5.2707643e-13 8.433223e-12 2.9983036e-12 7.495759e-13
1.308747e-11 1.1993215e-11 7.495759e-13 1.1993215e-11 3.653767e-10 9.1344175e-11 7.636105e-10 1.4615068e-09
9.1344175e-11 1.4615068e-09 3.6682302e-10 9.1705754e-11 8.1077584e-10 1.4672921e-09 9.1705754e-11 1.4672921e-09
2.4146854e-10 6.0367135e-11 1.3747645e-09 9.658742e-10 6.0367135e-11 9.658742e-10 2.3709215e-10 5.927304e-11
1.4232425e-09 9.483686e-10 5.927304e-11 9.483686e-10 5.1148152e-09 1.2787038e-09 1.7757642e-08 2.0459261e-08
1.2787038e-09 2.0459261e-08 4.994203e-09 1.2485507e-09 1.9426292e-08 1.9976811e-08 1.2485507e-09 1.9976811e-08
1.6819373e-09 4.2048431e-10 4.471571e-09 6.727749e-09 4.2048431e-10 6.727749e-09 1.6276708e-09 4.069177e-10
5.095713e-09 6.510683e-09 4.069177e-10 6.510683e-09 4.6149434e-12 1.1537359e-12 8.682719e-12 1.8459774e-11
1.1537359e-12 1.8459774e-11 4.6082643e-12 1.1520661e-12 9.178434e-12 1.8433057e-11 1.1520661e-12 1.8433057e-11
3.489892e-09 8.72473e-10 1.0668186e-08 1.3959568e-08 8.72473e-10 1.3959568e-08 3.4868524e-09 8.717131e-10
1.06459686e-08 1.39474094e-08 8.717131e-10 1.39474094e-08 1.1940042e-10 2.9850105e-11 2.7236804e-10 4.776017e-10
2.9850105e-11 4.776017e-10 1.1893386e-10 2.9733466e-11 2.4506466e-10 4.7573545e-10 2.9733466e-11 4.7573545e-10
8.290335e-11 2.0725838e-11 2.9269379e-10 3.316134e-10 2.0725838e-11 3.316134e-10 8.075674e-11 2.0189185e-11
3.2566677e-10 3.2302697e-10 2.0189185e-11 3.2302697e-10 1.57834e-11 3.94585e-12 3.130645e-11 6.31336e-11
3.94585e-12 6.31336e-11 1.5950576e-11 3.987644e-12 3.285238e-11 6.3802304e-11 3.987644e-12 6.3802304e-11
1.4411594e-09 3.6028985e-10 2.7405829e-09 5.7646377e-09 3.6028985e-10 5.7646377e-09 1.5753183e-09 3.9382958e-10
2.8993739e-09 6.3012733e-09 3.9382958e-10 6.3012733e-09 1.2509717e-09 3.1274291e-10 4.120334e-09 5.0038866e-09

exp_avg f4 [128]
00000000: c686 9f34 e7b5 eb36 976e 6cb6 eb07 25b7
00000010: 5bc9 8737 d294 d4b7 65a4 f536 83d4 b0b6
00000020: a02b 8f35 65a9 ba37 b4e1 9e35 2697 e3b6
00000030: 7d0a 1937 b4a8 3538 d673 25b7 6fb1 1835
00000040: be41 f3b7 80ca 67b5 c012 1d36 1506 f7b3
00000050: 092f d1b7 a174 2738 5289 10b4 f492 35b6
00000060: 315f 9037 ef3e 3338 48bc 82b7 38e0 cd36
00000070: c676 0038 1291 0737 7dcf 9937 140c 2a37
00000080: 0ddc d037 7ac8 e437 cec8 c238 d3ec 6733
00000090: 6d62 d337 9ffe bdb7 e21c 8337 b5f7 d837
000000a0: 419f 1336 eb47 fc36 dbd7 34b2 ef1e bc37
000000b0: b966 e938 d8cd 4036 00ee 0c37 db9d 81b6
000000c0: ecfc 0038 36b7 0136 a45d fb37 66b3 9c37
000000d0: a558 4c37 4ee6 3fb6 1b70 f735 61b6 7638
000000e0: b9ac 0937 4dfd 2837 59dd 27b7 9753 99b7
000000f0: 9543 a137 8fd0 55b7 14bc 8fb7 55f2 8536
00000100: d04b 0038 503d e7b7 49df 0138 2824 b237
00000110: f0e4 ec37 eb62 a937 e967 4f38 0179 b337
00000120: 02fa 1837 1c52 6137 e35a 1537 0c29 5fb7
00000130: 8ea8 9db7 f55d a2b7 0c32 92b7 1e82 9ab7
00000140: ff15 1f38 1342 5338 78dc f4b6 5775 e5b7
00000150: 8b77 7835 0707 f237 f002 3437 8524 a7b5
00000160: 97af af36 c1eb 4cb5 a7a0 98b7 96fe 0a36
00000170: 9c01 e935 14af e936 3684 6d37 a975 5137
00000180: fa9d df35 7389 0535 e49b 39b6 8017 b437
00000190: d0da f335 2cd6 5c36 5bf4 26b8 b35c fa37
000001a0: 0e7f 58b6 5b35 c537 6205 9d34 f374 a837
000001b0: d078 cf36 cfd6 8336 f543 3e38 b9a9 8c38
000001c0: 30e2 d535 aa41 bcb7 7aef 0e38 3e40 5b38
000001d0: f388 37b8 88bd 42b5 f570 dbb7 4c05 73b5
000001e0: 8bcd c7b6 b0c0 3238 146b f0b7 04af 0c38
000001f0: 4405 4d34 d86e e236 15e2 4b37 4e92 fd36
2.9714118e-07 7.024722e-06 -3.5231112e-06 -9.83661e-06 1.6187018e-05 -2.534167e-05 7.320707e-06 -5.2699484e-06
1.0667027e-06 2.2251808e-05 1.1837606e-06 -6.782723e-06 9.121953e-06 4.331088e-05 -9.8617365e-06 5.688261e-07
-2.8998471e-05 -8.634888e-07 2.3405737e-06 -1.150294e-07 -2.4936644e-05 3.9924522e-05 -1.3461002e-07 -2.705664e-06
1.7210465e-05 4.2735537e-05 -1.5584883e-05 6.1355786e-06 3.0628195e-05 8.080404e-06 1.833564e-05 1.0135602e-05
2.4898001e-05 2.7273072e-05 9.288044e-05 5.399927e-08 2.5198993e-05 -2.2649123e-05 1.5629867e-05 2.5864554e-05
2.1997405e-06 7.5185576e-06 -1.0526459e-08 2.2425751e-05 0.000111294394 2.8730046e-06 8.400064e-06 -3.8628764e-06
3.075313e-05 1.932914e-06 2.9965136e-05 1.8680188e-05 1.2179987e-05 -2.8595273e-06 1.8435561e-06 5.8820824e-05
8.2060515e-06 1.00725565e-05 -1.0005512e-05 -1.8277946e-05 1.9224166e-05 -1.2744348e-05 -1.713451e-05 3.99192e-06
3.0588184e-05 -2.7565897e-05 3.0963947e-05 2.123609e-05 2.824e-05 2.0192432e-05 4.944942e-05 2.139481e-05
9.1181155e-06 1.3430163e-05 8.902253e-06 -1.3301393e-05 -1.8794348e-05 -1.9355657e-05 -1.7427861e-05 -1.8418821e-05
3.792904e-05 5.0367857e-05 -7.2974326e-06 -2.7353568e-05 9.256116e-07 2.885192e-05 1.072952e-05 -1.2453098e-06
5.2358478e-06 -7.633899e-07 -1.8194622e-05 2.071179e-06 1.7360321e-06 6.964323e-06 1.4157084e-05 1.2484766e-05
1.6660772e-06 4.9746376e-07 -2.7657888e-06 2.1468615e-05 1.8168594e-06 3.290722e-06 -3.9805058e-05 2.9845489e-05
-3.2260464e-06 2.3509076e-05 2.9247445e-07 2.008162e-05 6.183145e-06 3.9291112e-06 4.536282e-05 6.7073335e-05
1.5935566e-06 -2.2441924e-05 3.4078468e-05 5.22735e-05 -4.3758144e-05 -7.2546436e-07 -2.6159434e-05 -9.053226e-07
-5.9545905e-06 4.261796e-05 -2.8660092e-05 3.3541597e-05 1.9094028e-07 6.7482288e-06 1.2152382e-05 7.5570197e-06

exp_avg_sq f4 [128]
00000000: 29fa 382d f449 862e ca1f 262f 7376 0b30
00000010: 1325 552e 72af d230 458b 592f c0f1 4a2f
00000020: 4199 442c b3ad c42e a3fc 522c bfa9 c92f
00000030: c057 822f 7c99 ab31 93b4 df30 8c23 a22c
00000040: 5d9d 6f31 e5c4 022f ff95 b12e 814d 8c2d
00000050: 9582 d830 9ecb ab30 b98b 4d2f 1f59 552e
00000060: c6d6 3031 b75d 3f30 5940 f430 2945 e62f
00000070: 8520 c130 5eca e12e 5798 4a30 db92 9c2f
00000080: a93f 4731 b62c bc30 deef 8832 c00a 322d
00000090: dfae a62f 3f24 5430 b5ca 1830 3187 0e31
000000a0: 3746 a930 a5fc 862d ad2e 422d 0508 c831
000000b0: f0b5 c331 aef3 422f b8d4 842e 37ea 042d
000000c0: e182 c02f d4bc 832f b5ed 1230 03c1 df30
000000d0: 8d8b 8e2f 5845 2a30 2d07 322f 610b c330
000000e0: 4f59 372d c873 f830 d8f4 4a2f 0c5a af2f
000000f0: ade1 3931 6dce f231 b04b 6230 324d b62e
00000100: 7a04 1330 a86b 1330 ef82 2c30 a4f6 c82f
00000110: 6011 a22f 2d7e a82f 6e92 a331 b7a5 de2f
00000120: 4eae e530 e549 0831 c5c9 d02f 3b79 182f
00000130: a3a0 ae2f 35d5 ce31 4df7 bc31 3c20 7c30
00000140: 32ac 3730 8a5f 9130 53b5 b92d 2dea d430
00000150: 340d 032d 4795 a231 7ec6 082e 4c29 3e31
00000160: 93f1 362e 3d87 902d de7c 662f bcdc a02d
00000170: 13eb fe2d 314f f82f 5116 352f 1474 ac2e
00000180: 38c8 032d dd00 3231 f768 a22f 0685 d131
00000190: 7060 022f 9be4 d930 d747 1832 53fb c730
000001a0: 0b9c 3d2e 49f4 dd2e 5735 262e 29a1 0a31
000001b0: bd34 1b2f 9c3c cd2e 750c 0931 020f 1932
000001c0: e528 e12f e732 3d30 fcdf 8f30 a030 7330
000001d0: 8617 0831 0b4d 862d 1324 3430 d769 ae2d
000001e0: ced9 e531 ce4a d730 d52c 5130 eb54 2c31
000001f0: 2646 af2c 664c d730 531e af2e c99b d12f
1.0514736e-11 6.106751e-11 1.5108906e-10 5.073623e-10 4.846352e-11 1.5329376e-09 1.9785514e-10 1.845768e-10
2.7938348e-12 8.943903e-11 2.9983036e-12 3.66823e-10 2.3709212e-10 4.994204e-09 1.6276708e-09 4.6082634e-12
3.4868528e-09 1.1893382e-10 8.075673e-11 1.5950576e-11 1.5753182e-09 1.2499759e-09 1.8694281e-10 4.850975e-11
2.5733455e-09 6.961857e-10 1.7771625e-09 4.1885898e-10 1.4051841e-09 1.0267763e-10 7.370366e-10 2.8480582e-10
2.8994498e-09 1.3691508e-09 1.5941563e-08 1.01205155e-11 3.0319477e-10 7.717666e-10 5.558534e-10 2.0740567e-09
1.2316325e-09 1.5346233e-11 1.1037987e-11 5.821678e-09 5.695931e-09 1.773077e-10 6.0404515e-11 7.555337e-12
3.5017592e-10 2.3962932e-10 5.345229e-10 1.6280243e-09 2.5928806e-10 6.1944183e-10 1.6191555e-10 1.4191351e-09
1.0422176e-11 1.8077282e-09 1.8458779e-10 3.1896297e-10 2.7049325e-09 7.066595e-09 8.232588e-10 8.2901144e-11
5.348465e-10 5.3631277e-10 6.2759303e-10 3.6555037e-10 2.9479974e-10 3.0648675e-10 4.7605715e-09 4.0499312e-10
1.6711483e-09 1.9832609e-09 3.7978345e-10 1.3867389e-10 3.1764555e-10 6.019628e-09 5.499635e-09 9.1722874e-10
6.6819716e-10 1.0577292e-09 2.1112589e-11 1.5491587e-09 7.4494196e-12 4.7317914e-09 3.1099116e-11 2.7672113e-09
4.159657e-11 1.6430962e-11 2.096274e-10 1.828792e-11 2.898085e-11 4.5167206e-10 1.6469782e-10 7.842274e-11
7.490945e-12 2.59029e-09 2.954221e-10 6.0978236e-09 1.1857693e-10 1.5853802e-09 8.863899e-09 1.4550586e-09
4.311222e-11 1.009331e-10 3.7791405e-11 2.0173252e-09 1.4115904e-10 9.333087e-11 1.9943205e-09 8.9091845e-09
4.095632e-10 6.8830136e-10 1.046828e-09 8.8471985e-10 1.9803976e-09 1.526825e-11 6.5534883e-10 1.9828512e-11
6.6895387e-09 1.566457e-09 7.6097467e-10 2.5077564e-09 4.981587e-12 1.5665023e-09 7.963465e-11 3.812757e-10
