Lofty2024/results/Test13/MoveToPlayer/MoveToPlayer-18357.onnx (onnx, 78170 bytes, 7 tensors)

network_body._body_endoder.seq_layers.0.weight f4 [128, 12]
000000 bb ca 5b 3d 4b b2 7b be 5e e0 05 be fe d0 cb 3e
       0.053660136 -0.24579732 -0.1307387 0.39807886
000010 36 8c bf be 9f ca 03 3e 86 8b b2 be 59 35 41 3e
       -0.3741166 0.12870263 -0.34872073 0.18868007
000020 47 ec 8c be d5 1f db bd 32 04 b8 3d 53 c9 13 3f
       -0.27524015 -0.10699431 0.08985175 0.5772907
000030 9d 47 8a be 30 b8 b0 be 93 8e 59 be 46 34 a1 bd
       -0.27007762 -0.34515524 -0.21245794 -0.078712985
000040 5e 82 8e bd 5a b2 63 ba 7e 35 e3 3c f4 52 67 be
       -0.06958459 -0.0008685939 0.027735468 -0.22590238
000050 43 6e 23 3e 48 e9 47 3e af 91 b0 3d 93 a1 0d 3e
       0.1596003 0.19522583 0.08621537 0.13831167
000060 01 ce ec 3e 37 12 da 3e 9b 46 c6 bd 03 22 3e 3e
       0.46250919 0.42592022 -0.09681436 0.18567662
000070 3d b0 ba be 63 32 28 be 76 e7 22 3b b9 5d 8d 3e
       -0.36462584 -0.16425471 0.00248572 0.27610567
000080 23 e7 d1 bc c3 e4 c5 3d e4 f4 01 be 2b 4f 4d 3d
       -0.02562291 0.096627735 -0.12691075 0.05012433
000090 2f f8 e7 3d fa b7 df 3d d6 d7 78 be 45 93 ab 3d
       0.11326634 0.109237626 -0.24301085 0.08377699
0000a0 2b 88 ac 3e a7 ef b3 3e 6f 99 61 3e 34 c1 7e bc
       0.33697638 0.35143778 0.22031187 -0.015548993
0000b0 02 3b c6 3e e2 8f 8d be f5 71 92 3d b5 19 86 be
       0.38716894 -0.27648836 0.07150642 -0.26191488
0000c0 a5 ee 11 be 92 e6 05 3f 25 3b 25 3e 23 e0 e6 3d
       -0.14251192 0.5230495 0.16135843 0.112732194
0000d0 e6 90 a4 3d fa 53 1a bf 9e d0 65 3e 01 a3 4e be
       0.0803545 -0.6028439 0.22442862 -0.20179369
0000e0 0b a1 02 3f 13 67 17 3f e9 20 23 3e 3f ba 9c 3e
       0.5102698 0.59141654 0.15930523 0.30610844
0000f0 51 e7 9e 3e fc 2e 96 3e 4a 6d 04 bf e1 85 2b 3d
       0.31035855 0.2933272 -0.5172926 0.041875724
000100 4a a0 31 3d 6a be b8 bc 1f a3 55 3e ef 77 ec bd
       0.043365754 -0.022551734 0.20863007 -0.11546313
000110 7b 87 46 bf 97 00 d6 bc a6 66 a8 bd 7f ec 76 3e
       -0.77550477 -0.026123328 -0.08222704 0.24113654
000120 c0 4d 52 be f3 53 d4 be d2 c3 38 3d 7f 8a 9d 3e
       -0.20537472 -0.41470298 0.045108624 0.30769727
000130 08 c3 3b 3e 93 1d f8 3d 93 4b ca 3d 39 96 f6 bd
       0.18336117 0.12115016 0.09877696 -0.120403714
000140 32 19 b8 bc c1 47 d6 bd a0 44 55 be 2b c3 39 be
       -0.022472952 -0.10462905 -0.2082696 -0.18140857
000150 ab ae 1b bc f8 a5 15 3f f2 62 d8 be 22 ed ef 3c
       -0.009502093 0.58456373 -0.4226299 0.029287878
000160 b1 ff 0a be 6d 4b 89 be 1a 63 c0 3d b6 ca 05 3f
       -0.13574101 -0.26815358 0.09393902 0.5226244
000170 e7 6a 3a bd d5 d2 d5 3e ca 61 0e 3e e8 6e 29 3e
       -0.045512106 0.41762415 0.13904491 0.16546214
000180 b3 9a 67 bd 88 dd 9e bd fb ec 92 bc c5 d6 6e 3d
       -0.056544017 -0.077570975 -0.017935267 0.05831029
000190 34 87 76 bd c5 40 9f bd ac 11 0e be c2 2b 4b 3e
       -0.060187533 -0.07776026 -0.13873929 0.19840911
0001a0 fd 51 ce bd 07 02 23 3f 94 1c 28 bc 6b 15 db 3d
       -0.10074232 0.6367497 -0.01026072 0.106974445
0001b0 c0 d1 4b bd 88 a7 23 3d e2 b6 33 3e 4e e3 88 3e
       -0.04976058 0.039954692 0.17550233 0.2673592
0001c0 d5 3a da be ce c5 97 be 71 16 d5 3d c8 08 5a 3e
       -0.4262301 -0.296431 0.10404671 0.21292412
0001d0 cc ad 30 3d 34 9d 0f be 9b f4 59 3e 44 0c cd 3d
       0.043134496 -0.14024812 0.21284716 0.10012105
0001e0 d2 03 7b be a4 83 9c 3c dc 51 26 be ae 55 14 3e
       -0.24513176 0.01910574 -0.16242164 0.14485809
0001f0 fe 07 1c bf 56 75 87 3e 05 96 fa bd 2f aa 84 be
       -0.60949695 0.26456708 -0.12235645 -0.2591109
000200 11 5b 82 bd 8a 7e 4d be d0 ee 4e 3b 1c e3 70 3d
       -0.06365026 -0.20067802 0.0031575449 0.05881034
000210 02 ae 92 be 2d 5a 78 3e d9 98 99 be 8c e0 56 be
       -0.28648382 0.2425315 -0.29999426 -0.20984095
000220 f6 71 f3 3d a5 80 5f bc 95 be cb 3e 41 29 c8 be
       0.11886971 -0.013641511 0.3979384 -0.39093974
000230 23 7f 5a 3e 7f 6f 09 3e df 05 5a be b9 3e fe be
       0.21337561 0.13421439 -0.21291302 -0.4965723
000240 32 0d ba be 19 47 8b be e2 cd 17 3e ed b6 b6 be
       -0.36338192 -0.2720268 0.14824632 -0.35686436
000250 06 1d 05 bf 65 9a 9f be 81 2c 67 3e 2d f7 19 3e
       -0.5199741 -0.3117248 0.2257557 0.15035696
000260 a4 44 18 be 44 8d 1a 3f af a4 8f 3d 44 d9 07 be
       -0.14869934 0.60371804 0.07013833 -0.13266474
000270 eb 31 f3 3d b5 f0 5c be 9f 4a ef 3d cb ee 24 3d
       0.118747555 -0.21576197 0.11684155 0.040266793
000280 44 c6 4a 3e 5d cd cd be c3 53 1c 3e 7b 41 a7 be
       0.19802195 -0.40195742 0.15266328 -0.32667145
000290 c6 f1 89 3e 7f dc 84 bd bf ee 8d 3e ba 14 03 bf
       0.2694227 -0.06487369 0.2772121 -0.512035
0002a0 af bb 9a be a6 e7 ea be de 0a 40 be 26 42 08 3e
       -0.30221316 -0.4587986 -0.18754146 0.13306484
0002b0 14 06 09 3f 4b d5 9b be 12 4e 29 3d 6b 0f b5 bd
       0.535249 -0.30436167 0.04133422 -0.08840831
0002c0 d5 8c aa be 46 53 f9 bd d5 4a c7 3d f8 40 5f be
       -0.3331057 -0.12174086 0.0973107 -0.21802127
0002d0 09 25 45 be 9c 52 4e be 24 1f 71 3d 5d 4b 3a be
       -0.19252409 -0.201487 0.05886759 -0.18192811
0002e0 e0 3e ed 3d c2 62 dd 3e 3a 4d ff 3d 77 b1 12 bf
       0.11584258 0.4323941 0.12465902 -0.5730204
0002f0 26 3d b8 3d 1d 61 ca 3e 9a c7 80 3e 34 3a 43 3e
       0.08996038 0.39527217 0.25152284 0.19065171
000300 3f ee 03 bf b2 2c 1c bd 27 4b 35 3e 15 93 f1 be
       -0.5153541 -0.038128562 0.1770445 -0.47182527
000310 e2 16 ab bc 2d e1 5f be a7 b8 e1 bd 80 92 cb 3d
       -0.020884935 -0.21863241 -0.11021548 0.09940052
000320 16 cf 0f 3f 52 e7 d4 3d a4 5e 19 3d 02 5e c8 3e
       0.56175363 0.10395683 0.037443772 0.39134222
000330 18 30 58 be fb 03 87 bd 02 24 ed be 97 e0 19 3e
       -0.21112096 -0.06592556 -0.46316534 0.1502708
000340 d1 d1 d3 3d 79 c1 6e be 0c ac 62 be 92 62 96 be
       0.10342754 -0.23315991 -0.22135943 -0.29372078
000350 86 ac 32 3e e9 05 f9 3d f1 51 ae 3e 5c 4d fc bc
       0.17448625 0.121593304 0.3404689 -0.030798607
000360 99 63 b9 be 0a df 3a 3c a8 b9 5e be fa b9 e5 3d
       -0.362088 0.011405716 -0.2175051 0.11217113
000370 2a cd 0c 3d cb 8b d2 bb d6 f8 2e be 0d 87 b2 bd
       0.034375347 -0.006425356 -0.17087111 -0.08717165
000380 10 d1 9c 3e f9 f7 9f be 73 7f c5 be 56 a5 b6 3d
       0.30628252 -0.31243876 -0.385738 0.08918254
000390 0e 43 8c 3d bd 6e 41 3d 29 2f 00 3f 5e b2 86 3e
       0.06848727 0.04722475 0.5007196 0.26307958
0003a0 39 8a 1f 3d 53 2a 11 3f 6f 71 b7 3e f5 c6 0c bc
       0.03895018 0.56705207 0.3582873 -0.008592357
0003b0 df 99 59 3e 64 c8 5e 3d d2 45 07 be 80 d6 b0 3e
       0.21250103 0.054390326 -0.13210228 0.3453865
0003c0 dc 92 a6 be b1 be c0 bd 1a f2 c9 bd 28 2a 04 bc
       -0.3253392 -0.094113715 -0.0986063 -0.008066691
0003d0 b7 85 84 be 85 5c 56 be b9 09 f0 3e 1d b9 1d 3f
       -0.25883266 -0.20933731 0.46882418 0.61610585
0003e0 0a e3 e8 be b8 9f 0e be de 15 43 3c 3b a6 42 be
       -0.45485717 -0.13928115 0.011907069 -0.19008724
0003f0 e7 a9 43 3e 43 1d 05 3e 1b d1 82 be 2a 3c 7b be
       0.19107781 0.12999444 -0.2555016 -0.2453467

network_body._body_endoder.seq_layers.0.bias f4 [128]
000000 a1 5c 06 3b 96 f5 16 3b 88 bd 52 bb 83 a0 13 ba
       0.0020501988 0.0023034564 -0.0032156426 -0.0005631523
000010 4c 07 f5 39 7d 0b da ba 8b 4b ec b8 4f 44 0c 3b
       0.00046735478 -0.0016635504 -0.00011267428 0.002140302
000020 7f 5b 8d 3b 21 fa 27 3b d2 db 14 bb e6 3a 07 3a
       0.0043138857 0.0025631266 -0.002271403 0.0005158618
000030 2a 63 61 3a 10 94 2f b9 de fd c9 3a 48 b2 f0 b9
       0.00085978454 -0.00016744458 0.0015410741 -0.00045909197
000040 d9 84 e6 ba 7f 29 15 bb 91 76 c5 ba 05 a9 94 3b
       -0.0017587199 -0.002276033 -0.0015065243 0.0045367503
000050 3c 72 bb ba d3 2b 2b 3a 79 c7 0a bb 92 a0 cd 3a
       -0.0014301012 0.00065296626 -0.0021176024 0.0015688112
000060 02 53 bf ba 4e 6e 88 3a 3f f1 9f b9 0c 23 9c 3a
       -0.0014596882 0.001040885 -0.00030506586 0.00119123
000070 a6 70 c0 3a 7b da 37 ba cc f0 41 3b db 02 67 3b
       0.0014682009 -0.0007013452 0.002959299 0.0035249505
000080 24 d1 b8 3a b6 27 08 ba 60 b6 88 3a 21 b9 d5 ba
       0.0014100415 -0.00051939057 0.0010430329 -0.0016305783
000090 70 8b b6 b8 4d 75 5a bb 38 b2 34 3b 0f cb ae 3a
       -8.7044085e-05 -0.0033334077 0.0027572047 0.0013335663
0000a0 82 08 51 39 7b 19 1f 3b a3 5d a7 ba 1f b0 44 b9
       0.00019934963 0.0024276662 -0.0012768995 -0.00018757627
0000b0 85 ec 6b 3b 17 e2 e5 b7 e7 92 be 3a 9b 9f 81 bb
       0.003599913 -2.7404209e-05 0.001453963 -0.003955794
0000c0 cf c9 9f 3a d1 9b 52 bb ed 64 47 3b 1d 45 dc ba
       0.0012190881 -0.003213633 0.0030425147 -0.0016805265
0000d0 b9 6d 6f 3b 8d 49 13 bb c4 74 02 3b 6d ff 6e 3b
       0.0036533906 -0.002247426 0.0019906024 0.0036468164
0000e0 70 f9 30 3b 09 ce e5 3a fa 72 f2 ba 3d a2 22 bb
       0.0027004145 0.0017532717 -0.00184974 -0.002481594
0000f0 1b a0 5d 3a c6 7a a8 ba ab df e2 ba 71 9c ee 3a
       0.00084543385 -0.0012853972 -0.001730909 0.0018204582
000100 14 e3 33 3b 15 49 92 bb 7c 11 86 ba 2d a3 14 b9
       0.0027448582 -0.0044642785 -0.00102286 -0.00014175168
000110 3b 7c b0 3a eb a6 69 3b a4 59 45 ba ae 66 b7 38
       0.0013464758 0.003565247 -0.0007528311 8.7452456e-05
000120 2b c7 5a 38 ef 09 a9 3a a9 45 54 3b ed ee 37 ba
       5.216074e-05 0.0012896637 0.0032390154 -0.0007016499
000130 1b 00 42 bb b0 56 8e 3a 02 85 ce ba 2e 34 e5 ba
       -0.0029602114 0.0010859575 -0.0015756192 -0.0017486864
000140 9c 12 85 3b 54 be 06 3b 90 e4 45 bb 58 dd c8 ba
       0.0040610563 0.0020560222 -0.0030196048 -0.0015324755
000150 71 24 c3 ba f6 7c 4f ba 0c 37 f1 3a 95 2a 34 b8
       -0.001488818 -0.0007915044 0.0018403246 -4.2955002e-05
000160 f3 af 83 3b 5b cd 94 ba 01 bc 41 bb e0 d4 82 3b
       0.0040187775 -0.0011352705 -0.0029561522 0.003992662
000170 d1 2d db 3a 91 49 8e 3a 35 3f 12 3b a6 f3 6e 3b
       0.0016722028 0.0010855665 0.0022315506 0.0036461144
000180 0b dc 4e ba 29 12 bc b8 e0 3c 0d bb 90 03 0f 3b
       -0.00078910653 -8.967921e-05 -0.0021551177 0.0021822192
000190 5a f6 4a 3b d2 ff 06 3b a7 56 dc ba 52 b5 31 39
       0.003096959 0.0020599258 -0.0016810492 0.00016947582
0001a0 ae b8 ca ba 60 78 07 3b fe c3 67 bb 3c a4 61 3a
       -0.0015466416 0.0020671114 -0.0035364623 0.00086075417
0001b0 70 80 67 3b ae 82 c2 ba ad 0a 29 38 c3 a9 63 3a
       0.0035324357 -0.0014839971 4.0302682e-05 0.0008684659
0001c0 12 bf 81 ba 74 1f 8d bb b0 e3 48 b9 58 f2 51 3b
       -0.0009898862 -0.004306728 -0.00019158307 0.0032035317
0001d0 da f3 12 bb 82 f7 09 ba 3a 33 c6 3a 77 6f 53 bb
       -0.002242318 -0.0005263017 0.0015121468 -0.0032262483
0001e0 36 a4 12 b9 44 1e a9 3a a6 96 23 bb 23 11 1e 3b
       -0.00013984818 0.0012902697 -0.002496162 0.00241191
0001f0 88 8c 97 3b e0 fc 83 b8 b2 f9 53 3b 8f f3 4b 3a
       0.004624907 -6.2936684e-05 0.0032344875 0.00077801285

network_body._body_endoder.seq_layers.2.weight f4 [128, 128]
000000 9a f2 3d 3d 66 6c 4f bd 56 cb a8 3c 45 f9 05 bd
       0.04637394 -0.050640486 0.02060477 -0.032708425
000010 12 90 10 bd ad 49 37 3e 8f 17 47 be 8a 55 c6 bd
       -0.035293646 0.17899199 -0.1944258 -0.09684284
000020 9f 61 32 3e 3b 1c 0d 3e aa ef c7 3d b7 86 8c bc
       0.17420052 0.137803 0.09762509 -0.01715408
000030 37 8b 6a 3c 86 73 d2 ba 92 50 99 bd 5e fc 8f bc
       0.014315418 -0.0016056157 -0.07486071 -0.017576393
000040 9e 81 a7 bd 43 3f 6e 3d 80 b8 c6 3c 1c 55 51 3c
       -0.081790194 0.0581658 0.024257898 0.012776639
000050 77 8f 3d be 7f 31 a0 3c 98 d5 34 3d e1 fd 4c 3e
       -0.18511759 0.019554852 0.04414901 0.20018722
000060 66 fe aa 3b 24 30 1f bd 1d 5d 0d be 04 fa de bc
       0.005218315 -0.03886427 -0.13805051 -0.027218826
000070 d9 2e d6 3b f6 e5 e4 bd b9 a3 0b 3d 58 4f 48 bd
       0.0065363464 -0.11176674 0.034091685 -0.048903793
000080 d4 0b 13 bd 52 71 f9 3b 95 98 00 3c 84 f3 a3 bc
       -0.035899952 0.007612386 0.007848878 -0.020013578
000090 6c c6 23 3d 9d 50 18 3e 0b 8c 9c 3d 74 9f a1 bd
       0.03998415 0.14874502 0.076438986 -0.078917414
0000a0 89 9d 86 bd c3 c8 24 3d d1 e9 0c bd 8b d3 f8 3d
       -0.06573016 0.040230524 -0.034402672 0.121497236
0000b0 dd 06 df bd 1a 59 ed 3d 82 b5 00 3e ff 99 31 be
       -0.10889981 0.115892604 0.1256924 -0.17343901
0000c0 11 a0 d1 bc 69 f2 02 3e 33 87 a5 3d 19 eb 95 3d
       -0.02558902 0.12787785 0.08082428 0.07320232
0000d0 52 22 b4 bc 5d 8c bb 3c ca b9 e4 bc 92 25 2f 3e
       -0.021989021 0.022894079 -0.027920622 0.17104176
0000e0 47 9b d4 3d 5f d5 80 3d 56 94 86 bd 0f d7 cd bd
       0.10381179 0.06290697 -0.065712616 -0.10050785
0000f0 22 17 e9 3d fe 28 60 bd 80 f4 58 3d 23 ca 00 3e
       0.11381365 -0.054726593 0.05296755 0.12577109
000100 0b 2a 02 3d 85 c3 49 bc e8 ce dc bb 28 e9 9b be
       0.031778377 -0.012314682 -0.0067385323 -0.30451322
000110 d4 01 a2 bd 5c 0f a9 3d bf 2f a5 bc ea 8f 91 3d
       -0.07910505 0.08254883 -0.020164369 0.071075276
000120 0c e1 ed bc 67 05 91 3c fa 64 0e bd 05 58 d8 bd
       -0.029037975 0.017702771 -0.034764268 -0.105636634
000130 89 11 c7 3b b0 48 41 3d 2b b0 2b be 4e f6 47 3e
       0.0060750884 0.04718846 -0.16766421 0.19527552
000140 35 2f 74 bd d4 a5 3d bc 2b 94 ed bb 64 e8 a4 3c
       -0.059615333 -0.011575181 -0.007250329 0.020130344
000150 4e 98 a6 3c 96 37 c9 bd 50 85 87 3d 73 a7 e5 3c
       0.020336296 -0.09825055 0.06617224 0.028033948
000160 dc c1 62 bd 4b 0a 99 3d b1 16 2a 3c ca d2 7b bd
       -0.05536066 0.07472666 0.010381387 -0.06148032
000170 d9 e9 07 3c ee a4 5c bc 35 a9 96 bc e2 b9 4d bc
       0.0082955 -0.013467057 -0.018391231 -0.012556525
000180 5f a9 52 3e f9 4d 0f bb d5 03 ab bd a6 83 df 3d
       0.20572422 -0.0021866544 -0.0835034 0.10913782
000190 0e 94 25 bd 97 16 cd bd a1 58 c5 3d 8e dd 4d bc
       -0.0404244 -0.10014074 0.09636045 -0.01256503
0001a0 e3 04 b4 3d c8 89 fc 3b 88 8f 6e 3d 5f cb da 3d
       0.087899946 0.0077068545 0.05824235 0.10683321
0001b0 36 e6 f1 bb bf bd ad 3d 88 53 0c 3c 7b 98 97 bd
       -0.0073821796 0.08483457 0.008564837 -0.0740213
0001c0 83 02 b4 bc 42 32 e3 3d 50 99 92 3d f2 fe df bd
       -0.021973854 0.1109357 0.07158148 -0.10937299
0001d0 c6 4e 9f 3d b6 b6 bc 3d 92 f6 72 bd c6 d6 b5 3d
       0.07778697 0.09214537 -0.05931718 0.088788554
0001e0 1d 80 40 3d 8f d8 31 3d 40 80 a6 bd c2 17 11 bd
       0.04699718 0.043419417 -0.081299305 -0.035423048
0001f0 4e d9 f4 3b 6e 46 14 be eb 35 0f 3e 0c bd ca bd
       0.007472194 -0.14479992 0.13985412 -0.09899339
000200 e6 6f dd 3d da b8 06 be e2 9e 3a bd bf a7 53 3d
       0.108123586 -0.13156453 -0.04556168 0.051673647
000210 f4 b8 80 bb 03 18 05 3e e8 64 ee 3b 2d af 1f bb
       -0.003928298 0.12997441 0.0072752126 -0.0024365888
000220 e3 d4 0f 3e 02 b4 c0 3d 1a 03 e0 bd 68 aa 1b bc
       0.14046054 0.09409334 -0.109380916 -0.009501077
000230 02 b6 95 bc 08 e6 0b be 89 6e cf 3c d3 48 1b 3d
       -0.018275265 -0.13661969 0.025321262 0.037911247
000240 af 47 f1 3d 64 1d 14 bd 52 62 7b bd a8 af cc bc
       0.11781251 -0.03616084 -0.061373062 -0.024986103
000250 e2 4a 5e be e1 a4 fe 3d 33 02 c2 bc 98 b5 14 be
       -0.21708253 0.12433792 -0.02368269 -0.14522398
000260 b4 f6 1e 3e 74 38 ef 3d 1d 85 c9 3d 40 2d 90 bd
       0.15523797 0.116806895 0.098398425 -0.07039881
000270 8c 69 4e bd 7a 0b c8 3c c1 a5 12 3d 42 00 7f bc
       -0.050393626 0.024419535 0.035802606 -0.015564026
000280 e1 30 c0 bd 76 ca dd 3d ee bd bc 3d aa 92 08 3e
       -0.09384323 0.10829632 0.09215914 0.13337198
000290 02 a3 0a 3d df 32 9f 3d f4 c4 1f bd b1 3a 9f bd
       0.033846863 0.07773375 -0.03900619 -0.07774866
0002a0 ac e4 64 3e fd c6 bb 3d 37 05 3b bd e3 cf b4 3c
       0.22352856 0.091688134 -0.04565927 0.022071784
0002b0 be 63 bb bb da 09 05 be d7 e1 c1 bb 27 ab 88 bd
       -0.0057186773 -0.1299204 -0.005916815 -0.0667327
0002c0 3d 9e eb 3d f1 4a 39 3e 3e 1b 4e bd 21 12 43 3e
       0.11504791 0.18094994 -0.05031895 0.19049884
0002d0 e1 da 11 3e 83 89 c7 3d 04 5f 2c be ed 5d b4 bd
       0.14243652 0.09743025 -0.1683312 -0.088069774
0002e0 77 dc 4a 3d f6 ce ee bd 94 64 56 3d 7d 98 d5 bd
       0.049526658 -0.116605684 0.052342013 -0.104294755
0002f0 31 84 d4 3d d1 8c 30 3e 0b 71 f3 3c 1b c4 9b 3d
       0.10376776 0.17241217 0.029716989 0.076057635
000300 d9 b8 41 3e 6a 8c 22 3d b4 8b 59 3c b0 45 09 3e
       0.1891817 0.03968469 0.013277937 0.1340549
000310 85 28 59 3d 40 d6 3d be e3 b3 aa bd 16 dc 95 3d
       0.053017158 -0.18538761 -0.08335092 0.07317369
000320 5e 93 8b 3d 25 d0 e9 bc d2 87 0e bd 64 a1 76 bd
       0.068152174 -0.028541634 -0.034797497 -0.060212508
000330 40 cb 90 3d 9d b4 29 be e0 85 cc 39 e3 e7 0a 3d
       0.07070017 -0.16572805 0.00039009657 0.03391255
000340 2c 52 e4 3d cf 31 78 bd bc 12 54 bd 20 a2 c0 3d
       0.111484855 -0.060594376 -0.05177568 0.09405923
000350 16 a2 10 3e 89 16 b5 3c 5b bf 5d 3c 2e bc c0 bd
       0.14124331 0.022105472 0.013534392 -0.094108924
000360 e5 ee 5f bd 68 53 3e bd 16 ba 05 3e de 92 e8 3c
       -0.054671187 -0.04646626 0.13059267 0.028390344
000370 6d 49 f3 3d a0 cd 2a 3e e9 c2 df 3c 04 64 9a 3c
       0.11879239 0.16680002 0.02731462 0.01884652
000380 28 1f 7d bc bc c9 34 bd ae 97 54 3d 5f 2e f7 bc
       -0.015449323 -0.0441377 0.051902466 -0.030173479
000390 d9 d9 4a bc 18 2a 26 bd 2d 23 81 bd 5f db bb 3d
       -0.0123810405 -0.040567487 -0.063055374 0.09172701
0003a0 3d 32 c1 3d 60 5f a1 3d d6 5d 2e be 60 ad 77 bc
       0.0943341 0.078795195 -0.17027983 -0.015117019
0003b0 3e e3 45 3d 26 ab 38 bd d0 20 60 3b 2f 01 88 bd
       0.04831242 -0.045085095 0.0034199245 -0.06640851
0003c0 0f ec 08 3d ba b6 81 3c 29 ab 7a 3d ec 67 d2 3d
       0.033428248 0.015834201 0.061198387 0.10273728
0003d0 10 54 e7 bd 3c 73 b7 3d 06 92 c4 bc f4 98 1c 3d
       -0.112953305 0.08957526 -0.02399541 0.038231805
0003e0 68 2b 27 bd 3b 16 6b bd 5a 85 b9 bd fd c1 08 be
       -0.04081288 -0.057394248 -0.09058638 -0.1335525
0003f0 d9 1d db bd de 85 8f bd 65 53 0f 3d de b5 a8 bd
       -0.10699052 -0.07007955 0.03499164 -0.082378134

network_body._body_endoder.seq_layers.2.bias f4 [128]
000000 b4 b1 aa 3a 7a 76 15 3b bb e2 80 ba b1 4e 25 bb
       0.001302293 0.0022806213 -0.0009833196 -0.0025223906
000010 00 86 64 3a ae 5a d9 ba 15 ba fa ba e6 16 19 39
       0.00087174773 -0.0016582811 -0.0019128943 0.00014599747
000020 b9 28 fb 38 ba 54 8c ba 13 87 08 3b 8a 4c 15 b9
       0.00011976198 -0.0010706403 0.0020832464 -0.0001423826
000030 14 c7 c0 ba 8f 90 1c b9 76 d7 98 39 13 62 8f 38
       -0.0014707767 -0.00014931172 0.0002915223 6.837039e-05
000040 ec 51 c1 3a a9 b6 53 bb 0c 10 ac 39 c8 54 c4 3a
       0.0014749146 -0.003230492 0.00032818352 0.001497888
000050 31 7f 6a bb 07 16 2c 3b 7f 36 31 39 25 77 c4 ba
       -0.0035781378 0.0026258247 0.00016900337 -0.0014989121
000060 c0 74 0b bb 0c f0 40 39 57 01 83 3b a2 ad e7 b9
       -0.0021279305 0.00018399971 0.0039979625 -0.0004418912
000070 da bd a7 ba 08 9b cc 39 cb b2 e0 39 67 16 1c 3b
       -0.0012797669 0.0003902542 0.0004285782 0.0023817064
000080 fd 57 af ba 66 6f 47 bb ee a0 40 39 a0 ff 75 ba
       -0.0013377663 -0.003043139 0.00018370498 -0.00093840994
000090 cb 45 33 ba 34 0b 4a bb d3 71 e8 ba 83 f9 82 ba
       -0.0006838708 -0.0030829431 -0.0017734118 -0.0009992573
0000a0 de 15 b0 ba 82 06 c7 3a 52 93 bc b8 26 f3 09 bb
       -0.0013434251 0.0015184435 -8.991979e-05 -0.0021049469
0000b0 6e 0e 88 b9 90 44 df ba d9 03 68 3a 52 73 4a bb
       -0.00025950692 -0.0017033983 0.0008850671 -0.003089149
0000c0 14 d7 58 bb db 61 d8 ba cd 82 79 3a d1 cc 42 3b
       -0.003308718 -0.0016508655 0.0009518087 0.002972413
0000d0 b6 95 05 ba fe 4c cf 39 04 a7 90 b8 1d 88 03 3a
       -0.0005095856 0.0003953948 -6.897564e-05 0.0005017536
0000e0 80 f9 1f 3b 2e e0 47 3b 88 c2 90 3a 62 10 23 bb
       0.0024410188 0.0030498612 0.0011044303 -0.002488159
0000f0 6a 33 a3 3a 22 93 e7 3a 3d 77 c9 3a 62 f9 38 bb
       0.0012451236 0.001766775 0.0015370619 -0.0028224816
000100 41 21 d2 3a 65 d4 87 bb e0 1b 7b bb e5 12 61 3a
       0.0016031639 -0.0041451924 -0.0038316175 0.00085858844
000110 12 3b 31 ba 1f 20 ee b9 34 d2 aa 3a 8f 85 23 39
       -0.00067608163 -0.0004541883 0.0013032616 0.00015594646
000120 67 30 28 39 89 f7 52 3a 7f 65 9f 39 f2 59 f0 ba
       0.0001603976 0.000804775 0.00030402464 -0.0018337353
000130 a4 65 22 ba 94 c8 41 3a f9 cb 5c b9 a1 c4 dc 3a
       -0.0006194955 0.0007392254 -0.0002105682 0.0016843268
000140 64 4d 7f 3a dc 16 ff 3a 85 72 41 3b 7e db 9e 38
       0.000973901 0.0019461769 0.0029517722 7.574911e-05
000150 95 32 d1 3a 29 fc 06 bb 78 14 d1 38 40 5b db ba
       0.0015960509 -0.0020597077 9.969709e-05 -0.0016735569
000160 fe 27 d9 ba 43 bd 7c ba ba 64 53 3b 2b a7 1e 3b
       -0.0016567705 -0.00096412393 0.0032256083 0.0024208527
000170 80 3b df ba f2 53 68 3b 19 6b bb b9 0d 28 44 ba
       -0.0017031282 0.0035450426 -0.00035747213 -0.00074827747
000180 2d a1 ca 3a 7a 33 1a bb 55 9d c7 3a c4 8e 76 3b
       0.0015459411 -0.0023529218 0.0015229384 0.0037621716
000190 37 15 77 bb 34 d6 a2 39 c8 68 14 38 8a 19 36 3b
       -0.0037701854 0.00031058642 3.5383535e-05 0.0027786219
0001a0 75 79 47 3b 9a 11 1b bb 2a 2f 02 b9 86 a0 c9 38
       0.0030437384 -0.0023661614 -0.00012415336 9.614327e-05
0001b0 df cc f6 39 69 87 3d 3b 69 99 a3 3a 10 ba 99 39
       0.00047073417 0.0028919822 0.0012481633 0.0002932106
0001c0 68 af 2a 3a 4e c2 81 ba b2 6b 08 3b 00 08 ec ba
       0.0006511123 -0.0009899826 0.0020816145 -0.0018007755
0001d0 ca 6e 91 bb 38 ab 21 3b 0c e1 f2 39 6b 1a 10 bb
       -0.004438256 0.0024668705 0.0004632551 -0.0021988403
0001e0 95 a8 b7 ba 5e 98 8d b9 33 a2 2e 3a 50 2e db 3a
       -0.0014012033 -0.00027007138 0.0006661743 0.0016722176
0001f0 9d e7 c4 b9 94 e7 0b 3a 3b c4 07 3b 52 0e 3b 3b
       -0.000375566 0.0005336937 0.0020716328 0.002854247

action_model._continuous_distribution.log_sigma f4 [1, 2]
000000 f3 9a d8 3a 28 65 a2 3a
       0.0016525671 0.0012389766

action_model._continuous_distribution.mu.weight f4 [2, 128]
000000 47 f5 fe 3b 29 bd 6b 3a ad 9d 93 ba 72 56 3a 3b
       0.007780704 0.00089927256 -0.0011262201 0.0028432873
000010 b9 ee 9a bc 9e 71 bb bb 0d e7 70 bc a7 f3 16 bc
       -0.01891266 -0.0057203313 -0.014703524 -0.009213365
000020 86 1f 0a bd d8 c9 2d bc 71 23 db bc c3 54 96 3c
       -0.03372147 -0.010607205 -0.026750298 0.018350964
000030 3d c2 a3 3c 50 c8 b9 bc b1 59 8c 3b 81 6c 91 bc
       0.019990081 -0.022678524 0.004283153 -0.017751934
000040 99 6b 9b 3b 92 b6 17 3c 1e 74 fd bc bf c8 b1 bc
       0.0047430512 0.009259837 -0.030939158 -0.021702169
000050 44 0a 15 3c 9a 25 32 3c d4 8e 77 3c b8 0c 96 3c
       0.009096686 0.010873223 0.0151097365 0.018316612
000060 ce e6 b9 3c f0 f8 8b bc 27 f1 fc ba a1 dc ab bb
       0.022693064 -0.017086476 -0.0019297943 -0.005244807
000070 1a b1 9b 3c 35 29 9d bb d3 c9 a6 3c cb 20 f6 ba
       0.019005347 -0.004796172 0.02035991 -0.0018778084
000080 81 d8 a5 3a c9 97 36 bc 68 d7 89 bc f1 e3 0e 3c
       0.0012653024 -0.011144587 -0.016826347 0.008721338
000090 7d 78 9a bb 11 1a de bc cf 21 0f bd 00 18 15 3c
       -0.0047140704 -0.027112039 -0.03494435 0.00909996
0000a0 76 84 4d 3c 20 8b bb bc 36 43 d6 3c e5 2e 17 3c
       0.012543788 -0.022893488 0.026155096 0.009227489
0000b0 f2 d1 86 bb 3e b6 c2 b8 b9 d7 17 3c ac e6 1d 3c
       -0.004114383 -9.284586e-05 0.009267741 0.009637516
0000c0 99 c8 34 3a 68 17 6d 3c 1f d5 8f bb 39 41 12 ba
       0.00068963465 0.0144709125 -0.0043894197 -0.0005579177
0000d0 73 4a 1e bc 0c 74 d5 bc 99 63 0f 3d c0 f5 00 bd
       -0.009661305 -0.026056312 0.035007093 -0.031484365
0000e0 55 52 93 3c 5c 9c 17 3d 55 77 48 bc a8 9a 28 bb
       0.017983595 0.03701435 -0.012235482 -0.0025726948
0000f0 1d 5a e5 bc fd 37 37 bc dd d5 9a bb dd 30 28 3c
       -0.02799707 -0.011182782 -0.0047252015 0.010265556
000100 bb 7d eb 3b 95 0a b1 bc 3f f9 eb 39 1c 19 7e 3c
       0.007186619 -0.021611491 0.00045008396 0.015508916
000110 91 74 82 3c db 95 b9 3b cf ff 86 bc f2 38 11 bd
       0.015924724 0.005663616 -0.0164794 -0.035454698
000120 1c 90 0f bd 66 4a e6 ba be 5d 66 bc a3 79 56 3c
       -0.035049543 -0.001756978 -0.014060436 0.013090524
000130 d0 b6 24 3b d8 08 39 3c 1f ac 0c bd ab 83 e4 3b
       0.0025133379 0.011293612 -0.034343835 0.006973704
000140 a4 42 66 bc 4d 90 06 bd b1 82 17 bc 41 5a c1 bc
       -0.014053974 -0.03285246 -0.009247468 -0.023602607
000150 3c fb 37 bc 03 b4 8f 3c b4 6b 8f bc 0b 4d 15 3d
       -0.011229333 0.017541891 -0.017507412 0.036450427
000160 7a fb f2 ba e7 3e 13 bc c2 4d 24 3c e4 5d ef bb
       -0.0018538081 -0.008987165 0.0100283045 -0.007304894
000170 78 db 1a 3c bd 82 d3 bb 09 ac 47 3c df a5 2f 3c
       0.0094517395 -0.006454794 0.0121870125 0.010720699
000180 3a 1b a3 3c 46 61 78 3c ef 80 28 bc 90 c9 87 bc
       0.019910444 0.015159911 -0.010284646 -0.016575605
000190 98 17 8d 3a 9d dd bb bc 98 26 76 bc 98 a8 47 b9
       0.0010764478 -0.022932822 -0.01502385 -0.00019040925
0001a0 20 56 1f bc 64 d6 45 3c cc c7 a7 3c 13 89 0f 3d
       -0.009725124 0.0120750405 0.020481013 0.035042834
0001b0 c8 3a 2f bd 4a c8 40 bc 2c 1a f1 bb c8 95 82 bb
       -0.042780668 -0.011766503 -0.0073578563 -0.0039851405
0001c0 59 13 5f 3d 13 7c fe 3c 38 fe de 3b 77 12 98 bb
       0.05446181 0.031065023 0.0068052076 -0.004640873
0001d0 f8 2d 22 3c 8b 1f c8 bc ea 79 91 bc 36 ab 36 ba
       0.009898655 -0.024429103 -0.017758328 -0.00069682614
0001e0 77 75 89 bb 11 ce cd 3c e6 ba b6 bc 2b e8 e7 bc
       -0.004194911 0.025122674 -0.022305917 -0.028308949
0001f0 39 91 05 bd 99 df c9 3b c3 ba ef bb ac b7 8f 3c
       -0.0326092 0.006160688 -0.007315965 0.017543636
000200 a5 cb 09 3b 34 b4 6d bc 3b f3 06 bd 58 97 69 39
       0.0021025923 -0.014508296 -0.032946806 0.00022276992
000210 a5 fa 23 bc 6b 4c fa bc 5c d9 06 bd c2 7c 39 3c
       -0.010008489 -0.030554017 -0.032922134 0.0113212485
000220 2e c3 27 bb f1 ca 75 3a 82 e9 db bc 23 5c c9 3a
       -0.0025598514 0.0009376249 -0.026844744 0.0015362542
000230 9d 2c 9c bc 9a bc 9c bb 6f c5 b5 3c ac c2 97 bc
       -0.019064242 -0.0047832252 0.02218887 -0.018525444
000240 80 f9 02 3c 96 17 b3 bc 1c 70 e7 bc 13 01 4b 3c
       0.007994056 -0.021861833 -0.0282517 0.012390393
000250 6a 2a e6 bb af 25 af 3c 65 b2 23 3c 44 4e 98 bc
       -0.007024099 0.021380274 0.009991263 -0.018592007
000260 5e f3 b6 bc ca 2d 8d bb 20 84 d2 bc 02 13 1a bc
       -0.022332843 -0.004308437 -0.025697768 -0.009403946
000270 8a 00 09 3d e6 82 32 3b eb 25 10 3c 76 40 19 bb
       0.03344778 0.0027238666 0.008798103 -0.002338437
000280 2b c5 92 bc 05 06 b1 bc eb 4e 97 ba 37 65 33 ba
       -0.017916283 -0.021609316 -0.0011543905 -0.00068433903
000290 4d 26 80 3a 82 b8 9b bc 4e 68 88 bc 38 51 1d 3b
       0.000977704 -0.019008879 -0.016651299 0.002400471
0002a0 54 dc c0 bc fc 60 07 3c db ec 8b 3c d5 85 f7 bb
       -0.02354256 0.008262869 0.017080715 -0.007553796
0002b0 2c 4f 8a 39 18 06 f1 bc 8a 60 ab 3c cf 8a 9c bc
       0.000263804 -0.029421851 0.020920057 -0.019109158
0002c0 ea f2 33 bc fe e3 21 bc 31 3a 72 3b 10 96 0c 3c
       -0.010983208 -0.009881018 0.0036960954 0.0085807
0002d0 66 79 14 bb ce bc 86 3b 02 63 da bc de 9e 83 3c
       -0.0022655367 0.0041118627 -0.026658539 0.016066965
0002e0 7d 1f d5 3c ac e9 fd 3b 5e 65 3f bc e4 ab 3d 39
       0.026015991 0.007748803 -0.011681883 0.00018088479
0002f0 ef 46 6c 3c 80 6c 25 3c d3 5c 71 bc 8b 26 9f bc
       0.014421209 0.010096669 -0.014731604 -0.019427558
000300 b7 ae 61 bc 26 2a ef 3c 8e d4 27 bb 32 b4 7c bc
       -0.013774565 0.029194903 -0.002560887 -0.015423821
000310 ec aa d3 3b d6 68 35 3b e6 2e 30 bc 43 1a 1a 3b
       0.0064595845 0.0027680895 -0.010753369 0.0023514188
000320 a4 b4 9b 3b 95 8f 93 ba 2d 95 16 bc 94 91 1a 3c
       0.0047517586 -0.0011258001 -0.00919084 0.009434123
000330 41 d3 96 3a dc 5a 66 3c 48 fd d9 bc 8e c3 10 bc
       0.001150705 0.0140597485 -0.026610032 -0.008835686
000340 70 7c ad 3b 43 af da 3c c3 63 37 bd 8e 14 56 bc
       0.005294375 0.0266949 -0.044772875 -0.013066424
000350 cc 8f 7b 3c 68 ff 5f bc 7a cd 07 bc 2b b7 4c bc
       0.015354108 -0.013671733 -0.0082887355 -0.0124948425
000360 33 28 be bc 4f 42 30 bc 42 97 a2 3c fa ad 69 3c
       -0.023212528 -0.010757997 0.019847516 0.014262671
000370 7d ab 9e 3b ba 68 52 bc e7 b4 00 3c dd f5 ed bb
       0.0048422203 -0.012842352 0.0078556305 -0.007261975
000380 b0 ac bf 3c c1 5d ec bb b1 d0 c3 bc 54 6d 2a 3c
       0.023397774 -0.007213325 -0.023903223 0.010402042
000390 0c a6 40 3b dc ee d9 ba 1b 05 8b 3a 62 e8 b0 3b
       0.0029395847 -0.0016626972 0.001060638 0.005398796
0003a0 c3 7f b1 3c ac c6 64 bc 9d f5 35 3c 0c f9 f1 3b
       0.021667367 -0.013963383 0.011105922 0.007384425
0003b0 2d bf 89 3c 9c 40 c9 3b 7b e3 a2 3b 08 6d c8 b9
       0.016814793 0.0061417352 0.0049709654 -0.00038228207
0003c0 99 1c 2f 3c de a0 6b bc c3 71 11 3d 8b d6 42 bc
       0.010687971 -0.014381615 0.035508882 -0.011891971
0003d0 99 59 fe 3c 59 0c cd 3c fa 1b 32 bd cc a5 1b bc
       0.031048583 0.025030302 -0.04348371 -0.009499978
0003e0 1f 4c db ba 41 0a 61 3b c6 00 cc 3b 3a bc ea bc
       -0.001673106 0.0034338387 0.006225678 -0.028654207
0003f0 1f a7 0f bc 6c 69 e8 bb 33 5a 06 3c f0 4d bf 3b
       -0.008767872 -0.0070926454 0.008200216 0.0058381483

action_model._continuous_distribution.mu.bias f4 [2]
000000 dc 45 c1 b9 30 07 c2 3a
       -0.00036863878 0.0014803167
