Lofty2024/results/FindPlayer2/MoveToPlayer.onnx (onnx, 78774 bytes, 9 tensors)

network_body._body_endoder.seq_layers.0.weight f4 [128, 6]
0	0xbe33b8ba	-0.17550936
1	0x3d9b2b7f	0.075766556
2	0xbe85a0e9	-0.26099327
3	0xbe99c919	-0.30036238
4	0xbdb6618f	-0.089053266
5	0xbf450a0d	-0.7696846
6	0x3ba530af	0.005041204
7	0xbf0147e4	-0.5050032
8	0x3ed07e75	0.4072148
9	0x3c076b2f	0.008265301
10	0x3e6e0285	0.23243149
11	0xbf3242fc	-0.6963346
12	0x3cfefd20	0.031126559
13	0xbd2e85eb	-0.042608183
14	0xbf3b657f	-0.73201746
15	0x3f5b830c	0.85746837
16	0xbed3b43e	-0.4134845
17	0x3ec3b9fb	0.3822783
18	0x3cc4a5ad	0.024004782
19	0x3ef9db1a	0.48799974
20	0xbe4d1ce9	-0.2003056
21	0x3c5e391e	0.0135634225
22	0x3dc60ee9	0.09670813
23	0xbec1c892	-0.37848336
24	0x3ecc8d1d	0.3995141
25	0xbeec74ad	-0.46182767
26	0x3f03174f	0.5120744
27	0x3e73747f	0.23774908
28	0x3ee6b3c6	0.4505903
29	0x3db9ae8e	0.09066497
30	0xbef4f43c	-0.47842586
31	0x3e898ab6	0.2686364
32	0xbdb58e4a	-0.0886503
33	0x3f461b3e	0.7738532
34	0xbe4fa2f4	-0.20277005
35	0xbed40a30	-0.41414022
36	0xbe98b214	-0.29823363
37	0xbf1c738b	-0.61113805
38	0x3dc16221	0.09442545
39	0x3f271ffd	0.65283185
40	0xbf1cc5e9	-0.61239487
41	0xbe3c8bad	-0.18412657
42	0xbe778692	-0.24172428
43	0x3f09aecd	0.5378235
44	0xbe010a09	-0.12601484
45	0x3f68db11	0.9095927
46	0x3f87c8ee	1.0608194
47	0xbebd3a79	-0.36958674
48	0xbf1cf859	-0.6131645
49	0x3eb19bd1	0.3468919
50	0xbf4a591f	-0.7904224
51	0x3deee767	0.1166523
52	0x3e94a8fd	0.29035178
53	0xbe2dc003	-0.16967778
54	0xbe9ca2e0	-0.30593014
55	0xbe9b7b29	-0.303674
56	0x3f448918	0.7677169
57	0xbf5b5a23	-0.8568441
58	0x3e02b9f4	0.12766248
59	0xbf2203e4	-0.63287187
60	0xbe600de4	-0.21880299
61	0xbeebe088	-0.4606974
62	0xbf312817	-0.692018
63	0x3d0183db	0.031619888
64	0xbf07a290	-0.52982426
65	0xbed17538	-0.40909743
66	0xbf075d66	-0.5287689
67	0xbce02f41	-0.027366282
68	0x3e0f11d5	0.13971646
69	0x3e0fa6ba	0.14028445
70	0xbe063807	-0.1310731
71	0xbea0ba3c	-0.31392086
72	0xbf1cb79e	-0.6121768
73	0x3e69e7d3	0.2284234
74	0x3ee3ea53	0.44514713
75	0x3dcf43bc	0.10120341
76	0xbe147f43	-0.14501671
77	0xbf67f067	-0.906012
78	0x3dc949d0	0.09828532
79	0xbb67a46b	-0.0035345803
80	0xbf1b55a1	-0.60677534
81	0xbe950385	-0.29104248
82	0x3ec38939	0.3819063
83	0x3f5f6c31	0.8727446
84	0x3e6d942a	0.23201051
85	0xbf2fb63e	-0.68637455
86	0xbe82b40e	-0.25527996
87	0x3f4ed773	0.807975
88	0x3e40e140	0.18835926
89	0xbe6982bd	-0.22803779
90	0xbefd50d2	-0.49475724
91	0xbe903ab5	-0.2816979
92	0xbee752ba	-0.45180303
93	0xbf032db6	-0.51241624
94	0xbf5bc1c9	-0.8584257
95	0xbe450760	-0.19241095
96	0xbe25971a	-0.16170922
97	0x3e13583f	0.14389132
98	0x3e4a24d3	0.1974061
99	0x3efd05b9	0.4941843
100	0x3e8dd3b2	0.27700573
101	0xbec652e1	-0.38735107
102	0x3eb7ae4b	0.35875162
103	0x3e55854c	0.2085163
104	0xbea82e52	-0.3284784
105	0x3f1da3f0	0.61578274
106	0x3f024080	0.5087967
107	0x3ed54572	0.41654545
108	0xbdaa0d04	-0.08303264
109	0xbf056a95	-0.52115756
110	0x3e9140ac	0.28369653
111	0xbe56f3c7	-0.20991431
112	0xbdb8373b	-0.089949094
113	0xbced654d	-0.028978968
114	0xbeee1428	-0.46499753
115	0x3c9e5eba	0.019332279
116	0xbdc6ac11	-0.09700788
117	0xbd5c4167	-0.05377331
118	0xbed05c5d	-0.40695468
119	0x3eb332bb	0.34999642
120	0x3d08fcdf	0.03344428
121	0xbea04af8	-0.31307197
122	0x3f1e5ce0	0.61860466
123	0xbdee8474	-0.11646357
124	0x3e2c9b32	0.16856077
125	0x3f479f4a	0.7797743
126	0xbe022081	-0.12707712
127	0xbe3af519	-0.1825756
128	0xbe120051	-0.14257933
129	0xbe5d831c	-0.21632046
130	0x3f0af1ce	0.54275215
131	0x3df746b4	0.120740324
132	0xbd080440	-0.033207178
133	0xbf01619a	-0.50539553
134	0xbf1187e2	-0.56847966
135	0xbf547d33	-0.8300354
136	0xbe8904e6	-0.2676155
137	0xbe67553e	-0.22591111
138	0xbee0778f	-0.43841216
139	0x3de4de38	0.11175197
140	0x3f2f08f3	0.6837303
141	0x3ec1ea59	0.37874106
142	0x3d3b5d61	0.04574335
143	0x3d018bd3	0.031627487
144	0x3e9b839d	0.3037385
145	0x3f05be0b	0.5224311
146	0xbe61e057	-0.22058235
147	0xbca0ea80	-0.019643068
148	0xbe3ea27f	-0.18616675
149	0xbeead92f	-0.45868823
150	0x3e511856	0.2041944
151	0x3dabdc57	0.08391636
152	0x3f13c6c2	0.57725155
153	0x3de3df92	0.11126627
154	0x3d9d3e06	0.07677846
155	0xbbcd9b8c	-0.006274646
156	0xbf502c18	-0.8131728
157	0x3eecb6ec	0.46233308
158	0xbe7fc279	-0.24976529
159	0x3ef79638	0.48356795
160	0xbe911f65	-0.28344265
161	0xbe883107	-0.26599905
162	0x3e0376c2	0.12838271
163	0x3e804e83	0.250599
164	0x3d8cdc06	0.06877904
165	0xbf0c4e1b	-0.5480668
166	0x3f1ab4e8	0.6043229
167	0x3cf7c7b1	0.030246587
168	0xbec36bd8	-0.38168216
169	0xbf348e87	-0.7052998
170	0x3e189e05	0.1490403
171	0xbe93e866	-0.28888243
172	0x3d82d038	0.06387371
173	0x3ddfeb3f	0.109335415
174	0x3e1c594b	0.15268438
175	0xbe8d6a35	-0.27620092
176	0xbf16eca2	-0.58954823
177	0xbe927883	-0.28607568
178	0x3f1cacbc	0.6120107
179	0x3d865d5f	0.06560778
180	0xbe3fadbd	-0.1871862
181	0x3f037dd9	0.51363903
182	0x3eb7eedb	0.3592442
183	0xbdf6388e	-0.12022506
184	0xbef05831	-0.46942285
185	0xbdf1298e	-0.11775504
186	0xbede13d0	-0.4337449
187	0x3e9d14d9	0.30679968
188	0xbe31efe7	-0.17376672
189	0x3e059853	0.13046388
190	0x3eca74e6	0.3954231
191	0x3f14fdbf	0.58199686
192	0xbe4a1a97	-0.19736706
193	0x3ee9d92b	0.456735
194	0xbf63b7e4	-0.8895247
195	0x3f432720	0.76231575
196	0xbe5c596e	-0.2151849
197	0x3ea446a2	0.3208514
198	0x3f3ec7d0	0.7452364
199	0xbeacdf14	-0.33763945
200	0x3e3837f9	0.17990102
201	0xbc001340	-0.00781709
202	0x3ef41ea7	0.47679636
203	0x3e9d4b3b	0.3072146
204	0xbdb2e766	-0.08735542
205	0x3ebfee19	0.37486342
206	0x3f663b5c	0.89934325
207	0x3f12b541	0.5730782
208	0x3c0fcb79	0.008776539
209	0x3df9cc07	0.12197118
210	0x3d857fe5	0.065185346
211	0xbec9c17d	-0.39405432
212	0xbed29c1e	-0.41134733
213	0xbe1e7a42	-0.15476325
214	0xbc9adffc	-0.018905632
215	0xbe9e7dc1	-0.30955318
216	0xbf246d61	-0.642294
217	0xbec89d75	-0.3918263
218	0x3f00da41	0.5033303
219	0xbec5e633	-0.3865219
220	0xbe6f3813	-0.23361234
221	0x3e434e97	0.19072948
222	0x3eb4fa14	0.35347044
223	0xbf3c444b	-0.73541707
224	0x3ee53555	0.44767252
225	0xbe3f2ee4	-0.18670231
226	0xbef7be53	-0.48387393
227	0x3cad96a4	0.021189995
228	0x3ebb8a86	0.36629122
229	0xbee2b060	-0.44275188
230	0x3f3c9474	0.7366402
231	0xbc86862b	-0.016421398
232	0x3ed5d170	0.4176135
233	0xbe7d83a1	-0.24757244
234	0x3e2286bc	0.1587171
235	0xbf299999	-0.66249996
236	0x3d2f85b6	0.042852126
237	0x3e027ac8	0.1274215
238	0xbdeda3f7	-0.116035394
239	0x3e252f4a	0.1613132
240	0xbd1de1c8	-0.0385454
241	0xbee6c754	-0.4507395
242	0xbf0a6c28	-0.54071283
243	0xbf2e5270	-0.6809454
244	0xbe5b4766	-0.21413955
245	0xbeee2316	-0.46511143
246	0xbe59d13f	-0.21271227
247	0x3eb614de	0.35562795
248	0x3e2b27db	0.16714422
249	0xbe99bd7a	-0.30027372
250	0xbe7a6fb9	-0.24456681
251	0x3e13fc02	0.14451602
252	0x3d0a7662	0.033804305
253	0x3e9e00ae	0.30859894
254	0x3f10d798	0.5657897
255	0xbe34dd89	-0.17662634

network_body._body_endoder.seq_layers.0.bias f4 [128]
0	0x38e78ce8	0.00011041184
1	0x39aff0b6	0.00033557945
2	0x3a977286	0.0011554516
3	0xb9bef048	-0.00036418648
4	0xbb30b452	-0.0026962948
5	0xba89c1f4	-0.0010510073
6	0xbb189cbb	-0.0023286778
7	0x3b43f67e	0.002990156
8	0xbb54a92d	-0.003244947
9	0x3a3ffb18	0.00073234877
10	0x3b40267c	0.0029319813
11	0xbac0d86c	-0.0014712936
12	0x3aa6e20b	0.0012732161
13	0x39c1a884	0.00036937383
14	0xbb350716	-0.0027622632
15	0xb9e10d86	-0.0004292542
16	0xbb1160f9	-0.0022183044
17	0xbb3c8e06	-0.0028771176
18	0xbb132b18	-0.0022456106
19	0x3b19c041	0.002346054
20	0xb9b97d7d	-0.00035379446
21	0x3affebbd	0.0019525212
22	0xb9c5c8e8	-0.00037724455
23	0x3b2adfdf	0.002607338
24	0xba2c2db3	-0.0006568089
25	0x394240cd	0.00018525422
26	0xb8f4905e	-0.00011661717
27	0xba78e3a1	-0.00094943686
28	0x3aa7e872	0.0012810363
29	0x3aeeef37	0.001822925
30	0x3aa80b1c	0.0012820694
31	0x3b5fbe40	0.0034140497
32	0x3a52ea98	0.00080458215
33	0xbad8d47e	-0.001654282
34	0x3b11ae5b	0.0022229168
35	0xbaa2ed86	-0.0012430407
36	0x3b007e72	0.0019606617
37	0xbadd39cb	-0.0016878186
38	0xbad5028a	-0.0016251367
39	0x3b18eca1	0.0023334401
40	0xb93f5cfe	-0.00018249822
41	0x3aef533c	0.0018259059
42	0x3b24670b	0.0025085832
43	0x3b5a2c79	0.0033290668
44	0x3b02bcb8	0.001994891
45	0xbae1e6fc	-0.0017234976
46	0x3a38ebf6	0.0007054204
47	0x3ab153a0	0.001352895
48	0xbaed1fc0	-0.0018091127
49	0x39b5d4c8	0.00034681545
50	0xbb45e48b	-0.0030196037
51	0xbabfa78d	-0.0014622078
52	0xb9bde27a	-0.00036217627
53	0x392c3690	0.00016423524
54	0x39f14ef1	0.00046025918
55	0x3a01b82f	0.0004948405
56	0xbb1b5fda	-0.0023708255
57	0xba924337	-0.0011158948
58	0xb8f85583	-0.00011841489
59	0x3888ab12	6.51685e-05
60	0xba245182	-0.0006268249
61	0x3ab39ac6	0.0013702742
62	0xba8a0512	-0.0010530076
63	0x3997b5e9	0.00028936498
64	0x3a6e82f9	0.0009098496
65	0xb7ad9900	-2.0694453e-05
66	0x3aba5ef9	0.0014218978
67	0xbae9915b	-0.0017819809
68	0xb9cafa08	-0.0003871473
69	0xba9d58f0	-0.0012004655
70	0xbb0ff2d4	-0.0021964805
71	0x3a11c092	0.0005560006
72	0x3a471c2f	0.0007595447
73	0x38a9bd06	8.093756e-05
74	0x38a86d3b	8.03121e-05
75	0x3aea6f26	0.0017885908
76	0x3985ff39	0.00025557893
77	0xba15012d	-0.0005684074
78	0xba2fde22	-0.00067088206
79	0x3a863165	0.0010238109
80	0xb988ab90	-0.00026067765
81	0x3b44b421	0.0030014592
82	0x3a47b092	0.00076175586
83	0x3a417122	0.0007379224
84	0xba9f9f96	-0.0012178298
85	0xba8a53cc	-0.0010553538
86	0x3768f5c0	1.3885496e-05
87	0x3b114bb4	0.0022170367
88	0xb9e92614	-0.00044469594
89	0xbb41f0a0	-0.0029592887
90	0xb9c18eea	-0.00036918308
91	0x3ad7fc83	0.0016478453
92	0x3ac17f87	0.0014762738
93	0x399b8575	0.00029663337
94	0xbafbbdda	-0.001920636
95	0x3ab2b274	0.0013633505
96	0x3a3905ab	0.00070580345
97	0x3a9d2c0f	0.001199128
98	0xbb814539	-0.0039450196
99	0xba097b36	-0.0005244495
100	0xbab6cacb	-0.0013945935
101	0xbaa6eb3c	-0.00127349
102	0x399c8b02	0.00029858208
103	0x39aec280	0.0003333278
104	0xbb6e34bd	-0.0036347352
105	0xba94a554	-0.0011340776
106	0xb9ca517f	-0.00038589162
107	0x3a5a7e98	0.0008334904
108	0xba266584	-0.00063475245
109	0x3aedb7f0	0.0018136483
110	0x3a686bb2	0.00088661455
111	0x3b559c95	0.003259455
112	0x3b62c6e2	0.0034603407
113	0xbb0ed80d	-0.0021796257
114	0x3aaa8d03	0.0013011995
115	0xbb205f2b	-0.0024470787
116	0xb99817c9	-0.0002900942
117	0x3b000e02	0.00195396
118	0xbb243753	-0.002505739
119	0xb991ff7e	-0.00027846912
120	0x3b266a64	0.0025393004
121	0x3b0f49f7	0.0021864155
122	0x3992cc58	0.00027999538
123	0x39435a26	0.00018630232
124	0x3b6410fe	0.0034800167
125	0xbb10f469	-0.0022118336
126	0xbafb593b	-0.0019176373
127	0xbb24cf93	-0.0025148138

network_body._body_endoder.seq_layers.2.weight f4 [128, 128]
0	0x3dd3c386	0.103400275
1	0xbd007b01	-0.031367306
2	0xbda07ac7	-0.07835918
3	0xbd64a58a	-0.055821933
4	0xbc975406	-0.018472683
5	0xbc4b4972	-0.012407647
6	0xbd100eb9	-0.03517029
7	0xbdef0a70	-0.11671913
8	0xbd08e1c2	-0.033418424
9	0xbd596ff9	-0.0530853
10	0x3bf692ef	0.00752484
11	0xbc052ae4	-0.008127902
12	0x3bf7d9d4	0.007563809
13	0xbdb45572	-0.0880536
14	0xbdf46944	-0.1193414
15	0xbda04d16	-0.07827203
16	0xbb55646b	-0.0032561074
17	0xbd3b888e	-0.045784526
18	0xbdb2a65a	-0.08723135
19	0x3c2bc352	0.01048358
20	0x3dababa9	0.08382351
21	0xbc91542e	-0.017740335
22	0xbb9ae9a3	-0.0047275587
23	0x3e2ef5a2	0.17085889
24	0x3ce44542	0.027865056
25	0xbdebd308	-0.115148604
26	0xbdfdb282	-0.12387563
27	0xbd5fb7ed	-0.054618765
28	0xbcc40ffe	-0.023933407
29	0xbc30ebe0	-0.0107984245
30	0xbdd9080f	-0.1059724
31	0x3d29b0ba	0.041428305
32	0x3e1e913c	0.1548509
33	0x3ddf74d9	0.10910959
34	0xbb8be469	-0.004269172
35	0xbd7aecc3	-0.06126095
36	0xbd6bed69	-0.05759946
37	0xbd9f24d3	-0.077706955
38	0xbcfe1298	-0.031014726
39	0x3e1ba5b1	0.15199925
40	0xbe5c7805	-0.21530159
41	0xbb82fbcd	-0.003997302
42	0x3d836f67	0.06417733
43	0x3d3d4518	0.04620847
44	0x3c9f3a9d	0.019437129
45	0x3df83460	0.12119365
46	0x3d57dfc6	0.05270364
47	0xbe06cce3	-0.13164096
48	0x3d19301a	0.03739939
49	0x3e187b03	0.14890675
50	0x3db4da10	0.088306546
51	0xbca41c74	-0.020033099
52	0x3de7a584	0.113108665
53	0xbc68ab46	-0.014200991
54	0xbe3ec6c6	-0.18630514
55	0xbdc8f711	-0.09812749
56	0xbd74dd86	-0.059781574
57	0xbc504450	-0.0127115995
58	0x3d69aa7e	0.05704736
59	0xbd875824	-0.06608608
60	0x3de5078a	0.111830786
61	0xbd3d5701	-0.04622555
62	0xbd1ed07e	-0.038773052
63	0x3dcbc043	0.099487804
64	0x3d8d8406	0.06909947
65	0x3e5721e4	0.21009022
66	0x3d913b94	0.07091442
67	0x3e063d37	0.13109289
68	0xbd97c9ca	-0.07411535
69	0xbbcabce1	-0.006187067
70	0xbdb0cd77	-0.08632939
71	0xbe0d47fd	-0.13796993
72	0xbd8ae8c7	-0.0678268
73	0x3d23822f	0.039919075
74	0x3d868789	0.0656882
75	0xbe45c786	-0.19314393
76	0x3d20a0e8	0.039215952
77	0x3d5deee8	0.054182917
78	0xbe22a990	-0.15884995
79	0x3d9c3dbb	0.07628962
80	0xbe27f83b	-0.16403286
81	0x3c3af54c	0.011411022
82	0x3ba291d4	0.0049612317
83	0x3c8cb255	0.01717488
84	0x3caeac08	0.021322265
85	0xbdc83159	-0.09775037
86	0x3dc77270	0.09738624
87	0x3d8c3217	0.068454914
88	0x3e256c84	0.16154677
89	0xbc75f530	-0.015012071
90	0xbdac188b	-0.08403119
91	0x3d6f66ea	0.058447756
92	0x3db0654f	0.08613073
93	0x3db000a6	0.08593874
94	0xbb248c69	-0.0025108105
95	0x3df8b930	0.12144697
96	0x3d2b7a8d	0.04186492
97	0xbd782781	-0.06058455
98	0x3da295c5	0.079387225
99	0xbd649378	-0.0558047
100	0x3c673552	0.014111834
101	0x3d5003e4	0.05078496
102	0x3c307994	0.010771174
103	0xbdc24900	-0.0948658
104	0x3e159e46	0.14611158
105	0xbba645b9	-0.0050742296
106	0x3d217a61	0.03942335
107	0x3d058894	0.032600954
108	0x3d9e3c5f	0.077263586
109	0xbe1a9156	-0.15094504
110	0x3e02a73f	0.12759112
111	0x3e2d6b97	0.16935574
112	0xbcc45346	-0.02396549
113	0x3d75e5a6	0.060033463
114	0xbdfc1c08	-0.12310034
115	0x3d20e170	0.039277494
116	0xbd5b7e50	-0.053587258
117	0xbd0e3edd	-0.03472792
118	0xbc0c4f6c	-0.0085638575
119	0x3da5962a	0.08085282
120	0x3d78f283	0.060778152
121	0x3c54ceec	0.012988787
122	0x3d2c1069	0.042007837
123	0xbcaf4c46	-0.021398675
124	0x3e11efb4	0.14251596
125	0x3d6caf47	0.057784345
126	0x3c1fd925	0.009756361
127	0xbc26c570	-0.010178909
128	0x3dfc3899	0.12315483
129	0xbe0f50b2	-0.13995627
130	0xbdbbd7a9	-0.09171993
131	0xbdf307a1	-0.118666895
132	0xbd849075	-0.064728655
133	0x3d9bec33	0.07613411
134	0xbdb16530	-0.08661878
135	0x3d8458de	0.064622626
136	0x3c4a5fb8	0.012351923
137	0xbdb5c4d2	-0.08875431
138	0xbc8616e6	-0.01636834
139	0xbd89b7db	-0.06724521
140	0x3d19db91	0.03756291
141	0x3dfd7597	0.12375944
142	0x3d9c4cfb	0.0763187
143	0x3ccea89c	0.025226884
144	0xbdca9557	-0.098917656
145	0xbd788021	-0.06066907
146	0xbc0ae50e	-0.008477462
147	0x3ddac9ff	0.10683059
148	0xbe0c8b75	-0.13725074
149	0xbe3d858f	-0.1850798
150	0x3e0a642b	0.13514774
151	0x3d71c638	0.059026927
152	0xbe2f8321	-0.17139865
153	0xbd9dbc4a	-0.07701929
154	0xbc9a2575	-0.018816689
155	0x3da7f62d	0.08201251
156	0xbc7c30ef	-0.015392526
157	0xbdf744d7	-0.12073677
158	0xbe4b393c	-0.19846052
159	0x3c29abd0	0.010355905
160	0xbca21d66	-0.019789409
161	0xbc6063d3	-0.013695675
162	0x3ce2b706	0.027675163
163	0x3dcb4561	0.09925342
164	0xbe1affcf	-0.15136646
165	0xbbc35edc	-0.005962236
166	0x3dba718d	0.09103689
167	0x3d0c36cd	0.03423195
168	0x3e4b5491	0.19856478
169	0xbdae85e7	-0.085216336
170	0xbdeee35f	-0.11664461
171	0xbdb2f7ee	-0.08738695
172	0xbd6acf82	-0.0573268
173	0xbd4e01d0	-0.050294697
174	0x3c78f4d0	0.015195087
175	0x3e0b966f	0.13631605
176	0xbd8da37a	-0.06915946
177	0xbde45258	-0.11148518
178	0x3cc7a687	0.024371399
179	0xbda3056f	-0.07960021
180	0xbe03f628	-0.1288687
181	0xbdad52d4	-0.08463064
182	0xbdd377d7	-0.10325592
183	0xbd415b79	-0.047206376
184	0x3e773b14	0.2414363
185	0x3c4c50fe	0.012470482
186	0xbe3d5335	-0.18488772
187	0x3db21a54	0.08696428
188	0x3c3eeda2	0.011653336
189	0xbd724f93	-0.05915792
190	0x3e4d6e4e	0.20061609
191	0x3e1bacd7	0.15202652
192	0x3dc51c39	0.09624524
193	0xbdbb6b53	-0.0915133
194	0xbdad0e9e	-0.08450054
195	0xbd0ff73b	-0.035147887
196	0x3cecd18f	0.02890852
197	0x3d8d138a	0.068884924
198	0xbd93f0eb	-0.07223686
199	0xbce7d447	-0.028299464
200	0x3b18f61f	0.002334006
201	0xbe0a8fda	-0.13531438
202	0xbe7ead5e	-0.24870822
203	0xbe386433	-0.18006973
204	0xbdae288f	-0.0850383
205	0x3d370d30	0.04469031
206	0x3d70f3f1	0.05882639
207	0x3d1110c2	0.035416372
208	0xbdce4aa5	-0.10072831
209	0xbd118f79	-0.035537217
210	0xbdf8a502	-0.12140848
211	0x3d66d19a	0.056352235
212	0x3deb26bb	0.114819966
213	0xbe128ad7	-0.14310776
214	0x3cbd513a	0.02311002
215	0x3d95df81	0.073180206
216	0xbd5be4b5	-0.05368491
217	0xbd4419bb	-0.0478761
218	0x3dd200a6	0.1025403
219	0x3db3049b	0.08741113
220	0xbe304060	-0.17212057
221	0xbbc151d9	-0.0058996496
222	0x3dad583c	0.08464095
223	0x3e7356f0	0.23763633
224	0x3d64f9a1	0.055902127
225	0xbe49ab3c	-0.19694227
226	0x3e181a2d	0.14853735
227	0x3d41e0d1	0.047333542
228	0x3e011649	0.12606157
229	0xbdc1aa8e	-0.09456359
230	0x3de8a9a8	0.11360484
231	0x3d1a1a99	0.03762302
232	0xbdd8de9c	-0.10589334
233	0x3dbe7fa5	0.0930169
234	0x3b89eee6	0.004209387
235	0xbdeb4fe9	-0.11489851
236	0xbc50931a	-0.012730384
237	0xbc083a70	-0.008314714
238	0x3db8a86e	0.090165004
239	0x3b9e8bca	0.0048384415
240	0xbd87ead0	-0.06636584
241	0xbdc08c8e	-0.09401809
242	0x3c91c5fe	0.017794605
243	0xbaae0022	-0.0013275186
244	0xbc7ad087	-0.015308506
245	0x3da4cf97	0.08047407
246	0xbccd7176	-0.025078516
247	0x3dc43e80	0.095822334
248	0xbdebf8e3	-0.11522081
249	0x3b57c889	0.0032925925
250	0x3d94afd5	0.072601
251	0xbdc2c241	-0.09509707
252	0x3d074ee4	0.03303422
253	0xbc04fd53	-0.008117038
254	0xbcf1151a	-0.029429007
255	0xbc606330	-0.013695523

network_body._body_endoder.seq_layers.2.bias f4 [128]
0	0x3a308d43	0.0006734917
1	0xb9d92fa2	-0.00041424955
2	0x3ae6507e	0.0017571596
3	0xb9b74795	-0.00034957813
4	0x3a74afb0	0.0009334041
5	0x38e1ec5c	0.000107728614
6	0xb9f82a8b	-0.00047333943
7	0xbab542bc	-0.0013829092
8	0xb8b5cafd	-8.668562e-05
9	0xb94ff3f5	-0.0001983194
10	0x3ad6e13a	0.0016394027
11	0x3abf3326	0.0014587387
12	0xba85b20a	-0.0010200155
13	0x3b12ba4d	0.0022388876
14	0x38de736d	0.00010607285
15	0xba8a5a71	-0.0010555518
16	0x3a3afa18	0.0007132604
17	0x3aa07f33	0.001224494
18	0x3ab1182e	0.0013511234
19	0xb81dab14	-3.7591046e-05
20	0xbad2241c	-0.001603249
21	0xb8b6b0c7	-8.7113636e-05
22	0x3ac7ecac	0.0015253029
23	0xb96cc895	-0.00022581436
24	0xbab2bfae	-0.0013637447
25	0x39e05dfb	0.0004279463
26	0xbabdd9ea	-0.0014484499
27	0xba0a5068	-0.00052762637
28	0xba8ea584	-0.0010883068
29	0xbaba372a	-0.0014207114
30	0xb8c53184	-9.402915e-05
31	0xbb2470da	-0.0025091679
32	0xb9e4e3b5	-0.00043657204
33	0xb900f5df	-0.00012298625
34	0x3a00e3be	0.0004916749
35	0xb9f13fe5	-0.00046014707
36	0xbaa2c0cb	-0.0012417076
37	0x3b0537fe	0.0020327563
38	0xb9ff626e	-0.00048710726
39	0x3a1b85f9	0.0005932744
40	0x3a709cb8	0.00091786264
41	0x39bda10a	0.00036168873
42	0xb9cc2dce	-0.0003894404
43	0xbb19527a	-0.0023395107
44	0xba1bd8b5	-0.00059450726
45	0xba5c68c6	-0.00084079464
46	0x3a0cb1ec	0.00053670886
47	0x3a08bbd0	0.00052159745
48	0xba85d685	-0.0010211027
49	0xb9e99ce3	-0.00044558113
50	0xb9d4437f	-0.0004048608
51	0x3ae61b25	0.0017555697
52	0x3af279f2	0.0018499477
53	0x3a5096f9	0.0007957067
54	0x38f3e0bb	0.00011629002
55	0x38840ba1	6.2964165e-05
56	0xba6e6765	-0.00090943865
57	0xbadca804	-0.001683474
58	0x394e3d2d	0.0001966848
59	0xb9a9ad8e	-0.000323635
60	0x3a97c638	0.001157946
61	0x3ada29e0	0.001664456
62	0x3a7fea42	0.0009762385
63	0x381e95fd	3.7809823e-05
64	0xb98bc4f5	-0.0002665889
65	0x36f9699c	7.433073e-06
66	0xbad3d9f6	-0.001616298
67	0xba068e9f	-0.00051329465
68	0xba612933	-0.0008589208
69	0xbaac604e	-0.001315126
70	0x39b083ce	0.00033667538
71	0x39057998	0.00012729166
72	0x396cad3c	0.00022571249
73	0xba8f047c	-0.0010911371
74	0xba819153	-0.0009885229
75	0xba126e57	-0.00055859
76	0xbb1fd5e6	-0.0024388968
77	0xb9c3f45b	-0.00037375357
78	0x3a09e9df	0.0005260985
79	0xbab48579	-0.0013772688
80	0x39730434	0.00023175852
81	0x3a3d3aa0	0.00072185136
82	0xba71e239	-0.000922713
83	0xba5a711e	-0.0008332896
84	0xb9faa8e0	-0.00047809538
85	0x39d50f86	0.00040638092
86	0xb90098f9	-0.00012264018
87	0x393b030d	0.00017834846
88	0x3a6b2936	0.00089706795
89	0xba306c24	-0.00067299814
90	0x384e4ed0	4.9187627e-05
91	0xba8617ab	-0.0010230442
92	0x395a5fba	0.00020825761
93	0xbaf153e3	-0.0018411841
94	0x3b0b9106	0.0021296158
95	0x3ab39500	0.0013701022
96	0xb9fd8412	-0.0004835432
97	0xbb2bc663	-0.0026210777
98	0x3acbfbe0	0.0015562735
99	0x3b0b5d36	0.0021265275
100	0x3a9e7eea	0.0012092267
101	0xb838228a	-4.3901186e-05
102	0xba6eeeba	-0.00091145525
103	0x378b6abc	1.6619793e-05
104	0xba398b56	-0.00070779526
105	0xbacabd17	-0.001546773
106	0x380df634	3.3846314e-05
107	0x3a6c5837	0.00090158306
108	0xb9ada300	-0.00033118576
109	0xbb127bc8	-0.0022351611
110	0x3b3a5397	0.002843117
111	0x3a276d00	0.00063867867
112	0xba734247	-0.00092795904
113	0xb9b027ac	-0.00033598894
114	0x39a2d06c	0.00031054334
115	0x3a049a19	0.0005058363
116	0x3927dbdf	0.0001600827
117	0xba094fbf	-0.00052380183
118	0x39ea3a0e	0.00044675212
119	0xbb525730	-0.0032095425
120	0xbb27854f	-0.0025561636
121	0x39d323f0	0.00040271832
122	0xb9850c23	-0.0002537678
123	0x3aa01018	0.0012211828
124	0xb9be2fe8	-0.00036275317
125	0xbb4076f9	-0.0029367788
126	0x3952caac	0.00020102662
127	0xb8ca7f17	-9.655783e-05

action_model._continuous_distribution.log_sigma f4 [1, 2]
0	0x3a57806a	0.00082207343
1	0x3b94755c	0.004530592

action_model._continuous_distribution.mu.weight f4 [2, 128]
0	0x3c042673	0.008065808
1	0x3d0a47ee	0.033760004
2	0xbcbf216f	-0.023331372
3	0x3ca9a4ec	0.020708524
4	0xbc4947a2	-0.012285145
5	0x3cc8725f	0.024468599
6	0xbcdb4905	-0.026768217
7	0xbbb092bb	-0.0053885854
8	0x3b911792	0.0044278586
9	0xbbdea91b	-0.0067950613
10	0xbd4c2df5	-0.049848516
11	0xbcd0abe3	-0.025472587
12	0xbba39b8e	-0.004992909
13	0x3bfdb2da	0.007742268
14	0x3cba7522	0.022760931
15	0xbc4c4335	-0.012467195
16	0xbca4771a	-0.020076323
17	0x3d02edf3	0.031965207
18	0x3c73253e	0.014840422
19	0xbcd05101	-0.02542925
20	0x3c65424b	0.013992856
21	0x3cc394e8	0.023874715
22	0x3c30c865	0.010789965
23	0xbccdfae5	-0.02514405
24	0xbb6050c0	-0.0034227818
25	0x3c0d3533	0.008618641
26	0xbb05dcad	-0.0020425722
27	0xbc7543a8	-0.014969744
28	0xbc383d45	-0.011245077
29	0xbb9b5164	-0.004739927
30	0xbb4b45be	-0.0031016911
31	0x3ba820d7	0.005130868
32	0xbce98447	-0.028505458
33	0xbc99681b	-0.0187264
34	0x3b8b1a1d	0.0042450563
35	0x3c740594	0.014893908
36	0x3a0e4886	0.0005427677
37	0xbc51b9c5	-0.012800639
38	0xbcb6d2ae	-0.022317257
39	0xbc3f18fc	-0.011663672
40	0x3bfe661f	0.0077636386
41	0x3b9ba91b	0.0047503836
42	0xbcd2871d	-0.025699193
43	0x3c89e252	0.01683155
44	0xbcd3ab2a	-0.025838453
45	0xbbe14945	-0.0068751895
46	0xbbb6757c	-0.0055682044
47	0xbcd14c1a	-0.025548983
48	0xbbe57172	-0.007002049
49	0x3c478c49	0.012179443
50	0xbcf58a11	-0.029973062
51	0x3c13f614	0.009030838
52	0x3c265bd9	0.010153734
53	0xbbc38164	-0.0059663523
54	0xba3c5f7e	-0.00071858603
55	0xbc429b0d	-0.011877787
56	0x3c8feb3d	0.017568225
57	0x3c5cd4ee	0.013478501
58	0x3d0693ec	0.032855913
59	0xba92a51f	-0.0011188126
60	0xbc9aee71	-0.018912526
61	0xbb50119c	-0.0031748777
62	0x3ce64254	0.0281078
63	0x3c693443	0.014233652
64	0x3c9d48c2	0.019199733
65	0xbcaeeb51	-0.021352442
66	0xbce98e13	-0.02851013
67	0xbc340660	-0.010987848
68	0xbc1a0539	-0.009400659
69	0x3cbd509b	0.023109725
70	0x3b8f4a6b	0.004372885
71	0x3cb3ee96	0.021964353
72	0x3c4fd335	0.012684633
73	0xbbc64c93	-0.006051609
74	0x3b1b0760	0.002365552
75	0x3aa1b64c	0.0012337654
76	0x3c887578	0.016657576
77	0x3c0892c1	0.00833577
78	0xbba1dfcd	-0.004940009
79	0x3bc9fd68	0.0061642416
80	0xbc6ff4ce	-0.014645768
81	0xbbedd036	-0.0072574867
82	0x3cab560c	0.020915054
83	0xbc8d712e	-0.017265882
84	0xbbcddc21	-0.006282345
85	0x3d1a551e	0.03767883
86	0xbc968a80	-0.018376589
87	0x39a0dee8	0.00030683656
88	0x3c14d2bf	0.009083449
89	0xbc94d726	-0.018168997
90	0xbc9a2b65	-0.01881952
91	0xbc571797	-0.013128183
92	0x3bd3f99c	0.0064689647
93	0xbba0c24c	-0.0049059745
94	0xbbc62609	-0.0060470146
95	0x3cfc2568	0.030779555
96	0xbceddcc0	-0.029035926
97	0x3c6c426e	0.014420135
98	0xbc94678f	-0.018115787
99	0x3c83d6bb	0.016093602
100	0xbca16561	-0.019701662
101	0xbd1bb141	-0.03801084
102	0x3c3cd4ad	0.011525315
103	0xbc6cd4d8	-0.014455043
104	0x3c97a8e6	0.018513154
105	0xbb869f13	-0.0041083186
106	0x3cad119f	0.021126566
107	0xbd15fcf4	-0.036618188
108	0xbc195014	-0.009357471
109	0xbd148ac0	-0.036265135
110	0x3ca30ce9	0.019903617
111	0x3b346b09	0.0027529618
112	0x3c95a724	0.018268175
113	0x3cfc9728	0.030833796
114	0x3caba3e4	0.020952173
115	0x3c0b6bac	0.008509558
116	0xbba06d24	-0.004895823
117	0xbbe10a83	-0.006867708
118	0xbcc10f15	-0.023566762
119	0xbd024ce1	-0.0318116
120	0x3beed64e	0.0072887307
121	0xbd17d0cb	-0.037064355
122	0x3cf160bd	0.029465074
123	0xbd12d4d6	-0.035847507
124	0x3cbaba8c	0.02279403
125	0xbc341371	-0.010990963
126	0x3d47b67e	0.048758022
127	0xbc0ff0cb	-0.008785437
128	0xbc590e8f	-0.0132481
129	0xbbbf975c	-0.005846901
130	0xbb37c0b9	-0.0028038456
131	0x3c163a43	0.009169164
132	0xbbb64152	-0.005561986
133	0xbc8febc4	-0.017568476
134	0xbc233bdb	-0.009963001
135	0x3baa924a	0.0052054273
136	0x3c8534ab	0.016260466
137	0x3c122067	0.008918858
138	0xbb9ac5c2	-0.0047232816
139	0xbcb55236	-0.022133928
140	0x3cbebacb	0.02328243
141	0x3b00333f	0.0019561795
142	0x3ca7566e	0.020426955
143	0xbc3ee1bb	-0.011650498
144	0x3b8db58f	0.004324622
145	0x3cd6cfff	0.026222227
146	0x3bbb3a27	0.0057137194
147	0x3bb7c12e	0.0056077456
148	0x3c98bbf3	0.018644309
149	0x3cba3724	0.022731371
150	0x3c390f20	0.01129511
151	0x3c86415f	0.016388593
152	0x3cc21aba	0.023694385
153	0x3c099bbd	0.008398947
154	0x3bb107c2	0.005402536
155	0xbcb4a3a7	-0.022050692
156	0x3ca4a15a	0.02009647
157	0x3cc20068	0.023681834
158	0x3caa2107	0.020767702
159	0x3b38fc85	0.0028226685
160	0xbaa8a1ef	-0.0012865643
161	0xbcb78ca0	-0.022405922
162	0x3c96f78f	0.018428592
163	0x3c2bf56a	0.010495523
164	0x3c5e3099	0.013561391
165	0xbcdda353	-0.027055418
166	0xbccd72a3	-0.025079077
167	0x38b1ab38	8.47191e-05
168	0x39c88475	0.0003824566
169	0xbb1907f8	-0.0023350697
170	0x3c06d30d	0.008229029
171	0x3bc0a19f	0.0058786417
172	0x3c50bbdf	0.012740104
173	0xbb1702d4	-0.0023042457
174	0xbc6f7250	-0.014614657
175	0x3cc99da8	0.02461131
176	0x3c57b133	0.013164806
177	0xbbad8415	-0.0052952864
178	0x3d04fe88	0.032469302
179	0x3c846fb2	0.016166542
180	0x3bdff2ee	0.0068343794
181	0x3c6a0f54	0.014285881
182	0x3ced5f3a	0.028976072
183	0xbc8558ee	-0.016277757
184	0xb9c7682f	-0.0003803386
185	0x3c39c6ad	0.011338872
186	0xbb9b353f	-0.004736572
187	0xbc0c6d6d	-0.008571011
188	0xbb9e67b3	-0.0048341393
189	0x3a534c63	0.0008060394
190	0xbc8c4761	-0.01712388
191	0xbd43a829	-0.047767792
192	0xbc5572de	-0.013027875
193	0x3b74cde5	0.0037354168
194	0xbcd7cd30	-0.026342958
195	0x3b3269d8	0.0027223732
196	0x3b922115	0.00445951
197	0x3cc6236b	0.02418681
198	0xbc0d7fcc	-0.008636426
199	0x395622f1	0.00020421647
200	0x3c083cca	0.0083152745
201	0x3c409107	0.011753327
202	0xbb29af81	-0.0025891962
203	0x3b2227c9	0.0024742952
204	0xbb9fca2a	-0.0048763948
205	0x3ccc0c21	0.024908127
206	0xbbb2ee21	-0.005460516
207	0x3cd9b36f	0.026574818
208	0x3cadef38	0.021232232
209	0xbd0dcf49	-0.03462151
210	0xbba7756b	-0.005110433
211	0xbc43014e	-0.0119021665
212	0xbcc6d2e4	-0.024270482
213	0xbc15886e	-0.009126766
214	0xbc52070e	-0.012819065
215	0x3d2778d3	0.04088671
216	0xbbea5e52	-0.007152357
217	0xbc3b018e	-0.011413945
218	0xbc9bf558	-0.019037887
219	0xbc0a08c9	-0.008424946
220	0x3ada27a4	0.0016643894
221	0x3c495298	0.012287758
222	0x3940b89f	0.00018379324
223	0x3c12bf96	0.00895681
224	0x3bd68627	0.006546754
225	0x3ca789f3	0.020451522
226	0x3c0c95ad	0.008580607
227	0x3c1b8258	0.009491526
228	0xbd00fb06	-0.031489395
229	0xbc6f2fb6	-0.0145987775
230	0x3b204f47	0.0024461315
231	0xbb018c55	-0.0019767482
232	0x3af29ecb	0.0018510459
233	0x3c3c13e7	0.011479354
234	0x3bf772a4	0.007551508
235	0xbbc9f59b	-0.0061633117
236	0xbcd6eef1	-0.026236983
237	0xbb9642c3	-0.0045855953
238	0x3b8f5a8b	0.0043748072
239	0x3cdff611	0.027339013
240	0xbbeb79da	-0.0071861567
241	0xbc606673	-0.013696301
242	0xbccda92d	-0.025105083
243	0xbc8aaf63	-0.016929334
244	0xbbdbfe0d	-0.006713635
245	0x39576c0e	0.00020544251
246	0xbaf4000d	-0.0018615738
247	0x3ad6647d	0.0016356852
248	0x3cbea60e	0.02327254
249	0xbbf40894	-0.0074473117
250	0x3bcf18bb	0.006320087
251	0xbc95f8e8	-0.018307164
252	0x3bc16fbd	0.005903213
253	0xbb7237b9	-0.0036959483
254	0x3ca8276b	0.020526608
255	0x3bc18389	0.005905573

action_model._continuous_distribution.mu.bias f4 [2]
0	0xb8cc7c2f	-9.750609e-05
1	0xba6cbaec	-0.0009030539

action_model._discrete_distribution.branches.0.weight f4 [2, 128]
0	0xbb0dc826	-0.002163419
1	0x3c43f5de	0.011960475
2	0x3b2b2437	0.0026114115
3	0xbbdef0a2	-0.006803588
4	0x3c388d93	0.011264223
5	0x3c4e5ede	0.01259586
6	0x3aaab79e	0.0013024693
7	0x39e189d2	0.00043018028
8	0x3a9dadf6	0.0012029994
9	0xbc036f30	-0.008022115
10	0xba7c3a6b	-0.0009621742
11	0x3c26a79f	0.0101718
12	0xbc01e180	-0.007927299
13	0xbc750c58	-0.014956556
14	0x3b942b4f	0.0045217643
15	0xbb7f4e11	-0.0038956443
16	0x3ce71a6b	0.02821084
17	0x3b02131a	0.0019847811
18	0xbb08310d	-0.002078119
19	0x3ba84d9d	0.0051362053
20	0x3c8685f6	0.0164213
21	0x3c39b474	0.011334527
22	0x3c767afe	0.015043972
23	0x3bcca67a	0.0062454315
24	0xbc476636	-0.012170365
25	0xbbc459ba	-0.0059921416
26	0x3af49bbf	0.0018662139
27	0x3988bbe4	0.0002607993
28	0x3bb83c10	0.0056223944
29	0xbb613ccb	-0.003436851
30	0x3c48d876	0.01225864
31	0xbab6a0a8	-0.0013933377
32	0xbb6fa6ac	-0.003656785
33	0xbc9e7e06	-0.019347202
34	0xbb9cc3ea	-0.004784097
35	0xbc17e8cb	-0.009271811
36	0x3c25de83	0.010123852
37	0x3aef30a3	0.0018248748
38	0xbc0d7565	-0.008633946
39	0x3ca1a127	0.019730164
40	0x3c28672c	0.010278504
41	0x3bc74afa	0.006081936
42	0xbb30160e	-0.0026868614
43	0x3c078553	0.008271533
44	0xbba83735	-0.0051335343
45	0xbc1140b5	-0.008865525
46	0x3b78718a	0.0037909471
47	0x3bfc3024	0.0076961685
48	0x3bc44b4b	0.005990421
49	0x3cb9b03e	0.022667047
50	0xbb1f75b7	-0.0024331638
51	0x3c033ad7	0.008009634
52	0x3bea97c5	0.0071592056
53	0x3b9aa3c3	0.004719229
54	0xbc55d8e9	-0.013052204
55	0xbbba76dd	-0.005690439
56	0x3bca5a9c	0.0061753523
57	0x39f7b93d	0.00047249525
58	0xb989763a	-0.00026218762
59	0xbba74fa5	-0.00510593
60	0xb9f9c403	-0.0004763902
61	0xbc151c5b	-0.009100999
62	0x3b39630f	0.0028287803
63	0x3c149bb4	0.009070326
64	0xbc470616	-0.012147447
65	0xbc116954	-0.00887521
66	0x3ac232e6	0.0014816194
67	0x3abd31a6	0.0014434352
68	0xbbb42be9	-0.0054983986
69	0xbc6aee43	-0.014339033
70	0xbaa9ae7f	-0.0012945681
71	0x3c0d49ad	0.008623523
72	0x3c270f58	0.010196529
73	0xb9fc62fe	-0.0004813894
74	0xbc1e3002	-0.009655001
75	0xbb713478	-0.0036804955
76	0xbb266bfe	-0.0025393958
77	0xbc175efb	-0.009238954
78	0x3bc28d1f	0.005937233
79	0x3bdca141	0.00673309
80	0x3c006ec8	0.007838912
81	0xbb608c82	-0.0034263437
82	0x3a59babe	0.000830572
83	0xbb0efc25	-0.002181777
84	0xbc247d14	-0.010039587
85	0x3a634690	0.00086698774
86	0x3c0efaba	0.00872677
87	0xba914ce3	-0.0011085536
88	0xbaaae5e0	-0.0013038479
89	0x3b61526c	0.0034381403
90	0x3c25d5f5	0.010121812
91	0x3b89eab7	0.0042088884
92	0x3b29a23e	0.0025884057
93	0x3b90b11b	0.004415644
94	0x3beeda38	0.0072891973
95	0x3b1aba9d	0.0023609765
96	0x3b37d5b3	0.0028050959
97	0x3b2d7143	0.0026465214
98	0x3c21f40d	0.009884846
99	0xbca27dc6	-0.019835364
100	0x3b1ed40d	0.0024235279
101	0xbbbacc6c	-0.0057006385
102	0x3bc0bd9d	0.0058819787
103	0xbb9696c2	-0.0045956085
104	0x3b0c8e98	0.0021447297
105	0x3b6b8d25	0.0035942283
106	0x3aa5dc7c	0.001265421
107	0x3b3fd048	0.0029268432
108	0x3c671069	0.014103034
109	0x3bfddea1	0.0077474867
110	0x3b1783a3	0.0023119233
111	0x3c88b247	0.016686572
112	0xbbfb03e4	-0.007660376
113	0xbb9959d5	-0.0046798983
114	0xbc3c67cc	-0.0114993565
115	0x3c4c9075	0.012485613
116	0x3beb2222	0.0071757
117	0x3bfa4e39	0.0076387194
118	0x3c076fe0	0.008266419
119	0xbac4fcfa	-0.0015029006
120	0xbbae0e11	-0.0053117354
121	0x3bc0cfdc	0.005884154
122	0xbc6c6650	-0.01442869
123	0xbb9c5ed2	-0.0047720456
124	0x3aa0d4af	0.0012270416
125	0xbba0150e	-0.0048853224
126	0xbb1ae3a6	-0.0023634224
127	0x37e2600e	2.6986028e-05
128	0xb9b8e105	-0.00035262867
129	0xba9c67b0	-0.0011932757
130	0xbc030886	-0.007997638
131	0xbc192514	-0.009347219
132	0xbbe857b0	-0.0070905313
133	0xbc6aaff6	-0.014324179
134	0xbb4428b5	-0.002993149
135	0x3c244928	0.010027207
136	0xbc838d47	-0.016058577
137	0x3bcd9a40	0.0062744915
138	0x3c1560c2	0.009117307
139	0x3b6e4b9b	0.0036360982
140	0x3c2e4b1c	0.010638025
141	0x3b760776	0.0037541068
142	0x3c373a6b	0.0111833615
143	0xbba25a01	-0.004954577
144	0x3bceda10	0.006312616
145	0xbb3f5902	-0.002919734
146	0xba5659eb	-0.0008176851
147	0x3b24096b	0.0025030028
148	0x3aebe100	0.0017996132
149	0xbbeb59e8	-0.0071823485
150	0xbc400fec	-0.011722546
151	0x3a93a499	0.0011264264
152	0xbc43b2c5	-0.011944477
153	0xbc78fba9	-0.015196719
154	0x3ad26a83	0.0016053471
155	0x3bc49d8a	0.0060002254
156	0x3cb4d790	0.022075444
157	0x3b28034b	0.0025636728
158	0xbba53534	-0.0050417427
159	0x3c1e61cc	0.009666871
160	0x3c5469d4	0.0129646845
161	0x3b03d577	0.0020116249
162	0x3b424fb2	0.0029649553
163	0x3b81062f	0.0039375047
164	0x3c1116ad	0.008855504
165	0xbb0e5d5a	-0.0021723122
166	0x3c311c1d	0.010809925
167	0x3c0d8c5d	0.008639422
168	0xbb9b49ab	-0.0047390065
169	0xbbe3f3e0	-0.0069565624
170	0xbb854186	-0.004066649
171	0x3cb2f06b	0.021843156
172	0xbc150d8f	-0.009097471
173	0x3c679eaf	0.014136954
174	0xbba77cde	-0.005111321
175	0x3bb7d13d	0.00560966
176	0x3a585bc6	0.00082534214
177	0xbcb26c42	-0.021780137
178	0xbc2752a1	-0.010212571
179	0x3c15f3c7	0.009152359
180	0xbb54f138	-0.003249241
181	0xbcdd2c1e	-0.026998576
182	0xbb352b53	-0.0027644231
183	0xbba87979	-0.005141434
184	0xbadf7e6d	-0.0017051228
185	0xbbcdfef0	-0.0062864944
186	0xbc47bb49	-0.012190648
187	0xbba4b674	-0.005026633
188	0x3aed90ee	0.0018124857
189	0x3b868000	0.0041046143
190	0xbb68fe6b	-0.0035552036
191	0x3c9d5cfc	0.019209377
192	0xbc674d62	-0.014117571
193	0x3b75799d	0.003745652
194	0x3c0825e3	0.008309814
195	0x3bae5c86	0.0053210882
196	0x3be2d8f2	0.0069228346
197	0x3cce2bb4	0.025167324
198	0xbb87dee9	-0.004146446
199	0xbcb817cf	-0.02247229
200	0xbc11b8e4	-0.008894179
201	0x3cc9a034	0.024612524
202	0x3c7af859	0.015318
203	0xbb80d541	-0.003931672
204	0xbae07602	-0.0017125013
205	0xbafc7378	-0.0019260487
206	0xbbee2f0c	-0.007268792
207	0xb9d1b7e1	-0.00040000587
208	0xbc095bc4	-0.008383695
209	0x3b645647	0.0034841464
210	0xbaef22fd	-0.001824468
211	0x3c1943e8	0.009354569
212	0x3be99f3e	0.007129579
213	0x3c941164	0.018074699
214	0xbb89be52	-0.004203596
215	0xbbea3242	-0.0071471045
216	0xbbf3e4a1	-0.007443026
217	0x3b610c57	0.003433963
218	0xbbd5d901	-0.006526113
219	0x3c4e6ea9	0.012599626
220	0x3c612c22	0.013743432
221	0x3c4c1d0f	0.0124581
222	0xbc5b9cd1	-0.013404087
223	0xbc23949a	-0.00998416
224	0xbc25c373	-0.0101173995
225	0x3c173657	0.009229264
226	0x3b6b9e17	0.0035952383
227	0xbcad7041	-0.02117169
228	0x3bc35fb8	0.0059623383
229	0x3c6bef18	0.014400266
230	0x3c363b01	0.011122466
231	0x3b7ce945	0.0038591188
232	0xbbf00359	-0.007324618
233	0x3b441a31	0.0029922838
234	0xbcc8c23b	-0.024506679
235	0xbae0212e	-0.0017099732
236	0xbbdf94b1	-0.0068231453
237	0x3bfbc74e	0.007683671
238	0x3beff909	0.0073233885
239	0xbc7a9ba9	-0.015295901
240	0x3c1679b0	0.009184286
241	0xbb4b00b8	-0.003097577
242	0xbb699e45	-0.0035647315
243	0x39b13a65	0.00033803578
244	0x3ba286ad	0.0049599023
245	0x3ab02997	0.0013440129
246	0xbc9de4c3	-0.019274121
247	0x3cb54b03	0.022130495
248	0x3bb2fc85	0.0054622316
249	0xbbb0d131	-0.0053960313
250	0x3b995146	0.004678878
251	0x3b4a863e	0.0030902768
252	0x3c1d869b	0.009614612
253	0x3b137308	0.0022498984
254	0xbbc1cf7a	-0.0059146257
255	0xbc1a933d	-0.009434518

action_model._discrete_distribution.branches.0.bias f4 [2]
0	0x3a9ec03a	0.0012111731
1	0xba9ec041	-0.001211174
