Lofty2024/results/Test12/MoveToPlayer/MoveToPlayer-6975.onnx (onnx, 77717 bytes, 6 tensors)

network_body._body_endoder.seq_layers.0.weight f4 [128, 12]
-0.21510786 -0.08971254 0.017676052 0.05686247 -0.09736402 -0.05020726 -0.13848116 0.060127378
-0.021143584 0.13638744 -0.09405481 -0.19192296 -0.19239867 0.5704112 0.0638214 -0.2757331
-0.11004501 -0.16963361 -0.4649201 -0.3889817 -0.61353976 0.041955467 0.3324569 -0.1735172
-0.4336113 0.5577118 -0.06511025 -0.080108255 -0.07877648 -0.6966652 0.1520742 -0.22435842
0.26713428 -0.25689462 0.021596935 -0.19294842 0.7094814 -0.57908434 0.20516643 0.20026194
0.35987976 0.14911565 0.099558875 0.14168078 -0.19740176 -0.1304668 -0.32025298 -0.23026887
-0.07598157 -0.40624106 -0.41679913 -0.7362676 -0.56639355 -0.11012236 -0.20228381 -0.07275259
0.3847518 0.22930847 -0.0045627155 0.64831334 0.2368605 0.20871499 -0.02968823 0.3369994
0.4271338 0.49481335 -0.027109932 0.29645708 -0.24798065 0.30424196 -0.26571319 0.23779592
-0.45032308 -0.27891055 -0.7322026 -0.26959512 0.164158 0.35972568 0.22434697 -0.16710496
0.18762271 0.10469522 -0.23374872 0.017885916 0.031116145 -0.40878144 -0.19323008 -0.2046352
0.048382152 -0.066062056 0.9580685 0.043572072 -0.069661975 -0.05581082 -0.015947936 0.23990357
-0.5258944 -0.25381193 -0.12824629 0.3595881 -0.5096246 0.6411718 0.2594757 0.24913597
-0.11082829 0.4956557 -0.14497523 -0.4237765 0.2071302 -0.0071082017 -0.10248874 -0.15695377
0.16700044 -0.16739175 0.16110419 0.027462084 0.14392792 0.23960954 0.0520947 -0.13795492
0.19814697 -0.43096173 0.44173348 0.071342565 -0.12701683 0.05693549 -0.344509 -0.016735796
0.71620965 -0.45875993 0.016537128 -0.52068454 0.2583623 -0.02342406 0.45712706 0.11825597
-0.01733824 -0.1353838 0.519064 0.5778838 0.30785367 -0.61396503 -0.42673767 0.22834308
0.2986435 0.053414404 0.23124482 -0.2538294 -0.46543258 -0.20885895 -0.05313816 -0.48321137
-0.22383803 -0.6908773 0.015496372 0.0003953399 0.3447168 0.0012289077 -0.005922265 0.52795017
-0.15055163 0.27728 0.033146463 0.19236645 -0.28649884 0.37746847 0.31497094 -0.8872893
0.25145707 0.06709374 0.06343013 -0.38025126 -0.15693653 -0.051912572 0.19887458 0.068696715
-0.2286777 0.18625852 0.14054659 -0.42134377 0.055912644 0.43039006 -0.37848717 -0.28251782
-0.5170052 0.1665475 -0.85813993 -0.36435455 -0.21265258 -0.08738887 -0.17187588 0.09353067
0.5056889 0.10728603 -0.0062709944 -0.0979446 -0.06263534 0.05843372 0.09247847 -0.34450284
-0.09585439 -0.52624786 -0.033759624 -0.28379655 -0.14200023 0.015509578 -0.39702764 0.25719842
0.00082049327 -0.2347783 -0.12995143 0.17954403 -0.2265386 0.096341796 -0.7599184 0.14944893
-0.29519424 0.318745 0.3073133 -0.43775883 -0.022116587 -0.38945016 -0.46687374 -0.1443452
-0.22347541 -0.93566936 -0.579488 0.0031716367 -0.310839 -0.156304 -0.03620401 0.20140034
0.29115498 0.26554808 0.10352205 -0.17017119 -0.1326208 0.076504126 -0.016573181 -0.05007968
-0.09271002 -0.24814497 0.06632238 -0.1429645 -0.0524794 -0.15195507 -0.44683886 0.38585517
-0.095347136 -0.35098305 0.18374646 -0.028895095 0.15884319 -0.32950598 -0.037005596 0.1860653
00000000: 3c45 5cbe 35bb b7bd 5ecd 903c 9fe8 683d
00000010: ca66 c7bd 21a6 4dbd 01ce 0dbe 2048 763d
00000020: 4f35 adbc 26a9 0b3e cf9f c0bd 7487 44be
00000030: 2804 45be 7806 123f cbb4 823d e42c 8dbe
00000040: 475f e1bd 6fb4 2dbe 020a eebe 9c28 c7be
00000050: f110 1dbf 7fd9 2b3d ca37 aa3e 7eae 31be
00000060: 4d02 debe 33c6 0e3f 8658 85bd cc0f a4bd
00000070: 9055 a1bd a758 32bf 57b9 1b3e 37be 65be
00000080: d3c5 883e b187 83be 0eec b03c 4594 45be
00000090: 93a0 353f df3e 14bf 2617 523e 7711 4d3e
000000a0: 2942 b83e c6b1 183e 86e5 cb3d c414 113e
000000b0: b023 4abe 1799 05be 33f8 a3be 9acb 6bbe
000000c0: 3a9c 9bbd d4fe cfbe b266 d5be 097c 3cbf
000000d0: 2bff 10bf d587 e1bd 7d23 4fbe 4fff 94bd
000000e0: 30fe c43e d7cf 6a3e d582 95bb ddf7 253f
000000f0: 8f8b 723e 62b9 553e bb34 f3bc 2f8b ac3e
00000100: 48b1 da3e 2d58 fd3e a615 debc 39c9 973e
00000110: a4ee 7dbe 9ac5 9b3e 8f0b 88be c680 733e
00000120: bf90 e6be 5dcd 8ebe a171 3bbf 5f08 8abe
00000130: 0919 283e f72d b83e 36bb 653e 901d 2bbe
00000140: 2b20 403e 736a d63d d35b 6fbe 7c85 923c
00000150: 49e7 fe3c cd4b d1be 1bde 45be e48b 51be
00000160: 5d2c 463d 8b4b 87bd fa43 753f a178 323d
00000170: f0aa 8ebd e399 64bd 3fa5 82bc 48a9 753e
00000180: 04a1 06bf a3f3 81be ff52 03be ee1b b83e
00000190: c276 02bf d623 243f 00da 843e 801d 7f3e
000001a0: f1f9 e2bd 95c6 fd3e 6374 14be 3cf9 d8be
000001b0: f019 543e ebeb e8bb 9ee5 d1bd 7db8 20be
000001c0: 2a02 2b3e be68 2bbe 7ff8 243e 2af8 e03c
000001d0: d761 133e 345c 753e 4161 553d 0e44 0dbe
000001e0: 0ae7 4a3e 04a7 dcbe e42a e23e 0d1c 923d
000001f0: b310 02be 3035 693d 7c63 b0be 8219 89bc
00000200: 8459 373f 95e2 eabe df78 873c 954b 05bf
00000210: 1048 843e d0e3 bfbc 8f0c ea3e 3030 f23d
00000220: ed08 8ebc 0da2 0abe 61e1 043f 31f0 133f
00000230: ff9e 9d3e d02c 1dbf 5c7d dabe c5d2 693e
00000240: cde7 983e 10c9 5a3d 71cb 6c3e edf5 81be
00000250: 2e4d eebe 1fdf 55be 66a7 59bd 7b67 f7be
00000260: cc35 65be 56dd 30bf 7fe4 7d3c a045 cf39
00000270: b87e b03e 4d13 a13a 8f0f c2bb be27 073f
00000280: 352a 1abe a5f7 8d3e 96c4 073d b6fb 443e
00000290: faaf 92be 8c43 c13e df43 a13e 6425 63bf
000002a0: fbbe 803e 7168 893d a8e7 813d 4bb0 c2be
000002b0: f8b3 20be 47a2 54bd c7a5 4b3e ddb0 8c3d
000002c0: 7d2a 6abe 8eba 3e3e 72eb 0f3e 5fba d7be
000002d0: a804 653d 165c dc3e 12c9 c1be 2da6 90be
000002e0: 745a 04bf 6e8b 2a3e 0faf 5bbf ae8c babe
000002f0: 99c1 59be f0f8 b2bd 3b00 30be 028d bf3d
00000300: d474 013f c7b8 db3d ea7c cdbb 2e97 c8bd
00000310: f546 80bd 3258 6f3d 5a65 bd3d ad62 b0be
00000320: 4e4f c4bd 2eb8 06bf 8847 0abd c84d 91be
00000330: 8268 11be e31b 7e3c 3547 cbbe 83af 833e
00000340: 5f16 573a b969 70be fd11 05be 64da 373e
00000350: bcf9 67be d94e c53d 038a 42bf 2409 193e
00000360: b323 97be 8b32 a33e 2b58 9d3e ed21 e0be
00000370: d82d b5bc 0366 c7be 130a efbe 3acf 13be
00000380: bdd6 64be 0788 6fbf 5359 14bf 3cdb 4f3b
00000390: 4a26 9fbe 280e 20be a84a 14bd e43b 4e3e
000003a0: 4412 953e ebf5 873e 5e03 d43d 5b41 2ebe
000003b0: bfcd 07be 32ae 9c3d 7bc4 87bc 5a20 4dbd
000003c0: c0de bdbd b719 7ebe 07d4 873d 4965 12be
000003d0: a4f4 56bd 1c9a 1bbe 10c8 e4be cf8e c53e
000003e0: 5c45 c3bd 0db4 b3be 0828 3c3e 68b5 ecbc
000003f0: caa7 223e 02b5 a8be 2e93 17bd e787 3e3e

network_body._body_endoder.seq_layers.0.bias f4 [128]
0.0 0.0 0.0 0.0 0.0 0.0 0.0 0.0
0.0 0.0 0.0 0.0 0.0 0.0 0.0 0.0
0.0 0.0 0.0 0.0 0.0 0.0 0.0 0.0
0.0 0.0 0.0 0.0 0.0 0.0 0.0 0.0
0.0 0.0 0.0 0.0 0.0 0.0 0.0 0.0
0.0 0.0 0.0 0.0 0.0 0.0 0.0 0.0
0.0 0.0 0.0 0.0 0.0 0.0 0.0 0.0
0.0 0.0 0.0 0.0 0.0 0.0 0.0 0.0
0.0 0.0 0.0 0.0 0.0 0.0 0.0 0.0
0.0 0.0 0.0 0.0 0.0 0.0 0.0 0.0
0.0 0.0 0.0 0.0 0.0 0.0 0.0 0.0
0.0 0.0 0.0 0.0 0.0 0.0 0.0 0.0
0.0 0.0 0.0 0.0 0.0 0.0 0.0 0.0
0.0 0.0 0.0 0.0 0.0 0.0 0.0 0.0
0.0 0.0 0.0 0.0 0.0 0.0 0.0 0.0
0.0 0.0 0.0 0.0 0.0 0.0 0.0 0.0
00000000: 0000 0000 0000 0000 0000 0000 0000 0000
00000010: 0000 0000 0000 0000 0000 0000 0000 0000
00000020: 0000 0000 0000 0000 0000 0000 0000 0000
00000030: 0000 0000 0000 0000 0000 0000 0000 0000
00000040: 0000 0000 0000 0000 0000 0000 0000 0000
00000050: 0000 0000 0000 0000 0000 0000 0000 0000
00000060: 0000 0000 0000 0000 0000 0000 0000 0000
00000070: 0000 0000 0000 0000 0000 0000 0000 0000
00000080: 0000 0000 0000 0000 0000 0000 0000 0000
00000090: 0000 0000 0000 0000 0000 0000 0000 0000
000000a0: 0000 0000 0000 0000 0000 0000 0000 0000
000000b0: 0000 0000 0000 0000 0000 0000 0000 0000
000000c0: 0000 0000 0000 0000 0000 0000 0000 0000
000000d0: 0000 0000 0000 0000 0000 0000 0000 0000
000000e0: 0000 0000 0000 0000 0000 0000 0000 0000
000000f0: 0000 0000 0000 0000 0000 0000 0000 0000
00000100: 0000 0000 0000 0000 0000 0000 0000 0000
00000110: 0000 0000 0000 0000 0000 0000 0000 0000
00000120: 0000 0000 0000 0000 0000 0000 0000 0000
00000130: 0000 0000 0000 0000 0000 0000 0000 0000
00000140: 0000 0000 0000 0000 0000 0000 0000 0000
00000150: 0000 0000 0000 0000 0000 0000 0000 0000
00000160: 0000 0000 0000 0000 0000 0000 0000 0000
00000170: 0000 0000 0000 0000 0000 0000 0000 0000
00000180: 0000 0000 0000 0000 0000 0000 0000 0000
00000190: 0000 0000 0000 0000 0000 0000 0000 0000
000001a0: 0000 0000 0000 0000 0000 0000 0000 0000
000001b0: 0000 0000 0000 0000 0000 0000 0000 0000
000001c0: 0000 0000 0000 0000 0000 0000 0000 0000
000001d0: 0000 0000 0000 0000 0000 0000 0000 0000
000001e0: 0000 0000 0000 0000 0000 0000 0000 0000
000001f0: 0000 0000 0000 0000 0000 0000 0000 0000

network_body._body_endoder.seq_layers.2.weight f4 [128, 128]
-0.055949688 0.066629454 0.026991202 0.24089244 0.034495644 0.039511755 -0.12594377 0.07487204
0.015384961 0.13970841 0.045178514 0.039769124 -0.0246735 0.12452134 0.012216453 -0.12608147
0.033743884 0.07065188 -0.07027337 -0.018879969 -0.018612662 -0.0673404 -0.151523 -0.11596273
0.033202868 0.019476857 0.0005552656 -0.12755336 0.08505046 0.003912948 -0.0010050144 0.21536645
-0.02672138 0.064769216 0.07923899 -0.061283868 -0.0121627 0.20006892 -0.04494789 0.0647659
-0.04184576 0.10136629 -0.09293335 -0.049892727 0.036372583 -0.0005035842 0.012205357 -0.13335343
-0.14202264 0.047593445 0.07854228 0.12760924 0.0646586 -0.003778855 -0.013101819 -0.02932492
0.005124644 0.078407444 0.03359827 0.10806184 -0.16089858 0.004550935 0.069897294 0.018128347
-0.027582336 -0.058123074 -0.09095038 -0.07517144 -0.07057711 -0.015963273 -0.06513016 0.019673176
0.16959691 0.118044525 -0.10651939 -0.13831876 -0.04023083 0.038523152 -0.000955589 -0.007210119
-0.12756413 -0.23854387 0.07473949 0.06655149 -0.09116205 -0.08481952 0.020252116 0.0152906105
-0.10349013 0.00014568852 -0.12154156 0.014375998 0.027502254 0.16079025 0.0040331585 0.059153095
0.107497685 0.08623248 0.1211404 0.11029674 0.06604191 0.027079558 -0.052210167 -0.09394411
0.092277534 -0.08709819 0.04276231 0.0678679 -0.031826768 -0.13619713 0.21470684 -0.07042575
-0.035037305 0.0842693 0.04279536 0.024480559 -0.0992421 0.045657348 -0.16982484 -0.10419778
-0.07343609 -0.05111886 -0.14421645 0.06906339 0.033628233 -0.06431717 0.039564714 0.07973262
0.07343783 0.076371655 0.07564978 -0.016731327 0.08231456 -0.026507955 0.11101549 -0.039029233
-0.010915036 -0.033620168 -0.093703866 0.035510354 -0.10316009 -0.0065893726 -0.10328692 -0.02126865
-0.14633934 -0.09723548 0.11976851 0.027218226 0.008270973 -0.07757754 0.05993621 0.116364546
-0.06255298 0.0021481528 0.02832951 0.083824076 -0.010321304 0.074164 0.09249956 -0.16170153
-0.12426127 -0.07629304 -0.039999876 0.06692146 -0.030853363 0.073847756 0.010245423 0.026510203
0.045058224 0.009595548 0.14450708 -0.12296745 0.02661292 -0.037060786 0.11763652 -0.013084524
-0.020389874 -0.0058506853 0.048195653 0.0054804254 0.022878164 -0.048228912 -0.08503271 0.068728246
-0.012219064 -0.02177835 0.09158087 0.076282024 0.14946398 0.108929045 0.037350472 0.07186329
0.060278367 -0.025844818 0.044967942 0.009489206 -0.1264562 0.1272682 0.053026658 -0.0048925583
0.019270003 0.14033662 -0.066847086 -0.08826944 -0.13675438 0.028489776 -0.07695703 0.044462513
0.071597636 -0.0024288408 0.077309065 -0.05819799 -0.035976756 -0.025674358 0.0049608364 0.15647885
-0.11847428 -0.15325807 0.1537315 -0.051798016 -0.008773813 0.15873179 0.04518794 -0.0062509524
0.00021581864 -0.13406298 0.0017418637 0.0405015 -0.1587201 0.019236194 0.022651996 -0.12695973
-0.06389063 -0.04973443 0.06934364 -0.0020501732 -0.14700943 -0.04766415 -0.078960426 0.052917566
0.013419458 0.044318173 -0.13025597 0.1275177 -0.08645779 -0.022827916 -0.06451471 0.00858491
-0.047042113 0.11803308 -0.034205787 -0.0015645735 -0.0056349835 0.04087206 0.09223424 0.16962309
00000000: 802b 65bd 0675 883d a71c dd3c 82ac 763e
00000010: 4e4b 0d3d 14d7 213d 67f7 00be 8356 993d
00000020: 3411 7c3c b90f 0f3e 1b0d 393d f3e4 223d
00000030: 1420 cabc 0b05 ff3d 8527 483c 801b 01be
00000040: 0737 0a3d efb1 903d 7ceb 8fbd 2aaa 9abc
00000050: 9579 98bc c3e9 89bd d828 1bbe de7d edbd
00000060: bbff 073d ee8d 9f3c 3e8f 113a 599d 02be
00000070: f02e ae3d 3038 803b b0ba 83ba 0689 5c3e
00000080: cce6 dabc b9a5 843d 0d48 a23d cb04 7bbd
00000090: 1046 47bc dede 4c3e 471b 38bd fca3 843d
000000a0: 7666 2bbd 2199 cf3d d753 bebd 515c 4cbd
000000b0: 6bfb 143d f702 04ba faf8 473c cd8d 08be
000000c0: 626e 11be 58f1 423d c6da a03d ffab 023e
000000d0: ba6b 843d aba6 77bb 03a9 56bc d13a f0bc
000000e0: a1ec a73b 1594 a03d 579e 093d 874f dd3d
000000f0: 99c2 24be 0220 953b 5026 8f3d e681 943c
00000100: 5af4 e1bc 7612 6ebd 3144 babd 7cf3 99bd
00000110: bb8a 90bd 69c5 82bc f662 85bd a429 a13c
00000120: d0aa 2d3e 54c1 f13d d726 dabd 6fa3 0dbe
00000130: 15c9 24bd 74ca 1d3d 7e80 7aba dd42 ecbb
00000140: 2ca0 02be d844 74be 0511 993d 264c 883d
00000150: 2bb3 babd dbb5 adbd c4e7 a53c 7885 7a3c
00000160: a2f2 d3bd f7c3 1839 c8ea f8bd 4e89 6b3c
00000170: 684c e13c 33a6 243e 9628 843b 844a 723d
00000180: bf27 dc3d a89a b03d 7518 f83d 42e3 e13d
00000190: fb40 873d f3d5 dd3c 54da 55bd c565 c0bd
000001a0: 01fc bc3d 8960 b2bd 8827 2f3d 53fe 8a3d
000001b0: c95c 02bd 4377 0bbe 1cdc 5b3e 603b 90bd
000001c0: 4783 0fbd 6295 ac3d 304a 2f3d 748b c83c
000001d0: 713f cbbd 3303 3b3d 90e6 2dbe a565 d5bd
000001e0: a965 96bd 0262 51bd 7aad 13be 1b71 8d3d
000001f0: c2bd 093d b8b8 83bd 9c0e 223d db4a a33d
00000200: 9366 963d be68 9c3d 46ee 9a3d 2310 89bc
00000210: 8994 a83d 3627 d9bc 175c e33d 1edd 1fbd
00000220: fbd4 32bc 4db5 09bd d0e7 bfbd 4e73 113d
00000230: 9945 d3bd aaeb d7bb 1888 d3bd 983b aebc
00000240: fbd9 15be 6523 c7bd 3149 f53d c2f8 de3c
00000250: fa82 073c f9e0 9ebd ac7f 753d 8950 ee3d
00000260: c71b 80bd 06c8 0c3b 4a13 e83c f5ab ab3d
00000270: b01a 29bc 4ce3 973d 6970 bd3d 1695 25be
00000280: b17c febd 863f 9cbd e9d6 23bd 1e0e 893d
00000290: 31c0 fcbc 7e3d 973d 6bdc 273c ed2b d93c
000002a0: f98e 383d a536 1d3c aaf9 133e 5cd6 fbbd
000002b0: 5703 da3c 0dcd 17bd 6aeb f03d 7960 56bc
000002c0: aa08 a7bc 1bb7 bfbb ce68 453d 2495 b33b
000002d0: fd6a bb3c ae8b 45bd a125 aebd 65c1 8c3d
000002e0: 7832 48bc 8368 b2bc c08e bb3d c039 9c3d
000002f0: 160d 193e 3116 df3d cffc 183d 102d 933d
00000300: 73e6 763d 83b8 d3bc 4e30 383d 9d78 1b3c
00000310: bc7d 01be 9852 023e 7b32 593d c151 a0bb
00000320: 20dc 9d3c 67b4 0f3e 20e7 88bd 9cc6 b4bd
00000330: 5709 0cbe 6463 e93c a69b 9dbd 531e 363d
00000340: c8a1 923d 302d 1fbb 3754 9e3d 0461 6ebd
00000350: 5d5c 13bd 0853 d2bc 838e a23b fe3b 203e
00000360: a5a2 f2bd afef 1cbe ca6b 1d3e 282a 54bd
00000370: 0ac0 0fbc 968a 223e fd16 393d cad4 ccbb
00000380: 604d 6239 ce47 09be 3f4f e43a e7e4 253d
00000390: 8687 22be 3995 9d3c ae90 b93c bb01 02be
000003a0: 17d9 82bd 54b6 4bbd 0a04 8e3d 335c 06bb
000003b0: a489 16be 7c3b 43bd 01b6 a1bd 17c0 583d
000003c0: 49dd 5b3c f986 353d d261 05be 0094 023e
000003d0: c810 b1bd 9c01 bbbc 4a20 84bd b9a7 0c3c
000003e0: 3baf 40bd 54bb f13d 5e1b 0cbd 6012 cdba
000003f0: aba5 b8bb 7669 273d 4ee5 bc3d adb1 2d3e

action_model._continuous_distribution.log_sigma f4 [1, 2]
0.0 0.0
00000000: 0000 0000 0000 0000

action_model._continuous_distribution.mu.weight f4 [2, 128]
0.018611765 0.010491848 -0.0017321544 -0.015512851 -0.02582692 -0.01408163 0.016396819 0.007713999
0.025924414 -0.013604782 -0.003310271 -0.011744337 0.050171763 -0.0102032265 -0.011248562 -0.02766569
-0.008275374 -0.0030153801 -0.016345698 -0.0063803764 0.0011037608 0.0141695235 -0.032280277 0.0031012378
0.004231298 0.0021996938 0.003222631 -0.003299645 0.006484048 -0.028684868 -0.009711864 -0.004856257
-0.016229337 0.03776504 -0.0018753594 0.026592463 0.015060879 0.010659803 0.007885079 0.017579852
0.0134668145 -0.0103949355 0.00272877 -0.02073115 0.041816935 0.022320239 -0.051965516 -0.00022792762
-0.0026929856 -0.037203427 0.021188106 0.00067577785 -0.01726349 -0.010273452 -0.012447017 -0.009277534
-0.022859646 0.0093488 0.004247425 0.023981957 0.022240212 0.000349754 -0.011638149 -0.0056918054
-0.0061076107 0.0040287315 -0.014666811 0.055687506 0.0072443984 0.0071726902 0.0026801566 -0.015275604
-0.019335099 -0.0039209826 -0.012903913 -0.0005250025 -0.01964998 -0.00087084854 0.0027840459 -0.029072866
-0.017787639 0.009055301 -0.024540497 -0.0063047665 -0.010009447 -0.007960126 0.025561348 -0.00742631
0.019252134 -0.03494104 -0.006504445 0.0035830853 -0.013765961 -0.0023544424 0.0017509925 0.006611567
-0.028905744 0.014525073 -0.0012052433 -0.047028985 0.0014409604 0.011072451 -0.026698206 0.0057590804
0.013345058 -0.013089913 -0.005200574 -0.011377192 0.0077318856 -0.010759664 -0.0100990115 0.006058126
0.004406405 0.0057768105 -0.02079848 0.0046351566 0.012940474 -0.0071743242 0.017592778 -0.018804604
0.009194115 0.009369546 0.015120685 -0.0066857277 0.010211532 0.0026038226 0.0034547925 0.014065216
-0.027666623 0.009643058 6.7860594e-05 0.019307878 0.04227018 -0.019310994 0.0004686413 0.001424848
-0.016599944 0.016073683 -0.0026181743 -0.023915397 -0.030873088 0.01304461 -0.0001302922 0.003172333
0.0036028605 -0.006313064 -0.023982858 0.019675601 -0.022658348 0.010614662 -0.022216214 -0.016124628
-0.015697528 -0.003009228 -0.005853345 -0.018977739 -0.0029103663 -0.01648598 0.015266609 0.00029513624
-0.0062316996 -0.03360891 0.0051952344 0.00015815694 0.0064786836 0.00394925 -0.011194234 0.0067616636
-0.023607349 0.0041172258 -0.027902802 0.00729839 -0.012556939 0.0027496147 -0.0004403343 -0.004798947
-0.017543025 0.010901933 0.018559372 -0.02771153 -0.022568291 -0.0004956512 -0.017865641 -0.024877053
0.004400472 -0.00436494 0.0074603506 0.02462036 0.029890904 0.017645016 0.0034522803 -0.0064337975
0.0385628 -0.006946258 0.012984266 0.0120165525 -0.0108116055 0.016861675 0.02499412 -0.008503153
0.004293786 0.022087378 -0.0041790544 0.015209568 -0.0046047466 0.010785278 0.016264243 -0.0058798096
-0.02120949 -0.0043817475 0.008581403 -0.0006549048 -0.019507162 -0.009204871 0.016419986 0.035033435
0.0051127304 -0.0149022285 0.007756693 0.019899158 0.007183678 0.008340789 0.023442702 -0.010601129
-0.011725616 -0.003259375 0.007860183 -0.00434322 -0.00067101384 0.0025503666 -0.007879128 -0.008103197
0.003728854 -0.009533156 -0.037343208 -0.008035426 0.025820468 0.022893583 -0.008078648 -0.02187891
0.0059240456 0.019012785 -0.017277928 -0.01413315 0.016802566 -0.007609904 0.011692199 0.021025304
0.0102849165 -0.01757366 0.008239127 0.008528425 0.008438671 0.025978941 0.046809357 0.010222737
00000000: b377 983c 00e6 2b3c 7509 e3ba 9d29 7ebc
00000010: fa92 d3bc a3b6 66bc 9f52 863c b7c5 fc3b
00000020: 705f d43c 97e6 5ebc 22f1 58bb 526b 40bc
00000030: e880 4d3d 6f2b 27bc e34b 38bc 28a3 e2bc
00000040: 6f95 07bc af9d 45bb 6ae7 85bc 7a12 d1bb
00000050: 11ac 903a 4a27 683c 5338 04bd 233e 4b3b
00000060: b3a6 8a3b bd28 103b c732 533b db3e 58bb
00000070: 2378 d43b 87fc eabc 831e 1fbc 3c21 9fbb
00000080: 63f3 84bc 84af 1a3d 9fce f5ba 70d8 d93c
00000090: e8c1 763c 74a6 2e3c 6b30 013c 9f03 903c
000000a0: eaa3 5c3c 854f 2abc 2ad5 323b 5fd4 a9bc
000000b0: 3c48 2b3d efd8 b63c cbd9 54bd dbff 6eb9
000000c0: cd7c 30bb 9f62 18bd ae92 ad3c af26 313a
000000d0: 2a6c 8dbc fb51 28bc 93ee 4bbc cc00 18bc
000000e0: 2744 bbbc b62b 193c fc2d 8b3b cf75 c43c
000000f0: 1b31 b63c 305f b739 efad 3ebc 5382 babb
00000100: 5a22 c8bb 7303 843b 104d 70bc 9518 643d
00000110: 6b62 ed3b e308 eb3b 91a5 2f3b 8746 7abc
00000120: a464 9ebc 967b 80bb ef6a 53bc 52a0 09ba
00000130: fff8 a0bc a849 64ba 8a74 363b 382a eebc
00000140: 62b7 91bc af5c 143c 2709 c9bc 3798 cebb
00000150: aafe 23bc 306b 02bc 0866 d13c 6758 f3bb
00000160: a7b6 9d3c 561e 0fbd 3d23 d5bb 32d2 6a3b
00000170: a08a 61bc fd4c 1abb 8f81 e53a d8a5 d83b
00000180: bdcb ecbc 92fa 6d3c 41f9 9dba 77a1 40bd
00000190: 9cde bc3a 3a69 353c 32b6 dabc abb6 bc3b
000001a0: 3ba5 5a3c 1377 56bc 9469 aabb 6767 3abc
000001b0: c25b fd3b 4d49 30bc 5376 25bc 3f83 c63b
000001c0: 9b63 903b 664b bd3b 9361 aabc 83e2 973b
000001d0: 4804 543c 9816 ebbb bb1e 903c 1d0c 9abc
000001e0: eaa2 163c b982 193c c0bc 773c f313 dbbb
000001f0: 454e 273c e5a4 2a3b cd69 623b cb71 663c
00000200: 1da5 e2bc ebfd 1d3c 6150 8e38 8e2b 9e3c
00000210: 7f23 2d3d 1732 9ebc f8b3 f539 f7c1 ba3a
00000220: 9bfc 87bc f5ac 833c ad95 2bbb 39ea c3bc
00000230: 8fe9 fcbc 0fb9 553c 0c9f 08b9 eae6 4f3b
00000240: f81d 6c3b d2dd cebb b377 c4bc ba2e a13c
00000250: 009e b9bc 1fe9 2d3c c7fe b5bc cc17 84bc
00000260: 1a98 80bc 7836 45bb 6bcd bfbb 3477 9bbc
00000270: d8bb 3ebb 9b0d 87bc cd20 7a3c 84bc 9a39
00000280: 4933 ccbb 7fa9 09bd c93c aa3b eed6 2539
00000290: 234b d43b b668 813b 0568 37bc f290 dd3b
000002a0: 3364 c1bc cbe9 863b 6b94 e4bc 5527 ef3b
000002b0: 9fbb 4dbc e132 343b abdc e6b9 7c40 9dbb
000002c0: 64b6 8fbc 059e 323c d309 983c 4a03 e3bc
000002d0: 23e1 b8bc 97ee 01ba f75a 92bc f6ca cbbc
000002e0: d631 903b c507 8fbb f575 f43b a3b0 c93c
000002f0: c5dd f43c 488c 903c a73f 623b 9bd2 d2bb
00000300: 07f4 1d3d 6f9d e3bb f5bb 543c 13e1 443c
00000310: 2923 31bc 7f21 8a3c 78c0 cc3c cf50 0bbc
00000320: e3b2 8c3b 97f0 b43c 73f0 88bb 8d31 793c
00000330: 6ae3 96bb bcb4 303c 973c 853c 6bab c0bb
00000340: 86bf adbc c394 8fbb 0399 0c3c ebad 2bba
00000350: 7ccd 9fbc 07d0 16bc 3583 863c 387f 0f3d
00000360: b188 a73b 7a28 74bc db2b fe3b 8f03 a33c
00000370: 0f65 eb3b cea7 083c e90a c03c 5cb0 2dbc
00000380: cc1c 40bc 3d9b 55bb ffc7 003c 9251 8ebb
00000390: fae6 2fba 0d24 273b 7517 01bc 46c3 04bc
000003a0: ca5f 743b f430 1cbc 31f5 18bd 05a7 03bc
000003b0: 7285 d33c 538b bb3c 4e5c 04bc 663b b3bc
000003c0: 7f1e c23b b3c0 9b3c 718a 8dbc ba8e 67bc
000003d0: 89a5 893c 805c f9bb a390 3f3c 423d ac3c
000003e0: 1182 283c a3f6 8fbc 67fd 063c cfba 0b3c
000003f0: 5a42 0a3c cad1 d43c 2bbb 3f3d 447d 273c

action_model._continuous_distribution.mu.bias f4 [2]
0.0 0.0
00000000: 0000 0000 0000 0000
