Lofty2024/results/Test12/MoveToPlayer/MoveToPlayer-6975.pt (torch, 155722 bytes, 12 tensors)

network_body._body_endoder.seq_layers.0.weight f4 [128, 12]
0	0xbe5c453c	-0.21510786
1	0xbdb7bb35	-0.08971254
2	0x3c90cd5e	0.017676052
3	0x3d68e89f	0.05686247
4	0xbdc766ca	-0.09736402
5	0xbd4da621	-0.05020726
6	0xbe0dce01	-0.13848116
7	0x3d764820	0.060127378
8	0xbcad354f	-0.021143584
9	0x3e0ba926	0.13638744
10	0xbdc09fcf	-0.09405481
11	0xbe448774	-0.19192296
12	0xbe450428	-0.19239867
13	0x3f120678	0.5704112
14	0x3d82b4cb	0.0638214
15	0xbe8d2ce4	-0.2757331
16	0xbde15f47	-0.11004501
17	0xbe2db46f	-0.16963361
18	0xbeee0a02	-0.4649201
19	0xbec7289c	-0.3889817
20	0xbf1d10f1	-0.61353976
21	0x3d2bd97f	0.041955467
22	0x3eaa37ca	0.3324569
23	0xbe31ae7e	-0.1735172
24	0xbede024d	-0.4336113
25	0x3f0ec633	0.5577118
26	0xbd855886	-0.06511025
27	0xbda40fcc	-0.080108255
28	0xbda15590	-0.07877648
29	0xbf3258a7	-0.6966652
30	0x3e1bb957	0.1520742
31	0xbe65be37	-0.22435842
32	0x3e88c5d3	0.26713428
33	0xbe8387b1	-0.25689462
34	0x3cb0ec0e	0.021596935
35	0xbe459445	-0.19294842
36	0x3f35a093	0.7094814
37	0xbf143edf	-0.57908434
38	0x3e521726	0.20516643
39	0x3e4d1177	0.20026194
40	0x3eb84229	0.35987976
41	0x3e18b1c6	0.14911565
42	0x3dcbe586	0.099558875
43	0x3e1114c4	0.14168078
44	0xbe4a23b0	-0.19740176
45	0xbe059917	-0.1304668
46	0xbea3f833	-0.32025298
47	0xbe6bcb9a	-0.23026887
48	0xbd9b9c3a	-0.07598157
49	0xbecffed4	-0.40624106
50	0xbed566b2	-0.41679913
51	0xbf3c7c09	-0.7362676
52	0xbf10ff2b	-0.56639355
53	0xbde187d5	-0.11012236
54	0xbe4f237d	-0.20228381
55	0xbd94ff4f	-0.07275259
56	0x3ec4fe30	0.3847518
57	0x3e6acfd7	0.22930847
58	0xbb9582d5	-0.0045627155
59	0x3f25f7dd	0.64831334
60	0x3e728b8f	0.2368605
61	0x3e55b962	0.20871499
62	0xbcf334bb	-0.02968823
63	0x3eac8b2f	0.3369994
64	0x3edab148	0.4271338
65	0x3efd582d	0.49481335
66	0xbcde15a6	-0.027109932
67	0x3e97c939	0.29645708
68	0xbe7deea4	-0.24798065
69	0x3e9bc59a	0.30424196
70	0xbe880b8f	-0.26571319
71	0x3e7380c6	0.23779592
72	0xbee690bf	-0.45032308
73	0xbe8ecd5d	-0.27891055
74	0xbf3b71a1	-0.7322026
75	0xbe8a085f	-0.26959512
76	0x3e281909	0.164158
77	0x3eb82df7	0.35972568
78	0x3e65bb36	0.22434697
79	0xbe2b1d90	-0.16710496
80	0x3e40202b	0.18762271
81	0x3dd66a73	0.10469522
82	0xbe6f5bd3	-0.23374872
83	0x3c92857c	0.017885916
84	0x3cfee749	0.031116145
85	0xbed14bcd	-0.40878144
86	0xbe45de1b	-0.19323008
87	0xbe518be4	-0.2046352
88	0x3d462c5d	0.048382152
89	0xbd874b8b	-0.066062056
90	0x3f7543fa	0.9580685
91	0x3d3278a1	0.043572072
92	0xbd8eaaf0	-0.069661975
93	0xbd6499e3	-0.05581082
94	0xbc82a53f	-0.015947936
95	0x3e75a948	0.23990357
96	0xbf06a104	-0.5258944
97	0xbe81f3a3	-0.25381193
98	0xbe0352ff	-0.12824629
99	0x3eb81bee	0.3595881
100	0xbf0276c2	-0.5096246
101	0x3f2423d6	0.6411718
102	0x3e84da00	0.2594757
103	0x3e7f1d80	0.24913597
104	0xbde2f9f1	-0.11082829
105	0x3efdc695	0.4956557
106	0xbe147463	-0.14497523
107	0xbed8f93c	-0.4237765
108	0x3e5419f0	0.2071302
109	0xbbe8ebeb	-0.0071082017
110	0xbdd1e59e	-0.10248874
111	0xbe20b87d	-0.15695377
112	0x3e2b022a	0.16700044
113	0xbe2b68be	-0.16739175
114	0x3e24f87f	0.16110419
115	0x3ce0f82a	0.027462084
116	0x3e1361d7	0.14392792
117	0x3e755c34	0.23960954
118	0x3d556141	0.0520947
119	0xbe0d440e	-0.13795492
120	0x3e4ae70a	0.19814697
121	0xbedca704	-0.43096173
122	0x3ee22ae4	0.44173348
123	0x3d921c0d	0.071342565
124	0xbe0210b3	-0.12701683
125	0x3d693530	0.05693549
126	0xbeb0637c	-0.344509
127	0xbc891982	-0.016735796
128	0x3f375984	0.71620965
129	0xbeeae295	-0.45875993
130	0x3c8778df	0.016537128
131	0xbf054b95	-0.52068454
132	0x3e844810	0.2583623
133	0xbcbfe3d0	-0.02342406
134	0x3eea0c8f	0.45712706
135	0x3df23030	0.11825597
136	0xbc8e08ed	-0.01733824
137	0xbe0aa20d	-0.1353838
138	0x3f04e161	0.519064
139	0x3f13f031	0.5778838
140	0x3e9d9eff	0.30785367
141	0xbf1d2cd0	-0.61396503
142	0xbeda7d5c	-0.42673767
143	0x3e69d2c5	0.22834308
144	0x3e98e7cd	0.2986435
145	0x3d5ac910	0.053414404
146	0x3e6ccb71	0.23124482
147	0xbe81f5ed	-0.2538294
148	0xbeee4d2e	-0.46543258
149	0xbe55df1f	-0.20885895
150	0xbd59a766	-0.05313816
151	0xbef7677b	-0.48321137
152	0xbe6535cc	-0.22383803
153	0xbf30dd56	-0.6908773
154	0x3c7de47f	0.015496372
155	0x39cf45a0	0.0003953399
156	0x3eb07eb8	0.3447168
157	0x3aa1134d	0.0012289077
158	0xbbc20f8f	-0.005922265
159	0x3f0727be	0.52795017
160	0xbe1a2a35	-0.15055163
161	0x3e8df7a5	0.27728
162	0x3d07c496	0.033146463
163	0x3e44fbb6	0.19236645
164	0xbe92affa	-0.28649884
165	0x3ec1438c	0.37746847
166	0x3ea143df	0.31497094
167	0xbf632564	-0.8872893
168	0x3e80befb	0.25145707
169	0x3d896871	0.06709374
170	0x3d81e7a8	0.06343013
171	0xbec2b04b	-0.38025126
172	0xbe20b3f8	-0.15693653
173	0xbd54a247	-0.051912572
174	0x3e4ba5c7	0.19887458
175	0x3d8cb0dd	0.068696715
176	0xbe6a2a7d	-0.2286777
177	0x3e3eba8e	0.18625852
178	0x3e0feb72	0.14054659
179	0xbed7ba5f	-0.42134377
180	0x3d6504a8	0.055912644
181	0x3edc5c16	0.43039006
182	0xbec1c912	-0.37848717
183	0xbe90a62d	-0.28251782
184	0xbf045a74	-0.5170052
185	0x3e2a8b6e	0.1665475
186	0xbf5baf0f	-0.85813993
187	0xbeba8cae	-0.36435455
188	0xbe59c199	-0.21265258
189	0xbdb2f8f0	-0.08738887
190	0xbe30003b	-0.17187588
191	0x3dbf8d02	0.09353067
192	0x3f0174d4	0.5056889
193	0x3ddbb8c7	0.10728603
194	0xbbcd7cea	-0.0062709944
195	0xbdc8972e	-0.0979446
196	0xbd8046f5	-0.06263534
197	0x3d6f5832	0.05843372
198	0x3dbd655a	0.09247847
199	0xbeb062ad	-0.34450284
200	0xbdc44f4e	-0.09585439
201	0xbf06b82e	-0.52624786
202	0xbd0a4788	-0.033759624
203	0xbe914dc8	-0.28379655
204	0xbe116882	-0.14200023
205	0x3c7e1be3	0.015509578
206	0xbecb4735	-0.39702764
207	0x3e83af83	0.25719842
208	0x3a57165f	0.00082049327
209	0xbe7069b9	-0.2347783
210	0xbe0511fd	-0.12995143
211	0x3e37da64	0.17954403
212	0xbe67f9bc	-0.2265386
213	0x3dc54ed9	0.096341796
214	0xbf428a03	-0.7599184
215	0x3e190924	0.14944893
216	0xbe9723b3	-0.29519424
217	0x3ea3328b	0.318745
218	0x3e9d582b	0.3073133
219	0xbee021ed	-0.43775883
220	0xbcb52dd8	-0.022116587
221	0xbec76603	-0.38945016
222	0xbeef0a13	-0.46687374
223	0xbe13cf3a	-0.1443452
224	0xbe64d6bd	-0.22347541
225	0xbf6f8807	-0.93566936
226	0xbf145953	-0.579488
227	0x3b4fdb3c	0.0031716367
228	0xbe9f264a	-0.310839
229	0xbe200e28	-0.156304
230	0xbd144aa8	-0.03620401
231	0x3e4e3be4	0.20140034
232	0x3e951244	0.29115498
233	0x3e87f5eb	0.26554808
234	0x3dd4035e	0.10352205
235	0xbe2e415b	-0.17017119
236	0xbe07cdbf	-0.1326208
237	0x3d9cae32	0.076504126
238	0xbc87c47b	-0.016573181
239	0xbd4d205a	-0.05007968
240	0xbdbddec0	-0.09271002
241	0xbe7e19b7	-0.24814497
242	0x3d87d407	0.06632238
243	0xbe126549	-0.1429645
244	0xbd56f4a4	-0.0524794
245	0xbe1b9a1c	-0.15195507
246	0xbee4c810	-0.44683886
247	0x3ec58ecf	0.38585517
248	0xbdc3455c	-0.095347136
249	0xbeb3b40d	-0.35098305
250	0x3e3c2808	0.18374646
251	0xbcecb568	-0.028895095
252	0x3e22a7ca	0.15884319
253	0xbea8b502	-0.32950598
254	0xbd17932e	-0.037005596
255	0x3e3e87e7	0.1860653

network_body._body_endoder.seq_layers.0.bias f4 [128]
0	0x00000000	0.0
1	0x00000000	0.0
2	0x00000000	0.0
3	0x00000000	0.0
4	0x00000000	0.0
5	0x00000000	0.0
6	0x00000000	0.0
7	0x00000000	0.0
8	0x00000000	0.0
9	0x00000000	0.0
10	0x00000000	0.0
11	0x00000000	0.0
12	0x00000000	0.0
13	0x00000000	0.0
14	0x00000000	0.0
15	0x00000000	0.0
16	0x00000000	0.0
17	0x00000000	0.0
18	0x00000000	0.0
19	0x00000000	0.0
20	0x00000000	0.0
21	0x00000000	0.0
22	0x00000000	0.0
23	0x00000000	0.0
24	0x00000000	0.0
25	0x00000000	0.0
26	0x00000000	0.0
27	0x00000000	0.0
28	0x00000000	0.0
29	0x00000000	0.0
30	0x00000000	0.0
31	0x00000000	0.0
32	0x00000000	0.0
33	0x00000000	0.0
34	0x00000000	0.0
35	0x00000000	0.0
36	0x00000000	0.0
37	0x00000000	0.0
38	0x00000000	0.0
39	0x00000000	0.0
40	0x00000000	0.0
41	0x00000000	0.0
42	0x00000000	0.0
43	0x00000000	0.0
44	0x00000000	0.0
45	0x00000000	0.0
46	0x00000000	0.0
47	0x00000000	0.0
48	0x00000000	0.0
49	0x00000000	0.0
50	0x00000000	0.0
51	0x00000000	0.0
52	0x00000000	0.0
53	0x00000000	0.0
54	0x00000000	0.0
55	0x00000000	0.0
56	0x00000000	0.0
57	0x00000000	0.0
58	0x00000000	0.0
59	0x00000000	0.0
60	0x00000000	0.0
61	0x00000000	0.0
62	0x00000000	0.0
63	0x00000000	0.0
64	0x00000000	0.0
65	0x00000000	0.0
66	0x00000000	0.0
67	0x00000000	0.0
68	0x00000000	0.0
69	0x00000000	0.0
70	0x00000000	0.0
71	0x00000000	0.0
72	0x00000000	0.0
73	0x00000000	0.0
74	0x00000000	0.0
75	0x00000000	0.0
76	0x00000000	0.0
77	0x00000000	0.0
78	0x00000000	0.0
79	0x00000000	0.0
80	0x00000000	0.0
81	0x00000000	0.0
82	0x00000000	0.0
83	0x00000000	0.0
84	0x00000000	0.0
85	0x00000000	0.0
86	0x00000000	0.0
87	0x00000000	0.0
88	0x00000000	0.0
89	0x00000000	0.0
90	0x00000000	0.0
91	0x00000000	0.0
92	0x00000000	0.0
93	0x00000000	0.0
94	0x00000000	0.0
95	0x00000000	0.0
96	0x00000000	0.0
97	0x00000000	0.0
98	0x00000000	0.0
99	0x00000000	0.0
100	0x00000000	0.0
101	0x00000000	0.0
102	0x00000000	0.0
103	0x00000000	0.0
104	0x00000000	0.0
105	0x00000000	0.0
106	0x00000000	0.0
107	0x00000000	0.0
108	0x00000000	0.0
109	0x00000000	0.0
110	0x00000000	0.0
111	0x00000000	0.0
112	0x00000000	0.0
113	0x00000000	0.0
114	0x00000000	0.0
115	0x00000000	0.0
116	0x00000000	0.0
117	0x00000000	0.0
118	0x00000000	0.0
119	0x00000000	0.0
120	0x00000000	0.0
121	0x00000000	0.0
122	0x00000000	0.0
123	0x00000000	0.0
124	0x00000000	0.0
125	0x00000000	0.0
126	0x00000000	0.0
127	0x00000000	0.0

network_body._body_endoder.seq_layers.2.weight f4 [128, 128]
0	0xbd652b80	-0.055949688
1	0x3d887506	0.066629454
2	0x3cdd1ca7	0.026991202
3	0x3e76ac82	0.24089244
4	0x3d0d4b4e	0.034495644
5	0x3d21d714	0.039511755
6	0xbe00f767	-0.12594377
7	0x3d995683	0.07487204
8	0x3c7c1134	0.015384961
9	0x3e0f0fb9	0.13970841
10	0x3d390d1b	0.045178514
11	0x3d22e4f3	0.039769124
12	0xbcca2014	-0.0246735
13	0x3dff050b	0.12452134
14	0x3c482785	0.012216453
15	0xbe011b80	-0.12608147
16	0x3d0a3707	0.033743884
17	0x3d90b1ef	0.07065188
18	0xbd8feb7c	-0.07027337
19	0xbc9aaa2a	-0.018879969
20	0xbc987995	-0.018612662
21	0xbd89e9c3	-0.0673404
22	0xbe1b28d8	-0.151523
23	0xbded7dde	-0.11596273
24	0x3d07ffbb	0.033202868
25	0x3c9f8dee	0.019476857
26	0x3a118f3e	0.0005552656
27	0xbe029d59	-0.12755336
28	0x3dae2ef0	0.08505046
29	0x3b803830	0.003912948
30	0xba83bab0	-0.0010050144
31	0x3e5c8906	0.21536645
32	0xbcdae6cc	-0.02672138
33	0x3d84a5b9	0.064769216
34	0x3da2480d	0.07923899
35	0xbd7b04cb	-0.061283868
36	0xbc474610	-0.0121627
37	0x3e4cdede	0.20006892
38	0xbd381b47	-0.04494789
39	0x3d84a3fc	0.0647659
40	0xbd2b6676	-0.04184576
41	0x3dcf9921	0.10136629
42	0xbdbe53d7	-0.09293335
43	0xbd4c5c51	-0.049892727
44	0x3d14fb6b	0.036372583
45	0xba0402f7	-0.0005035842
46	0x3c47f8fa	0.012205357
47	0xbe088dcd	-0.13335343
48	0xbe116e62	-0.14202264
49	0x3d42f158	0.047593445
50	0x3da0dac6	0.07854228
51	0x3e02abff	0.12760924
52	0x3d846bba	0.0646586
53	0xbb77a6ab	-0.003778855
54	0xbc56a903	-0.013101819
55	0xbcf03ad1	-0.02932492
56	0x3ba7eca1	0.005124644
57	0x3da09415	0.078407444
58	0x3d099e57	0.03359827
59	0x3ddd4f87	0.10806184
60	0xbe24c299	-0.16089858
61	0x3b952002	0.004550935
62	0x3d8f2650	0.069897294
63	0x3c9481e6	0.018128347
64	0xbce1f45a	-0.027582336
65	0xbd6e1276	-0.058123074
66	0xbdba4431	-0.09095038
67	0xbd99f37c	-0.07517144
68	0xbd908abb	-0.07057711
69	0xbc82c569	-0.015963273
70	0xbd8562f6	-0.06513016
71	0x3ca129a4	0.019673176
72	0x3e2daad0	0.16959691
73	0x3df1c154	0.118044525
74	0xbdda26d7	-0.10651939
75	0xbe0da36f	-0.13831876
76	0xbd24c915	-0.04023083
77	0x3d1dca74	0.038523152
78	0xba7a807e	-0.000955589
79	0xbbec42dd	-0.007210119
80	0xbe02a02c	-0.12756413
81	0xbe7444d8	-0.23854387
82	0x3d991105	0.07473949
83	0x3d884c26	0.06655149
84	0xbdbab32b	-0.09116205
85	0xbdadb5db	-0.08481952
86	0x3ca5e7c4	0.020252116
87	0x3c7a8578	0.0152906105
88	0xbdd3f2a2	-0.10349013
89	0x3918c3f7	0.00014568852
90	0xbdf8eac8	-0.12154156
91	0x3c6b894e	0.014375998
92	0x3ce14c68	0.027502254
93	0x3e24a633	0.16079025
94	0x3b842896	0.0040331585
95	0x3d724a84	0.059153095
96	0x3ddc27bf	0.107497685
97	0x3db09aa8	0.08623248
98	0x3df81875	0.1211404
99	0x3de1e342	0.11029674
100	0x3d8740fb	0.06604191
101	0x3cddd5f3	0.027079558
102	0xbd55da54	-0.052210167
103	0xbdc065c5	-0.09394411
104	0x3dbcfc01	0.092277534
105	0xbdb26089	-0.08709819
106	0x3d2f2788	0.04276231
107	0x3d8afe53	0.0678679
108	0xbd025cc9	-0.031826768
109	0xbe0b7743	-0.13619713
110	0x3e5bdc1c	0.21470684
111	0xbd903b60	-0.07042575
112	0xbd0f8347	-0.035037305
113	0x3dac9562	0.0842693
114	0x3d2f4a30	0.04279536
115	0x3cc88b74	0.024480559
116	0xbdcb3f71	-0.0992421
117	0x3d3b0333	0.045657348
118	0xbe2de690	-0.16982484
119	0xbdd565a5	-0.10419778
120	0xbd9665a9	-0.07343609
121	0xbd516202	-0.05111886
122	0xbe13ad7a	-0.14421645
123	0x3d8d711b	0.06906339
124	0x3d09bdc2	0.033628233
125	0xbd83b8b8	-0.06431717
126	0x3d220e9c	0.039564714
127	0x3da34adb	0.07973262
128	0x3d966693	0.07343783
129	0x3d9c68be	0.076371655
130	0x3d9aee46	0.07564978
131	0xbc891023	-0.016731327
132	0x3da89489	0.08231456
133	0xbcd92736	-0.026507955
134	0x3de35c17	0.11101549
135	0xbd1fdd1e	-0.039029233
136	0xbc32d4fb	-0.010915036
137	0xbd09b54d	-0.033620168
138	0xbdbfe7d0	-0.093703866
139	0x3d11734e	0.035510354
140	0xbdd34599	-0.10316009
141	0xbbd7ebaa	-0.0065893726
142	0xbdd38818	-0.10328692
143	0xbcae3b98	-0.02126865
144	0xbe15d9fb	-0.14633934
145	0xbdc72365	-0.09723548
146	0x3df54931	0.11976851
147	0x3cdef8c2	0.027218226
148	0x3c0782fa	0.008270973
149	0xbd9ee0f9	-0.07757754
150	0x3d757fac	0.05993621
151	0x3dee5089	0.116364546
152	0xbd801bc7	-0.06255298
153	0x3b0cc806	0.0021481528
154	0x3ce8134a	0.02832951
155	0x3dababf5	0.083824076
156	0xbc291ab0	-0.010321304
157	0x3d97e34c	0.074164
158	0x3dbd7069	0.09249956
159	0xbe259516	-0.16170153
160	0xbdfe7cb1	-0.12426127
161	0xbd9c3f86	-0.07629304
162	0xbd23d6e9	-0.039999876
163	0x3d890e1e	0.06692146
164	0xbcfcc031	-0.030853363
165	0x3d973d7e	0.073847756
166	0x3c27dc6b	0.010245423
167	0x3cd92bed	0.026510203
168	0x3d388ef9	0.045058224
169	0x3c1d36a5	0.009595548
170	0x3e13f9aa	0.14450708
171	0xbdfbd65c	-0.12296745
172	0x3cda0357	0.02661292
173	0xbd17cd0d	-0.037060786
174	0x3df0eb6a	0.11763652
175	0xbc566079	-0.013084524
176	0xbca708aa	-0.020389874
177	0xbbbfb71b	-0.0058506853
178	0x3d4568ce	0.048195653
179	0x3bb39524	0.0054804254
180	0x3cbb6afd	0.022878164
181	0xbd458bae	-0.048228912
182	0xbdae25a1	-0.08503271
183	0x3d8cc165	0.068728246
184	0xbc483278	-0.012219064
185	0xbcb26883	-0.02177835
186	0x3dbb8ec0	0.09158087
187	0x3d9c39c0	0.076282024
188	0x3e190d16	0.14946398
189	0x3ddf1631	0.108929045
190	0x3d18fccf	0.037350472
191	0x3d932d10	0.07186329
192	0x3d76e673	0.060278367
193	0xbcd3b883	-0.025844818
194	0x3d38304e	0.044967942
195	0x3c1b789d	0.009489206
196	0xbe017dbc	-0.1264562
197	0x3e025298	0.1272682
198	0x3d59327b	0.053026658
199	0xbba051c1	-0.0048925583
200	0x3c9ddc20	0.019270003
201	0x3e0fb467	0.14033662
202	0xbd88e720	-0.066847086
203	0xbdb4c69c	-0.08826944
204	0xbe0c0957	-0.13675438
205	0x3ce96364	0.028489776
206	0xbd9d9ba6	-0.07695703
207	0x3d361e53	0.044462513
208	0x3d92a1c8	0.071597636
209	0xbb1f2d30	-0.0024288408
210	0x3d9e5437	0.077309065
211	0xbd6e6104	-0.05819799
212	0xbd135c5d	-0.035976756
213	0xbcd25308	-0.025674358
214	0x3ba28e83	0.0049608364
215	0x3e203bfe	0.15647885
216	0xbdf2a2a5	-0.11847428
217	0xbe1cefaf	-0.15325807
218	0x3e1d6bca	0.1537315
219	0xbd542a28	-0.051798016
220	0xbc0fc00a	-0.008773813
221	0x3e228a96	0.15873179
222	0x3d3916fd	0.04518794
223	0xbbccd4ca	-0.0062509524
224	0x39624d60	0.00021581864
225	0xbe0947ce	-0.13406298
226	0x3ae44f3f	0.0017418637
227	0x3d25e4e7	0.0405015
228	0xbe228786	-0.1587201
229	0x3c9d9539	0.019236194
230	0x3cb990ae	0.022651996
231	0xbe0201bb	-0.12695973
232	0xbd82d917	-0.06389063
233	0xbd4bb654	-0.04973443
234	0x3d8e040a	0.06934364
235	0xbb065c33	-0.0020501732
236	0xbe1689a4	-0.14700943
237	0xbd433b7c	-0.04766415
238	0xbda1b601	-0.078960426
239	0x3d58c017	0.052917566
240	0x3c5bdd49	0.013419458
241	0x3d3586f9	0.044318173
242	0xbe0561d2	-0.13025597
243	0x3e029400	0.1275177
244	0xbdb110c8	-0.08645779
245	0xbcbb019c	-0.022827916
246	0xbd84204a	-0.06451471
247	0x3c0ca7b9	0.00858491
248	0xbd40af3b	-0.047042113
249	0x3df1bb54	0.11803308
250	0xbd0c1b5e	-0.034205787
251	0xbacd1260	-0.0015645735
252	0xbbb8a5ab	-0.0056349835
253	0x3d276976	0.04087206
254	0x3dbce54e	0.09223424
255	0x3e2db1ad	0.16962309

network_body._body_endoder.seq_layers.2.bias f4 [128]
0	0x00000000	0.0
1	0x00000000	0.0
2	0x00000000	0.0
3	0x00000000	0.0
4	0x00000000	0.0
5	0x00000000	0.0
6	0x00000000	0.0
7	0x00000000	0.0
8	0x00000000	0.0
9	0x00000000	0.0
10	0x00000000	0.0
11	0x00000000	0.0
12	0x00000000	0.0
13	0x00000000	0.0
14	0x00000000	0.0
15	0x00000000	0.0
16	0x00000000	0.0
17	0x00000000	0.0
18	0x00000000	0.0
19	0x00000000	0.0
20	0x00000000	0.0
21	0x00000000	0.0
22	0x00000000	0.0
23	0x00000000	0.0
24	0x00000000	0.0
25	0x00000000	0.0
26	0x00000000	0.0
27	0x00000000	0.0
28	0x00000000	0.0
29	0x00000000	0.0
30	0x00000000	0.0
31	0x00000000	0.0
32	0x00000000	0.0
33	0x00000000	0.0
34	0x00000000	0.0
35	0x00000000	0.0
36	0x00000000	0.0
37	0x00000000	0.0
38	0x00000000	0.0
39	0x00000000	0.0
40	0x00000000	0.0
41	0x00000000	0.0
42	0x00000000	0.0
43	0x00000000	0.0
44	0x00000000	0.0
45	0x00000000	0.0
46	0x00000000	0.0
47	0x00000000	0.0
48	0x00000000	0.0
49	0x00000000	0.0
50	0x00000000	0.0
51	0x00000000	0.0
52	0x00000000	0.0
53	0x00000000	0.0
54	0x00000000	0.0
55	0x00000000	0.0
56	0x00000000	0.0
57	0x00000000	0.0
58	0x00000000	0.0
59	0x00000000	0.0
60	0x00000000	0.0
61	0x00000000	0.0
62	0x00000000	0.0
63	0x00000000	0.0
64	0x00000000	0.0
65	0x00000000	0.0
66	0x00000000	0.0
67	0x00000000	0.0
68	0x00000000	0.0
69	0x00000000	0.0
70	0x00000000	0.0
71	0x00000000	0.0
72	0x00000000	0.0
73	0x00000000	0.0
74	0x00000000	0.0
75	0x00000000	0.0
76	0x00000000	0.0
77	0x00000000	0.0
78	0x00000000	0.0
79	0x00000000	0.0
80	0x00000000	0.0
81	0x00000000	0.0
82	0x00000000	0.0
83	0x00000000	0.0
84	0x00000000	0.0
85	0x00000000	0.0
86	0x00000000	0.0
87	0x00000000	0.0
88	0x00000000	0.0
89	0x00000000	0.0
90	0x00000000	0.0
91	0x00000000	0.0
92	0x00000000	0.0
93	0x00000000	0.0
94	0x00000000	0.0
95	0x00000000	0.0
96	0x00000000	0.0
97	0x00000000	0.0
98	0x00000000	0.0
99	0x00000000	0.0
100	0x00000000	0.0
101	0x00000000	0.0
102	0x00000000	0.0
103	0x00000000	0.0
104	0x00000000	0.0
105	0x00000000	0.0
106	0x00000000	0.0
107	0x00000000	0.0
108	0x00000000	0.0
109	0x00000000	0.0
110	0x00000000	0.0
111	0x00000000	0.0
112	0x00000000	0.0
113	0x00000000	0.0
114	0x00000000	0.0
115	0x00000000	0.0
116	0x00000000	0.0
117	0x00000000	0.0
118	0x00000000	0.0
119	0x00000000	0.0
120	0x00000000	0.0
121	0x00000000	0.0
122	0x00000000	0.0
123	0x00000000	0.0
124	0x00000000	0.0
125	0x00000000	0.0
126	0x00000000	0.0
127	0x00000000	0.0

action_model._continuous_distribution.log_sigma f4 [1, 2]
0	0x00000000	0.0
1	0x00000000	0.0

action_model._continuous_distribution.mu.weight f4 [2, 128]
0	0x3c9877b3	0.018611765
1	0x3c2be600	0.010491848
2	0xbae30975	-0.0017321544
3	0xbc7e299d	-0.015512851
4	0xbcd392fa	-0.02582692
5	0xbc66b6a3	-0.01408163
6	0x3c86529f	0.016396819
7	0x3bfcc5b7	0.007713999
8	0x3cd45f70	0.025924414
9	0xbc5ee697	-0.013604782
10	0xbb58f122	-0.003310271
11	0xbc406b52	-0.011744337
12	0x3d4d80e8	0.050171763
13	0xbc272b6f	-0.0102032265
14	0xbc384be3	-0.011248562
15	0xbce2a328	-0.02766569
16	0xbc07956f	-0.008275374
17	0xbb459daf	-0.0030153801
18	0xbc85e76a	-0.016345698
19	0xbbd1127a	-0.0063803764
20	0x3a90ac11	0.0011037608
21	0x3c68274a	0.0141695235
22	0xbd043853	-0.032280277
23	0x3b4b3e23	0.0031012378
24	0x3b8aa6b3	0.004231298
25	0x3b1028bd	0.0021996938
26	0x3b5332c7	0.003222631
27	0xbb583edb	-0.003299645
28	0x3bd47823	0.006484048
29	0xbceafc87	-0.028684868
30	0xbc1f1e83	-0.009711864
31	0xbb9f213c	-0.004856257
32	0xbc84f363	-0.016229337
33	0x3d1aaf84	0.03776504
34	0xbaf5ce9f	-0.0018753594
35	0x3cd9d870	0.026592463
36	0x3c76c1e8	0.015060879
37	0x3c2ea674	0.010659803
38	0x3c01306b	0.007885079
39	0x3c90039f	0.017579852
40	0x3c5ca3ea	0.0134668145
41	0xbc2a4f85	-0.0103949355
42	0x3b32d52a	0.00272877
43	0xbca9d45f	-0.02073115
44	0x3d2b483c	0.041816935
45	0x3cb6d8ef	0.022320239
46	0xbd54d9cb	-0.051965516
47	0xb96effdb	-0.00022792762
48	0xbb307ccd	-0.0026929856
49	0xbd18629f	-0.037203427
50	0x3cad92ae	0.021188106
51	0x3a3126af	0.00067577785
52	0xbc8d6c2a	-0.01726349
53	0xbc2851fb	-0.010273452
54	0xbc4bee93	-0.012447017
55	0xbc1800cc	-0.009277534
56	0xbcbb4427	-0.022859646
57	0x3c192bb6	0.0093488
58	0x3b8b2dfc	0.004247425
59	0x3cc475cf	0.023981957
60	0x3cb6311b	0.022240212
61	0x39b75f30	0.000349754
62	0xbc3eadef	-0.011638149
63	0xbbba8253	-0.0056918054
64	0xbbc8225a	-0.0061076107
65	0x3b840373	0.0040287315
66	0xbc704d10	-0.014666811
67	0x3d641895	0.055687506
68	0x3bed626b	0.0072443984
69	0x3beb08e3	0.0071726902
70	0x3b2fa591	0.0026801566
71	0xbc7a4687	-0.015275604
72	0xbc9e64a4	-0.019335099
73	0xbb807b96	-0.0039209826
74	0xbc536aef	-0.012903913
75	0xba09a052	-0.0005250025
76	0xbca0f8ff	-0.01964998
77	0xba6449a8	-0.00087084854
78	0x3b36748a	0.0027840459
79	0xbcee2a38	-0.029072866
80	0xbc91b762	-0.017787639
81	0x3c145caf	0.009055301
82	0xbcc90927	-0.024540497
83	0xbbce9837	-0.0063047665
84	0xbc23feaa	-0.010009447
85	0xbc026b30	-0.007960126
86	0x3cd16608	0.025561348
87	0xbbf35867	-0.00742631
88	0x3c9db6a7	0.019252134
89	0xbd0f1e56	-0.03494104
90	0xbbd5233d	-0.006504445
91	0x3b6ad232	0.0035830853
92	0xbc618aa0	-0.013765961
93	0xbb1a4cfd	-0.0023544424
94	0x3ae5818f	0.0017509925
95	0x3bd8a5d8	0.006611567
96	0xbceccbbd	-0.028905744
97	0x3c6dfa92	0.014525073
98	0xba9df941	-0.0012052433
99	0xbd40a177	-0.047028985
100	0x3abcde9c	0.0014409604
101	0x3c35693a	0.011072451
102	0xbcdab632	-0.026698206
103	0x3bbcb6ab	0.0057590804
104	0x3c5aa53b	0.013345058
105	0xbc567713	-0.013089913
106	0xbbaa6994	-0.005200574
107	0xbc3a6767	-0.011377192
108	0x3bfd5bc2	0.0077318856
109	0xbc30494d	-0.010759664
110	0xbc257653	-0.0100990115
111	0x3bc6833f	0.006058126
112	0x3b90639b	0.004406405
113	0x3bbd4b66	0.0057768105
114	0xbcaa6193	-0.02079848
115	0x3b97e283	0.0046351566
116	0x3c540448	0.012940474
117	0xbbeb1698	-0.0071743242
118	0x3c901ebb	0.017592778
119	0xbc9a0c1d	-0.018804604
120	0x3c16a2ea	0.009194115
121	0x3c1982b9	0.009369546
122	0x3c77bcc0	0.015120685
123	0xbbdb13f3	-0.0066857277
124	0x3c274e45	0.010211532
125	0x3b2aa4e5	0.0026038226
126	0x3b6269cd	0.0034547925
127	0x3c6671cb	0.014065216
128	0xbce2a51d	-0.027666623
129	0x3c1dfdeb	0.009643058
130	0x388e5061	6.7860594e-05
131	0x3c9e2b8e	0.019307878
132	0x3d2d237f	0.04227018
133	0xbc9e3217	-0.019310994
134	0x39f5b3f8	0.0004686413
135	0x3abac1f7	0.001424848
136	0xbc87fc9b	-0.016599944
137	0x3c83acf5	0.016073683
138	0xbb2b95ad	-0.0026181743
139	0xbcc3ea39	-0.023915397
140	0xbcfce98f	-0.030873088
141	0x3c55b90f	0.01304461
142	0xb9089f0c	-0.0001302922
143	0x3b4fe6ea	0.003172333
144	0x3b6c1df8	0.0036028605
145	0xbbceddd2	-0.006313064
146	0xbcc477b3	-0.023982858
147	0x3ca12eba	0.019675601
148	0xbcb99e00	-0.022658348
149	0x3c2de91f	0.010614662
150	0xbcb5fec7	-0.022216214
151	0xbc8417cc	-0.016124628
152	0xbc80981a	-0.015697528
153	0xbb453678	-0.003009228
154	0xbbbfcd6b	-0.005853345
155	0xbc9b7734	-0.018977739
156	0xbb3ebbd8	-0.0029103663
157	0xbc870d9b	-0.01648598
158	0x3c7a20cd	0.015266609
159	0x399abc84	0.00029513624
160	0xbbcc3349	-0.0062316996
161	0xbd09a97f	-0.03360891
162	0x3baa3cc9	0.0051952344
163	0x3925d6ee	0.00015815694
164	0x3bd44b23	0.0064786836
165	0x3b8168b6	0.00394925
166	0xbc376805	-0.011194234
167	0x3bdd90f2	0.0067616636
168	0xbcc16433	-0.023607349
169	0x3b86e9cb	0.0041172258
170	0xbce4946b	-0.027902802
171	0x3bef2755	0.00729839
172	0xbc4dbb9f	-0.012556939
173	0x3b3432e1	0.0027496147
174	0xb9e6dcab	-0.0004403343
175	0xbb9d407c	-0.004798947
176	0xbc8fb664	-0.017543025
177	0x3c329e05	0.010901933
178	0x3c9809d3	0.018559372
179	0xbce3034a	-0.02771153
180	0xbcb8e123	-0.022568291
181	0xba01ee97	-0.0004956512
182	0xbc925af7	-0.017865641
183	0xbccbcaf6	-0.024877053
184	0x3b9031d6	0.004400472
185	0xbb8f07c5	-0.00436494
186	0x3bf475f5	0.0074603506
187	0x3cc9b0a3	0.02462036
188	0x3cf4ddc5	0.029890904
189	0x3c908c48	0.017645016
190	0x3b623fa7	0.0034522803
191	0xbbd2d29b	-0.0064337975
192	0x3d1df407	0.0385628
193	0xbbe39d6f	-0.006946258
194	0x3c54bbf5	0.012984266
195	0x3c44e113	0.0120165525
196	0xbc312329	-0.0108116055
197	0x3c8a217f	0.016861675
198	0x3cccc078	0.02499412
199	0xbc0b50cf	-0.008503153
200	0x3b8cb2e3	0.004293786
201	0x3cb4f097	0.022087378
202	0xbb88f073	-0.0041790544
203	0x3c79318d	0.015209568
204	0xbb96e36a	-0.0046047466
205	0x3c30b4bc	0.010785278
206	0x3c853c97	0.016264243
207	0xbbc0ab6b	-0.0058798096
208	0xbcadbf86	-0.02120949
209	0xbb8f94c3	-0.0043817475
210	0x3c0c9903	0.008581403
211	0xba2badeb	-0.0006549048
212	0xbc9fcd7c	-0.019507162
213	0xbc16d007	-0.009204871
214	0x3c868335	0.016419986
215	0x3d0f7f38	0.035033435
216	0x3ba788b1	0.0051127304
217	0xbc74287a	-0.0149022285
218	0x3bfe2bdb	0.007756693
219	0x3ca3038f	0.019899158
220	0x3beb650f	0.007183678
221	0x3c08a7ce	0.008340789
222	0x3cc00ae9	0.023442702
223	0xbc2db05c	-0.010601129
224	0xbc401ccc	-0.011725616
225	0xbb559b3d	-0.003259375
226	0x3c00c7ff	0.007860183
227	0xbb8e5192	-0.00434322
228	0xba2fe6fa	-0.00067101384
229	0x3b27240d	0.0025503666
230	0xbc011775	-0.007879128
231	0xbc04c346	-0.008103197
232	0x3b745fca	0.003728854
233	0xbc1c30f4	-0.009533156
234	0xbd18f531	-0.037343208
235	0xbc03a705	-0.008035426
236	0x3cd38572	0.025820468
237	0x3cbb8b53	0.022893583
238	0xbc045c4e	-0.008078648
239	0xbcb33b66	-0.02187891
240	0x3bc21e7f	0.0059240456
241	0x3c9bc0b3	0.019012785
242	0xbc8d8a71	-0.017277928
243	0xbc678eba	-0.01413315
244	0x3c89a589	0.016802566
245	0xbbf95c80	-0.007609904
246	0x3c3f90a3	0.011692199
247	0x3cac3d42	0.021025304
248	0x3c288211	0.0102849165
249	0xbc8ff6a3	-0.01757366
250	0x3c06fd67	0.008239127
251	0x3c0bbacf	0.008528425
252	0x3c0a425a	0.008438671
253	0x3cd4d1ca	0.025978941
254	0x3d3fbb2b	0.046809357
255	0x3c277d44	0.010222737

action_model._continuous_distribution.mu.bias f4 [2]
0	0x00000000	0.0
1	0x00000000	0.0

network_body._body_endoder.seq_layers.0.weight f4 [128, 12]
0	0x3d9837a6	0.07432489
1	0xbdbdb1cd	-0.092624284
2	0x3cd8bc59	0.026456999
3	0x3df773b9	0.12082619
4	0xbefa401f	-0.48877046
5	0x3ebeb1f8	0.37245154
6	0xbe4edff0	-0.20202613
7	0xbe0c7d8c	-0.13719767
8	0xbe3078ca	-0.17233577
9	0x3e540421	0.207047
10	0x3ef84427	0.48489496
11	0xbec7bafe	-0.3900985
12	0xbcf6f5a4	-0.030146427
13	0x3e6f13ff	0.23347472
14	0xbea6dc0f	-0.32589766
15	0x3d95befc	0.07311818
16	0xbeeb4f18	-0.4595878
17	0x3f1625d3	0.58651465
18	0x3e6aadb5	0.22917826
19	0x3d33a895	0.043861944
20	0xbda1ccf5	-0.079004206
21	0x3d886665	0.06660155
22	0x3e950e9f	0.29112718
23	0x3e8eb515	0.2787253
24	0xbdd47996	-0.10374753
25	0xbde3ef19	-0.11129589
26	0xbda83d01	-0.082147606
27	0xbebd493e	-0.36969942
28	0xbecb95dc	-0.3976277
29	0x3e2a2aa4	0.16617829
30	0xbee34932	-0.4439178
31	0x3d8aadff	0.06771468
32	0x3e1d618f	0.15369247
33	0xbd854ee1	-0.065091856
34	0xbc8b18a1	-0.016979517
35	0x3ebf3b27	0.37349817
36	0x3de8b0c9	0.11361844
37	0x3e266d80	0.16252708
38	0xbdb142f6	-0.0865535
39	0x3f20fec1	0.62888724
40	0x3bab5ec9	0.005229805
41	0xbdc60765	-0.09669379
42	0xbedd14f8	-0.4318006
43	0xbe3d8471	-0.18507554
44	0xbd56531c	-0.052325353
45	0xbda27660	-0.079327345
46	0xbec9da4f	-0.3942437
47	0x3d35be9a	0.044371225
48	0xbd2facc6	-0.04288938
49	0x3ebe5276	0.37172288
50	0x3f091081	0.5354081
51	0x3db0a2e7	0.08624821
52	0xbeb3f988	-0.35151315
53	0xbe91c870	-0.28473234
54	0x3ddc5372	0.107581034
55	0x3ee43618	0.4457252
56	0xbe022c9d	-0.12712331
57	0xbe4d140c	-0.20027179
58	0x3ec54b9f	0.38534257
59	0x3e84fd7f	0.25974652
60	0xbe995cb1	-0.2995353
61	0x3e488b9a	0.19584504
62	0xbe8674ae	-0.26260895
63	0x3e42a369	0.19007649
64	0x3e115b7d	0.14195056
65	0x3e060918	0.13089406
66	0xbe7cfb18	-0.2470516
67	0x3d69afc1	0.057052378
68	0x3e25b753	0.16183214
69	0xbd82712a	-0.063692406
70	0x3dc69537	0.09696429
71	0xbeb8a2c9	-0.36061695
72	0x3f2971c7	0.66189235
73	0xbe8cb8a9	-0.27484635
74	0x3d22c9ce	0.039743237
75	0xbe12b184	-0.1432553
76	0xbe79d0f4	-0.24396116
77	0x3eeeb4c9	0.46622303
78	0xbd70ed0a	-0.058819808
79	0x3e248d53	0.16069536
80	0x3cddfdef	0.027098624
81	0xbe016b59	-0.12638606
82	0xbeb645f9	-0.3560026
83	0xbcd0d071	-0.025490018
84	0xbec8fc21	-0.3925486
85	0xbecd1cb8	-0.40060973
86	0xbd7748e7	-0.06037226
87	0xbe99ef71	-0.30065492
88	0x3d8eb01d	0.06967185
89	0x3f2f0da5	0.68380195
90	0x3d844890	0.06459153
91	0xbeab74f8	-0.33487678
92	0xbe928c52	-0.2862268
93	0x3e564f38	0.20928657
94	0x3ed23b29	0.4106076
95	0x3e827d99	0.25486448
96	0xbe1bcb37	-0.15214239
97	0xbe8378f9	-0.25678232
98	0x3e81458e	0.2524838
99	0x3d81f2d5	0.06345145
100	0x3dd8b1e9	0.10580809
101	0xbee4660e	-0.44609112
102	0x3d08604b	0.033294957
103	0x3be0c342	0.006859214
104	0xbdd5e065	-0.104431905
105	0x3e5210a2	0.20514157
106	0xbe9e7b1f	-0.3095331
107	0xbed975c6	-0.42472667
108	0xbf042cf8	-0.51631117
109	0xbde2766f	-0.11057746
110	0x3e4d1f36	0.20031437
111	0x3f0abdbc	0.5419576
112	0x3d650422	0.055912144
113	0xbe0d6879	-0.13809384
114	0xbef1f7fe	-0.47259516
115	0x3e0dd78d	0.13851757
116	0x3ede61f0	0.43434095
117	0xbe186cc0	-0.14885235
118	0xbeb51677	-0.35368702
119	0x3e1b4dc2	0.15166381
120	0xbe6d1e0c	-0.23155993
121	0x3d3a8c15	0.04554375
122	0xbda83fcd	-0.08215294
123	0x3e4004d5	0.18751843
124	0x3e9b6e4e	0.30357593
125	0x3db32b9d	0.08748553
126	0x3edb9284	0.4288522
127	0xbe2af715	-0.16695817
128	0x3f0124d5	0.50446826
129	0xbe10bdde	-0.14134929
130	0xbd8a4565	-0.06751517
131	0x3dc83557	0.09775799
132	0xbde92060	-0.11383128
133	0x3ddff9ac	0.10936293
134	0xbeab1147	-0.3341162
135	0x3dc69ceb	0.096978985
136	0x3f4d5dd1	0.8022128
137	0x3e140bc7	0.14457618
138	0xbe87343e	-0.26407045
139	0x3bdc9a41	0.0067322557
140	0xbf15929d	-0.5842684
141	0x3e1d9667	0.15389405
142	0xbe8961c0	-0.2683239
143	0x3ea18664	0.31547844
144	0xbdf50cf7	-0.119653635
145	0xbe60299e	-0.21890876
146	0xbe28ef99	-0.16497649
147	0xbed5b328	-0.41738248
148	0x3ebe3e30	0.3715682
149	0x3ec621bf	0.3869762
150	0xbe74df4a	-0.23913303
151	0xbdb25f9e	-0.08709644
152	0xbcec30d7	-0.028831882
153	0x3f173f91	0.5908137
154	0x3d7f11bf	0.062272783
155	0xbea58f61	-0.32335952
156	0x3f0786b8	0.5293994
157	0xbe45a541	-0.1930132
158	0xbe96f49d	-0.294835
159	0xbecb5bf5	-0.39718595
160	0xbe5c8c3a	-0.21537867
161	0x3e14a584	0.14516264
162	0xbe3b939a	-0.18318024
163	0x3e3200d9	0.17383136
164	0xbee81fe1	-0.45336822
165	0xbe4f4048	-0.20239365
166	0xbeb0a675	-0.34501997
167	0xbdaf26b3	-0.08552303
168	0x3c5c293d	0.013437566
169	0xbed199dc	-0.40937698
170	0xbdf06983	-0.11738875
171	0xbe88e994	-0.26740706
172	0x3edb0f3e	0.42785066
173	0xbe34ab5c	-0.17643493
174	0xbecf0a12	-0.4043737
175	0x3ded01a1	0.11572576
176	0xbd966bfa	-0.07344814
177	0x3ecb6f6c	0.39733446
178	0x3e4ddbb0	0.20103335
179	0xbea47f1e	-0.32128233
180	0x3e540079	0.20703305
181	0x3dad28d5	0.08455054
182	0x3d034d7c	0.032056317
183	0x3d12be60	0.035826087
184	0xbe1a752c	-0.1508376
185	0xbe65a07a	-0.22424498
186	0x3db3a363	0.08771398
187	0xbe417cd6	-0.18895277
188	0x3ecd449d	0.4009141
189	0x3e66d639	0.22542657
190	0x3e2ed7d8	0.17074525
191	0xbe00baf5	-0.12571318
192	0x3c8e3b24	0.017362185
193	0xbe469bf2	-0.19395426
194	0xbeb5b3a0	-0.35488605
195	0x3e185e72	0.14879778
196	0xbe4ec9df	-0.20194195
197	0x3eeb0ca5	0.45908085
198	0xbeeb9e15	-0.46019045
199	0xbe5032d5	-0.20331891
200	0x3ea8565a	0.3287838
201	0xbdc3997f	-0.095507614
202	0xbe2ba6f8	-0.16762912
203	0xbf2a47b8	-0.66515684
204	0xbc9728af	-0.018452017
205	0xbf043a50	-0.5165148
206	0x3e33de63	0.17565303
207	0xbe474d64	-0.19463116
208	0x3d72730d	0.059191752
209	0x3e5700de	0.20996425
210	0xbd5793a4	-0.052631035
211	0x3eacddd1	0.33762982
212	0x3dd27ca5	0.1027768
213	0x3ee294c2	0.44254118
214	0xbe0a7e43	-0.13524728
215	0x3e4981ad	0.19678374
216	0x3eaa8cbd	0.333105
217	0xbe2b012d	-0.16699667
218	0x3f171c2c	0.5902736
219	0xbece1fdb	-0.4025868
220	0xbc505c8b	-0.012717376
221	0xbd90b91d	-0.070665576
222	0x3ea7f69e	0.3280534
223	0x3e226ce4	0.15861851
224	0x3edd5caf	0.43234774
225	0x3e02af84	0.12762266
226	0xbe954bbe	-0.2915935
227	0x3e7cf10b	0.24701326
228	0x3cc435bf	0.02395141
229	0xbd6220b1	-0.05520696
230	0x3d3ab08b	0.04557852
231	0xbd87ae5f	-0.066250555
232	0xbc7bcf0e	-0.01536919
233	0x3d0bdb2e	0.034144573
234	0x3f44e47e	0.7691115
235	0xbe41579b	-0.18881075
236	0x3d29e207	0.041475322
237	0xbeef5746	-0.46746272
238	0x3ed43e57	0.41453812
239	0x3ea09eea	0.31371242
240	0xbe136700	-0.1439476
241	0x3eba00ef	0.36328837
242	0x3ddf66a4	0.10908249
243	0x3f0d9e7f	0.5531997
244	0x3e5c1f88	0.21496403
245	0x3e0b444a	0.13600269
246	0x3e456aef	0.19279073
247	0xbed1d6f8	-0.4098432
248	0x3efc1cbf	0.49240682
249	0x3e5c21a1	0.21497203
250	0xbe97ab6b	-0.2962297
251	0xbe8d0147	-0.27540037
252	0xbe156175	-0.14587958
253	0xbe6963ec	-0.22792023
254	0x3d3f722d	0.046739746
255	0x3eca86cb	0.39555964

network_body._body_endoder.seq_layers.0.bias f4 [128]
0	0x00000000	0.0
1	0x00000000	0.0
2	0x00000000	0.0
3	0x00000000	0.0
4	0x00000000	0.0
5	0x00000000	0.0
6	0x00000000	0.0
7	0x00000000	0.0
8	0x00000000	0.0
9	0x00000000	0.0
10	0x00000000	0.0
11	0x00000000	0.0
12	0x00000000	0.0
13	0x00000000	0.0
14	0x00000000	0.0
15	0x00000000	0.0
16	0x00000000	0.0
17	0x00000000	0.0
18	0x00000000	0.0
19	0x00000000	0.0
20	0x00000000	0.0
21	0x00000000	0.0
22	0x00000000	0.0
23	0x00000000	0.0
24	0x00000000	0.0
25	0x00000000	0.0
26	0x00000000	0.0
27	0x00000000	0.0
28	0x00000000	0.0
29	0x00000000	0.0
30	0x00000000	0.0
31	0x00000000	0.0
32	0x00000000	0.0
33	0x00000000	0.0
34	0x00000000	0.0
35	0x00000000	0.0
36	0x00000000	0.0
37	0x00000000	0.0
38	0x00000000	0.0
39	0x00000000	0.0
40	0x00000000	0.0
41	0x00000000	0.0
42	0x00000000	0.0
43	0x00000000	0.0
44	0x00000000	0.0
45	0x00000000	0.0
46	0x00000000	0.0
47	0x00000000	0.0
48	0x00000000	0.0
49	0x00000000	0.0
50	0x00000000	0.0
51	0x00000000	0.0
52	0x00000000	0.0
53	0x00000000	0.0
54	0x00000000	0.0
55	0x00000000	0.0
56	0x00000000	0.0
57	0x00000000	0.0
58	0x00000000	0.0
59	0x00000000	0.0
60	0x00000000	0.0
61	0x00000000	0.0
62	0x00000000	0.0
63	0x00000000	0.0
64	0x00000000	0.0
65	0x00000000	0.0
66	0x00000000	0.0
67	0x00000000	0.0
68	0x00000000	0.0
69	0x00000000	0.0
70	0x00000000	0.0
71	0x00000000	0.0
72	0x00000000	0.0
73	0x00000000	0.0
74	0x00000000	0.0
75	0x00000000	0.0
76	0x00000000	0.0
77	0x00000000	0.0
78	0x00000000	0.0
79	0x00000000	0.0
80	0x00000000	0.0
81	0x00000000	0.0
82	0x00000000	0.0
83	0x00000000	0.0
84	0x00000000	0.0
85	0x00000000	0.0
86	0x00000000	0.0
87	0x00000000	0.0
88	0x00000000	0.0
89	0x00000000	0.0
90	0x00000000	0.0
91	0x00000000	0.0
92	0x00000000	0.0
93	0x00000000	0.0
94	0x00000000	0.0
95	0x00000000	0.0
96	0x00000000	0.0
97	0x00000000	0.0
98	0x00000000	0.0
99	0x00000000	0.0
100	0x00000000	0.0
101	0x00000000	0.0
102	0x00000000	0.0
103	0x00000000	0.0
104	0x00000000	0.0
105	0x00000000	0.0
106	0x00000000	0.0
107	0x00000000	0.0
108	0x00000000	0.0
109	0x00000000	0.0
110	0x00000000	0.0
111	0x00000000	0.0
112	0x00000000	0.0
113	0x00000000	0.0
114	0x00000000	0.0
115	0x00000000	0.0
116	0x00000000	0.0
117	0x00000000	0.0
118	0x00000000	0.0
119	0x00000000	0.0
120	0x00000000	0.0
121	0x00000000	0.0
122	0x00000000	0.0
123	0x00000000	0.0
124	0x00000000	0.0
125	0x00000000	0.0
126	0x00000000	0.0
127	0x00000000	0.0

network_body._body_endoder.seq_layers.2.weight f4 [128, 128]
0	0xbd4fa853	-0.050697636
1	0xbe048340	-0.12940693
2	0xbdca8de1	-0.098903425
3	0xbc9716a2	-0.01844341
4	0xbd83bc84	-0.06432441
5	0x3d818050	0.06323302
6	0xbc59af3c	-0.013286408
7	0x3dd7b114	0.10531822
8	0x3cf34d76	0.029700022
9	0x3e108e17	0.14116703
10	0xbd9e4769	-0.07728464
11	0xbda4ac6f	-0.080407016
12	0xbe127269	-0.14301457
13	0xbc1b6a7f	-0.00948584
14	0xbd82b7c8	-0.0638271
15	0xbd93b5c0	-0.072124004
16	0xbc253714	-0.010083932
17	0xbda348b6	-0.07972853
18	0xbc481a8e	-0.012213362
19	0x3d206340	0.039157152
20	0xbda14aa8	-0.07875568
21	0xbda44ad1	-0.080220826
22	0xbddd93e2	-0.10819222
23	0xbbe346f0	-0.0069359466
24	0xbd867f0c	-0.06567201
25	0xbe1e2035	-0.15441974
26	0x3dbad6f6	0.09123032
27	0x3ce644ce	0.02810898
28	0xbd863122	-0.0655234
29	0xbe0b211f	-0.13586853
30	0xbcb0ec8c	-0.02159717
31	0x3d0a8f2d	0.03382795
32	0xbcd26ccc	-0.025686644
33	0x3e826875	0.2547032
34	0xbd3b486e	-0.04572337
35	0x3d215825	0.0393907
36	0x3daa5fe9	0.08319075
37	0xbdbf48d0	-0.0934006
38	0xbd482ae9	-0.048869047
39	0x3dce064b	0.10059794
40	0xbd103373	-0.035205316
41	0xbc3fa281	-0.011696459
42	0xbd99c5b1	-0.0750841
43	0xbd03ce4e	-0.03217917
44	0x3da1a38f	0.078925245
45	0x3d8566bc	0.06513736
46	0x3c9a5685	0.018840084
47	0xbcf41e58	-0.029799625
48	0xbd1045b7	-0.035222735
49	0x3d209b95	0.039210875
50	0x3c9fdf78	0.019515738
51	0x3e1a668d	0.15078183
52	0x3db43fde	0.08801244
53	0xbd7a8220	-0.061159253
54	0x3d2c9aa6	0.04213967
55	0xbd9513f1	-0.07279194
56	0x3b0caf2a	0.002146671
57	0xbd82629a	-0.06366463
58	0xbc498d9a	-0.012301827
59	0x3c86ee51	0.01647106
60	0xbd0fa1bd	-0.035066355
61	0x3d0f7ad7	0.03502926
62	0xbe3b7d18	-0.18309438
63	0x3deb6343	0.11493542
64	0x3e0c4927	0.1369978
65	0x3c2a99ce	0.010412646
66	0x3c9d6476	0.019212943
67	0xbd452356	-0.048129402
68	0x3ccacdb9	0.0247563
69	0xbd5342ae	-0.051577263
70	0x3c6b383f	0.014356672
71	0xbd51c539	-0.051213477
72	0x3db435fd	0.0879936
73	0xbc0d844f	-0.008637502
74	0xbd676821	-0.05649579
75	0xb93b1593	-0.00017841747
76	0xbcbe3e7f	-0.02322316
77	0xbcfd2416	-0.030900996
78	0x3b2d8268	0.0026475433
79	0x3c016e4d	0.007899833
80	0xbc01f5ff	-0.007932185
81	0x3d45a180	0.04824972
82	0xbd47f66d	-0.048818994
83	0xbcc37035	-0.023857215
84	0x3d975b13	0.07390418
85	0xbe9f2073	-0.31079444
86	0x3da81800	0.08207703
87	0xbd244848	-0.040107995
88	0xbd2cdf01	-0.04220486
89	0xbd23df3b	-0.04000781
90	0xbcaaaf32	-0.020835493
91	0x3c803562	0.015650455
92	0xbd81f6d0	-0.06345904
93	0x3e196915	0.14981492
94	0x3e10e9bb	0.14151661
95	0x3d968266	0.0734909
96	0x3e32383c	0.17404264
97	0xbd03eeb8	-0.03221008
98	0xbb774c26	-0.0037734597
99	0x3da739f8	0.081653535
100	0x3d00e99a	0.03147278
101	0x3d0b3d65	0.033994097
102	0xbd826619	-0.0636713
103	0xbc9df975	-0.01928399
104	0xbd4816ee	-0.048849992
105	0x3ccab6b7	0.024745328
106	0xbd9a97ad	-0.07548461
107	0x3d8df330	0.0693115
108	0x3ca844f5	0.020540694
109	0xbd6790e5	-0.056534667
110	0x3d30cb67	0.04316273
111	0x3db4a8e9	0.088212796
112	0xbe1e31f6	-0.15448746
113	0xbd85275a	-0.06501646
114	0x3d92d9df	0.07170462
115	0xbd1d7730	-0.038443744
116	0xbd308f5b	-0.043105464
117	0xbbb443e1	-0.005501256
118	0x3caccb7d	0.021093125
119	0x3e0507be	0.12991235
120	0xbdbb719a	-0.09152527
121	0x3d1cc2f0	0.038271844
122	0xbc6b2d1a	-0.014354015
123	0x3bedb48f	0.0072541903
124	0xbb4da403	-0.0031378276
125	0x3c867d6f	0.016417233
126	0xbdb96a29	-0.090534516
127	0xbd839032	-0.064239874
128	0xbdcf80d1	-0.10131992
129	0x3d4f4e63	0.050611865
130	0xbd8e67af	-0.0695337
131	0xbcda53ff	-0.02665138
132	0x3e42dcf1	0.19029595
133	0x3c6629f4	0.014048088
134	0xbba9c7b6	-0.005181278
135	0x3d2fcd9a	0.042920686
136	0x3d3b67ad	0.04575317
137	0x3d57da42	0.05269838
138	0x3dca8947	0.09889465
139	0xbe89ebfb	-0.2693785
140	0x3ddc79fa	0.10765453
141	0xbdea04af	-0.114266746
142	0xbc66b48d	-0.014081133
143	0x3db1cf30	0.08682096
144	0xbd663e59	-0.056211803
145	0x3d8c8891	0.068619855
146	0xbe7b052e	-0.24513695
147	0xbdf4b606	-0.11948781
148	0x3e662a7a	0.22477141
149	0x3d73e8e0	0.05954826
150	0x3e08578b	0.13314645
151	0x3e8bc3ca	0.27297813
152	0x3d65ffad	0.056152035
153	0x3e323d11	0.17406107
154	0xbcbb7e59	-0.022887396
155	0x3d27c210	0.040956557
156	0x3ba28a6b	0.0049603484
157	0x3da9e515	0.08295647
158	0xbd24994d	-0.04018526
159	0x3d581c15	0.052761156
160	0x3c76feb7	0.015075377
161	0xbe7528f9	-0.23941411
162	0xbdb84226	-0.08996992
163	0xbd07c990	-0.03315121
164	0x3d7f98d5	0.06240161
165	0xbd69a613	-0.057043146
166	0x3b4ba36e	0.0031072753
167	0xbca4da3e	-0.020123597
168	0xbd6f9b93	-0.058497977
169	0xbc3f223b	-0.011665876
170	0xbcacc6e8	-0.02109094
171	0x3cf13759	0.029445337
172	0xbd1170d7	-0.035508003
173	0xbd277e16	-0.04089173
174	0xbd7f09f5	-0.062265355
175	0x3d97fc6a	0.07421191
176	0xbe654a15	-0.22391541
177	0xbdee008c	-0.11621198
178	0xbe0ba7f2	-0.13638285
179	0x3d912461	0.07087017
180	0xbdb2a067	-0.087220006
181	0x3d40172f	0.04689711
182	0xbd33c899	-0.043892477
183	0xbbe8246a	-0.007084419
184	0x3d76546c	0.060139105
185	0xbd51943d	-0.05116676
186	0xbd469889	-0.048485313
187	0x3d525297	0.051348295
188	0xbca20586	-0.019778024
189	0xbd0e167a	-0.034689404
190	0x3dcdf0c7	0.1005569
191	0x3e096ce4	0.13420445
192	0x3d1b7fb9	0.037963603
193	0x3d9131a4	0.07089546
194	0xbe1c9df2	-0.15294626
195	0xbd387320	-0.045031667
196	0xbdd38d0c	-0.10329637
197	0xbe2d4944	-0.1692248
198	0xbd949340	-0.07254648
199	0x3d1f5646	0.038900636
200	0xbc3e9ff2	-0.011634814
201	0xbc9a71d2	-0.018853102
202	0x3d97f8f5	0.07420532
203	0xbe197767	-0.14986955
204	0x3c9b6ec9	0.018973725
205	0x3da8bbef	0.082389705
206	0x3c0f89c7	0.008760876
207	0xbd7c2e21	-0.06156743
208	0xbbbbed93	-0.005735108
209	0x3dd1a90d	0.10237322
210	0x3cc20dc8	0.023688212
211	0xbe1478e6	-0.14499244
212	0xbca70116	-0.02038626
213	0xbd8ab66f	-0.06773078
214	0x3d8fe5c0	0.07026243
215	0x3d95dac6	0.07317118
216	0x3d283661	0.041067485
217	0x3e376963	0.17911296
218	0xbca2d861	-0.019878568
219	0x3ab743f1	0.001398204
220	0x3a89266c	0.0010463721
221	0x3dad33b1	0.08457125
222	0x3cf8459b	0.030306628
223	0xba9b4a50	-0.0011847708
224	0xbb035948	-0.002004223
225	0x3b55f9a9	0.003265003
226	0x3dace809	0.08442695
227	0x3de0a24e	0.10968457
228	0xbdf2f596	-0.11863248
229	0xbd2d3fe8	-0.042297274
230	0x3cb21b1f	0.021741448
231	0xbca18d92	-0.019720826
232	0x3e19c700	0.15017319
233	0xbdda80b5	-0.1066908
234	0x3cac621b	0.021042874
235	0xbd9f1136	-0.077669546
236	0x3c877404	0.016534813
237	0x3c938aec	0.018010579
238	0xbe899a8e	-0.26875728
239	0xbe0732c1	-0.13202955
240	0x3c3cd7d1	0.011526064
241	0xbda77aa0	-0.08177686
242	0x3cd76756	0.026294392
243	0xbc6f73f8	-0.014615051
244	0xbe238163	-0.15967326
245	0xbd4cb2c1	-0.04997516
246	0x3de15f37	0.11004489
247	0xbd4bdbc3	-0.049770128
248	0x3cd73a8e	0.026273038
249	0x3e3b4d50	0.18291211
250	0x3e1ecc7c	0.15507692
251	0x3c8d0cdb	0.017218044
252	0x3d9d0d51	0.076685555
253	0xbd77c7b8	-0.0604932
254	0xbe5bc214	-0.21460754
255	0x3d043c16	0.032283865

network_body._body_endoder.seq_layers.2.bias f4 [128]
0	0x00000000	0.0
1	0x00000000	0.0
2	0x00000000	0.0
3	0x00000000	0.0
4	0x00000000	0.0
5	0x00000000	0.0
6	0x00000000	0.0
7	0x00000000	0.0
8	0x00000000	0.0
9	0x00000000	0.0
10	0x00000000	0.0
11	0x00000000	0.0
12	0x00000000	0.0
13	0x00000000	0.0
14	0x00000000	0.0
15	0x00000000	0.0
16	0x00000000	0.0
17	0x00000000	0.0
18	0x00000000	0.0
19	0x00000000	0.0
20	0x00000000	0.0
21	0x00000000	0.0
22	0x00000000	0.0
23	0x00000000	0.0
24	0x00000000	0.0
25	0x00000000	0.0
26	0x00000000	0.0
27	0x00000000	0.0
28	0x00000000	0.0
29	0x00000000	0.0
30	0x00000000	0.0
31	0x00000000	0.0
32	0x00000000	0.0
33	0x00000000	0.0
34	0x00000000	0.0
35	0x00000000	0.0
36	0x00000000	0.0
37	0x00000000	0.0
38	0x00000000	0.0
39	0x00000000	0.0
40	0x00000000	0.0
41	0x00000000	0.0
42	0x00000000	0.0
43	0x00000000	0.0
44	0x00000000	0.0
45	0x00000000	0.0
46	0x00000000	0.0
47	0x00000000	0.0
48	0x00000000	0.0
49	0x00000000	0.0
50	0x00000000	0.0
51	0x00000000	0.0
52	0x00000000	0.0
53	0x00000000	0.0
54	0x00000000	0.0
55	0x00000000	0.0
56	0x00000000	0.0
57	0x00000000	0.0
58	0x00000000	0.0
59	0x00000000	0.0
60	0x00000000	0.0
61	0x00000000	0.0
62	0x00000000	0.0
63	0x00000000	0.0
64	0x00000000	0.0
65	0x00000000	0.0
66	0x00000000	0.0
67	0x00000000	0.0
68	0x00000000	0.0
69	0x00000000	0.0
70	0x00000000	0.0
71	0x00000000	0.0
72	0x00000000	0.0
73	0x00000000	0.0
74	0x00000000	0.0
75	0x00000000	0.0
76	0x00000000	0.0
77	0x00000000	0.0
78	0x00000000	0.0
79	0x00000000	0.0
80	0x00000000	0.0
81	0x00000000	0.0
82	0x00000000	0.0
83	0x00000000	0.0
84	0x00000000	0.0
85	0x00000000	0.0
86	0x00000000	0.0
87	0x00000000	0.0
88	0x00000000	0.0
89	0x00000000	0.0
90	0x00000000	0.0
91	0x00000000	0.0
92	0x00000000	0.0
93	0x00000000	0.0
94	0x00000000	0.0
95	0x00000000	0.0
96	0x00000000	0.0
97	0x00000000	0.0
98	0x00000000	0.0
99	0x00000000	0.0
100	0x00000000	0.0
101	0x00000000	0.0
102	0x00000000	0.0
103	0x00000000	0.0
104	0x00000000	0.0
105	0x00000000	0.0
106	0x00000000	0.0
107	0x00000000	0.0
108	0x00000000	0.0
109	0x00000000	0.0
110	0x00000000	0.0
111	0x00000000	0.0
112	0x00000000	0.0
113	0x00000000	0.0
114	0x00000000	0.0
115	0x00000000	0.0
116	0x00000000	0.0
117	0x00000000	0.0
118	0x00000000	0.0
119	0x00000000	0.0
120	0x00000000	0.0
121	0x00000000	0.0
122	0x00000000	0.0
123	0x00000000	0.0
124	0x00000000	0.0
125	0x00000000	0.0
126	0x00000000	0.0
127	0x00000000	0.0

value_heads.value_heads.extrinsic.weight f4 [1, 128]
0	0x3da0547c	0.07828614
1	0x3e0a98aa	0.13534799
2	0xbc2135a0	-0.009839445
3	0xbdc9e9f0	-0.09859073
4	0x3d6fdeb8	0.05856201
5	0x3d4e37e8	0.050346285
6	0xbd8f51c0	-0.069980145
7	0xbca1f7d8	-0.019771501
8	0x3c2d90b0	0.010593578
9	0xbe5ac1aa	-0.2136294
10	0x3d246210	0.040132582
11	0x3c3c94d0	0.011510089
12	0x3c0dec70	0.008662328
13	0xbd7e8f6c	-0.062148497
14	0xbe335ad6	-0.1751512
15	0x3dce86f8	0.10084337
16	0x3d7241d8	0.059144825
17	0xb8b04000	-8.404255e-05
18	0x3e3b58de	0.18295619
19	0xbe18b9bd	-0.14914604
20	0xbe1b42b6	-0.15162167
21	0xbe1b7c96	-0.15184245
22	0x3d3e8768	0.046515852
23	0xbdd6485e	-0.10463022
24	0x3e45967a	0.19295684
25	0xbe21812e	-0.15771934
26	0xbdcc4ecb	-0.09975966
27	0xbc92da58	-0.01792638
28	0xbdbca6dd	-0.09211514
29	0x3d677130	0.05650443
30	0x3e1e7652	0.15474823
31	0xbd35b0d4	-0.04435809
32	0xbe2ede80	-0.17077065
33	0x3ddf4b3c	0.10903022
34	0x3de012a0	0.109410524
35	0x3dc348c0	0.0953536
36	0xbcbd6488	-0.023119226
37	0xbd29a8dc	-0.041420802
38	0x3e0ee5dc	0.13954872
39	0xbe57a475	-0.21058829
40	0xbe385162	-0.17999795
41	0x3dadaf68	0.08480722
42	0x3e21b54c	0.15791816
43	0x3dcc6f94	0.09982219
44	0xbe599428	-0.21247923
45	0x3de048a4	0.10951355
46	0xbde833bf	-0.11337995
47	0x3dcb83b8	0.09937233
48	0xbd4be774	-0.049781278
49	0x3e512510	0.20424294
50	0xbd274954	-0.040841416
51	0x3c3de8c0	0.011591136
52	0xbdc3346e	-0.095314845
53	0xbd381a70	-0.044947088
54	0xbe081a7d	-0.13291354
55	0x3d81e944	0.0634332
56	0xbe0d3913	-0.13791303
57	0xbd388d5c	-0.045056686
58	0xbd5ab0a4	-0.053391114
59	0x3e1e4dd2	0.15459374
60	0x3d4496e0	0.047995448
61	0xbe29324c	-0.16523093
62	0xbd168560	-0.03674829
63	0x3e3f4514	0.18678695
64	0xbde4be4b	-0.11169108
65	0xbdc8b65c	-0.09800407
66	0xbc2e9c70	-0.010657415
67	0xbd879d02	-0.06621744
68	0xbde11196	-0.109896824
69	0xbe38383f	-0.17990206
70	0x3dd60620	0.10450387
71	0x3de52164	0.111880094
72	0xbda3415a	-0.07971449
73	0xbd89cfb4	-0.06729069
74	0x3dbf1a64	0.093312055
75	0x3dc62ae0	0.096761465
76	0x3e3046ea	0.17214552
77	0x3db96e60	0.090542555
78	0xbe1a6dd4	-0.15080959
79	0x3e0f0de6	0.13970146
80	0x3baf1e20	0.0053441674
81	0xbd106068	-0.03524819
82	0x3dea7b68	0.11449319
83	0x3dfea5f0	0.12433994
84	0x3ce39238	0.027779683
85	0x3e0b53aa	0.13606134
86	0xbd96d8ec	-0.07365593
87	0xbc1ee040	-0.00969702
88	0x3dbe815c	0.09302017
89	0xbdc6db49	-0.09709794
90	0xbbab01c0	-0.0052187145
91	0xbc12f950	-0.008970574
92	0xbd3f3ca4	-0.04668869
93	0x3e0c7dda	0.13719884
94	0xbc4524c0	-0.012032688
95	0x3d4cf708	0.050040275
96	0x3de6beb0	0.112668395
97	0xbc1eb7a0	-0.009687334
98	0x3d50a218	0.050935835
99	0xbb949fe0	-0.00453566
100	0xbe5098d2	-0.20370796
101	0x3d2bd018	0.0419465
102	0xbe542d4e	-0.20720407
103	0x3a91c600	0.0011121631
104	0xbda17abe	-0.07884739
105	0x3e0edde0	0.13951826
106	0x3e147d32	0.14500883
107	0x39e45a00	0.00043554604
108	0x3dc9a230	0.09845388
109	0xbe1f3433	-0.15547256
110	0x3e2db504	0.16963583
111	0xbc0a7070	-0.008449659
112	0xbdb73b0a	-0.08946808
113	0xbcecda60	-0.028912723
114	0xbe086f4c	-0.13323706
115	0xbdab4d42	-0.08364345
116	0xbe58be9f	-0.21166466
117	0x3cbcefb0	0.02306351
118	0x3e32a498	0.174456
119	0x3db4b0e4	0.08822802
120	0xbe55dcbc	-0.20884985
121	0xbe19474a	-0.14968601
122	0x3e03b412	0.1286166
123	0xbe0f4c48	-0.13993943
124	0x3e31e886	0.17373857
125	0xbdcf0825	-0.10108975
126	0xbcaaef18	-0.020865962
127	0x3e3ac048	0.18237412
